data/etc/pretrained_model/boxing/imitation/exp29/4500/task_agnostic_policy_motor_decoder.pt (torch, 624455 bytes, 6 tensors)

_model.0._model.0.weight f4 [256, 298]
0	0xbd800269	-0.0625046
1	0xbdb2885a	-0.08717413
2	0xbcf8ac9a	-0.03035574
3	0x3e6f381c	0.23361248
4	0xbbf71ca0	-0.007541254
5	0xbe270ed7	-0.16314255
6	0xbcfc6978	-0.03081201
7	0xbd5c386d	-0.05376475
8	0xbb8e8519	-0.0043493626
9	0x3c910bea	0.017705876
10	0x3d7aa93b	0.061196547
11	0x3da2d441	0.079506405
12	0x3bece1e8	0.0072290786
13	0xbd1b76f7	-0.03795525
14	0xbbf6ea58	-0.00753526
15	0xbdc92a29	-0.098224945
16	0x3d822126	0.06353979
17	0xbc460631	-0.012086437
18	0x3c7fb245	0.015606468
19	0x3daa9409	0.08329017
20	0xbdb863af	-0.09003388
21	0xbdb4da29	-0.08830673
22	0x3cbe5592	0.023234162
23	0x3d055bb8	0.032558173
24	0x3d026d9c	0.031842813
25	0xbdc6863d	-0.09693573
26	0x3b4c1e5a	0.003114602
27	0xbc3b5f01	-0.011436225
28	0xbe0d3dec	-0.13793153
29	0x3dba274e	0.09089528
30	0x3d2e45e3	0.042547118
31	0xbe10de1e	-0.14147231
32	0x3d4337b9	0.047660563
33	0xbe28fbfd	-0.16502376
34	0x3c1b66e7	0.009484983
35	0x3e59c426	0.21266231
36	0x3d98bc0f	0.07457744
37	0x3c5c30f6	0.013439408
38	0x3c8613e8	0.016366914
39	0xbda19866	-0.07890396
40	0xbe920718	-0.28521037
41	0xbe26465d	-0.16237779
42	0xbc31e1ba	-0.01085704
43	0x3d98d1f6	0.07461922
44	0xbe84fca9	-0.25974014
45	0xbd6d7826	-0.05797591
46	0x3d5dffd4	0.054199055
47	0xbdf4820e	-0.119388685
48	0xbd9abec0	-0.07555914
49	0xbd269a60	-0.040674567
50	0x3d0867c3	0.03330208
51	0xbd17f400	-0.03709793
52	0xbe315bd5	-0.17320187
53	0xbd7a82b2	-0.061159797
54	0xbbe4e3b9	-0.0069851545
55	0xbdc99b8a	-0.0984412
56	0xbcb60c1f	-0.022222577
57	0xbe97abaa	-0.29623157
58	0xbd47cec3	-0.048781168
59	0xbd00b195	-0.031419355
60	0x3d8a1d70	0.06743896
61	0xbb07e5a9	-0.0020736253
62	0x3dbb2f35	0.091398634
63	0x3b8ab43d	0.004232912
64	0x3d9be1cc	0.07611427
65	0xbe352413	-0.17689542
66	0xbd88e883	-0.06684973
67	0x3cd5f20e	0.026116397
68	0x3d0fa5d8	0.03507027
69	0x3e33ce21	0.175591
70	0xbec005a6	-0.3750431
71	0x3d191bcc	0.037380025
72	0xbd3f4fec	-0.04670708
73	0x3d5d9cb2	0.054104514
74	0x3ccf622f	0.025315372
75	0xbb03a01d	-0.0020084449
76	0x3d09936c	0.033587858
77	0x3d0a588d	0.033775855
78	0xbe8fe57e	-0.28104776
79	0xbe99c5b6	-0.30033654
80	0x3e34df71	0.17663361
81	0xbe457310	-0.19282174
82	0x3bd7bd7e	0.0065838685
83	0x3d87dcd0	0.066339135
84	0x3b138ea3	0.0022515438
85	0xbdc8019b	-0.09765931
86	0xbdb49d31	-0.088190444
87	0xbcaa9ab4	-0.020825721
88	0x3bbd39b3	0.0057747005
89	0xbac52633	-0.0015041291
90	0x3c27360a	0.010205755
91	0x3e20a5a1	0.15688182
92	0xbdd87bfc	-0.10570523
93	0x3e731a11	0.23740412
94	0x3e188340	0.14893818
95	0xbdb17472	-0.08664788
96	0xbdc081c1	-0.093997486
97	0x3b8e15cf	0.004336096
98	0xbb553e25	-0.0032538262
99	0x3d20d287	0.039263275
100	0x3d83f3f3	0.06443014
101	0x3d981108	0.074251235
102	0xbcfb6155	-0.03068606
103	0xbceacb5d	-0.028661424
104	0xbc7a99bc	-0.015295442
105	0x3daaea56	0.08345477
106	0x3df04590	0.11732018
107	0x3da3d61f	0.07999825
108	0xbd42b806	-0.04753878
109	0xbce0d659	-0.027445959
110	0x3dcf3c53	0.10118928
111	0x3dcaef39	0.09908909
112	0xbcd7ed8b	-0.026358387
113	0x3ddc9134	0.10769883
114	0x3d24f996	0.040277086
115	0x3bacadb2	0.0052697295
116	0xbd86e123	-0.0658591
117	0x3ca30db1	0.01990399
118	0xbd904b35	-0.070455946
119	0x3e195a18	0.14975774
120	0x3dc2546d	0.09488759
121	0x3d879c0b	0.0662156
122	0x3dece8e4	0.11567858
123	0x3c4dd035	0.012561847
124	0x3c58446d	0.013199908
125	0x3d90d695	0.07072178
126	0x3d8f0a6a	0.06984408
127	0x3caa3a7d	0.020779843
128	0xbb5d8ac4	-0.0033804635
129	0x3d35dbf3	0.044399213
130	0xbc80b527	-0.01571138
131	0x3d1deae2	0.03855408
132	0x3d160a77	0.036631074
133	0x3e60f771	0.21969391
134	0xbd7ed7e0	-0.062217593
135	0x3e0d8d6f	0.13823484
136	0x3dc4cf3c	0.09609839
137	0x3d4065fa	0.046972252
138	0xbe0aeb7b	-0.13566391
139	0xbcb9be0f	-0.022673635
140	0x3d3ddeef	0.046355184
141	0x3d80663f	0.06269502
142	0x3d265352	0.040606804
143	0x3c570753	0.013124305
144	0xbd08fe86	-0.033445857
145	0x3d8a053c	0.0673928
146	0x3e88a22a	0.2668622
147	0xbdcf6370	-0.10126388
148	0x3e219c29	0.15782227
149	0xbc556f13	-0.01302697
150	0xbcb2f3db	-0.021844795
151	0xbd22ece5	-0.0397767
152	0xbc18cb20	-0.0093257725
153	0x3cf8a1a5	0.030350516
154	0x3d8adf76	0.06780903
155	0x3bc4569d	0.0059917704
156	0x3e225248	0.158517
157	0x3d2ef885	0.042717475
158	0x3df2a02d	0.11846957
159	0x3d127b03	0.035761844
160	0x3ca0ad12	0.019613776
161	0x3d7a851d	0.061162103
162	0xbd7eeaa2	-0.062235482
163	0x3d1a145e	0.03761708
164	0x3dd6aef5	0.10482589
165	0x3dd1a7c7	0.10237079
166	0x3d36ab21	0.044596795
167	0x3d96e2d6	0.07367484
168	0x3c9e30fc	0.019310467
169	0xbd650b24	-0.055918828
170	0xbd05edde	-0.03269755
171	0x3e08b525	0.13350351
172	0x3cf9e049	0.030502455
173	0xbd369342	-0.04457403
174	0x3d4fe379	0.050754044
175	0xbd0557b3	-0.03255434
176	0x3c4f3155	0.012646039
177	0xbcd10de2	-0.025519315
178	0x3dac826e	0.08423315
179	0xbba51c78	-0.005038794
180	0xbd42d761	-0.047568683
181	0xbd8cec84	-0.06881049
182	0x3ca00860	0.019535244
183	0x3c29252d	0.010323805
184	0x3d1d2f82	0.038375385
185	0x3dd00c30	0.101585746
186	0xbd3bc27e	-0.04583978
187	0xbd1025da	-0.035192348
188	0xbd135ce1	-0.035977248
189	0xbd1039bc	-0.03521131
190	0x3db56811	0.0885774
191	0x3d9eef4f	0.07760488
192	0x3b2b550b	0.002614322
193	0x3d51a354	0.051181152
194	0x3db93b3b	0.090445004
195	0xbc4600df	-0.012085169
196	0xbd11e389	-0.035617385
197	0x3decd35b	0.1156375
198	0x3cddab12	0.027059112
199	0xbbc29cf7	-0.005939122
200	0xbd14e0d8	-0.03634724
201	0x3d00c9b6	0.031442367
202	0xbd7111cc	-0.058854863
203	0x3d85b2f1	0.06528271
204	0x3d113843	0.035454046
205	0x3b8113c0	0.003939122
206	0xbbd1a714	-0.006398091
207	0xbbb06978	-0.0053836666
208	0x3d81bf0d	0.06335268
209	0xbc0f6937	-0.0087531125
210	0x3da0b4b3	0.07846966
211	0x3cf2f140	0.029656053
212	0x3d3f3a73	0.0466866
213	0x3d09120e	0.033464484
214	0xbdeb9b55	-0.115042366
215	0x3d991487	0.074746184
216	0xbd524bf3	-0.051341962
217	0x3cadf2d9	0.021233963
218	0x3c06bf10	0.008224264
219	0x3cec1c29	0.028822022
220	0x3dcbfc4d	0.09960232
221	0xbb1ac783	-0.0023617453
222	0x3d4e327c	0.050341114
223	0x3e1f0da5	0.15532549
224	0xbcd3fe8f	-0.025878219
225	0x3bd7e03f	0.0065880115
226	0xbccf30b3	-0.025291776
227	0xbd057637	-0.03258344
228	0x3d5cae80	0.053877354
229	0xbd572817	-0.052528467
230	0x3d6cbfdb	0.057800155
231	0xbb8b7aab	-0.0042565665
232	0xbd5700a5	-0.05249085
233	0x3c3b95f6	0.011449328
234	0xbcac6fcc	-0.021049403
235	0xbc3771f6	-0.011196604
236	0x3d675063	0.056473147
237	0xbd10ea1c	-0.035379514
238	0x3c975dff	0.018477438
239	0xbd8fc974	-0.07020846
240	0x377859ca	1.4802858e-05
241	0xbd01638c	-0.031589076
242	0xbcf73125	-0.030174801
243	0x3e0004f3	0.12501888
244	0x3bc7d07f	0.0060978527
245	0xbd92696d	-0.071490146
246	0xbc88fb54	-0.016721405
247	0xbd361749	-0.0444558
248	0xbd1ef5ac	-0.03880851
249	0x3debce33	0.11513939
250	0x3c832903	0.016010767
251	0x3c45aff2	0.012065874
252	0x3cbda0fe	0.023148056
253	0x3d93dd5b	0.072199546
254	0xbdd9a142	-0.106264606
255	0x3c96e007	0.018417371

_model.0._model.0.bias f4 [256]
0	0x3bbca68d	0.005757159
1	0xbc5f0a21	-0.013613255
2	0xbc17323a	-0.009228284
3	0x3c5e680d	0.013574612
4	0x3a0e28a9	0.0005422929
5	0x3ca9b87b	0.02071785
6	0x3c594988	0.01326216
7	0x3bb17581	0.005415619
8	0x3b30e7cf	0.0026993637
9	0x39a7e47f	0.00032022965
10	0xbbee7eda	-0.0072783055
11	0x3b474911	0.0030408541
12	0x3bb1a550	0.005421318
13	0xb9565c84	-0.00020443095
14	0xbc0c9201	-0.008579732
15	0xbc768a09	-0.015047559
16	0x3bdbe753	0.0067109256
17	0xbc438b6b	-0.011935095
18	0xbc22578b	-0.009908567
19	0x3c568083	0.013092163
20	0xbab19416	-0.0013548161
21	0xbb879e0b	-0.0041387132
22	0xbab9bcc0	-0.0014170632
23	0x3c31e60e	0.010858072
24	0x3b485303	0.0030567057
25	0xbbcc7d4e	-0.0062405234
26	0xbbdd5c9c	-0.0067554247
27	0x3d14bcd6	0.0363129
28	0x3c21f7bb	0.009885724
29	0x3b107da0	0.0022047535
30	0xbc603b45	-0.013686006
31	0xbcd77031	-0.026298614
32	0xbbba0fde	-0.005678161
33	0x3c0db8e2	0.0086500365
34	0x3b5e986f	0.003396537
35	0x3c0b2785	0.008493309
36	0xbc1fa1df	-0.009743183
37	0x3c17f57f	0.009274839
38	0x3bd19d21	0.006396905
39	0xbc0d43c5	-0.008622115
40	0x3caf1d96	0.021376412
41	0x3bc89a85	0.006121936
42	0xbb2e8f0e	-0.002663556
43	0xbc1d61d5	-0.0096058445
44	0xbbd548dd	-0.00650893
45	0xbc8a1ee9	-0.016860442
46	0xbb81120d	-0.0039389194
47	0x3c1ac92a	0.009447375
48	0xbc887102	-0.016655449
49	0xbc94f885	-0.01818491
50	0x3c1d0adc	0.009585109
51	0x3ce253fe	0.027627941
52	0x3b932a88	0.004491154
53	0xbb3729ce	-0.0027948502
54	0xbc264b67	-0.010149813
55	0xbbd7a67c	-0.006581126
56	0xbc2c153b	-0.010503109
57	0xbc5e14d0	-0.013554767
58	0x3a0d9760	0.000540128
59	0xbb9a4744	-0.0047082026
60	0x3b274f28	0.0025529359
61	0x3c3f95b8	0.011693411
62	0x3ca29186	0.019844782
63	0xbc0f3254	-0.0087400265
64	0x3c74d35e	0.014942972
65	0x3ad611b5	0.0016332181
66	0xbb962881	-0.004582465
67	0x39e9744b	0.00044527868
68	0x3c3d8770	0.011567935
69	0xbc238feb	-0.009983043
70	0xbb7514e2	-0.003739648
71	0xbb187786	-0.00232646
72	0xba9a295a	-0.0011761591
73	0x3c3ca077	0.011512867
74	0x3b0c68d6	0.0021424792
75	0xbc233392	-0.009961026
76	0xbc0a9281	-0.008457781
77	0xba24a437	-0.00062805734
78	0x3be1f49f	0.006895616
79	0xbc4efdc5	-0.012633746
80	0x3b1a496d	0.00235423
81	0xbae94835	-0.0017798009
82	0x3cb3c952	0.021946583
83	0x3beb56ea	0.007181992
84	0x3c6d5a2e	0.014486833
85	0xbc8ac210	-0.01693824
86	0x3b67ae10	0.0035351552
87	0x3c1c02ce	0.009522153
88	0x3c5fd4e8	0.013661601
89	0x3cb85898	0.022503182
90	0x3bae906d	0.0053272755
91	0x3c5b5bed	0.013388616
92	0xbc9122f6	-0.017716866
93	0x3c059782	0.008153798
94	0xbb532df9	-0.0032223447
95	0xbca52cf9	-0.020163046
96	0x3c8ab612	0.016932521
97	0xbbfbca5a	-0.0076840343
98	0x3bf90fed	0.0076007755
99	0x3c75c27a	0.01499998
100	0x3b356753	0.0027679994
101	0xbae50c12	-0.0017474911
102	0x3c2cac7a	0.0105391685
103	0xbab0e816	-0.0013496901
104	0x3c090d13	0.008364934
105	0x3cb177a4	0.021663494
106	0x3c1c8e1d	0.009555367
107	0x3c9305a9	0.017947035
108	0x3c96b740	0.018397927
109	0x3c341d69	0.01099334
110	0x3c093ab6	0.008375814
111	0x3c49d3f1	0.012318597
112	0x3bd5da0d	0.006526238
113	0xbb833a63	-0.004004763
114	0x3bf2f110	0.007413991
115	0xbbfff1d5	-0.007810811
116	0x3a144a36	0.000565681
117	0xbb5b84b3	-0.0033495843
118	0xbc296268	-0.010338403
119	0x3b8ce828	0.004300136
120	0xbc336a96	-0.010950705
121	0xbc16133a	-0.009159857
122	0xbbf717ea	-0.0075406926
123	0x3aa03b4b	0.0012224702
124	0xbc0dc917	-0.008653901
125	0x3b99fda3	0.0046994253
126	0xbc146a04	-0.009058479
127	0x3c0b4f4b	0.008502792
128	0xbbe7f0b6	-0.0070782555
129	0xbbcfb8eb	-0.0063391826
130	0x3aa2c52c	0.0012418381
131	0x3cb8450f	0.022493867
132	0xbc23d8e5	-0.010000442
133	0xbbdc9b31	-0.0067323674
134	0xbc2763f1	-0.010216699
135	0x3b98a3bc	0.0046581905
136	0x3ca995c0	0.02070129
137	0x3c77d70b	0.015126954
138	0xbbc4a934	-0.006001616
139	0xba799969	-0.0009521456
140	0xbba3d322	-0.004999534
141	0xbc5a5c59	-0.013327681
142	0x3bfc733c	0.0077041667
143	0xbc8d216c	-0.01722785
144	0x3c4c5fe0	0.01247403
145	0xbb73093e	-0.0037084366
146	0x3d34ecee	0.044171266
147	0x3aa8adab	0.001286914
148	0x3c151699	0.009099626
149	0xbc092162	-0.0083697755
150	0xbbd57553	-0.0065142303
151	0xbb1e5b6e	-0.0024163383
152	0xbbe682b5	-0.0070346245
153	0xbc2da7f6	-0.010599127
154	0x3c1ede85	0.0096966075
155	0xbbff7d05	-0.007796886
156	0xbc43f7b1	-0.01196091
157	0xbb4ccf60	-0.0031251535
158	0xbc018649	-0.007905551
159	0x3c92838d	0.017884994
160	0xbbb33294	-0.005468676
161	0xbc09be37	-0.008407167
162	0x3c49ee2d	0.012324852
163	0xbb6a37ae	-0.0035738754
164	0x3ba59cb0	0.005054079
165	0x3b7c76a4	0.0038522864
166	0xbc808bf6	-0.015691739
167	0xbc8b1bdb	-0.016981056
168	0xbc780e4f	-0.01514013
169	0x3c939701	0.01801634
170	0x3b3d33d8	0.0028870013
171	0xbc439515	-0.011937399
172	0xbb92ca53	-0.0044796853
173	0xbc3761f0	-0.011192784
174	0xbba58fca	-0.0050525414
175	0x3bb04894	0.0053797457
176	0x3cb3bdc8	0.02194108
177	0x3bbddeb5	0.005794371
178	0xbc99cb06	-0.018773567
179	0xbc5e8b18	-0.013582967
180	0x3ae1a0a6	0.0017214015
181	0x3b67834d	0.0035326064
182	0x3cc575ee	0.024104085
183	0xbba4035b	-0.005005283
184	0xbc81de08	-0.015852943
185	0x3b223be6	0.002475494
186	0x3b8c0132	0.0042726034
187	0xbc8da0a1	-0.017288508
188	0x3ad755dc	0.0016428786
189	0x3cec9dfd	0.028883928
190	0x3c997a75	0.01873515
191	0xbcac3c0a	-0.021024723
192	0x3ac26fd4	0.0014834353
193	0xbb99da9c	-0.0046952497
194	0xb989403c	-0.00026178535
195	0x3cb3ba13	0.021939313
196	0xbbfda8af	-0.007741056
197	0xbcd1ea7a	-0.025624502
198	0x3b1a5eef	0.002355512
199	0x3b12134d	0.0022289336
200	0xbb97de1c	-0.004634632
201	0xbc991904	-0.018688686
202	0xbc185336	-0.009297183
203	0x3d00f2be	0.031481497
204	0xbbb2cbc0	-0.005456418
205	0xb9b3e674	-0.00034313241
206	0xbb6ec922	-0.0036435802
207	0xba8b0702	-0.0010606947
208	0x3c91350c	0.01772549
209	0xbb24cc57	-0.002514621
210	0xbc04afca	-0.008098552
211	0xba7dffac	-0.0009689282
212	0x3cba9c02	0.022779468
213	0x3c5f835f	0.013642161
214	0x3c650bf5	0.013979902
215	0xbc0293af	-0.007969781
216	0xbc2f3c6a	-0.010695556
217	0x3c9ada96	0.018903058
218	0xbc2645c2	-0.0101484675
219	0x3b4cb33f	0.0031234769
220	0x3cdba007	0.026809705
221	0x3afbbdc3	0.0019206334
222	0xba2044e2	-0.000611378
223	0xbc2aee40	-0.01043278
224	0x3aec8c07	0.0018047102
225	0x3c00b2d9	0.007855141
226	0x3b4a09d2	0.0030828607
227	0x3bedda33	0.0072586774
228	0x3b25a3af	0.0025274565
229	0x3c0f2e5c	0.00873908
230	0xbc4c0074	-0.01245128
231	0xbc2f633c	-0.010704812
232	0x3b9908e6	0.00467025
233	0xbc6043a0	-0.013687998
234	0x3c43934b	0.011936973
235	0xbb74ee13	-0.0037373349
236	0xbbd4d34f	-0.0064949165
237	0x3b1cb822	0.0023913463
238	0x3bdca25d	0.0067332224
239	0x3bef64e4	0.0073057283
240	0xbc18a3d4	-0.009316403
241	0x3c73b743	0.014875236
242	0x3c009152	0.007847147
243	0x3b2c9191	0.0026331882
244	0xbc6cd159	-0.014454209
245	0xbca36b20	-0.019948542
246	0x3b87241c	0.0041241776
247	0x3b420f5d	0.0029611208
248	0x3c1f1293	0.009709018
249	0x3cb40cb7	0.02197872
250	0xba7bf738	-0.00096117286
251	0xbbf07d73	-0.0073391735
252	0xbadcec0b	-0.0016855014
253	0xbce691c0	-0.02814567
254	0x3c7e7ac6	0.015532201
255	0x3b244daf	0.0025070717

_model.1._model.0.weight f4 [256, 256]
0	0xbd6fc7df	-0.05854022
1	0xbdf3cd32	-0.11904372
2	0xbdb05604	-0.08610156
3	0xbd8fc4b2	-0.070199385
4	0xbda33d8e	-0.07970725
5	0x3d468900	0.048470497
6	0xbb3da6cb	-0.0028938528
7	0xbbc5d20c	-0.0060370024
8	0x3c6d583e	0.014486371
9	0xbd2fadad	-0.04289024
10	0xbb238933	-0.0024953603
11	0xbdaaa702	-0.083326355
12	0x3ccacf8a	0.024757165
13	0x3e069c18	0.13145483
14	0x3c6b9d99	0.014380836
15	0xbcde6783	-0.027148968
16	0x3d3b67a2	0.04575313
17	0xbda37243	-0.07980778
18	0xbdcbfc69	-0.09960253
19	0x3de2f6e4	0.11082247
20	0x3d120988	0.03565362
21	0xbdc68f2b	-0.09695276
22	0x3c21df9f	0.009879976
23	0x3da2fca6	0.07958345
24	0xbcdd0cd0	-0.026983649
25	0x3e13ba43	0.14426522
26	0xbcaf9dca	-0.021437544
27	0x3d75b740	0.059989214
28	0xbe0f56ba	-0.13997927
29	0x3c2c611c	0.0105212
30	0x3ce1cbb2	0.02756295
31	0xbddcfa80	-0.107899666
32	0x3e16b91e	0.14719054
33	0x3d7dd69d	0.06197225
34	0x3c96912f	0.018379776
35	0xbd8b81ec	-0.0681189
36	0x3d8b941e	0.068153605
37	0x3c1028ea	0.008798817
38	0xbcc63154	-0.024193443
39	0xbc0af89c	-0.008482125
40	0x3e387452	0.18013123
41	0x3d539504	0.051655784
42	0x3d44605d	0.04794346
43	0x3d50dc13	0.05099113
44	0xbd4c0d7c	-0.049817547
45	0xbdc92ecb	-0.09823378
46	0x3d9e290f	0.07722675
47	0x3d096c89	0.033550773
48	0xbd2cefca	-0.04222087
49	0x3ced8a21	0.028996529
50	0x3d80f5b7	0.062968664
51	0x3d8dc95d	0.069231726
52	0x3ce27380	0.027642965
53	0xbdf30ec8	-0.11868054
54	0xbd670759	-0.05640349
55	0x3d95b51b	0.07309934
56	0xbdc523af	-0.09625947
57	0xbd068e05	-0.032850284
58	0x3ba69f15	0.005084882
59	0x3bf6cf2f	0.0075320224
60	0x3d8c5a29	0.06853134
61	0x3c05fb11	0.008177535
62	0xbd929240	-0.07156801
63	0xbd2ffbb5	-0.042964656
64	0xbcf09492	-0.029367719
65	0xbcf6d326	-0.03012998
66	0x3d1b6f6e	0.037948065
67	0x3e218ecb	0.15777127
68	0xbde9811c	-0.11401579
69	0xbe3dfa0b	-0.18552415
70	0x3d9af5fb	0.07566448
71	0xbc38956f	-0.0112660965
72	0xbb3f085f	-0.0029149277
73	0x3cbb4b9e	0.022863206
74	0x3d541ea6	0.05178704
75	0x3d849ca8	0.06475192
76	0xbd7735ad	-0.060353924
77	0xbc4be8b5	-0.012445618
78	0xbc8ce7d2	-0.017200384
79	0xbd9cb06e	-0.07650839
80	0x3ccc02b4	0.024903633
81	0x3c9bb101	0.0190053
82	0x3d96d933	0.07365646
83	0xbd25a44e	-0.040439896
84	0x3e00b4b5	0.12568934
85	0xbdad1f98	-0.08453292
86	0x3daa3fa1	0.083129175
87	0x3d674f55	0.05647214
88	0x3d34b96c	0.044122145
89	0xbd1c8ba0	-0.038219094
90	0xbde673d7	-0.112525634
91	0x3d35d072	0.044388242
92	0xbd3105c3	-0.043218385
93	0xbd0a2aaa	-0.033732094
94	0xbe43f591	-0.19136645
95	0xbd2ac7c3	-0.041694414
96	0xbdd0a2cd	-0.10187302
97	0xbd50ba1a	-0.05095873
98	0x3cb83a35	0.022488693
99	0x3c2583b4	0.010102201
100	0xbcfe32cf	-0.031030087
101	0xbd081918	-0.033227056
102	0x3d0b4694	0.034002855
103	0x3afcf4e4	0.0019299057
104	0xbcac8063	-0.021057313
105	0x3d1a2d08	0.0376406
106	0x3d425180	0.047441006
107	0xbd4f1a38	-0.050562114
108	0x3dd1b11d	0.1023886
109	0x3d9d80e7	0.07690602
110	0xbd45f1ee	-0.048326425
111	0x3c91be10	0.017790824
112	0x3d8a0444	0.06739095
113	0x3c0c6721	0.00856951
114	0xbd0cfdd4	-0.034421757
115	0x3dfbcb9c	0.12294695
116	0xbd81f4ca	-0.06345518
117	0xbd989768	-0.074507535
118	0xbd4494d2	-0.04799349
119	0xbcbd5291	-0.02311066
120	0xbdc8c1f5	-0.09802619
121	0x3afda283	0.00193508
122	0xbd1c5b43	-0.03817297
123	0xbe327625	-0.17427881
124	0x3c9b0551	0.018923433
125	0xbd4a57c3	-0.049400102
126	0xbd8580c5	-0.065187015
127	0x3d7986d2	0.06091959
128	0xbd2ec04d	-0.04266386
129	0xbe43ed29	-0.19133438
130	0xbd9f2e76	-0.077725336
131	0x3d804e77	0.06264966
132	0xbcac64a2	-0.02104408
133	0xbcecefa9	-0.028922873
134	0x3c010e1b	0.007876898
135	0x3dd49352	0.103796616
136	0x3dae6bd6	0.08516662
137	0x3d5e7d4f	0.054318722
138	0xbd457398	-0.048205942
139	0x3daba303	0.083807014
140	0x3d581c27	0.052761223
141	0x3d60902a	0.054824986
142	0xbda3f524	-0.08005741
143	0xbce301e8	-0.02771087
144	0xbd424a22	-0.04743398
145	0x3ca96eb7	0.020682676
146	0x3ca5853b	0.02020513
147	0xbd278639	-0.04089949
148	0xbdb7e34c	-0.089789
149	0xbdfabfb7	-0.12243598
150	0xbd63af39	-0.055587027
151	0x3da2ee60	0.07955623
152	0x3d5ca217	0.05386552
153	0xbe52d112	-0.20587566
154	0x3d343962	0.044000037
155	0xbdbc5410	-0.09195721
156	0x3d6c1ce1	0.05764473
157	0xbdc44f47	-0.095854335
158	0xbd430f59	-0.04762206
159	0x3d83481b	0.064102374
160	0x3cac1d22	0.021009985
161	0x3d4de0d4	0.05026324
162	0x3cad2c2d	0.021139229
163	0xbcdcc472	-0.026949141
164	0x3d8ad658	0.06779164
165	0x3dad090b	0.084489904
166	0xbc2a5475	-0.010396113
167	0xbdb8e3a0	-0.09027791
168	0x3d79caa2	0.06098426
169	0x3c8716e8	0.016490415
170	0x3c098efe	0.008395908
171	0xbdb3b2f7	-0.08774369
172	0x3da15434	0.078773886
173	0xbe09a43d	-0.13441558
174	0xbe1c7b15	-0.15281327
175	0x3c9e04cd	0.019289399
176	0x3d9a9ea8	0.075497925
177	0x3dc0ea76	0.0941972
178	0xbc1e55eb	-0.009664039
179	0xbdc8841c	-0.09790823
180	0x3d7e5539	0.062092993
181	0xbd80c960	-0.06288409
182	0x3dc2280d	0.09480295
183	0xbd861cfc	-0.06548497
184	0xbdc774c9	-0.09739072
185	0x3de918f0	0.113817096
186	0xbbf8a810	-0.007588394
187	0xbdced00c	-0.100982755
188	0x3e21e8ed	0.1581151
189	0x3d826a82	0.06367971
190	0x3dbed7c5	0.093184985
191	0xbcbfac89	-0.0233977
192	0xbc880b7a	-0.016607035
193	0xbcaaa59c	-0.020830922
194	0x3d42848a	0.04748968
195	0xbe0a918c	-0.13532084
196	0x3d9b9a53	0.075977944
197	0xbe03175f	-0.12801884
198	0xbdaf3ee1	-0.08556915
199	0xbdaac434	-0.08338204
200	0xbdb2a97b	-0.08723732
201	0xbc0d6959	-0.008631074
202	0x3ce917ec	0.02845379
203	0xbd70932e	-0.05873411
204	0x3d2b3074	0.041794255
205	0x3d6bb38f	0.057544287
206	0x3c7ff637	0.015622667
207	0xbbacb0d6	-0.005270104
208	0x3de264ef	0.11054408
209	0xbd0cb018	-0.034347624
210	0xbdaef7dd	-0.0854337
211	0x3da4b6af	0.08042657
212	0xbcbac52e	-0.0227991
213	0x3bf1c93f	0.0073787267
214	0x3da4ba2a	0.080433205
215	0xbcb89669	-0.022532659
216	0xbe06038d	-0.13087292
217	0xbd0a091b	-0.03370009
218	0xbd86eb6b	-0.06587871
219	0x3cfc771d	0.030818516
220	0x3e1456fb	0.14486305
221	0xbcc66d4d	-0.02422204
222	0x3dc94a53	0.09828629
223	0x3d863be0	0.06554389
224	0xbe0600ca	-0.13086239
225	0x3da341cc	0.07971534
226	0xbd04a8e8	-0.032387644
227	0x3d753721	0.05986703
228	0xbcdc368a	-0.026881475
229	0x3dbe946b	0.09305652
230	0xbc6110d8	-0.013736926
231	0x3c5f57cf	0.013631775
232	0x3d2e565c	0.042562827
233	0x3cef3dd5	0.029204288
234	0x3e1808ec	0.14847153
235	0x3d122f1c	0.03568946
236	0xbc6c764c	-0.014432501
237	0xbd5e993c	-0.054345354
238	0x3d9c2df1	0.0762595
239	0xbd1afc8c	-0.037838504
240	0x3dc12176	0.0943021
241	0xbd411251	-0.04713661
242	0xbbd66ae8	-0.006543506
243	0x3c9f56c8	0.01945056
244	0x3d2428fd	0.040078152
245	0xbd422ee4	-0.047408
246	0xbd59a9ef	-0.053140577
247	0x3d8da277	0.06915753
248	0x3d6236eb	0.055228155
249	0x3c866835	0.016407112
250	0x3db33023	0.08749416
251	0xbba14223	-0.004921214
252	0xbd3481f4	-0.044069245
253	0xbd231675	-0.03981634
254	0xbdad8476	-0.084725305
255	0x3e3a6e94	0.18206245

_model.1._model.0.bias f4 [256]
0	0xbc5a0bb5	-0.013308455
1	0x3cac25cb	0.021014115
2	0x3c85a8b2	0.016315792
3	0xbcf02fb4	-0.029319622
4	0xbc1cbb6d	-0.00956617
5	0xbc6a6c28	-0.014308013
6	0x3cafd5b1	0.0214642
7	0xbcae3e41	-0.02126992
8	0x3b0bd5d2	0.0021337164
9	0x3d0fdbd6	0.03512176
10	0x3b560572	0.0032657054
11	0xbb715603	-0.0036824949
12	0x3ca1664a	0.019702096
13	0xbc88a2ca	-0.016679186
14	0xbb2d7983	-0.0026470132
15	0x3ca5fe39	0.020262824
16	0xbc9a1476	-0.018808585
17	0x3c8414b7	0.016123159
18	0x3c321a52	0.010870533
19	0xbc353d91	-0.011062042
20	0xb99cc94c	-0.00029904617
21	0xbc81e388	-0.015855566
22	0x3d23740a	0.039905585
23	0x3cc879a5	0.024472067
24	0x3bb5ad57	0.0055443454
25	0xbb2623b7	-0.0025350878
26	0xbd0cf890	-0.034416735
27	0xbcd5bcde	-0.026091035
28	0xbc22685f	-0.009912579
29	0x3bc2faae	0.0059502935
30	0x3ccf29d1	0.025288494
31	0x3c92582a	0.017864306
32	0xbc9df294	-0.01928071
33	0xbc3f3fa9	-0.011672893
34	0x3cbbf791	0.022945197
35	0x3c8874f1	0.016657325
36	0x3c14679b	0.009057905
37	0x3c165b9b	0.009177114
38	0x3cb84f5a	0.022498775
39	0xba260516	-0.00063331553
40	0xbcd09839	-0.02546321
41	0xbb6af477	-0.0035851279
42	0x3cb77570	0.022394866
43	0x3c9beb0d	0.01903298
44	0x3cb846e0	0.022494733
45	0x3c22f4cf	0.009946062
46	0x3c7f3a00	0.015577793
47	0xbc5a4554	-0.013322193
48	0xbce11332	-0.027474973
49	0x3c49ac58	0.012309156
50	0xbb73167e	-0.0037092264
51	0xbbec4358	-0.0072101764
52	0xbbe515f9	-0.0069911447
53	0x3b223f6b	0.0024757038
54	0xbb80d47a	-0.003931579
55	0xba8a8caa	-0.0010570486
56	0xb9f6d65f	-0.00047080495
57	0x3c6f6737	0.014612011
58	0x3a8fc2e6	0.0010968118
59	0xbafb4e53	-0.0019173123
60	0xbc954043	-0.018219119
61	0xbc8be25e	-0.017075714
62	0x3acdf9d1	0.001571471
63	0x3cf3730a	0.02971794
64	0x3abc98fd	0.0014388856
65	0x3cbb38a8	0.022854164
66	0x3cbaa612	0.022784267
67	0xbc1f69b1	-0.009729789
68	0xbc6cba62	-0.014448734
69	0x3ba0bcb5	0.004905308
70	0x3d172268	0.036898047
71	0x3cafaf6b	0.02144595
72	0x3c126a4b	0.008936475
73	0x3c327333	0.010891723
74	0x3ce603b6	0.028077941
75	0xbc4183ba	-0.011811191
76	0x3cb05165	0.021523187
77	0xbcdf927b	-0.027291527
78	0xbc95faa8	-0.018307999
79	0x3cd5f5bf	0.026118157
80	0x3bf92052	0.00760273
81	0xbc0a25ed	-0.008431894
82	0x3b872789	0.004124586
83	0xb990642a	-0.00027540448
84	0xbcca2c68	-0.024679378
85	0x3cea4255	0.028596083
86	0x3c02a987	0.007974989
87	0xbc4bff6a	-0.012451032
88	0x3a2decd2	0.0006634715
89	0xbc13ca8d	-0.00902046
90	0xbcc8a073	-0.02449057
91	0x3bf3b088	0.0074368156
92	0xbc93fd1f	-0.018065033
93	0xbbfbf3d4	-0.0076889787
94	0x3b295b8d	0.0025841922
95	0xbcfbb6f6	-0.030726891
96	0x3cce935d	0.025216753
97	0x3c21eb17	0.00988271
98	0xbc1e807f	-0.009674191
99	0x3ba442d0	0.0050128475
100	0x3cb60769	0.02222033
101	0xbcef50e1	-0.02921337
102	0x3b3907f9	0.0028233512
103	0x3c8de0e0	0.017319143
104	0xbbbb9eed	-0.0057257325
105	0xbc3b309b	-0.011425163
106	0xbc772dce	-0.015086604
107	0x3b35aad0	0.002772022
108	0x3be2325b	0.0069029755
109	0xbc9688ae	-0.01837572
110	0x3bc9a345	0.0061534964
111	0xbb5c47ac	-0.0033612056
112	0x3ca36538	0.019945726
113	0xba7f4417	-0.0009737624
114	0x3c0ac066	0.008468723
115	0x3cc272d8	0.023736402
116	0xbb593596	-0.0033143512
117	0x3cbbe97b	0.02293848
118	0x3c462d58	0.012095772
119	0x3c1b5b04	0.009482149
120	0x3ce9c3d3	0.02853576
121	0xbc4e0814	-0.012575168
122	0x3ce23c1a	0.02761655
123	0x3cb07d03	0.021543985
124	0x3c640655	0.013917525
125	0xbc3470e9	-0.011013248
126	0x3b21adf8	0.0024670344
127	0x3c7d1629	0.015447178
128	0x3a7b9ff4	0.0009598725
129	0x3c7372b7	0.014858893
130	0x3c6c0a2c	0.014406722
131	0x3c4cdc43	0.012503686
132	0x3bc90434	0.0061345343
133	0xbb39ad8b	-0.00283322
134	0x3cc60138	0.024170503
135	0x3be7a934	0.007069731
136	0xbc33763f	-0.010953485
137	0xbcad1172	-0.021126483
138	0xbca292dc	-0.019845419
139	0x39bdd239	0.00036205517
140	0x39994f44	0.00029241492
141	0xbb5738d2	-0.0032840264
142	0xba87f51f	-0.0010372734
143	0x3c8db287	0.017297043
144	0x3b946d2e	0.004529617
145	0x3bc5ee4b	0.0060403696
146	0x3c2eb1fd	0.010662553
147	0x3c677a0a	0.0141282175
148	0x3c872444	0.016496785
149	0x3cdbd682	0.026835684
150	0xbc0ec965	-0.008715008
151	0x3bb9f48c	0.005674904
152	0x3aaae424	0.0013037962
153	0x3c1a70c3	0.009426299
154	0x3c14dee2	0.0090863425
155	0x3aa18c6e	0.0012325177
156	0xbaa2c3ed	-0.001241801
157	0xbc578836	-0.013155034
158	0xbb948fe4	-0.0045337547
159	0x3cacf2ce	0.021111872
160	0x3c845985	0.016155967
161	0x3c19f3a3	0.009396466
162	0xbbf989cb	-0.007615303
163	0x3c852077	0.016250832
164	0x3ca65aa6	0.020306896
165	0xbbdd9ef2	-0.0067633325
166	0x3cae5154	0.021279015
167	0xbc1d9065	-0.009616946
168	0x3b9bfcda	0.004760367
169	0xbc307542	-0.010770144
170	0xbbafdf1d	-0.0053671733
171	0x3b832369	0.004002024
172	0x3a6de380	0.00090747327
173	0x3cb32333	0.02186737
174	0xbbbebc77	-0.0058208066
175	0xbbd30b93	-0.0064405887
176	0x3c7213c4	0.01477522
177	0xbb882d3e	-0.004155784
178	0xbb8538f1	-0.004065626
179	0xbb8ad049	-0.0042362553
180	0xbc23ef1f	-0.010005741
181	0xbc001429	-0.007817307
182	0x3cfd12c0	0.03089273
183	0x3cc314aa	0.023813564
184	0xbc228abd	-0.009920773
185	0x3c897c56	0.01678292
186	0x3c24b925	0.0100539075
187	0xbb18ccfa	-0.0023315535
188	0xba9a2ab9	-0.0011762
189	0x3d2deb66	0.04246082
190	0xb996fa19	-0.00028796567
191	0xbb784417	-0.0037882382
192	0x3c0f2cb6	0.008738687
193	0x3c81ca60	0.01584357
194	0xba511dc7	-0.00079771545
195	0xbc95318e	-0.018212106
196	0x3c6b330d	0.014355433
197	0xb897b6ae	-7.234268e-05
198	0xb99940a4	-0.00029230595
199	0xbbcb0c7d	-0.006196557
200	0x3b92fef9	0.0044859615
201	0x3c3bfe7f	0.011474251
202	0xbc184188	-0.009292968
203	0x3b13fef7	0.002258239
204	0x3bc6116b	0.006044557
205	0xbad82626	-0.0016490861
206	0x3c89090e	0.01672795
207	0x3b4300ae	0.0029755044
208	0xbd01e5d3	-0.031713318
209	0x3c8844c3	0.01663435
210	0x3d00e22a	0.031465687
211	0xbc17daf0	-0.009268507
212	0x3d13cce3	0.036084067
213	0xbca768ef	-0.020435778
214	0x3c9b3777	0.018947346
215	0xbc0184dd	-0.007905212
216	0x3ce1ca45	0.02756227
217	0xbb10150e	-0.0021985206
218	0x3c2957ae	0.010335846
219	0xbd70a8e1	-0.058754805
220	0x3c9b75b3	0.018977022
221	0x3c8b603a	0.017013658
222	0xbc317779	-0.010831707
223	0x3c638581	0.01388681
224	0x3ab1c816	0.0013563659
225	0xbd1972bc	-0.037462935
226	0x3ccafa38	0.024777517
227	0xbcbfa281	-0.023392918
228	0x3cddef2b	0.027091583
229	0x3d101276	0.035173856
230	0x39d479e0	0.00040526595
231	0xbcb5f458	-0.022211239
232	0x3c183de1	0.009292097
233	0xbc46304c	-0.012096476
234	0xbc58cd46	-0.013232535
235	0x3b1fe38a	0.0024397098
236	0x3b33375a	0.0027346225
237	0xbc1320cf	-0.00897999
238	0xbc840b9d	-0.016118819
239	0x3b8cf26a	0.004301359
240	0x3cb4c301	0.022065641
241	0x3c85e23a	0.016343225
242	0xbc40d279	-0.011768931
243	0xbbc86ece	-0.0061167246
244	0x3c6efd59	0.01458677
245	0x3bd47fa5	0.006484943
246	0x3c4c0335	0.0124519365
247	0x3c99cd46	0.01877464
248	0x3cb67090	0.02227047
249	0xbc24cd30	-0.010058686
250	0xbc13c5ea	-0.009019354
251	0xbc14a9d4	-0.009073693
252	0xbcf48298	-0.029847428
253	0xbc06fa2e	-0.008238358
254	0x3a3d6daf	0.0007226122
255	0xbbbd9fd8	-0.005786877

_model.2._model.0.weight f4 [51, 256]
0	0xbb9970b0	-0.004682623
1	0x3cadb56b	0.02120467
2	0x3cb62a47	0.022236956
3	0xbc8e260b	-0.017352125
4	0x3cb351a9	0.021889525
5	0xbbe7297c	-0.007054506
6	0xbba23ed9	-0.0049513397
7	0xbd3d7d5f	-0.04626214
8	0xbb33153a	-0.0027325884
9	0x3cd526cb	0.026019474
10	0x39f3707d	0.00046432382
11	0xbba4e8f9	-0.0050326553
12	0x3d649645	0.05580737
13	0xbd37cec4	-0.04487492
14	0xbcdb6bc3	-0.026784783
15	0xbba753ee	-0.0051064407
16	0xbcd5e44a	-0.026109833
17	0xbbcc6204	-0.0062372703
18	0x3c2403e6	0.010010695
19	0x3962142d	0.00021560556
20	0xbc99e9bc	-0.018788211
21	0x3daef8c8	0.08543545
22	0x3d7ccafb	0.061717015
23	0xbd13adaf	-0.03605431
24	0xbcf0e9d0	-0.029408365
25	0x3d4561bc	0.04818891
26	0xbdc726e0	-0.09724212
27	0x3d95d031	0.073151
28	0xbc9a3b27	-0.018827034
29	0x3d480d37	0.048840728
30	0xbd3090d4	-0.04310687
31	0xbcecacf7	-0.02889107
32	0xbb5a62d2	-0.0033323062
33	0xbcc77fb4	-0.024352886
34	0x3bee2fad	0.007268867
35	0xbda7263e	-0.08161591
36	0x3cc1ad90	0.023642331
37	0xbac51028	-0.0015034722
38	0x3c6d3f6a	0.014480451
39	0x3cb6281c	0.022235923
40	0xbce55b02	-0.027997497
41	0x3c7e62ae	0.015526457
42	0x3b6be896	0.0035996786
43	0x3cd33742	0.025783185
44	0xbb8410ee	-0.0040303385
45	0x3bf622fa	0.0075114937
46	0x3c56a0b1	0.013099835
47	0xbd323b01	-0.0435133
48	0xbca315ef	-0.01990792
49	0xbd273ab5	-0.04082747
50	0xbc7e0a79	-0.015505427
51	0xbbc87233	-0.006117129
52	0xbd72ce65	-0.059278864
53	0x3d140cec	0.036145136
54	0x3c4c504c	0.012470316
55	0x3b99bfbf	0.0046920474
56	0xbc2bd25b	-0.010487164
57	0x3cb597d3	0.022167122
58	0x3c96cdcb	0.018408677
59	0x3b287f62	0.0025710692
60	0xbcee1ddd	-0.029066974
61	0x3c6c4ad1	0.0144221345
62	0x3d1b4986	0.037911914
63	0xbbd9dc3b	-0.006648568
64	0xbcabe7af	-0.020984499
65	0x3cc825b4	0.02443204
66	0xbdc9b87f	-0.09849643
67	0x3d021103	0.031754505
68	0xbc9abb6a	-0.018888194
69	0xbd806a6c	-0.06270298
70	0x3d18be65	0.03729095
71	0x3d0d029c	0.034426317
72	0x3cda15d5	0.026621738
73	0x3d57469f	0.052557584
74	0xbc9689d6	-0.018376272
75	0x3e16257c	0.14662737
76	0x3cd6408d	0.026153827
77	0xbc0e6466	-0.008690929
78	0xbd894480	-0.067025185
79	0x3c884da1	0.016638579
80	0xbb53a1f9	-0.0032292588
81	0x3acbff89	0.0015563826
82	0x3c504a07	0.012712962
83	0x3cc89ab0	0.024487823
84	0xbd34ab1d	-0.0441085
85	0x3d4a8eda	0.04945264
86	0xbc3777e6	-0.01119802
87	0xbaa4d29b	-0.0012574972
88	0xbc9945a2	-0.018709961
89	0x3b6e65ad	0.0036376521
90	0xbd810dec	-0.063014835
91	0x3cb328c1	0.021870019
92	0xbd0227a4	-0.031776085
93	0x3c29771c	0.010343339
94	0xbc6b4589	-0.01435984
95	0xbcea9963	-0.028637594
96	0xbd00d473	-0.031452607
97	0xbc441930	-0.011968896
98	0xbcf81730	-0.030284494
99	0xbc4245ba	-0.011857444
100	0x3aa7b2c4	0.0012794365
101	0xbcf8c5d0	-0.030367762
102	0x3be0e52a	0.006863256
103	0x3cb74afd	0.022374624
104	0x3d2679ab	0.040643375
105	0xbd028647	-0.031866338
106	0x3c736eef	0.014857992
107	0x3d739a6a	0.059473433
108	0x3cd68b55	0.026189486
109	0xbd6f89f3	-0.058481168
110	0x3c94deda	0.01817267
111	0x3d36b167	0.044602778
112	0xbcc11ff2	-0.023574803
113	0xbb813a6d	-0.0039437325
114	0x3c930613	0.017947232
115	0xbcc0989f	-0.023510275
116	0x3b8cabf4	0.0042929593
117	0x3c00c57d	0.007859585
118	0x3c81ac64	0.015829273
119	0x3cbab1e1	0.022789897
120	0xbc73af65	-0.01487336
121	0xbd4d6745	-0.050147314
122	0x3cba0ef5	0.02271221
123	0x3c8bfd38	0.017088518
124	0x3b0dceab	0.0021638076
125	0x3c903b34	0.017606355
126	0xbc4e9b1f	-0.012610226
127	0xbd2b168f	-0.04176956
128	0x3be59a7e	0.0070069423
129	0x3d2ab4b7	0.04167625
130	0x3be9940d	0.0071282447
131	0xbd0f931d	-0.035052408
132	0xbcb413f8	-0.021982178
133	0xbb1c5f86	-0.0023860647
134	0xbbae6915	-0.0053225853
135	0x3d3cef42	0.04612661
136	0xbc5c90bd	-0.013462243
137	0xbd8606e9	-0.06544287
138	0xbd177814	-0.03697975
139	0x3d1c6a1b	0.038187128
140	0xbcca17fc	-0.02466964
141	0x3d97fe71	0.07421578
142	0x3b1f86f4	0.0024341913
143	0xbc359f70	-0.011085376
144	0x3b30ab6a	0.002695764
145	0x3c8ed73d	0.017436618
146	0x3c835233	0.016030407
147	0xbb988e46	-0.004655632
148	0xbc383d76	-0.011245122
149	0x3d38a6b8	0.04508087
150	0xbcc2e5cd	-0.023791218
151	0xbbd0dc08	-0.006373886
152	0xbd180fac	-0.03712432
153	0xbccf6323	-0.025315827
154	0x3d759e32	0.05996532
155	0x3ca0dc24	0.019636221
156	0xbb36d534	-0.0027898075
157	0xbd1b65f7	-0.037939038
158	0x3d113212	0.03544814
159	0xbbf0934a	-0.007341777
160	0xbd06dc9d	-0.032925237
161	0x3cb3ec92	0.021963391
162	0x3d057daf	0.032590564
163	0xbcd3a1a4	-0.025833912
164	0xbd06a27b	-0.032869797
165	0x3c49c213	0.012314337
166	0x3d5007b1	0.050788585
167	0x3c4f69c4	0.012659494
168	0x3c3a910b	0.01138712
169	0x3c19f1ff	0.009396075
170	0xbcaf280b	-0.021381399
171	0x3be42fd8	0.006963711
172	0x3d048171	0.032350007
173	0xbbab46cc	-0.0052269455
174	0x3d0897c1	0.03334785
175	0x3bae463f	0.0053184326
176	0x3ca47dda	0.020079542
177	0xbc95fc0f	-0.018308667
178	0x3cfa9b82	0.03059173
179	0x3bdadb59	0.0066789803
180	0x3c0c99a6	0.0085815545
181	0x3c8c97e2	0.017162267
182	0x3bc49a01	0.005999804
183	0xbc5d087b	-0.013490791
184	0x3d81ed12	0.06344046
185	0x3d11b6e7	0.03557482
186	0x3d299c4d	0.041408826
187	0xbbf57feb	-0.0074920557
188	0xbbc7d272	-0.006098085
189	0xbca22532	-0.019793127
190	0x3c1a630c	0.009423029
191	0xbb51786a	-0.0031962642
192	0xbc9a28fd	-0.018818373
193	0xbc67305f	-0.014110654
194	0xbd171ecc	-0.036894605
195	0x3d196a23	0.037454735
196	0x3d256b0e	0.0403853
197	0x3d13ee48	0.036115915
198	0x3d5f7975	0.05455919
199	0xbccd2157	-0.025040312
200	0xbc673250	-0.0141111165
201	0xbbaed810	-0.0053358153
202	0xbc2951c6	-0.010334438
203	0xbb27687c	-0.0025544455
204	0xbbe0e813	-0.006863603
205	0x3cfe70f0	0.031059712
206	0x3d0b6e01	0.034040455
207	0xbcfca33c	-0.030839555
208	0xbc87412d	-0.01651057
209	0x3cfa4c39	0.030553924
210	0x3b4ee335	0.0031568531
211	0xbdd31848	-0.10307366
212	0xbe349e91	-0.17638613
213	0xbd4525b5	-0.048131663
214	0x3d4f566f	0.05061954
215	0xbc77e27d	-0.015129683
216	0x3d009ef9	0.03140161
217	0xbc83b2e0	-0.016076505
218	0x3d522ae5	0.05131044
219	0xbb81f49d	-0.0039659278
220	0x3c0a8415	0.008454342
221	0xba27384e	-0.00063789345
222	0xbcc464f9	-0.023973929
223	0x3d8a24ac	0.06745276
224	0xbbe291e8	-0.006914366
225	0xbc2e7eb4	-0.010650326
226	0xbb22158c	-0.0024732081
227	0x3d55df0f	0.05221468
228	0xbcf1895d	-0.029484445
229	0xbc0f3932	-0.008741664
230	0x3cb9b33e	0.022668477
231	0xbc6cdef5	-0.014457454
232	0x3bedc4a3	0.007256107
233	0x3d060ae0	0.032725215
234	0x3b9fc1f4	0.004875416
235	0xbc53e8fe	-0.012933968
236	0xbd797aba	-0.060908057
237	0x3ce0bb3c	0.02743303
238	0xbce39066	-0.027778815
239	0xbcc83d21	-0.024443211
240	0x3d4420cd	0.047882844
241	0x3d82e13b	0.063906156
242	0xbcdbc2f3	-0.026826357
243	0x3d840462	0.064461485
244	0xbb22d10f	-0.0024843847
245	0xbd486441	-0.048923735
246	0xbd82bf6c	-0.06384167
247	0xbc88def7	-0.01670788
248	0xbd4eb474	-0.050465062
249	0xbcddca58	-0.027074024
250	0x3b392153	0.0028248623
251	0xbc67417c	-0.014114734
252	0x3c70b0a4	0.014690552
253	0xbc8ec2bd	-0.017426843
254	0x3cac3742	0.021022443
255	0xbd18ac62	-0.037273772

_model.2._model.0.bias f4 [51]
0	0x3d59742d	0.05308931
1	0x3ca44ad8	0.02005522
2	0x3a51674e	0.0007988111
3	0xbd9320e3	-0.07184007
4	0xbc42eb7e	-0.011896966
5	0x3d20721a	0.039171316
6	0x3cad1195	0.021126548
7	0x3c356c3a	0.0110731665
8	0xbd066e14	-0.032819822
9	0xbdd18252	-0.10229935
10	0xba81ad2e	-0.000989353
11	0xbd421b5f	-0.047389384
12	0xbd23c4b8	-0.039982527
13	0x3a4d01c5	0.0007820393
14	0x3b8077bd	0.003920524
15	0x3d56644f	0.052341755
16	0xbbde8757	-0.006791036
17	0x3a828f8d	0.0009960994
18	0x3c23684c	0.009973597
19	0xbca18596	-0.019717019
20	0x3c562ebb	0.013072665
21	0x3c08ec8f	0.008357181
22	0x3cb65d61	0.022261323
23	0xbc7c67df	-0.015405624
24	0xbb209d19	-0.00245077
25	0x3c37edd4	0.011226136
26	0x3c1c21d6	0.0095295515
27	0xbca01a68	-0.019543841
28	0xbd4993a9	-0.049213085
29	0xbb34aad6	-0.0027567646
30	0xbd39ff32	-0.04540939
31	0xbb804ec4	-0.0039156396
32	0xbb46e288	-0.0030347425
33	0x3d6c61c2	0.057710417
34	0x3d4ff4b9	0.050770495
35	0xbce5d1d6	-0.02805416
36	0x3d149378	0.03627345
37	0x3d85c86a	0.065323666
38	0xbcf20fc2	-0.02954853
39	0x3bf72190	0.0075418428
40	0xbcd180c7	-0.025574101
41	0xbd3d0c13	-0.046154093
42	0xbb91d867	-0.004450846
43	0xbd5c43b3	-0.0537755
44	0x3ce38361	0.027772607
45	0x3c70c53f	0.014695465
46	0xbd85a837	-0.06526225
47	0xbba52b63	-0.0050405725
48	0xbc82c5ca	-0.015963454
49	0x3c46a363	0.012123915
50	0xbc1a7635	-0.009427597
