data/etc/pretrained_model/boxing/imitation/task_embedding/task_encoder_use_body_info=False,vae_beta_coeff=1e-07/task_agnostic_policy_motor_decoder.pt (torch, 624455 bytes, 6 tensors)

_model.0._model.0.weight f4 [256, 298]
0	0x01f3f5f9	8.9617056e-38
1	0x3cd28512	0.025698218
2	0x01aa1859	6.2483075e-38
3	0x3d0a0330	0.033694446
4	0xbbc519e1	-0.006015048
5	0x3d05d069	0.03266946
6	0xbc362b58	-0.011118732
7	0x3d4bc8b2	0.049751945
8	0xbd3fb045	-0.046798963
9	0x3ba6a897	0.0050860154
10	0xbd3daf0d	-0.04630952
11	0xbc0f3152	-0.008739786
12	0x3d26f098	0.04075679
13	0x3c99fc82	0.018797163
14	0x3c96067c	0.018313639
15	0xbd8a01a7	-0.067385964
16	0x3e28bda0	0.16478586
17	0x3d80bc83	0.06285956
18	0x3d0aae05	0.033857364
19	0x3b51795b	0.0031963203
20	0x3d395dbf	0.04525542
21	0xbd19a512	-0.03751094
22	0xbc830299	-0.01599245
23	0x3d9abeae	0.075559005
24	0xbd4babeb	-0.0497245
25	0xbcf2d28d	-0.029641414
26	0x3d54ebf3	0.05198283
27	0x3c7b9665	0.015355681
28	0xbe0a67d4	-0.1351617
29	0x3c7ef1e5	0.015560602
30	0x3d901f75	0.0703725
31	0x3d7c3452	0.061573334
32	0xbce58475	-0.028017262
33	0x3ccd9c7a	0.025099028
34	0xbd03cfdf	-0.032180663
35	0xbd28c6e6	-0.04120531
36	0xbbf3d2e9	-0.007440914
37	0x3cc82060	0.0244295
38	0xbd22a6ae	-0.03970974
39	0x3da17416	0.0788347
40	0x3cba8365	0.022767732
41	0xbe1e1531	-0.15437771
42	0x3d8ad490	0.06778824
43	0x3dbab43d	0.09116409
44	0x3ce878f5	0.02837799
45	0xbc833d36	-0.016020399
46	0xbc74ddaa	-0.014945427
47	0xbd7b5d8d	-0.061368514
48	0xbd2ed808	-0.042686492
49	0xbb0ebf26	-0.0021781414
50	0x3ceebce8	0.029142812
51	0xbb8b5e2f	-0.004253171
52	0xbbcfc868	-0.006341029
53	0x3cc2f397	0.023797793
54	0xbb819489	-0.0039544743
55	0xbb8ec4da	-0.0043569626
56	0xbc033f42	-0.008010687
57	0xbcfcf2c1	-0.030877473
58	0xbc04026b	-0.008057217
59	0x3d5f5ba4	0.054530755
60	0xbd464d1c	-0.04841338
61	0x3c039d5a	0.008033121
62	0x3c0fa372	0.008766996
63	0xbbe63fd9	-0.007026654
64	0xbc3e857d	-0.011628506
65	0xbbf76dfa	-0.007550952
66	0x3c6804c0	0.014161289
67	0x3a9383ca	0.0011254486
68	0xbc82c86b	-0.015964707
69	0xbd8c3036	-0.06845133
70	0x3cd5241c	0.026018195
71	0x3bddb628	0.0067660995
72	0x3d0c1fad	0.034209896
73	0xbdf4823b	-0.11938902
74	0x3bd6b54b	0.0065523735
75	0xbd09e1dc	-0.033662662
76	0x3b83adaa	0.004018505
77	0xbb9f61be	-0.0048639467
78	0x3ac2b400	0.001485467
79	0x3b5802fc	0.0032960763
80	0x3c180c53	0.009280282
81	0xbd636cb9	-0.055523608
82	0xbd73bb5b	-0.059504848
83	0x3bd3014d	0.006439364
84	0xbc0dee22	-0.008662732
85	0x3cc11cca	0.023573298
86	0xbe59df92	-0.21276692
87	0xbc6e5b0d	-0.014548075
88	0x3d1165f3	0.035497617
89	0xbc21d40a	-0.009877214
90	0xbc4a36e8	-0.012342192
91	0xbc56c5d5	-0.01310869
92	0x3d106fdb	0.035262924
93	0x3b7eedcc	0.0038899062
94	0xbd555ca6	-0.05209031
95	0xbcc0bff1	-0.023529025
96	0x3d19f459	0.037586544
97	0x3a5841e1	0.0008249563
98	0x3d2936b2	0.041311927
99	0xbd16371f	-0.03667366
100	0x3ad47822	0.0016210119
101	0xbd8cb339	-0.068701215
102	0x3d17971b	0.03700934
103	0xbc93be56	-0.018035095
104	0xbcb0433a	-0.021516431
105	0x3d37cbf2	0.04487223
106	0xbbae72d3	-0.0053237467
107	0xbd4ad483	-0.049519073
108	0xbc14a69b	-0.009072925
109	0x3cb8970b	0.02253296
110	0xbc0efec5	-0.008727734
111	0x3d049284	0.03236629
112	0xbcac64a8	-0.02104409
113	0x3b1773b1	0.002310973
114	0xbc7f5c1a	-0.015585924
115	0x3bf603f6	0.0075077964
116	0x3c866c04	0.016408928
117	0xbcc655f8	-0.024210915
118	0x3d127f2b	0.035765808
119	0xbc59d1db	-0.013294662
120	0xbd2231ee	-0.039598398
121	0xb96bb7f5	-0.00022479876
122	0xb9778972	-0.00023606958
123	0xbb91900a	-0.0044422196
124	0x3c895f00	0.016768932
125	0xbca9cac3	-0.020726567
126	0x3b690564	0.0035556192
127	0xbcea5dda	-0.028609205
128	0x3cd45b8f	0.025922565
129	0xbcbc4b76	-0.022985201
130	0xbcdbf960	-0.02685231
131	0x3d057007	0.03257754
132	0xbcb42f70	-0.021995276
133	0xbc6358e7	-0.013876176
134	0xbd8e51c9	-0.06949193
135	0x3c08fdcf	0.008361294
136	0xbcd772ef	-0.026299922
137	0xbb4bd430	-0.0031101815
138	0xbcbb3bbc	-0.022855632
139	0x3b198289	0.0023423752
140	0xb9d12eef	-0.00039898555
141	0xbca5fe7e	-0.020262953
142	0xbbf18764	-0.007370876
143	0xbd06f567	-0.032948878
144	0x3d1fd2b4	0.0390193
145	0xbce11459	-0.027475523
146	0xbd30c905	-0.043160457
147	0xbdc2c6ed	-0.09510598
148	0x3d22ae0a	0.039716758
149	0xbd2856ff	-0.04109859
150	0xbc360563	-0.011109683
151	0xbcc8d8d3	-0.024517452
152	0x3bcca916	0.0062457426
153	0xbb3c0cf3	-0.0028694242
154	0x3c976334	0.01847992
155	0x3ce40b4b	0.027837416
156	0xbca8e0a4	-0.02061493
157	0x3b815fe9	0.003948201
158	0xbcdc5ba9	-0.026899176
159	0xbc8557c1	-0.016277196
160	0x3da82b89	0.08211429
161	0xbd0c492f	-0.03424948
162	0xbc2f9c6f	-0.010718449
163	0xbacb7189	-0.0015521507
164	0xbd384515	-0.044987757
165	0x3c03abe1	0.008036585
166	0x3cc79117	0.024361176
167	0xbcd45335	-0.025918582
168	0xbad473a4	-0.001620878
169	0xbbad4da7	-0.005288798
170	0x3cbe3190	0.023216993
171	0xbd71a5da	-0.05899606
172	0x3c560fe1	0.013065309
173	0x3dfba60d	0.12287531
174	0xbd214fab	-0.039382618
175	0x3c0f12ad	0.00873248
176	0x3c00774e	0.007840944
177	0xbca01bd7	-0.019544525
178	0x3c1f9a79	0.009741419
179	0xb833e19a	-4.2887033e-05
180	0xbd7f2136	-0.06228753
181	0x3d38ee22	0.045148976
182	0x3c869088	0.01642634
183	0xbcbfa869	-0.023395734
184	0xbd8f9fb0	-0.0701288
185	0x3c3da0ed	0.011574012
186	0xbba6e740	-0.005093485
187	0xbd898251	-0.06714309
188	0x3da6008c	0.08105573
189	0x3bf18b5f	0.0073713507
190	0x3c96d193	0.01841048
191	0x3a88c66a	0.0010435109
192	0x3bbc73d3	0.005751112
193	0x3cd2a040	0.025711179
194	0xbbbe8ae4	-0.005814897
195	0x3cf5ebca	0.03001966
196	0xbd00723e	-0.03135895
197	0xbd55470f	-0.05206972
198	0x3c40ea68	0.011774637
199	0xbb8d3115	-0.0043088295
200	0xbd89826e	-0.067143306
201	0x3da60816	0.08107011
202	0xbca66a9c	-0.020314507
203	0x3c756095	0.01497664
204	0xbc19a0c3	-0.0093767075
205	0x3c1178da	0.008878911
206	0x3c9e159e	0.019297417
207	0xbb578c6e	-0.00328901
208	0xbcdd2791	-0.026996406
209	0x3d2177aa	0.03942076
210	0xbcc80869	-0.024418073
211	0xbd2c12a3	-0.04200996
212	0xbd5ed9cd	-0.05440693
213	0xbc854e69	-0.01627274
214	0xba3c3550	-0.0007179575
215	0xb9bb45da	-0.00035719463
216	0x3a8f84be	0.0010949594
217	0xbbbaba47	-0.0056984755
218	0xbca2c71b	-0.019870332
219	0xbb9190b7	-0.0044423
220	0xbc9db155	-0.019249598
221	0xbd24b55d	-0.040212024
222	0x3d469ef9	0.048491452
223	0xbcfb689b	-0.030689528
224	0xbd0c2083	-0.034210693
225	0xbd239e89	-0.039946113
226	0xbd507413	-0.050891947
227	0x3d0b7ef3	0.034056615
228	0x3b591f4b	0.0033130224
229	0x3ab5e32c	0.0013876907
230	0xbc1f0d8a	-0.009707818
231	0x3cfa1a84	0.030530222
232	0xbd17b334	-0.037036136
233	0x3d45fade	0.04833495
234	0xbd872879	-0.065995164
235	0x3d74f43b	0.05980323
236	0xbcc4694f	-0.023975996
237	0x3c4c6fd4	0.012477834
238	0xbc646453	-0.013939935
239	0xbc6c4822	-0.014421495
240	0x3da60523	0.081064485
241	0x3c6e4e9b	0.014545108
242	0x3aa01dce	0.0012215914
243	0x3b8198c1	0.0039549773
244	0xbc0f3353	-0.008740264
245	0x3b98c310	0.004661925
246	0xbc6f0166	-0.014587736
247	0xbdadd4e2	-0.0848787
248	0x3d6a4b93	0.05720098
249	0xbc846f48	-0.016166344
250	0x3c3d159f	0.011540799
251	0xbbeeda39	-0.0072891978
252	0xbc6c480f	-0.014421477
253	0x3da55ecb	0.08074721
254	0x3cc7e0e7	0.024399234
255	0x3c960a24	0.018315382

_model.0._model.0.bias f4 [256]
0	0xbc7640b3	-0.015030074
1	0xbcafb79d	-0.021449858
2	0xbcaff80b	-0.02148058
3	0xbc3ebd3b	-0.011641796
4	0xbb4eb66e	-0.0031541842
5	0xbc81d4b7	-0.0158485
6	0xbc7bccd2	-0.015368657
7	0x3b800eb1	0.0039080014
8	0xbc53df6d	-0.012931687
9	0xbc19cb18	-0.0093868
10	0xbc279d1a	-0.010230327
11	0xbb8cec6b	-0.004300644
12	0x3cce41bf	0.025177835
13	0xbaef32ed	-0.001824943
14	0xbc359851	-0.011083678
15	0x3c1eff35	0.009704401
16	0x3853c474	5.048928e-05
17	0x3a664830	0.00087845605
18	0xbc04bd3e	-0.0081017595
19	0x3bc29861	0.005938575
20	0xbca6e616	-0.020373385
21	0xbc11e4a0	-0.008904606
22	0x3bdf45de	0.0068137487
23	0xbc7e104e	-0.015506817
24	0xbbf1c2ee	-0.0073779738
25	0xbbf796bb	-0.0075558103
26	0x3cdeef10	0.027213603
27	0x3c0c2a0d	0.008554948
28	0xbc942371	-0.018083306
29	0xba687088	-0.0008866866
30	0xbc79548d	-0.015217912
31	0xbc9bfc49	-0.019041197
32	0xbc19f87f	-0.009397625
33	0xbc5d81ae	-0.013519688
34	0xbc631adb	-0.013861383
35	0xbc6a4dc5	-0.014300768
36	0xbbc5f523	-0.0060411855
37	0xbc37a46d	-0.011208636
38	0xbc4fd50e	-0.012685074
39	0xbb6d67b0	-0.0036225133
40	0x3b314a8f	0.0027052497
41	0xbacc158d	-0.0015570387
42	0xbbb0e0ef	-0.005397908
43	0xbc81641a	-0.015794802
44	0xbcd20966	-0.025639247
45	0xbc327736	-0.01089268
46	0xbc8a9a2c	-0.016919218
47	0xbbdf4b37	-0.006814386
48	0xbc0a6145	-0.008446042
49	0xb770514c	-1.4324043e-05
50	0xbc84a8bc	-0.01619374
51	0xbc8a2242	-0.016862039
52	0xbc1e6e78	-0.0096698925
53	0x39fbf364	0.0004805579
54	0xbca8853c	-0.020571344
55	0x3cfdebdf	0.030996261
56	0x3b8dfa75	0.0043328353
57	0xbc7f0fd4	-0.015567739
58	0xbc60b783	-0.013715628
59	0x3b8759a0	0.004130557
60	0xbc22f9a2	-0.009947212
61	0x3d8e8fbd	0.0696101
62	0xbbafd258	-0.005365651
63	0xbcb09980	-0.02155757
64	0x3be77905	0.007063987
65	0xbc80dc4f	-0.015730051
66	0xbc15c7bd	-0.00914186
67	0x3b39d403	0.0028355129
68	0xbcacf64d	-0.02111354
69	0xbc680982	-0.014162423
70	0xbc5b8c98	-0.013400219
71	0xbc1fae15	-0.009746094
72	0xbc009ed5	-0.0078503685
73	0xbc4bdf57	-0.012443385
74	0xbbf35426	-0.0074258028
75	0xbbde3065	-0.0067806714
76	0xbc60a010	-0.013710037
77	0xbc0b4623	-0.008500609
78	0xbb8c0b15	-0.004273782
79	0xbb7c40b9	-0.0038490726
80	0x3bbe9094	0.005815575
81	0xbbbd6812	-0.0057802284
82	0xbbaac2bf	-0.005211204
83	0xbc00d35f	-0.007862895
84	0xbc2839e2	-0.010267707
85	0xbc6a3ec4	-0.014297191
86	0xbca8c1f5	-0.020600298
87	0xbb8a9399	-0.004229021
88	0xbcdd7df3	-0.027037596
89	0xbb8edd73	-0.004359895
90	0xbb295f22	-0.0025844057
91	0x3b3ddfb5	0.002897245
92	0x3b487118	0.0030584987
93	0x3cc35aaa	0.023846943
94	0x3b42268d	0.002962503
95	0xbba5a46e	-0.005055002
96	0xbcc37cf7	-0.023863299
97	0x3c4f8cb7	0.012667826
98	0xbc2fa66e	-0.010720832
99	0x3b3893e4	0.0028164322
100	0xbc40ed43	-0.011775318
101	0xbb9a82df	-0.004715308
102	0xbb618c0b	-0.0034415748
103	0xbaf77eba	-0.0018882372
104	0xbaefbd21	-0.0018290618
105	0xbcb19a23	-0.021679943
106	0xbca66360	-0.020311058
107	0x3bde3d83	0.006782235
108	0xbc1e241d	-0.009652165
109	0xbc71fcbd	-0.01476973
110	0x3c396576	0.011315694
111	0x3a5da0ae	0.0008454424
112	0xbc3233b5	-0.010876586
113	0xbbf77f0d	-0.0075529874
114	0xbc7082e2	-0.014679642
115	0xbb0d2e5a	-0.002154252
116	0xbbe39763	-0.006945537
117	0xbab9d16c	-0.0014176792
118	0xbca5c382	-0.020234827
119	0xbb5b7c72	-0.0033490923
120	0xbc8a7c28	-0.016904905
121	0xbbad5085	-0.0052891397
122	0xbb3d0511	-0.002884213
123	0xbbcbb736	-0.006216909
124	0xba60c2ca	-0.00085739477
125	0xbc59e23e	-0.013298569
126	0xbc650cb2	-0.013980078
127	0xbc4c3e88	-0.0124660805
128	0xbc7e3982	-0.015516641
129	0xbc4d820e	-0.0125432145
130	0x3b80a21c	0.003925575
131	0xba862a84	-0.0010236059
132	0xbcc582f3	-0.024110293
133	0x3b356b51	0.0027682374
134	0xbc8ba310	-0.017045528
135	0xbb05d253	-0.0020419552
136	0x391fb902	0.00015232342
137	0xbafc71f0	-0.001926003
138	0xbb6d834a	-0.0036241584
139	0x3ce5f5ae	0.02807125
140	0xbb6667a4	-0.003515699
141	0xbcfc61bb	-0.03080832
142	0xbbde06ca	-0.0067757117
143	0xbbee56d1	-0.007273533
144	0x3bac605e	0.0052605113
145	0xbbfdaeaf	-0.007741771
146	0xbbfd90ac	-0.0077381935
147	0xbb97e575	-0.0046355077
148	0xbc890b3c	-0.01672899
149	0xbc643439	-0.0139284665
150	0x3a7d698e	0.0009666913
151	0xbb419482	-0.002953798
152	0xbc236a0e	-0.009974016
153	0xbc8a5ff9	-0.016891466
154	0x3d282b25	0.04105677
155	0x3c8188ad	0.015812242
156	0xbc338956	-0.010958036
157	0xbb2c1cf8	-0.0026262384
158	0xbc894ab7	-0.01675926
159	0x3d2f26f5	0.04276176
160	0xbcb793c5	-0.02240933
161	0x3b3b748b	0.00286034
162	0x39a6936c	0.00031771825
163	0xbc1d7e45	-0.0096126245
164	0xbb781e3a	-0.0037859813
165	0xbad70602	-0.0016404989
166	0x3a9f317a	0.0012145482
167	0xbc939e58	-0.01801984
168	0xbc3e8b75	-0.011629929
169	0xbc3ee29a	-0.011650706
170	0xbc3c766c	-0.011502843
171	0xbcbf7a1c	-0.023373656
172	0xbb8d1fa2	-0.0043067494
173	0xbc5bf02b	-0.01342396
174	0xbc6ca0f2	-0.014442669
175	0x3c7de717	0.015496991
176	0xbc84b341	-0.016198756
177	0xbb58be74	-0.0033072503
178	0xbbc5b39f	-0.0060333754
179	0xbca10266	-0.019654464
180	0xbc1d5d20	-0.009604722
181	0xbb288f3c	-0.002572014
182	0x3c2f8712	0.010713356
183	0x3b8518e3	0.0040618046
184	0xbc69b67a	-0.014264697
185	0xbcd801d3	-0.026368057
186	0x3c7d5e24	0.015464339
187	0xbca1a4f5	-0.019731978
188	0xbc457a12	-0.01205303
189	0xbc2d73a2	-0.010586651
190	0xbc2dbd21	-0.010604174
191	0xbbe25d76	-0.006908114
192	0xbc4792cd	-0.012180996
193	0x3b06e3b9	0.002058251
194	0xbc7d3675	-0.015454878
195	0xbc52263a	-0.012826497
196	0xbc87e8eb	-0.016590556
197	0xbca89a94	-0.020581521
198	0x3b880589	0.0041510505
199	0x3d3bcb56	0.045848213
200	0xbbf29b48	-0.007403765
201	0xbc6defcc	-0.014522504
202	0xbbc35079	-0.005960521
203	0xbbee028b	-0.0072634867
204	0x3bf36985	0.0074283504
205	0x3cdb6076	0.026779395
206	0xbc6beaab	-0.014399211
207	0xbcab0e39	-0.020880805
208	0x3c0d0650	0.008607462
209	0x3cc52316	0.024064582
210	0xbc406f6c	-0.011745315
211	0xbc514a80	-0.01277411
212	0xbc23d4e3	-0.009999487
213	0xbc0f4553	-0.0087445555
214	0xbc884e76	-0.016638976
215	0xbc1c00b2	-0.00952165
216	0xbbe7fa15	-0.0070793726
217	0xbca81831	-0.020519348
218	0xbc4dd059	-0.012561881
219	0xbc2a196c	-0.010382038
220	0x3a2bbd79	0.0006551366
221	0x3d0694f9	0.032856915
222	0xbbfa8cba	-0.0076461704
223	0x3b739efe	0.0037173624
224	0xbc69ba5a	-0.014265621
225	0xbb9d33d7	-0.0047974396
226	0xbc1a5bcb	-0.009421299
227	0xbb8e02ea	-0.0043338435
228	0x3d30d20e	0.043169074
229	0xbbb6c42b	-0.0055775843
230	0xbc857a2d	-0.01629361
231	0xbb74dbf6	-0.0037362552
232	0xbc78365b	-0.015149678
233	0xbb9a94b4	-0.004717434
234	0xbae09d99	-0.0017136812
235	0xbc028a17	-0.0079674935
236	0xbc4039c4	-0.011732522
237	0xbc1b82ba	-0.009491617
238	0xbc868fd5	-0.016426006
239	0xbbf82db1	-0.007573806
240	0xbc2cb4d9	-0.010541164
241	0x3c0d3101	0.0086176405
242	0xbc485264	-0.012226675
243	0xbc558f2b	-0.013034622
244	0xbc64d3ab	-0.013966481
245	0x3a9f7f5a	0.0012168691
246	0xbc40e00a	-0.011772165
247	0xbbc90b26	-0.006135362
248	0xbc001c0c	-0.007819187
249	0xbb6de063	-0.0036297075
250	0xbb87ba8e	-0.004142112
251	0x3d929aa5	0.07158402
252	0xbc722327	-0.014778889
253	0xbbbdbd5b	-0.005790395
254	0xba3e4494	-0.0007258144
255	0xb9b4566b	-0.00034396662

_model.1._model.0.weight f4 [256, 256]
0	0xbbd4437c	-0.0064777713
1	0x3ce2815c	0.027649574
2	0xbc755acc	-0.014975261
3	0x3bea063f	0.007141858
4	0xbc7f577b	-0.015584822
5	0xbcf4a439	-0.029863464
6	0x3c80895c	0.015690498
7	0xbdb0221e	-0.08600257
8	0x3a87f1f7	0.0010371794
9	0xbcc5511d	-0.02408653
10	0xbbff4d98	-0.0077912323
11	0xbc8259eb	-0.015912017
12	0x3d643ffd	0.055725086
13	0xbd544be2	-0.05183018
14	0x3ceb4619	0.028719949
15	0x3c63ae5d	0.013896552
16	0x3c9f4197	0.019440455
17	0xbd758577	-0.059941735
18	0xbc8a4cab	-0.016882261
19	0xbd59f1a9	-0.05320898
20	0x3c9014e1	0.01758808
21	0xbcc5e652	-0.024157677
22	0xbd27322f	-0.040819343
23	0xbc2656c0	-0.010152519
24	0xbbba62e4	-0.005688058
25	0xbaefc61b	-0.0018293293
26	0xbd235db6	-0.03988429
27	0x3d25c974	0.040475324
28	0xbcdfc18d	-0.027313972
29	0xbcb9f092	-0.02269772
30	0xbd01764a	-0.03160695
31	0x3baf915d	0.005357905
32	0x3cdc136d	0.026864732
33	0x3d62f99e	0.055413835
34	0x3ca2afee	0.01985928
35	0xbae01a11	-0.0017097612
36	0xbbfeb261	-0.0077727293
37	0x3be00279	0.0068362323
38	0xbc0c685a	-0.008569801
39	0x3cc2c59f	0.023775874
40	0x3d4bd834	0.049766734
41	0x3b494999	0.0030714034
42	0xbc8cfe0a	-0.017210979
43	0x3d248a77	0.040171113
44	0xbd297e61	-0.04138029
45	0xbc9469e6	-0.018116903
46	0xbb371c3e	-0.0027940418
47	0xbc89a445	-0.016801963
48	0x3da9996f	0.08281218
49	0xbdd25c04	-0.10271457
50	0xbd9729ef	-0.07381045
51	0xbd26f306	-0.04075911
52	0xbc8ea898	-0.017414376
53	0x3c525dfb	0.0128397895
54	0x3d3ce3c3	0.046115648
55	0xbcf98ce1	-0.030462684
56	0xbca210ea	-0.019783456
57	0xba8c79f0	-0.0010717493
58	0xbccc91b9	-0.02497183
59	0xbce0bfb8	-0.027435169
60	0xbcb99927	-0.022656037
61	0xbe077a9f	-0.1323037
62	0xbc15a24f	-0.009132936
63	0xbcdb886a	-0.026798446
64	0x3b35e522	0.0027754982
65	0xbc9d082f	-0.019168941
66	0x3cca4a24	0.024693556
67	0xbc25dcd6	-0.010123452
68	0x395d97f2	0.00021132806
69	0xbd821c88	-0.06353098
70	0x3d83003b	0.06396528
71	0x3d04a18f	0.032380637
72	0xbc8a5dfb	-0.016890517
73	0xbd8e3dc9	-0.06945378
74	0x3c17cc50	0.0092650205
75	0x3c4f4681	0.012651087
76	0xbd1483a8	-0.03625837
77	0xbd109a04	-0.03530313
78	0x3ccc4db1	0.02493939
79	0x3c8c911f	0.017159043
80	0x3d1e0826	0.03858199
81	0x3bd86af5	0.006604547
82	0x3c601f9c	0.013679411
83	0xbbefb5f7	-0.007315393
84	0xbc39c392	-0.0113381315
85	0x3d94ff2d	0.072752334
86	0x3d2e1b6c	0.04250662
87	0x3adad6cc	0.0016696095
88	0xbb4205bd	-0.002960547
89	0x3c452a2b	0.012033979
90	0x3bd1e9e1	0.0064060544
91	0x3b7e8ef7	0.0038842538
92	0xbd01f2c8	-0.031725675
93	0xbc8e2a89	-0.017354267
94	0xbd172d53	-0.03690846
95	0xbb86b820	-0.004111305
96	0x3d2b32ad	0.041796375
97	0xb91fa9fc	-0.00015226746
98	0xbd600279	-0.054689858
99	0xbd1de893	-0.03855188
100	0xbcdc66e3	-0.026904529
101	0xbc325672	-0.010884868
102	0xbd00ffad	-0.03149383
103	0x3c9bc41e	0.019014414
104	0x3c6ea71f	0.014566212
105	0x3b15240a	0.0022757077
106	0xbccc928d	-0.024972225
107	0xbc3e4a75	-0.011614432
108	0xbb3cb9c6	-0.0028797253
109	0x3b4edd4d	0.003156501
110	0x3c9c233e	0.019059774
111	0xbb024c92	-0.0019882065
112	0x3d48e4de	0.04904639
113	0xbcfbfaa7	-0.030759169
114	0x3d599bec	0.053127214
115	0xba81c3c6	-0.0009900264
116	0xbd5751cd	-0.052568246
117	0xbb76b749	-0.0037645868
118	0x3e1039a6	0.14084491
119	0xbccb46f3	-0.024814105
120	0xbcc87ddb	-0.024474075
121	0xbafe2487	-0.0019389548
122	0x3cd6d554	0.02622477
123	0xbc809e82	-0.015700582
124	0xbbc7669e	-0.006085231
125	0xbc89099c	-0.016728215
126	0x3c7f7d76	0.015593877
127	0xbd2f825a	-0.042848922
128	0x3d08e37a	0.033420064
129	0x3d017231	0.031603042
130	0xbb45001f	-0.0030059887
131	0xbad764d7	-0.0016433251
132	0xbbb1decb	-0.0054281703
133	0x3d1f895e	0.038949363
134	0xbcc540eb	-0.024078807
135	0xbbf128cd	-0.0073596
136	0xbd1b0b3f	-0.037852522
137	0xbcc57747	-0.024104727
138	0x3d485b5d	0.048915256
139	0xbde9b81c	-0.11412069
140	0x3c92c733	0.017917251
141	0xbbad8dd0	-0.0052964464
142	0xbda3885c	-0.07984993
143	0x3d3e9410	0.046527922
144	0xbbe4a7f5	-0.00697803
145	0x3d467178	0.048448056
146	0xbc2cbcb5	-0.010543038
147	0x3c92bb2c	0.017911516
148	0xbd0e88fc	-0.034798607
149	0xbb315193	-0.0027056679
150	0x3d1aa69a	0.03775654
151	0xbaf7b42f	-0.0018898303
152	0xbbfd0fe3	-0.007722841
153	0x3be329c8	0.006932471
154	0x3ce00bec	0.027349435
155	0xbbe5e742	-0.0070160935
156	0x3d019c4a	0.03164319
157	0x3bc03c48	0.005866561
158	0xbcf2c707	-0.02963592
159	0x3d144792	0.036201067
160	0xbbe5b253	-0.0070097833
161	0x3c585fb9	0.013206416
162	0xbca2d788	-0.019878164
163	0xbc1e8113	-0.009674328
164	0x3c9b277b	0.018939724
165	0x3b4bf226	0.0031119674
166	0x3b928f99	0.0044726846
167	0x3c2e7245	0.010647361
168	0x3ca70c94	0.02039174
169	0xbb87f308	-0.0041488446
170	0x3c28daa1	0.010306031
171	0x3cb7d5f6	0.022440892
172	0xbd1a3491	-0.037647787
173	0x3bc7cc34	0.006097341
174	0xbb9014a8	-0.0043969937
175	0xbc89bcfc	-0.016813748
176	0x3c3613c7	0.011113114
177	0x3cd8c96e	0.026463237
178	0xbc872bc3	-0.01650036
179	0x3baa7fef	0.005203239
180	0x3d2337d2	0.039848156
181	0x3ce4e110	0.02793935
182	0x3d4fb19a	0.050706483
183	0xbc0cdd3d	-0.008597669
184	0x3c5f07af	0.013612672
185	0xbb63f924	-0.003478595
186	0xbcfabbea	-0.030607183
187	0xbb91a502	-0.0044447193
188	0xbac112ee	-0.0014730373
189	0x3c166cd6	0.009181222
190	0xbb836bc0	-0.0040106475
191	0xbca3b5cf	-0.019984154
192	0x3c60c683	0.013719204
193	0xbb18126a	-0.0023204335
194	0x3d1abe18	0.037778944
195	0xbc8d01d6	-0.01721279
196	0xbd38a6b6	-0.045080863
197	0x3ccbedbd	0.024893636
198	0xbd5db08e	-0.054123454
199	0x3c2595ca	0.010106513
200	0x3d26b589	0.04070047
201	0x3ba9ac7a	0.0051780315
202	0x3c9e4820	0.019321501
203	0x3c9c797f	0.019100903
204	0xbcfcdf46	-0.030868184
205	0x3d23f534	0.040028766
206	0x3c4c4599	0.012467765
207	0x3aa891a3	0.0012860786
208	0x3c999bf6	0.018751126
209	0x3cc457cd	0.023967648
210	0xbb2ead75	-0.0026653681
211	0xbc9bc23d	-0.019013518
212	0x3ba92c92	0.005162784
213	0xbd364c3b	-0.044506293
214	0x3d06941a	0.032856084
215	0x3c9bb070	0.01900503
216	0x3c1c132e	0.009526057
217	0xbd292113	-0.041291308
218	0xbb927492	-0.0044694627
219	0xbc920529	-0.017824726
220	0x3be7bc44	0.0070720036
221	0xbb8ae77b	-0.0042390204
222	0x3d150d94	0.036389902
223	0x3c36a29d	0.011147168
224	0x3c981520	0.01856476
225	0x3c98ac09	0.01863672
226	0xbc9a378a	-0.018825311
227	0xbc615bdd	-0.013754812
228	0xbd841d2e	-0.06450878
229	0xbc0296aa	-0.007970491
230	0xbd259d93	-0.040433478
231	0x3cc92788	0.024554983
232	0xbcbebf73	-0.02328465
233	0x3cb790cb	0.02240791
234	0xbd4f3ba8	-0.050594002
235	0x3ce41d67	0.027846051
236	0x3caccac1	0.021092774
237	0x3bf9904a	0.0076160775
238	0x3c69a879	0.014261358
239	0xbd6d0422	-0.05786527
240	0xbde2e880	-0.11079502
241	0xbd2eaf5b	-0.0426477
242	0xbd1c50d8	-0.038163036
243	0xbd81179e	-0.06303333
244	0x3bcdaac5	0.006276461
245	0xbc8a7c40	-0.01690495
246	0xbc8634c2	-0.016382579
247	0xbd9692ba	-0.073522046
248	0xbd285a6f	-0.04110187
249	0xbd07d80f	-0.033165034
250	0xbca95df6	-0.020674687
251	0x3d21ff5d	0.039550174
252	0x3c840df6	0.016119938
253	0x3d0229a6	0.031778
254	0x3be21814	0.006899843
255	0xbc1c1248	-0.009525843

_model.1._model.0.bias f4 [256]
0	0x3cc98538	0.024599656
1	0x3cb63fdf	0.022247253
2	0x3cde6747	0.027148856
3	0xbaf6d281	-0.0018831046
4	0xbc546699	-0.012963914
5	0x3b833730	0.0040043816
6	0x3c29932e	0.010350032
7	0xbd70e56f	-0.058812555
8	0x3d2999c0	0.041406393
9	0xbc9f7d19	-0.01946883
10	0xbc7e1b85	-0.015509491
11	0x3c234cce	0.009967042
12	0x3b971c71	0.004611545
13	0xbad444e7	-0.0016194851
14	0xbc034fff	-0.008014678
15	0x3dbb7e95	0.09155003
16	0x3d3acb1e	0.045603864
17	0x3a63b0f8	0.0008685733
18	0xbad96e2f	-0.0016588623
19	0xbc577cbc	-0.013152298
20	0x3cab31f1	0.020897837
21	0xbcc5e5da	-0.024157453
22	0x3dc36bb2	0.095420256
23	0xbd46bca9	-0.048519764
24	0x3d694541	0.05695081
25	0xbd817970	-0.063219905
26	0xbc8bd699	-0.017070102
27	0x3cb21a44	0.02174104
28	0xbc094d7e	-0.008380292
29	0x3c828810	0.01593402
30	0xbc8b5656	-0.017008942
31	0xbcce64bc	-0.025194518
32	0x3d18f8b6	0.037346564
33	0x3d0cd621	0.034383897
34	0xbcba6a04	-0.02275563
35	0x3d8032ac	0.06259665
36	0x3c0077fe	0.007841108
37	0xbc8a275c	-0.016864471
38	0x3da71cd1	0.08159793
39	0x3c2c3a30	0.01051192
40	0xbb87d2a3	-0.004144983
41	0xbd23c9d4	-0.0399874
42	0xbc578b64	-0.013155792
43	0xbc711672	-0.014714824
44	0xbd1864e5	-0.037205596
45	0x3d1e2d70	0.03861755
46	0xbd4b68d5	-0.049660522
47	0xbd79f93a	-0.061028697
48	0x3cc3ac0c	0.02388575
49	0x3cbe7af6	0.023251992
50	0xbc5e6be3	-0.013575527
51	0x3cb0ebc4	0.021596797
52	0x3d68b590	0.056813776
53	0x3d1042bc	0.035219893
54	0xbc847665	-0.016169736
55	0x3c6bcac2	0.014391603
56	0x3bee1678	0.007265862
57	0x3ccdd36c	0.025125228
58	0xbd322858	-0.043495506
59	0x3d68e0b3	0.056854915
60	0x3da1374b	0.078718744
61	0x3d3e1326	0.04640498
62	0x3b1c058f	0.0023807024
63	0x3b0f20c2	0.0021839594
64	0x3cdc9fa1	0.026931586
65	0x3d2a97aa	0.041648544
66	0xbba6cbea	-0.0050902264
67	0x3c2f4015	0.010696431
68	0xbc8ec7f3	-0.017429328
69	0xbcb6235d	-0.02223366
70	0x3c25bf1a	0.010116363
71	0xbc8d01b0	-0.017212719
72	0x3d320fd0	0.04347211
73	0xbd0ed5c1	-0.03487182
74	0xbd675bbb	-0.056483965
75	0xbacc0eba	-0.0015568354
76	0xbd30ceb3	-0.043165874
77	0xbc92dca4	-0.017927475
78	0xbbe5763a	-0.007002619
79	0x3cefd9b1	0.029278608
80	0x3c494151	0.012283639
81	0x3c8ce4cb	0.01719894
82	0xbc165844	-0.009176318
83	0xbcf90751	-0.030398997
84	0xbbffbaf4	-0.007804269
85	0x3d4f6ed3	0.0506428
86	0xbc92d1c2	-0.017922286
87	0x3b51b88e	0.0032000872
88	0xbd6a330d	-0.057177592
89	0xbb806ede	-0.0039194664
90	0x3cb63ecd	0.022246743
91	0xbcf8eb19	-0.03038554
92	0xba469ec8	-0.0007576761
93	0xbbe41de0	-0.006961569
94	0x3bd05a68	0.0063584335
95	0xbc51cb60	-0.012804836
96	0xbd07a1e5	-0.03311338
97	0x3c48657f	0.01223123
98	0x3e11b949	0.14230837
99	0xbbdf2c87	-0.006810728
100	0xbc9c36dc	-0.019069128
101	0xbd1eb6b0	-0.038748443
102	0xbc96764e	-0.018366959
103	0xbd089698	-0.033346742
104	0x3dbfc987	0.0936461
105	0x3c2c2bbb	0.010508473
106	0xbc9b3b06	-0.018949043
107	0xbafbdb68	-0.0019215168
108	0x3d8fd2b8	0.07022613
109	0x3c8a2f2a	0.016868193
110	0xbccc94ae	-0.02497324
111	0x3db61cf0	0.08892238
112	0x3acb7ec0	0.0015525445
113	0x3c507c23	0.012724909
114	0x3d0214a5	0.03175797
115	0xbd2393cf	-0.039935883
116	0x3d22ec7d	0.039776314
117	0x3d362749	0.04447106
118	0xbc18c8b0	-0.009325191
119	0xbd2f8b5f	-0.042857524
120	0x3c7d832d	0.015473169
121	0xbb51fe00	-0.0032042265
122	0x3c5484e7	0.0129711395
123	0xbc89a6e6	-0.016803216
124	0x3cd462aa	0.025925953
125	0x3d5583c7	0.052127626
126	0xbbcaaea6	-0.0061853705
127	0xbc55627e	-0.013023971
128	0x3c7f58a4	0.015585098
129	0x3ba800a5	0.00512703
130	0x3c16c9d6	0.009203395
131	0x3d018e9b	0.03163014
132	0xbd7ffebc	-0.062498793
133	0x3b8a3d06	0.0042187003
134	0x3c4e8e96	0.012607237
135	0x3dce8b02	0.100851074
136	0x3c915bb9	0.017743932
137	0xbd0382fb	-0.032107335
138	0x3d8c7609	0.06858451
139	0x3d600cc3	0.05469967
140	0xbc978f5c	-0.018500976
141	0xbc3ce291	-0.011528627
142	0x3cc70e69	0.024298863
143	0xbcad9858	-0.021190807
144	0x3ce3cfb8	0.027809009
145	0x3d419649	0.047262464
146	0x3d837bd3	0.06420102
147	0xbd07a12d	-0.033112694
148	0x3c928ab5	0.017888406
149	0x3cda7452	0.026666794
150	0x3d30946d	0.0431103
151	0xbac618b1	-0.001511356
152	0xbcde8f00	-0.027167797
153	0xbd253974	-0.040337995
154	0x3c28d823	0.010305437
155	0xbd9c39a1	-0.07628179
156	0xbd55efb3	-0.052230548
157	0xbc520b28	-0.012820043
158	0xbc020324	-0.007935319
159	0x3d1431c5	0.036180276
160	0xbd8c341d	-0.06845877
161	0x3cb5140f	0.022104291
162	0xbce86694	-0.028369226
163	0xbc98dfad	-0.018661344
164	0xbc0c0fc4	-0.008548681
165	0xbd021b4f	-0.031764325
166	0x3dd0950a	0.10184677
167	0x3e3b616d	0.18298884
168	0x3d5abe9a	0.053404428
169	0xbb94dee0	-0.0045431703
170	0x3d3957ec	0.045249864
171	0x3cae4b0e	0.021276023
172	0xbda5a2a7	-0.08087664
173	0x3d1fd6ca	0.0390232
174	0xbcf9ee7e	-0.03050923
175	0x3d64de48	0.055876046
176	0xbd5970ae	-0.053085975
177	0x3d997976	0.0749387
178	0xbd4fbc86	-0.0507169
179	0xbc666e3a	-0.014064366
180	0x3c55a4b1	0.013039754
181	0xbca9509b	-0.020668318
182	0xbd18670c	-0.03720765
183	0xbd762940	-0.060097933
184	0xbcc09ecb	-0.023513218
185	0x3b8f0ef4	0.004365796
186	0xbc4b021f	-0.012390642
187	0xbcf4c791	-0.029880317
188	0x3d4f76aa	0.050650276
189	0x3d6ee90b	0.058327716
190	0xbbeca0a5	-0.0072212988
191	0x3da084d9	0.07837839
192	0x3d23b1a1	0.039964322
193	0x3c02cbdc	0.007983174
194	0x3c1d3fcd	0.009597731
195	0xbb25449f	-0.0025217903
196	0x3dcfd6e8	0.10148412
197	0x3c51d77f	0.012807726
198	0xbd248304	-0.04016401
199	0x3c9bd000	0.01902008
200	0x3c4e5807	0.01259423
201	0x3cd346bf	0.02579057
202	0x3d4ac23d	0.049501646
203	0xbc839d08	-0.01606609
204	0x3c966663	0.018359369
205	0xbcd8ce37	-0.026465518
206	0xbb35a3fc	-0.002771615
207	0x3aab3ee8	0.0013065012
208	0xbbb8f436	-0.0056443466
209	0x3ca4f789	0.020137565
210	0x3d438339	0.047732566
211	0x3d72090b	0.059090655
212	0x3d6a589e	0.05721342
213	0x3c37819e	0.011200337
214	0xbc105bac	-0.008810919
215	0x3bf1f309	0.0073837084
216	0xbca73725	-0.020412037
217	0xbb8082a3	-0.003921823
218	0x3c608eb3	0.013705897
219	0x3d11e1c8	0.035615712
220	0x3b971dfe	0.0046117296
221	0x3d091148	0.033463746
222	0x3d5c1e97	0.05374011
223	0xbbb7cace	-0.005608893
224	0x3c3eefa2	0.011653813
225	0x3b0b9ca0	0.0021303073
226	0xbc26c40c	-0.010178577
227	0xba954bde	-0.0011390408
228	0x3d3130f6	0.043259583
229	0x3c80a7c1	0.015704991
230	0x3c8c5ba4	0.017133541
231	0x3c94a6a8	0.018145874
232	0x3c3e1a97	0.011603019
233	0xbd2f6270	-0.042818487
234	0x3a234160	0.0006227698
235	0x3d228f97	0.03968772
236	0xbc5dea3d	-0.013544616
237	0x3b986b74	0.0046514813
238	0xbb5b0255	-0.0033418138
239	0xbb3cb204	-0.002879263
240	0x3d0adbe4	0.03390111
241	0xbb45c22e	-0.0030175555
242	0x3d9eee2f	0.07760274
243	0x3c76b66e	0.015058143
244	0x3d0ac14f	0.03387576
245	0x3d606aaa	0.054789223
246	0x3b965a9e	0.004588439
247	0xbdb10684	-0.08643821
248	0xbbc6e26a	-0.006069471
249	0x3c285fd0	0.01027675
250	0x3d07d981	0.033166412
251	0x3c40e42b	0.0117731495
252	0x3c664e46	0.014056748
253	0xbd20af9f	-0.039229985
254	0xbb7bb971	-0.0038410092
255	0xbcfc36f5	-0.030787924

_model.2._model.0.weight f4 [51, 256]
0	0x3db19862	0.08671643
1	0x3d9abb99	0.07555313
2	0x3ac909ac	0.0015337965
3	0x3c9183d8	0.017763063
4	0xbd107272	-0.035265394
5	0x3c8f8214	0.01751808
6	0xbc9b7b8d	-0.018979812
7	0xbd10d143	-0.035355818
8	0xbcd9ac43	-0.026571399
9	0xbd76676e	-0.060157232
10	0x3e0a80d6	0.1352571
11	0xbd8a633b	-0.06757208
12	0xbd13fdef	-0.03613084
13	0x3d6ca950	0.057778656
14	0x3999897a	0.00029284862
15	0x3d90e7e0	0.07075477
16	0xbc4968ca	-0.01229305
17	0x3d2602d6	0.04053005
18	0x3cba3b08	0.022733226
19	0x3d352cc2	0.044232138
20	0xbdb6370b	-0.08897217
21	0x3d065a20	0.032800794
22	0x3bc7fd39	0.0061031845
23	0x3b549cfa	0.0032442198
24	0x3debfbe7	0.11522656
25	0x3d7547dc	0.059882984
26	0xbd2fc5b5	-0.042913157
27	0xbca03916	-0.01955847
28	0x3d463103	0.048386585
29	0x3d696b60	0.056987166
30	0x3d8bda5d	0.06828759
31	0x3cfd355d	0.030909235
32	0xbd44d7d8	-0.048057407
33	0x3c76d309	0.015064963
34	0xbde8c734	-0.1136612
35	0xbc898afc	-0.016789906
36	0x3da5c046	0.08093314
37	0xbd864016	-0.06555192
38	0x3bba151b	0.0056787855
39	0xbc8484ee	-0.016176667
40	0xbd23892a	-0.03992573
41	0xbb264a17	-0.002537375
42	0x3df68a3c	0.12038085
43	0x3d4b53b3	0.04964037
44	0x3d4f214f	0.050568875
45	0xbddf8dc3	-0.10915711
46	0x3bc159bd	0.00590059
47	0x3db373dc	0.08762333
48	0x3dacfa40	0.08446169
49	0x3c697210	0.014248386
50	0x3caefc72	0.02136061
51	0xbce0b17b	-0.02742838
52	0x3cf1823e	0.02948105
53	0x3ba4613a	0.005016473
54	0xbd2c6464	-0.042087927
55	0xbd230780	-0.039802074
56	0xbbede200	-0.0072596073
57	0xbc1d328b	-0.00959457
58	0xbbaf1d63	-0.0053440793
59	0x3d9b01d6	0.075687096
60	0xbdbd7dae	-0.09252487
61	0xbdba7a38	-0.091053426
62	0x3b1b9be6	0.0023744046
63	0x3da98a3d	0.0827832
64	0x3db1ac77	0.08675473
65	0x3c83595e	0.016033825
66	0x3d457c89	0.04821447
67	0xbd8265b0	-0.063670516
68	0x3d21fbd1	0.03954679
69	0x3cef9eee	0.029250588
70	0xbd896552	-0.067087784
71	0xbda4f880	-0.0805521
72	0xbd376f98	-0.04478416
73	0xbd33fbec	-0.043941423
74	0xbdb2daa4	-0.08733109
75	0x3b79ab06	0.0038096323
76	0x3e47a4ff	0.19496535
77	0xbdbf0270	-0.09326637
78	0x3bcb2285	0.0061991834
79	0x3d914993	0.07094111
80	0xbbead1b1	-0.0071661104
81	0x3cb9ac61	0.022665204
82	0x3c1fec55	0.009760936
83	0x3c22efa4	0.00994483
84	0xbc90e2ad	-0.017686212
85	0x3d803f5b	0.06262084
86	0x3d856cc5	0.06514887
87	0xbd8eb5f6	-0.069683
88	0xbd08b870	-0.03337902
89	0xbd9a3212	-0.075290814
90	0x3d6907c4	0.05689217
91	0x3d6fc4bf	0.05853724
92	0xbddad4b8	-0.10685104
93	0x3d40c88f	0.047066268
94	0xbc1612e5	-0.009159778
95	0xbd059c50	-0.032619774
96	0xbcb6fbee	-0.022336926
97	0x3cc34ac3	0.02383936
98	0xbdb2afdd	-0.087249495
99	0x3aa7641a	0.0012770921
100	0x3d379dec	0.04482834
101	0xbd1e4201	-0.038637165
102	0x3ba5ef0a	0.005063896
103	0xbdad491b	-0.084612094
104	0xbd921a76	-0.07133953
105	0x3d88a65e	0.06672357
106	0x3c5af09b	0.013363029
107	0x3c940134	0.01806698
108	0xbde585b9	-0.11207146
109	0xbe002aef	-0.12516378
110	0xbd4efcd0	-0.05053407
111	0xbc63d33d	-0.013905344
112	0xbda03cf0	-0.07824123
113	0x3d469821	0.048484925
114	0xbba633eb	-0.005072107
115	0x3c3193de	0.010838477
116	0xbb3ad817	-0.0028510147
117	0x3cf84d96	0.030310433
118	0x3e04b7f2	0.12960795
119	0xbdcdcf71	-0.10049332
120	0xbde6206d	-0.112366535
121	0xbbc061e9	-0.005871047
122	0xbb0fbc3f	-0.0021932272
123	0x3d310885	0.043221015
124	0x3c7f933f	0.015599071
125	0x3dae8809	0.085220404
126	0xbdeda9f2	-0.1160468
127	0xbdebfcb4	-0.11522809
128	0x3d8ba47d	0.06818483
129	0x3ac04086	0.0014667667
130	0x3cea676c	0.028613769
131	0x3e1237cb	0.14279096
132	0x3dac76bf	0.084210865
133	0xbcf86575	-0.030321816
134	0x3ce4de71	0.0279381
135	0xbca4983a	-0.020092119
136	0xbd2e1bdd	-0.04250704
137	0xbd9d859b	-0.07691499
138	0x3ba336e9	0.004980911
139	0xbc63422b	-0.013870756
140	0xbd1519ed	-0.036401678
141	0x3d962552	0.07331337
142	0x3d13a290	0.036043704
143	0x3d4d41db	0.050111633
144	0x3e0061f5	0.12537368
145	0x3d0f834e	0.03503733
146	0xbdb1fe49	-0.08691079
147	0xbd3fecd2	-0.04685671
148	0x3c6eaf2f	0.014568134
149	0x3daff30e	0.08591281
150	0x3d16c4ad	0.03680866
151	0xbd002d56	-0.031293236
152	0xbde9955a	-0.1140544
153	0x3c2b4bfa	0.010455126
154	0x3d54a46b	0.051914614
155	0xbdfdfbee	-0.124015674
156	0xbe322869	-0.17398228
157	0x3b826cd2	0.0039802575
158	0xbbabdb34	-0.005244637
159	0xbd159265	-0.036516566
160	0xbc01590a	-0.007894764
161	0xbce4120f	-0.027840642
162	0xbd254aeb	-0.04035465
163	0x3d737283	0.05943538
164	0x3d7c6dd1	0.061628167
165	0xbd8db285	-0.069188155
166	0x3ddecf38	0.108793676
167	0x3e5b2201	0.2139969
168	0x3c92a18f	0.017899303
169	0x3cc6553e	0.024210569
170	0xbba866fb	-0.0051392294
171	0x3cbecb8b	0.023290416
172	0x3dada9d6	0.08479659
173	0x3d84837a	0.0647039
174	0xbd9485eb	-0.07252105
175	0xbc08c349	-0.008347341
176	0x3d01135d	0.031512607
177	0xbce90206	-0.028443348
178	0x3d6bbbca	0.057552136
179	0xbd2763f5	-0.04086681
180	0x3ccd1691	0.025035175
181	0xbdc16ef3	-0.0944499
182	0xbcd68f1f	-0.026191292
183	0x3d800c85	0.06252388
184	0x3d8c0279	0.06836409
185	0xbdaeb2fe	-0.08530234
186	0x3d52c2a2	0.051455148
187	0x3db44d4a	0.08803804
188	0x3d2593a9	0.040424023
189	0xbdb980c4	-0.09057763
190	0xbc7374f8	-0.0148594305
191	0x3d802bbb	0.06258341
192	0xbd11be4b	-0.03558187
193	0x3d409469	0.047016535
194	0xbd4f3be3	-0.05059422
195	0xbd5608a5	-0.052254338
196	0xbd35f180	-0.044419765
197	0x3d5ad669	0.053427134
198	0xbe115147	-0.14191161
199	0x3d854db3	0.065089606
200	0x3cede9a8	0.02904208
201	0xbe319b1c	-0.17344326
202	0xbc9dc057	-0.019256754
203	0x3ca4fc6c	0.020139895
204	0xbd8a56cd	-0.06754837
205	0x3c4fe3ec	0.012688618
206	0x3d3d0818	0.046150297
207	0xbcd56bee	-0.026052441
208	0xbd499523	-0.049214493
209	0xbaaa05a1	-0.0012971648
210	0xbd38e7b2	-0.045142837
211	0x3d3dcec0	0.04633975
212	0x3e35b47a	0.17744628
213	0xbcc7c5d7	-0.02438633
214	0x3b4adee4	0.0030955607
215	0x3bb990ae	0.005662999
216	0xbd8b457e	-0.06800364
217	0xbd80dc02	-0.06291963
218	0x3cc3bcaf	0.023893682
219	0xbb98fe72	-0.004669004
220	0xbd9f0702	-0.077650085
221	0xbbe581df	-0.007004007
222	0x3d04834c	0.032351777
223	0x3cf3907c	0.029731981
224	0xbcd16ea3	-0.025565451
225	0xbda2dd34	-0.079523474
226	0x3c665f85	0.01406086
227	0xbcab2dde	-0.020895895
228	0xbd8c790d	-0.06859026
229	0xbe62c26f	-0.22144483
230	0xbc5a07a8	-0.013307489
231	0xbd28cf79	-0.041213486
232	0x3dfa0abc	0.12209079
233	0x3d86c948	0.0658136
234	0xbdccc830	-0.0999912
235	0xbb5b7213	-0.0033484742
236	0x3ccec0e3	0.02523846
237	0x3d386ec0	0.045027494
238	0x3c5d18f8	0.013494723
239	0xbaf00245	-0.0018311223
240	0xbcb555c7	-0.022135628
241	0xbce563e4	-0.028001733
242	0x3dcea510	0.10090077
243	0xbaa0dbef	-0.0012272577
244	0x3ca54c40	0.02017796
245	0xbc9a957b	-0.018870106
246	0x3d82f265	0.06393889
247	0xbca0808b	-0.019592544
248	0xbd826c7c	-0.06368348
249	0xbc8fecfb	-0.017569056
250	0xbcb2b701	-0.021815779
251	0xbcf3d7be	-0.02976596
252	0xbc0e9851	-0.008703307
253	0x3d8234e0	0.06357741
254	0xbca96e99	-0.02068262
255	0xbc0ba3b8	-0.00852292

_model.2._model.0.bias f4 [51]
0	0x3e12842c	0.14308232
1	0x3b59555a	0.0033162446
2	0x3aad49d0	0.001322085
3	0xbe0b6848	-0.13613999
4	0xbd6ede71	-0.058317605
5	0x3dc73dd5	0.097285904
6	0x3e80a27a	0.2512396
7	0xbcab88dc	-0.020939283
8	0xbdb5c3c8	-0.08875233
9	0xbe37c0d2	-0.17944649
10	0x3d58aad6	0.052897297
11	0xbd914c7f	-0.070946686
12	0xbdbae067	-0.091248326
13	0x3d2f5442	0.042804964
14	0xbc5b0278	-0.013367288
15	0x3eacd986	0.33759707
16	0x3d86c86b	0.065811954
17	0x3db433ea	0.08798964
18	0xbcfd044d	-0.03088584
19	0xbd856872	-0.06514062
20	0x3d36e693	0.044653486
21	0xbcf00545	-0.029299388
22	0x3d414869	0.047188196
23	0x3c15ca65	0.009142493
24	0xbd2f06bb	-0.042731028
25	0xbce33433	-0.027734851
26	0x3c9090c7	0.01764716
27	0xbc90803b	-0.01763927
28	0xbdc4e216	-0.09613435
29	0x3c9916d5	0.018687645
30	0xbd9e12ea	-0.07718451
31	0xbd8980de	-0.067140326
32	0xba5ded41	-0.00084658345
33	0x3d36774c	0.044547364
34	0x3d52a51f	0.051427003
35	0xbd327102	-0.043564804
36	0x3dc24563	0.09485891
37	0x3da23957	0.07921093
38	0xbd9d34dc	-0.07676098
39	0xbd1dfea7	-0.038572934
40	0xbdf0d364	-0.117590696
41	0xbe186ad9	-0.14884509
42	0xbd504e08	-0.050855666
43	0xbda5e69e	-0.08100627
44	0x3d276252	0.04086525
45	0xbb277e16	-0.002555733
46	0xbde5bd00	-0.112176895
47	0x3bb3c872	0.0054865414
48	0xbd050746	-0.03247764
49	0x3d406fb4	0.04698153
50	0xbd9356b8	-0.07194275
