data/etc/pretrained_model/fencing/task_agnostic_policy_body_encoder_exp22_3000.pt (torch_old, 181915 bytes, 6 tensors)

_model.0._model.0.weight f4 [128, 279]
-0.020764474 0.014028636 -0.053843822 -0.21662633 0.21849768 0.46506256 -0.08717934 -0.009532218
0.019143816 -0.0800552 0.027887963 -0.038409863 -0.013249909 -0.06773076 0.049067806 0.15357609
-0.100770526 0.07686913 0.12962353 -0.027794661 0.09017407 0.0037940766 -0.18303485 -0.09963684
0.01236542 0.008714929 0.16017699 0.116443925 0.29395613 -0.2978054 0.11161939 0.21941327
-0.0032983574 0.18935755 -0.10287826 -0.051351342 -0.040062487 -0.01909992 0.032842856 0.16637021
0.509522 0.34084085 -0.17507616 -0.06406719 0.120832846 -0.0029879813 0.014535699 0.014934155
0.052991994 -0.10939123 0.08368875 0.040260207 0.014843836 0.11742207 0.13201313 -0.03173798
-0.19765043 0.09141098 -0.031759646 0.10670853 0.08985795 -0.03328601 -0.05704434 -0.0025099446
0.01986109 0.09088467 0.011925401 0.111242756 -0.40136588 -0.0967679 -0.11652553 -0.058825627
0.17775841 0.017987609 -0.106731325 0.09096907 -0.017156087 0.05478156 0.13658814 -0.11427323
0.14490576 -0.15638807 -0.17204566 0.11584118 -0.051047374 0.1100578 0.023062669 -0.14011684
-0.0036874171 -0.052968822 -0.1413854 -0.4390138 -0.040052455 -0.17577907 -0.122657634 0.060548544
0.37232825 -0.016688123 -0.040222142 0.062789224 -0.21388051 -0.042112593 -0.005456572 -0.010454235
-0.30070874 0.04014027 -0.19868502 -0.08337721 -0.15202713 0.1899717 0.008058169 -0.010356453
-0.021388995 -0.16004692 0.027135344 -0.14610064 0.0081885625 -0.14865914 0.0061284057 -0.16730313
-0.24892518 0.043904148 0.13029703 -0.08378647 -0.085736535 0.040806927 -0.079585515 -0.00652374
-0.085945874 -0.001964665 -0.23400033 0.009733796 -0.17392936 -0.14468437 0.027199863 0.0320969
-0.07198585 -0.033921912 0.09752936 -0.08832421 0.00836969 -0.019738365 0.029090589 -0.2877519
0.10828554 -0.23679772 -0.15327477 -0.0049495106 -0.041494794 -0.030479431 -0.050047047 0.06736015
-0.07322309 0.010400506 0.048586115 0.054180354 -0.1678027 -0.030139266 -0.17834984 -0.046067227
0.0033760457 0.087301105 0.09196843 -0.089981325 0.113407806 -0.11767015 -0.02870901 0.02738098
0.0639634 -0.012900035 0.07328219 -0.046662804 -0.1183634 0.0875816 0.007979554 0.10884335
0.00064291 -0.047796804 -0.14732121 -0.022596862 0.0051394654 0.0056621376 0.011377839 0.02100807
-0.13831076 -0.0037326447 0.044254415 -0.063858144 -0.0054085306 0.17359617 0.11950735 -0.09512319
-0.0022063486 -0.04636096 -0.014400916 -0.05779904 0.027331013 -0.22919217 -0.019058827 0.11873049
0.014241705 0.040260915 0.053590953 0.05958874 -0.09132752 -0.012258776 0.042537544 -0.04045152
-0.031520855 -0.11579782 -0.20169686 -0.35899583 0.00038133288 0.008845775 -0.022872953 -0.17082186
0.14282025 -0.15327702 0.024786182 -0.04629582 0.031560544 0.046052046 -0.033572845 -0.25112894
-0.10184749 -0.014206016 -0.12938713 -0.03364661 -0.09243295 0.07143215 -0.044516537 0.036918838
0.05484773 -0.05599954 -0.06018326 -0.011917435 -0.24828237 0.03310573 0.033813514 -0.1701452
-0.04871222 0.085924424 0.19966748 0.08385448 -0.022926223 -0.06004846 -0.06653831 -0.06944061
0.027831577 -0.11053606 0.14974241 -0.05822833 -0.1422547 0.05348471 -0.04493563 0.12098083
00000000: 421a aabc 5dd8 653c 578b 5cbd 4bd3 5dbe
00000010: dbbd 5f3e ae1c ee3e 158b b2bd 052d 1cbc
00000020: 7ed3 9c3c fbf3 a3bd 4c75 e43c a953 1dbd
00000030: 2516 59bc 6db6 8abd 53fb 483d 0d43 1d3e
00000040: c760 cebd 906d 9d3d 08bc 043e a1b1 e3bc
00000050: 2fad b83d 0ba6 783b 7d6d 3bbe 660e ccbd
00000060: 5598 4a3c 10c9 0e3c 7005 243e 277a ee3d
00000070: 6b81 963e f379 98be b598 e43d dfad 603e
00000080: 4129 58bb f2e6 413e d6b1 d2bd c955 52bd
00000090: 9018 24bd 6f77 9cbc 3b86 063d f45c 2a3e
000000a0: 0970 023f b182 ae3e 2a47 33be a935 83bd
000000b0: 3677 f73d 02d2 43bb 2427 6e3c 63ae 743c
000000c0: 220e 593d 8208 e0bd 0265 ab3d e3e7 243d
000000d0: 9033 733c fb7a f03d 732e 073e afff 01bd
000000e0: e064 4abe ae35 bb3d 6716 02bd 008a da3d
000000f0: 7207 b83d e956 08bd 53a7 69bd e27d 24bb
00000100: bab3 a23c be21 ba3d c262 433c 3ed3 e33d
00000110: d47f cdbe 402e c6bd f0a4 eebd 24f3 70bd
00000120: 4d06 363e c05a 933c f495 dabd fe4d ba3d
00000130: ec8a 8cbc a162 603d c3dd 0b3e 1508 eabd
00000140: 2d62 143e 3224 20be bd2c 30be 243e ed3d
00000150: 0d17 51bd fc65 e13d eced bc3c ca7a 0fbe
00000160: 98a8 71bb d6f5 58bd 56c7 10be 6bc6 e0be
00000170: 0b0e 24bd 6eff 33be ed33 fbbd c001 783d
00000180: cfa1 be3e 88b5 88bc f9bf 24bd a397 803d
00000190: 7e03 5bbe 417e 2cbd 0bcd b2bb 3d48 2bbc
000001a0: 7ff6 99be 206a 243d 1674 4bbe acc1 aabd
000001b0: 00ad 1bbe f187 423e 6906 043c 1dae 29bc
000001c0: f937 afbc 57e3 23be f14a de3c 689b 15be
000001d0: 5229 063c 1a3a 18be cbd0 c83b 8351 2bbe
000001e0: 3ee6 7ebe d6d4 333d 966c 053e 3e98 abbd
000001f0: a396 afbd 2a25 273d bbfd a2bd 19c5 d5bb
00000200: 6404 b0bd 9cc1 00bb c89d 6fbe 807a 1f3c
00000210: 8a1a 32be 2428 14be 3fd2 de3c 0a78 033d
00000220: 516d 93bd b4f1 0abd 79bd c73d 53e3 b4bd
00000230: 0621 093c 5ab2 a1bc 634f ee3c 3854 93be
00000240: cfc4 dd3d 1a7b 72be 10f4 1cbe 812f a2bb
00000250: 72f6 29bd 00b0 f9bc 22fe 4cbd 1ef4 893d
00000260: fdf5 95bd e266 2a3c 3c02 473d 38ec 5d3d
00000270: 79d4 2bbe 9fe6 f6bc 57a1 36be fdb0 3cbd
00000280: a640 5d3b ecca b23d f259 bc3d 2148 b8bd
00000290: 5a42 e83d 0cfd f0bd 282f ebbc 144e e03c
000002a0: 3eff 823d ab5a 53bc f914 963d 7f21 3fbd
000002b0: 8368 f2bd fb5d b33d adbc 023c 43e9 de3d
000002c0: f688 283a 95c6 43bd 5fdb 16be 0e1d b9bc
000002d0: f668 a83b 7489 b93b 1e6a 3a3c 1e19 ac3c
000002e0: 56a1 0dbe 639f 74bb 1e44 353d 0fc8 82bd
000002f0: 0b3a b1bb 32c3 313e 45c0 f43d f2cf c2bd
00000300: 6398 10bb fde4 3dbd d2f1 6bbc b0be 6cbd
00000310: 4ae5 df3c 5ab1 6abe 4221 9cbc f928 f33d
00000320: 0a56 693c a1e8 243d 3082 5b3d 5313 743d
00000330: ec09 bbbd 09d9 48bc d93b 2e3d 7eb0 25bd
00000340: 031c 01bd 6827 edbd 9f89 4ebe 4dce b7be
00000350: a2ed c739 dfed 103c 0f60 bbbc edeb 2ebe
00000360: 793f 123e a7f4 1cbe 640c cb3c b0a0 3dbd
00000370: a145 013d 12a1 3c3d ae83 09bd f993 80be
00000380: 6b95 d0bd 5ac0 68bc 0f7e 04be 07d1 09bd
00000390: 7d4d bdbd 054b 923d f956 36bd 3538 173d
000003a0: 03a8 603d c65f 65bd b982 76bd 5841 43bc
000003b0: bc3d 7ebe e099 073d 0a80 0a3d 8b3a 2ebe
000003c0: 7786 47bd 25f9 af3d a275 4c3e e6bb ab3d
000003d0: c6cf bbbc 60f5 75bd 3d45 88bd e136 8ebd
000003e0: 0cff e33c bb60 e2bd 1356 193e d480 6ebd
000003f0: 37ab 11be c912 5b3d 6c0e 38bd ccc4 f73d

_model.0._model.0.bias f4 [128]
-0.01946903 -0.0025260332 -0.006022083 -0.009990274 0.012198166 0.0028072798 0.010452574 -0.02148275
0.035480432 0.022802524 0.024467986 0.0073772348 0.02123714 -0.0038826617 -0.006796126 0.041766252
-0.0055936957 0.036889914 0.035244063 -0.017750181 -0.02343119 0.016752543 -0.0011071148 0.02964068
-0.0048014866 0.012152525 0.03307791 0.02678712 0.013071719 0.02407763 -0.020898268 0.042643964
0.022966642 -0.019176956 0.04493587 0.020738846 -0.009151889 0.03499715 0.027199036 0.03416668
0.02530597 -0.0014035292 -0.019883296 -0.027225124 -0.011337265 0.03478937 -0.0057523623 0.0061353385
0.019951858 -0.032276995 0.026338097 0.021653669 0.028921016 -0.0059698382 0.020062672 -0.0028721176
0.032422926 0.007569878 0.004758393 0.009513585 0.0365927 0.009455261 0.006452795 0.0043736454
0.056591168 -0.003902358 0.028411405 0.026984971 0.003444846 0.018530093 0.016463207 0.010291377
0.01432648 -0.034306534 0.009566551 0.023304116 -0.0021509344 0.015017778 -0.011756266 0.018848931
-0.020300517 -0.012858855 -0.016454881 -0.00018904987 -0.01743058 0.0077805296 0.006797583 -0.006649333
0.036788236 4.6287092e-05 -0.023022356 0.053452812 0.024293086 0.03788896 0.0082394555 -0.008833343
0.02338896 0.02723213 0.016767263 0.034681607 -0.019634062 0.026107257 0.03238684 0.036932446
0.0061329915 0.027870337 0.02395191 0.019984845 0.028715644 0.05086211 0.012091385 -0.00586704
0.027834715 0.016923917 0.020031001 -0.010511824 -0.0023910906 -0.0017601072 -0.0075171404 -0.0021930498
0.009999445 0.021340393 0.0140534295 0.01091593 -0.002743534 0.018734861 0.010880643 0.0020031468
00000000: 847d 9fbc ce8b 25bb e554 c5bb 3fae 23bc
00000010: d1da 473c 57fa 373b 4641 2b3c 98fc afbc
00000020: ee53 113d 5ccc ba3c 1671 c83c bbbc f13b
00000030: 83f9 ad3c 4174 7ebb 09b2 debb 1713 2b3d
00000040: 524b b7bb e119 173d 145c 103d d468 91bc
00000050: c4f2 bfbc a13c 893c 9c1c 91ba 03d1 f23c
00000060: ca55 9dbb 621b 473c b47c 073d aa70 db3c
00000070: c32a 563c 733e c53c d832 abbc 70ab 2e3d
00000080: 8a24 bc3c fe18 9dbc ad0e 383d 83e4 a93c
00000090: cef1 15bc 2c59 0f3d 83d0 de3c 5cf2 0b3d
000000a0: 774e cf3c a0f6 b7ba 4be2 a2bc 3907 dfbc
000000b0: f0bf 39bc 4c7f 0e3d 507e bcbb f30a c93b
000000c0: 1472 a33c e234 04bd fec2 d73c 0963 b13c
000000d0: c4eb ec3c a29e c3bb 795a a43c 233a 3cbb
000000e0: e7cd 043d bd0c f83b 4bec 9b3b dede 1b3c
000000f0: 3ae2 153d 3dea 1a3c f871 d33b cc50 8f3b
00000100: 24cc 673d b4be 7fbb 09bf e83c 960f dd3c
00000110: edc2 613b 6ccc 973c d9dd 863c 2a9d 283c
00000120: 9db9 6a3c 0285 0cbd 06bd 1c3c 46e8 be3c
00000130: b1f6 0cbb 200d 763c 5a9d 40bc 1369 9a3c
00000140: 454d a6bc f2ad 52bc 63cc 86bc b03b 46b9
00000150: 93ca 8ebc d0f3 fe3b 42be de3b a6e2 d9bb
00000160: 43af 163d 6324 4238 6199 bcbc 56f1 5a3d
00000170: 4b02 c73c 7431 1b3d c8fe 063c bab9 10bc
00000180: 349a bf3c ea15 df3c 805b 893c 4d0e 0e3d
00000190: 9dd7 a0bc e3de d53c 10a8 043d 7a46 173d
000001a0: 43f7 c83b 5550 e43c cc36 c43c 42b7 a33c
000001b0: 123d eb3c ca54 503d f21a 463c 4c40 c0bb
000001c0: a105 e43c 07a4 8a3c 0e18 a43c c939 2cbc
000001d0: d8b3 1cbb 66b3 e6ba 5852 f6bb 45b9 0fbb
000001e0: b6d4 233c 0cd2 ae3c 5b40 663c bbd8 323c
000001f0: ddcc 33bb da79 993c b944 323c 3a47 033b

_model.1._model.0.weight f4 [64, 128]
0.13156667 -0.013801929 -0.049481153 0.087544225 -0.059639685 0.1344968 -0.009223184 0.029413095
0.07237293 -0.09156103 -0.021204546 -0.15912437 0.10526214 0.27593887 0.0010431885 -0.02353887
0.034130447 0.09460545 0.008174447 -0.021025902 0.02863302 -0.047408655 0.05099099 -0.02762588
-0.06036233 -0.03759756 0.103842214 -0.036891706 -0.019245006 -0.012325496 -0.15324837 -0.003679673
0.20203973 0.050623387 0.016992847 -0.09009872 -0.04615395 0.093854375 0.0050551477 -0.018983882
0.21099399 -0.02448067 -0.008290038 0.07662809 -0.051050045 0.13139921 -0.14802988 0.012904806
-0.07977655 -0.07093941 0.054051764 -0.0063728318 0.04917486 -0.003252083 0.004698296 -0.06356004
-0.11107639 -0.03706175 -0.009372261 -0.041721735 -0.077639215 0.02004471 -0.1189002 0.10833081
0.04696552 -0.10748309 -0.009515002 0.01841408 0.085647896 -0.106166266 0.22193037 -0.19739775
-0.15449587 -0.19753061 -0.052577563 0.0150502715 -0.01804739 0.06998717 -0.07478896 -0.18846707
0.08598748 0.06859019 0.10468442 0.042805087 -0.11085424 0.072885886 0.13699041 0.09390574
0.0651109 -0.07816831 0.06124574 -0.11303492 0.104212254 -0.011193754 -0.19268708 0.09946467
0.0077119833 0.049054716 0.07717176 -0.012796063 0.044342652 0.06160976 0.030712828 0.09642034
0.1854632 0.06078232 0.03556462 0.04370474 0.08498021 0.20872597 0.10154853 0.062991634
0.009959733 -0.011345108 0.06738473 -0.032932308 0.018527666 0.15485847 -0.024254803 0.059266306
0.15633188 -0.16544622 0.011901503 0.1074388 0.11681992 -0.10383416 -0.068002276 -0.03769367
-0.048015557 0.076317556 -0.08155336 -0.10037529 0.1104647 -0.015366563 0.023973813 0.044459343
-0.0074783824 0.042355496 -0.09366923 0.17732055 0.08700626 -0.05256022 -0.13874666 -0.063103236
-0.04551543 0.015296174 -0.0045487387 -0.18199153 0.04445627 0.07537988 0.19978382 -0.10348657
0.04920234 0.1059206 -0.16385378 0.0040579983 0.047398716 0.09596945 0.0103371255 -0.08033792
0.18407984 0.027640764 0.027927076 -0.028867623 0.16769613 -0.16396478 -0.07458165 -0.101182364
-0.0745539 0.0254654 -0.027223295 0.06188987 0.024792688 0.054222032 -0.091099925 -0.14789928
0.031016592 0.0387201 0.13062608 -0.16531898 -0.035815418 -0.15931341 0.23514724 0.053225983
0.052867644 0.0077519864 -0.11644707 0.04733942 0.094664104 0.018143518 -0.25025848 -0.0653441
0.06005716 0.055290762 -0.0011253458 0.05417074 0.03279555 0.06918343 -0.05918449 -0.0010229892
0.11998277 -0.13686575 -0.03209203 0.11622043 0.09259048 0.1460696 -0.15312412 0.16412574
0.06717016 0.08381252 -0.09178761 -0.057355158 -0.21802092 -0.10377264 -0.18117024 -0.0010498617
0.030640513 0.16167687 0.17244221 0.024346055 0.057485454 -0.11754112 -0.015360626 0.25195423
0.18863884 -0.016121354 -0.17964694 -0.110642895 -0.05847583 0.12350189 0.12791172 0.001967363
0.05492928 -0.12279613 0.011638426 0.05778821 -0.018457148 -0.05668288 0.2048827 -0.092288755
0.11670984 -0.017581362 0.149137 -0.029558275 -0.04642965 -0.1128662 -0.013234105 0.020607447
0.041597202 0.0463593 -0.034569 0.1266354 -0.22249271 0.16604061 -0.05331347 0.09620829
00000000: 6ab9 063e 7c21 62bc c0ac 4abd 634a b33d
00000010: be48 74bd 87b9 093e d61c 17bc bbf3 f03c
00000020: 4238 943d 5984 bbbd 28b5 adbc 80f1 22be
00000030: ad93 d73d dc47 8d3e 99bb 883a 97d4 c0bc
00000040: 5ecc 0b3d 81c0 c13d 1eee 053c 833e acbc
00000050: cc8f ea3c 942f 42bd eedb 503d ab4f e2bc
00000060: 7e3e 77bd e6ff 19bd 3aab d43d c21b 17bd
00000070: b4a7 9dbc e1f0 49bc 24ed 1cbe ab26 71bb
00000080: 81e3 4e3e 785a 4f3d 9534 8b3c ad85 b8bd
00000090: ed0b 3dbd b936 c03d a7a5 a53b 1684 9bbc
000000a0: cf0e 583e b08b c8bc f1d2 07bc 30ef 9c3d
000000b0: da19 51bd 848d 063e 2595 17be ae6e 533c
000000c0: e361 a3bd ae48 91bd 6265 5d3d 30d3 d0bb
000000d0: 946b 493d e620 55bb 2af4 993b c42b 82bd
000000e0: 057c e3bd 10ce 17bd 1d8e 19bc 69e4 2abd
000000f0: 4f01 9fbd ce34 a43c f381 f3bd 8bdc dd3d
00000100: eb5e 403d 1820 dcbd d0e4 1bbc 20d9 963c
00000110: 2a68 af3d b36d d9bd b741 633e a322 4abe
00000120: 2a34 1ebe 7745 4abe 925b 57bd 6a95 763c
00000130: 1fd8 93bc 6f55 8f3d f42a 99bd 83fd 40be
00000140: 341a b03d 0379 8c3d c964 d63d 6354 2f3d
00000150: 8c07 e3bd 3245 953d 3747 0c3e a751 c03d
00000160: dd58 853d b516 a0bd d0dc 7a3d da7e e7bd
00000170: 3c6d d53d 0266 37bc c34f 45be 22b4 cb3d
00000180: ceb4 fc3b 99ed 483d 3a0c 9e3d 94a6 51bc
00000190: a4a0 353d 845a 7c3d 7899 fb3c 0778 c53d
000001a0: 11ea 3d3e e2f6 783d 35ac 113d be03 333d
000001b0: 1b0a ae3d 43bc 553e adf8 cf3d c201 813d
000001c0: 262e 233c d5e0 39bc 0101 8a3d 07e4 06bd
000001d0: 55c7 973c 3893 1e3e 02b2 c6bc 3ac1 723d
000001e0: 7715 203e bc6a 29be 86fe 423c e008 dc3d
000001f0: 483f ef3d 01a7 d4bd c744 8bbd ad64 1abd
00000200: f6ab 44bd 614c 9c3d 7305 a7bd 8f91 cdbd
00000210: 513b e23d 09c4 7bbc bb64 c43c 001b 363d
00000220: 380d f5bb f57c 2d3d a7d5 bfbd 8593 353e
00000230: 5730 b23d 6349 57bd 9b13 0ebe 453c 81bd
00000240: 636e 3abd ce9c 7a3c 960d 95bb fd5b 3abe
00000250: c717 363d c460 9a3d 2194 4c3e c4f0 d3bd
00000260: 6588 493d e6ec d83d 49c9 27be f5f8 843b
00000270: 2825 423d a28b c43d 0c5d 293c 3588 a4bd
00000280: 6d7f 3c3e e26e e23c 53c7 e43c cb7b ecbc
00000290: 89b8 2b3e 62e6 27be 44be 98bd b338 cfbd
000002a0: b7af 98bd d19c d03c 6303 dfbc 3b80 7d3d
000002b0: 091a cb3c ec17 5e3d 9992 babd e972 17be
000002c0: 8216 fe3c f898 1e3d d8c2 053e 6149 29be
000002d0: 30b3 12bd 0e23 23be 70ca 703e 7d03 5a3d
000002e0: be8b 583d 6004 fe3b cd7b eebd fbe6 413d
000002f0: 41df c13d b7a1 943c e121 80be 21d3 85bd
00000300: 7ffe 753d 9178 623d 5780 93ba 23e2 5d3d
00000310: a054 063d 0bb0 8d3d 706b 72bd d215 86ba
00000320: 87b9 f53d 8926 0cbe ef72 03bd fa04 ee3d
00000330: 14a0 bd3d 4593 153e 92cc 1cbe 9410 283e
00000340: 8290 893d e6a5 ab3d 24fb bbbd 3eed 6abd
00000350: e040 5fbe c086 d4bd b184 39be 839b 89ba
00000360: d001 fb3c 9f8e 253e b194 303e 6171 c73c
00000370: de75 6b3d 66b9 f0bd 23ab 7bbc 2500 813e
00000380: 8a2a 413e ee10 84bc 5ef5 37be be98 e2bd
00000390: 5a84 6fbd 8fee fc3d 4afb 023e e0ee 003b
000003a0: 86fd 603d 8a7c fbbd 19af 3e3c 55b3 6c3d
000003b0: 7233 97bc 4f2c 68bd c5cc 513e e301 bdbd
000003c0: 9205 ef3d ca06 90bc 5fb7 183e 3224 f2bc
000003d0: 042d 3ebd 6526 e7bd dcd3 58bc f3d0 a83c
000003e0: d461 2a3d 40e3 3d3d 3998 0dbd b6ac 013e
000003f0: 21d5 63be 8d06 2a3e 3a5f 5abd da08 c53d

_model.1._model.0.bias f4 [64]
0.032758705 -0.018804353 0.0065054665 0.012472936 0.03222829 -0.002780327 0.0070711486 0.012623023
-0.028131839 -0.03483185 0.014001615 0.024850078 0.007493063 0.019963205 0.015627516 0.006245491
-0.014824908 -0.011410406 -0.0067089954 0.043857843 -0.015720615 -0.013909621 -0.014777521 0.0041032587
-0.0056678513 0.013378509 0.007862376 -0.025503544 0.0062694745 0.00022594817 0.043723192 0.018267125
0.027837338 0.00440527 0.033390965 0.023907665 -0.033221576 -0.016070008 0.0095605105 -0.029009392
0.050882395 -0.019873071 -0.0013154781 0.021765543 0.016781999 0.03348 0.0021448636 0.008388145
0.019140717 0.018591784 -0.021461146 0.02354993 0.027876774 0.010960878 0.025715508 0.027763864
0.04257415 -0.011603792 0.00625157 0.048446674 0.004549464 0.037152734 0.005484394 -0.015923563
00000000: fe2d 063d 960b 9abc cf2b d53b 495b 4c3c
00000010: d001 043d 2636 36bb 18b5 e73b ccd0 4e3c
00000020: be74 e6bc d8ab 0ebd 0867 653c 6492 cb3c
00000030: 5e88 f53b e089 a33c 4705 803c faa6 cc3b
00000040: 2ce4 72bc b6f2 3abc 22d7 dbbb 48a4 333d
00000050: 85c8 80bc 2ee5 63bc 6a1d 72bc a174 863b
00000060: 62b9 b9bb 8931 5b3c 32d1 003c cfec d0bc
00000070: 2a70 cd3b 80ec 6c39 1717 333d f0a4 953c
00000080: 210b e43c 155a 903b f7c4 083d 02da c33c
00000090: 5913 08bd 40a5 83bc b0a3 1c3c 1ba5 edbc
000000a0: 0f6a 503d dacc a2bc 1f6c acba a74d b23c
000000b0: 677a 893c 5322 093d d790 0c3b 6e6e 093c
000000c0: fecc 9c3c cc4d 983c 49cf afbc c8eb c03c
000000d0: d55d e43c 4195 333c 54a9 d23c 0b71 e33c
000000e0: 3b62 2e3d d51d 3ebc f8d9 cc3b 0570 463d
000000f0: ac13 953b 772d 183d 6eb6 b33b 2272 82bc

_model.2._model.0.weight f4 [16, 64]
-0.045850445 0.03323174 -0.010155983 0.0069203908 -0.04298296 -0.030462436 0.01865735 -0.06704807
-0.019442052 0.012112564 -0.02568826 -0.045927554 0.013618358 -0.0050307387 -0.048120886 -0.028389093
0.01854146 0.050289914 -0.04426509 -0.024665896 0.042381957 -0.05813291 0.0020618439 0.0066585704
0.013147069 -0.01107896 -0.0073585496 -0.01045119 0.010656203 0.010268206 -0.0086559625 -0.032217104
0.050312668 0.04507253 0.0026188893 -0.008886872 0.0033447933 0.024920208 -0.043752972 -0.010853186
-0.032983262 0.035193868 0.039974485 -0.01475532 -0.04215477 0.04036759 0.022544568 0.04157374
-0.012819625 0.0029806998 -0.027042642 0.0033694643 -0.015871748 -0.017219601 -0.005819881 0.029771648
-0.03786187 0.009638768 0.011167254 -0.023612278 -0.004505552 -0.006013361 0.0068991235 -0.00031163183
-0.061845403 0.06326847 0.0077083725 0.00072034565 -0.038975652 -0.015712751 -0.03553924 -0.0045019165
0.053264905 0.0018718858 -0.029239241 -0.012187879 -0.0055900486 0.022693975 0.043008663 0.011624412
0.017598646 0.040355127 0.028274786 -0.01894755 0.03443872 0.014121188 -0.00012562286 -0.0004196928
0.0080610225 -0.0020722747 -0.003376951 0.0057366765 -0.000997957 -0.019692946 -0.005331643 0.03360191
0.03327923 -0.008138512 0.036575917 -0.028095268 0.038007643 0.013043418 0.10875324 0.017402628
0.010371765 -0.016398206 0.016264848 -0.01842038 0.062334117 -0.06295983 -0.021659508 -0.010845291
-0.015648147 0.0007649175 0.067563616 0.0072099413 0.015185258 -0.01890571 -0.031101957 -0.010378498
0.0027241977 -0.031329956 0.041932527 -0.011141808 -0.026044019 -0.03884913 0.020171488 0.036381766
0.032724474 -0.037381902 -0.0146256685 -0.07259145 0.0034533155 0.10786951 -0.009594989 -0.02775129
0.007634533 0.05156474 -0.0060683754 -0.016270218 -0.014555501 0.003843931 -0.054250117 -0.046113558
0.04153134 0.020789515 -0.055127367 -0.0177457 0.003473987 -0.022032656 -0.043278996 -0.035779472
0.022480056 0.0076968977 0.025542691 0.06290364 0.06281036 0.01618461 -0.0058640353 0.03532823
-0.0156122 -0.016618852 -0.018458314 -0.0049199043 0.049544226 -0.014693044 0.0063487426 0.0381396
-0.091257274 -0.006856097 -0.039201986 -0.012539223 0.0072744377 0.042295963 -0.03640333 0.03141194
-0.02668463 -0.018019365 -0.046829127 -0.007890277 -0.02477076 0.018193064 0.019116443 0.10599845
-0.001543478 0.008949778 0.0031249502 0.018352471 0.016419165 -0.04679465 -0.00068327517 0.047766995
-0.028227083 0.028967105 0.019364037 0.009503285 -0.019458327 0.035458814 -0.017020132 -0.030999254
-0.0502073 0.050925158 -0.0064181862 0.018365154 0.050398875 0.01469421 0.01231271 0.0331557
-0.058145456 0.0019671172 -0.0020271412 -0.0290426 -0.12311486 0.054681532 -0.08486963 0.02342415
-0.0075894063 0.028418494 0.0188576 -0.010891803 0.03761401 -0.011878969 0.010331374 -0.017964358
-0.020475263 0.045522194 -0.0023528568 0.012613574 0.035977717 -0.00972282 -0.23015308 -0.02879322
0.011520082 -0.005431289 0.038302343 -0.050989393 0.02066921 -0.03892079 -0.019061314 -0.009680545
-0.030287668 -5.3648208e-05 0.08201942 0.016244264 0.00095837313 0.003724054 -0.0027433827 -0.020711083
0.017107194 -0.017679367 0.020294424 -0.0062350333 -0.045694847 0.02015172 -0.0066009457 0.022148313
00000000: adcd 3bbd 011e 083d 4865 26bc 72c4 e23b
00000010: e60e 30bd 5c8c f9bc 4dd7 983c 8050 89bd
00000020: f044 9fbc c773 463c 3070 d2bc 881e 3cbd
00000030: 891f 5f3c e5d8 a4bb 681a 45bd 3e90 e8bc
00000040: 43e4 973c ccfc 4d3d 504f 35bd 2210 cabc
00000050: b498 2d3d c61c 6ebd 0020 073b 2330 da3b
00000060: ce66 573c 8784 35bc fd1f f1bb 783b 2bbc
00000070: 5b97 2e3c fa3b 283c bdd1 0dbc 15f6 03bd
00000080: a814 4e3d f99d 383d aca1 2b3b 3e9a 11bc
00000090: 5234 5b3b 7725 cc3c 5136 33bd 90d1 31bc
000000a0: 7519 07bd 7227 103d 49bc 233d 4cc0 71bc
000000b0: 7baa 2cbd 7c58 253d 63af b83c 3a49 2a3d
000000c0: 6809 52bc d857 433b 8888 ddbc 3bd2 5c3b
000000d0: 7805 82bc 1f10 8dbc b3b4 bebb ace3 f33c
000000e0: 0c15 1bbd eceb 1d3c dcf6 363c 896e c1bc
000000f0: 4fa3 93bb ba0b c5bb 0b12 e23b 8462 a3b9
00000100: 9b51 7dbd e692 813d 8496 fc3b 94d5 3c3a
00000110: efa4 1fbd 07b8 80bc 9891 11bd d084 93bb
00000120: 4d2c 5a3d 115a f53a 2287 efbc abaf 47bc
00000130: ba2c b7bb b7e8 b93c da29 303d 5174 3e3c
00000140: 092b 903c 6b4b 253d 86a0 e73c e437 9bbc
00000150: 9e0f 0d3d 8e5c 673c a1b9 03b9 370a dcb9
00000160: 6112 043c 00cf 07bb d64f 5dbb bbfa bb3b
00000170: e1cd 82ba 1a53 a1bc 10b5 aebb 28a2 093d
00000180: cd4f 083d 6557 05bc a1d0 153d 0c28 e6bc
00000190: e7ad 1b3d 0fb4 553c 05ba de3d f58f 8e3c
000001a0: 56ee 293c 8855 86bc dc3d 853c 56e6 96bc
000001b0: 0f52 7f3d 15f1 80bd 486f b1bc 73b0 31bc
000001c0: 8b30 80bc bf84 483a cb5e 8a3d 5f41 ec3b
000001d0: 97cb 783c 26e0 9abc 88c9 febc 930a 2abc
000001e0: 7488 323b d753 00bd 71c1 2b3d 218c 36bc
000001f0: 445a d5bc 4420 1fbd ad3e a53c 0c05 153d
00000200: 190a 063d c41d 19bd 80a0 6fbc d3aa 94bd
00000210: 0551 623b b1ea dc3d 4d34 1dbc ac56 e3bc
00000220: 1b2b fa3b 8c35 533d 39d9 c6bb 1f49 85bc
00000230: 327a 6ebc 76ea 7b3b 5f35 5ebd 92e1 3cbd
00000240: c41c 2a3d c64e aa3c 3ccd 61bd 6e5f 91bc
00000250: d5ab 633b d47d b4bc 5145 31bd 7f8d 12bd
00000260: 1828 b83c 4236 fc3b e83e d13c a0d3 803d
00000270: b8a2 803d 9695 843c 1827 c0bb 56b4 103d
00000280: 50ca 7fbc 4224 88bc e435 97bc 2637 a1bb
00000290: e3ee 4a3d 18bb 70bc 1d09 d03b 4538 1c3d
000002a0: 18e5 babd 1ca9 e0bb 4392 20bd 5071 4dbc
000002b0: 685e ee3b 883e 2d3d a81b 15bd cea9 003d
000002c0: ba99 dabc 599d 93bc e6cf 3fbd 3846 01bc
000002d0: 0dec cabc 9f09 953c 169a 9c3c b715 d93d
000002e0: 874e caba 17a2 123c f7cb 4c3b ec57 963c
000002f0: 7c81 863c bfab 3fbd d21d 33ba 53a7 433d
00000300: 7c3c e7bc 6c4c ed3c 54a1 9e3c abb3 1b3c
00000310: 1267 9fbc 433d 113d ce6d 8bbc 26f2 fdbc
00000320: 2ba6 4dbd e696 503d a64f d2bb 8572 963c
00000330: 0d6f 4e3d fcbf 703c 40bb 493c 45ce 073d
00000340: ee29 6ebd c0ea 003b c9d9 04bb bfea edbc
00000350: a523 fcbd bef9 5f3d 21d0 adbd 01e4 bf3c
00000360: 8eb0 f8bb e7cd e83c 417b 9a3c 8873 32bc
00000370: 2611 1a3d 02a0 42bc ec44 293c fd29 93bc
00000380: bdbb a7bc 7b75 3a3d 6332 1abb 2aa9 4e3c
00000390: 5f5d 133d 764c 1fbc 40ad 6bbe c2df ebbc
000003a0: babe 3c3c f4f8 b1bb ebe2 1c3d 41da 50bd
000003b0: 7a52 a93c 686b 1fbd 7926 9cbc 269b 1ebc
000003c0: d81d f8bc 5304 61b8 ccf9 a73d b112 853c
000003d0: 553b 7b3a 420f 743b 53ca 33bb 4aaa a9bc
000003e0: 6324 8c3c 52d4 90bc 7e40 a63c 404f ccbb
000003f0: 852a 3bbd 3815 a53c bf4c d8bb 6170 b53c

_model.2._model.0.bias f4 [16]
-0.03903687 -0.05012213 2.860353e-05 0.007569759 -0.0341201 0.009408193 -0.00011877823 0.042301882
0.004989747 -0.06119889 0.010878599 0.092189476 0.02742165 -0.015130921 0.0022027877 0.026325209
00000000: 20e5 1fbd dd4c 4dbd 9df1 ef37 be0b f83b
00000010: 85c1 0bbd d224 1a3c 9418 f9b8 bd44 2d3d
00000020: 0881 a33b b0ab 7abd 273c 323c d6cd bc3d
00000030: 5ea3 e03c afe7 77bc a55c 103b f7a7 d73c
