data/etc/pretrained_model/fencing/task_agnostic_policy_body_encoder_exp12_2200.pt (torch_old, 181881 bytes, 6 tensors)

_model.0._model.0.weight f4 [128, 279]
0	0xbda03daa	-0.078242615
1	0xbe15f33b	-0.14643566
2	0x3c4ddd33	0.012564945
3	0x3dbcee3e	0.092251286
4	0xbdb576d5	-0.08860556
5	0x3d223de3	0.0396098
6	0xbd8f6c6b	-0.07003101
7	0xbbb78ca7	-0.005601484
8	0xbdff07e4	-0.12452677
9	0x3db60ea9	0.08889515
10	0xbdcb96fd	-0.09940908
11	0xbcbe0da6	-0.023199867
12	0x3c082953	0.008310634
13	0x3d11e260	0.03561628
14	0xbde256a3	-0.11051681
15	0xbce7d453	-0.028299486
16	0xbe040a4e	-0.12894556
17	0x3d0a442d	0.033756424
18	0xbd88ea35	-0.066852964
19	0xbe1bb039	-0.15203942
20	0x3bb93ec6	0.005653235
21	0xbde9ec34	-0.11422005
22	0x3c32a224	0.010902915
23	0xbdd8b053	-0.10580506
24	0xbc0bcee7	-0.008533216
25	0x3d7f3925	0.062310357
26	0xbdb08f5f	-0.08621096
27	0x3d807ead	0.062741615
28	0xbceb49ed	-0.028721774
29	0x3d40f645	0.04710986
30	0xbcdc6528	-0.026903704
31	0xbe691d9c	-0.22765201
32	0xbcbf0afc	-0.023320667
33	0xbd412a5d	-0.04715954
34	0xbe6b1f7a	-0.22961226
35	0x3d47784b	0.048698705
36	0x3c339486	0.010960704
37	0xbc30ca16	-0.010790369
38	0x3d4e88d4	0.05042346
39	0xbd0e4bb1	-0.034740154
40	0xbcab6f6d	-0.020927155
41	0x3bf7d786	0.007563534
42	0xbc7220be	-0.014778314
43	0xbe292749	-0.16518892
44	0x3e0ddee2	0.13854554
45	0xbd43e707	-0.047827747
46	0xbdf034b6	-0.11728804
47	0xbd43eac1	-0.0478313
48	0x3d331a9d	0.043726552
49	0xbdb7a522	-0.089670435
50	0x3dc535ed	0.09629426
51	0xbd57533f	-0.052569624
52	0xbd0366c2	-0.03208042
53	0xbc33343f	-0.010937749
54	0xbcd3bef1	-0.025847884
55	0xbdcfbe99	-0.101437755
56	0xbe156f4f	-0.14593242
57	0xbe18427f	-0.14869116
58	0x3c95ac89	0.018270748
59	0xbd02cfd4	-0.03193648
60	0xbdbed286	-0.09317498
61	0x3d8c4831	0.06849707
62	0xbdb737d1	-0.08946193
63	0x3bdb4fdb	0.006692869
64	0x3bd141cf	0.006386019
65	0x3e1723ad	0.14759703
66	0xbc53ee6d	-0.012935263
67	0xbb172831	-0.0023064727
68	0x3ec45beb	0.38351378
69	0xbc4f13bf	-0.012638985
70	0xbe26003e	-0.1621103
71	0xbd3fd6d0	-0.04683572
72	0xbd988c48	-0.074486315
73	0x3ca8b35e	0.020593341
74	0x3d50c6d2	0.05097086
75	0x3c99b97b	0.018765202
76	0x3d017244	0.031603113
77	0xbce19ada	-0.02753966
78	0xbe14f7b9	-0.14547624
79	0x3c6095e7	0.0137076145
80	0xbe6371ae	-0.22211334
81	0x3d86796a	0.06566127
82	0xbd381579	-0.044942353
83	0xbd31bf10	-0.043395102
84	0xbd902db1	-0.07039965
85	0xbdca6c2a	-0.09883912
86	0x3d10150b	0.03517632
87	0x3c9232c6	0.017846476
88	0xbc3987af	-0.011323853
89	0xbd249cb2	-0.0401885
90	0xbc93c890	-0.018039972
91	0xbdb889a4	-0.09010628
92	0x3bc552f3	0.006021851
93	0x3d08c6a4	0.033392563
94	0x3d104bea	0.035228647
95	0xbc1d6742	-0.009607138
96	0xbcb3ef60	-0.021964729
97	0x3d5841bc	0.052797064
98	0x3dba0273	0.090824984
99	0xbb9d44e1	-0.004799471
100	0xbbca01a2	-0.0061647454
101	0x3c77a5af	0.015115186
102	0xbb477788	-0.0030436236
103	0xbbcbd775	-0.006220753
104	0xbe05027f	-0.12989233
105	0xbd631d07	-0.055447605
106	0x3da39090	0.079865575
107	0xbd87c881	-0.0663004
108	0x3d56c35d	0.052432407
109	0x3db9d71c	0.09074232
110	0x3d14b937	0.036309447
111	0xbcb123b1	-0.021623464
112	0xbe49d451	-0.19709899
113	0xbba7187d	-0.005099355
114	0xbd0d4229	-0.034486923
115	0xbde51abf	-0.11186742
116	0x3c69033b	0.014221962
117	0x3b91e9ec	0.0044529345
118	0xbe20682c	-0.15664738
119	0xbb9d57d7	-0.004801731
120	0xbd96e62e	-0.07368122
121	0x3de8e576	0.11371891
122	0x3e006130	0.12537074
123	0x3d2d196f	0.042260583
124	0xbcfa1947	-0.030529631
125	0xbd8f7363	-0.0700443
126	0xbddc5b02	-0.10759546
127	0x3dabc1cd	0.08386574
128	0x3d07df99	0.033172224
129	0xbd8de88d	-0.06929121
130	0x3dbdc6b2	0.09266414
131	0xbd65a82f	-0.056068595
132	0x3d5ab79c	0.05339776
133	0xbe2972b6	-0.16547665
134	0x3d922f00	0.07137871
135	0xbd1208b7	-0.035652842
136	0x3d8ff57e	0.07029246
137	0xbd112f36	-0.035445414
138	0xbd31532f	-0.04329222
139	0xbc1d1919	-0.009588503
140	0x3d2c372e	0.04204481
141	0x3cbf15c7	0.023325814
142	0x3d3f274a	0.04666833
143	0xbd9a2858	-0.07527226
144	0x3d3833a7	0.044971135
145	0xbcb4cd79	-0.022070633
146	0xbe285c37	-0.16441427
147	0x3d9f5bd1	0.077811845
148	0xbd2599f6	-0.04043003
149	0xbc8ea428	-0.01741226
150	0x3b6524a2	0.0034964462
151	0xbdac550f	-0.08414661
152	0xbcc23148	-0.02370514
153	0xbd83b594	-0.06431118
154	0xba9663b8	-0.001147381
155	0xbcdf0698	-0.027224824
156	0xbe039210	-0.12848687
157	0xbd41a450	-0.04727584
158	0x3c38a3d3	0.0112695275
159	0x3d9fc2d7	0.078008346
160	0x3d0187ca	0.03162364
161	0xbceb4824	-0.028720923
162	0x3e10b99c	0.14133304
163	0x3beeee29	0.0072915745
164	0x3d866a38	0.06563228
165	0xbca9c72a	-0.020724852
166	0x3d9d3bcb	0.0767742
167	0xbd235219	-0.039873216
168	0x3b91b92f	0.0044471244
169	0xbce14885	-0.0275004
170	0xbcf30d30	-0.029669374
171	0xbc49bee0	-0.012313575
172	0xbde86920	-0.11348176
173	0x3e07cf12	0.13262585
174	0x3e2bb6d3	0.1676896
175	0x3d9bab14	0.0760099
176	0xbc3d5a99	-0.011557245
177	0xbce1737b	-0.027520886
178	0x3cfc1e6e	0.030776229
179	0xbc62c420	-0.013840705
180	0x3cf56c2a	0.029958803
181	0x3cf47e79	0.029845463
182	0x3e7ea8e4	0.24869114
183	0x3cd3cf24	0.025855608
184	0x3c808b84	0.015691526
185	0xbd35293a	-0.04422877
186	0x3c6157e9	0.01375387
187	0x3d89c514	0.06727043
188	0x3e4604ac	0.1933772
189	0xbc6b5c21	-0.014365227
190	0xbdaa421c	-0.083133906
191	0xbe0a20dd	-0.13489099
192	0xbd72b0c5	-0.05925061
193	0xbd086314	-0.033297613
194	0x3cfc50ab	0.030800184
195	0x3e54fdd5	0.20799954
196	0xbd6b327d	-0.057421196
197	0x3d147fea	0.0362548
198	0x3d01baf6	0.03167244
199	0xbd8802db	-0.0664117
200	0x3de75ac4	0.11296609
201	0x3db92844	0.09040883
202	0x3d5001ca	0.050782956
203	0xbdfac59f	-0.122447245
204	0xbd7539d0	-0.059869587
205	0x3d3b14e2	0.045674212
206	0xbca90256	-0.020630997
207	0xbd636a11	-0.055521075
208	0xbd2a8a52	-0.04163582
209	0x3d8ac9ad	0.06776748
210	0x3c658d4b	0.014010738
211	0xbd8d3881	-0.06895543
212	0xbc3724ce	-0.0111782085
213	0xbde86169	-0.113467045
214	0xbda86b8c	-0.08223638
215	0xbdc34583	-0.09534743
216	0x3bea0d25	0.00714268
217	0xbd185dde	-0.037198894
218	0x3d68358b	0.056691688
219	0x3d12d709	0.035849605
220	0x3c33631f	0.010948925
221	0x3d095b64	0.033534423
222	0x3b48a866	0.0030617951
223	0x3db26993	0.08711543
224	0xbd2dc9d0	-0.04242879
225	0x3df35d1c	0.118829936
226	0xb9912385	-0.0002768302
227	0xbd27ed26	-0.040997647
228	0x3c9e50f6	0.019325715
229	0x3d134075	0.035950143
230	0xbd462867	-0.048378374
231	0x3d4d2eff	0.050093647
232	0x3dab5b45	0.08367018
233	0xbda1b473	-0.07895746
234	0xbd34dc0c	-0.044155166
235	0x3a046c49	0.0005051536
236	0x3dc6b0ca	0.097016886
237	0xbceba0b8	-0.02876316
238	0x3d18e20f	0.03732496
239	0xbe1de473	-0.15419178
240	0x3d7974c2	0.060902365
241	0xba84546d	-0.0010095962
242	0xbcd7ec88	-0.026357904
243	0x3db0138b	0.085974775
244	0xbd6ed6ea	-0.058310427
245	0xbd7b6a68	-0.061380774
246	0xbcb93379	-0.022607552
247	0xbdba1fbb	-0.09088083
248	0xbda41554	-0.080118805
249	0x3df2f2b8	0.11862701
250	0xbdab70d2	-0.08371128
251	0x3e35ea2d	0.17765112
252	0x3cece23e	0.028916474
253	0xbd07a99c	-0.033120736
254	0x3d94aa13	0.072590016
255	0x3b6aa5ea	0.003580446

_model.0._model.0.bias f4 [128]
0	0x3b46c4b9	0.0030329658
1	0x3c811758	0.015758201
2	0x3cbf48fa	0.023350228
3	0x3cd06d1a	0.025442649
4	0x3b92f5a2	0.004484848
5	0x3cbdb023	0.023155278
6	0x3c5d1159	0.013492906
7	0x3bc7b9dd	0.0060951547
8	0xbc0b59b0	-0.00850527
9	0x3a970f95	0.001152503
10	0x3cb0b4e3	0.021570629
11	0x3caa9d29	0.020826893
12	0xbb9756b5	-0.0046184906
13	0x3d30f980	0.04320669
14	0x3ca564ad	0.020189608
15	0xbbaae855	-0.0052156844
16	0xbba99b08	-0.005175952
17	0xbcdbed3e	-0.026846524
18	0x3ba04e01	0.0048921113
19	0x3cbccc9c	0.023046784
20	0x3cb83c88	0.022489801
21	0x3c7481a9	0.0149234915
22	0x3d2fcf06	0.042922042
23	0x3b89dff0	0.0042076036
24	0x3c909004	0.017646797
25	0x3c5ff33b	0.0136688305
26	0x3ce01c37	0.027357204
27	0x3c42fbf9	0.011900895
28	0xbb78b176	-0.0037947572
29	0x3a09b501	0.0005253107
30	0x3c48145c	0.012211885
31	0x3cdd4946	0.027012479
32	0x3d12f200	0.03587532
33	0x3cef3853	0.029201662
34	0x3c430fd1	0.011905626
35	0x3c3308ae	0.010927362
36	0x3d044e81	0.03230143
37	0x3c72ac8f	0.014811649
38	0x3cc87143	0.02446807
39	0x3bde1082	0.00677687
40	0x3ccac6a5	0.024752924
41	0x3bc6dfaa	0.0060691433
42	0xbac3907d	-0.001492038
43	0x3cb9a0d6	0.0226597
44	0xbc141f08	-0.009040602
45	0x3c88a1f3	0.016678786
46	0x3c0da407	0.008645064
47	0xbc38a686	-0.011270171
48	0x3c79d39f	0.015248208
49	0x3c0bb321	0.008526594
50	0x3d16082f	0.0366289
51	0x3cf442e9	0.029817061
52	0x3cc6ba2d	0.024258697
53	0x3c870624	0.01648242
54	0x3d18689a	0.03720913
55	0xbbf45fb6	-0.0074576987
56	0x3cc1f18f	0.023674754
57	0x3d616532	0.055028148
58	0x3c9897a0	0.018626988
59	0xbc085c51	-0.008322791
60	0x3d264486	0.040592693
61	0x3ccb7dcf	0.024840264
62	0x3ce26127	0.027634216
63	0x3cd8df6a	0.02647372
64	0x3cce0389	0.02514817
65	0x3c46170e	0.012090458
66	0x3af4e7b3	0.0018684774
67	0x3cf0ebc3	0.029409295
68	0x3c10faf1	0.008848892
69	0xbb0c070c	-0.0021366505
70	0x3b2652b1	0.0025378878
71	0xbc049c05	-0.008093839
72	0x3c8964f0	0.016771764
73	0xbc08fd26	-0.008361137
74	0x3c810403	0.015748983
75	0x3cf3d64f	0.029765276
76	0xbb37aef6	-0.0028027869
77	0x3cb2706c	0.021782123
78	0xba975154	-0.0011544623
79	0x3cb25d17	0.021772904
80	0x3d437651	0.047720257
81	0x3c28e767	0.010309077
82	0x3c112fae	0.008861465
83	0x3c99813f	0.018738387
84	0x3c54a451	0.012978629
85	0x3c463650	0.01209791
86	0x3ccb9cde	0.024855074
87	0x3d153276	0.036425076
88	0x3c5cd17d	0.01347768
89	0xba22ddc5	-0.0006212856
90	0x3ba0f6b4	0.004912222
91	0x3cc82be4	0.024434991
92	0x3ca667ca	0.020313162
93	0xbafbb33f	-0.00192032
94	0x3c934142	0.017975453
95	0x3d2d1fe9	0.04226676
96	0x3b54b960	0.0032459125
97	0x3cbf7b5c	0.023374252
98	0x3cf0e0ce	0.02940407
99	0x3d02e231	0.031953994
100	0x3d0e6d6f	0.034772333
101	0x3b758c63	0.003746771
102	0x3cd6eff8	0.026237473
103	0x3cdd8cba	0.027044643
104	0xbafdbe63	-0.0019359108
105	0x3c8cadd9	0.01717274
106	0x3cb7a5c7	0.022417916
107	0x3d16187d	0.036644448
108	0x3d04c380	0.032413006
109	0x3cadb465	0.021204183
110	0x3c0e3b9a	0.008681202
111	0x3c4180ab	0.011810462
112	0xba4351e3	-0.0007450862
113	0x3d0ef94f	0.034905728
114	0x3c0491a6	0.008091366
115	0xb9d3afcc	-0.00040376035
116	0x3bbd3046	0.005773577
117	0x3cd99223	0.026558941
118	0x3d4c619a	0.049897768
119	0x3c871af3	0.016492343
120	0x3bc9b762	0.006155894
121	0x3afd5554	0.0019327798
122	0x3c6bcfb5	0.014392783
123	0x3d30f76c	0.04320471
124	0x3c72132d	0.01477508
125	0x3ced0b7f	0.028936146
126	0x3c6fefba	0.014644558
127	0x3c3f4f81	0.01167667

_model.1._model.0.weight f4 [64, 128]
0	0x3e53f8b7	0.20700346
1	0xbe747cd8	-0.23875749
2	0x3e9127a2	0.2835055
3	0xbe158652	-0.1460202
4	0x3e092704	0.1339379
5	0xbd4a27e4	-0.04935445
6	0x3da48e11	0.080349095
7	0xbdc53eea	-0.096311405
8	0x3d76e0dc	0.060273036
9	0x3df5100d	0.11965952
10	0xbe0dcb6f	-0.13847135
11	0x3dc49d61	0.0960033
12	0xbd351687	-0.044210937
13	0x3db91608	0.09037405
14	0xbd51fd12	-0.051266737
15	0x3e034a33	0.12821274
16	0xbdb2e18c	-0.08734426
17	0xbe8f9d62	-0.2804976
18	0x3d9c1432	0.076210395
19	0xbdb59762	-0.088667646
20	0x3deffacd	0.11717758
21	0xbdc34ef3	-0.09536543
22	0xbdddedee	-0.10836397
23	0x3d35e4dd	0.044407714
24	0xbdc0ac52	-0.094078675
25	0x3b1ffb2d	0.0024411187
26	0x3de2cf08	0.11074644
27	0xbc1db387	-0.009625322
28	0x3df1ca3b	0.118061505
29	0xbcb04320	-0.021516383
30	0x3e046b5a	0.12931576
31	0x3dd2482f	0.10267674
32	0x3dde5e86	0.10857873
33	0x3e03db61	0.12876655
34	0xbd61f6ae	-0.055166893
35	0x3e227593	0.15865164
36	0xbac90498	-0.0015336452
37	0xbc80bcd5	-0.015715042
38	0x3e3d5711	0.18490244
39	0xbc8156b6	-0.015788417
40	0xbc925449	-0.017862456
41	0xbd24b801	-0.040214542
42	0xbe08d8bc	-0.13363928
43	0x3b94a75f	0.0045365538
44	0xbd957e79	-0.07299513
45	0xbdaed0f9	-0.08535952
46	0xbde382d7	-0.1110894
47	0xbcf24011	-0.029571565
48	0x3df0b5b7	0.11753409
49	0xbdbf45a1	-0.093394525
50	0x3d893aa4	0.06700638
51	0x3bce9dfe	0.006305455
52	0xbd16d36e	-0.03682273
53	0x3d15fa9f	0.036615964
54	0x3dcb264a	0.099194124
55	0x3dbef6b1	0.093243964
56	0x3dec6601	0.11542893
57	0x3d897996	0.06712644
58	0xbe3600bb	-0.17773716
59	0x3ddc58a9	0.10759098
60	0x3de5045f	0.11182474
61	0xbd5eef1b	-0.054427247
62	0x3b43dda6	0.0029886751
63	0x3dda783a	0.10667463
64	0xbd2ec687	-0.0426698
65	0xbde445a2	-0.11146094
66	0x3dc12558	0.09430951
67	0xbd9e6586	-0.07734208
68	0x3c9c18f8	0.019054875
69	0xbbca5d9f	-0.0061757113
70	0xbd947342	-0.07248546
71	0x3d9cff86	0.07665925
72	0x3e6aae82	0.22918132
73	0x3def27f5	0.11677543
74	0x3dd4d79a	0.10392685
75	0x3cd2dea6	0.025740933
76	0x3cdf10d2	0.0272297
77	0x3d4a1ed3	0.049345803
78	0x3c9c7a4c	0.019101284
79	0x3dacf1a0	0.08444524
80	0xbc5331ce	-0.012890292
81	0x3d050130	0.032471836
82	0x3d92c23f	0.07165956
83	0x3d0f7d34	0.035031512
84	0xbdd786d4	-0.10523763
85	0xbdcbe4d1	-0.09955753
86	0x3dc43362	0.09580113
87	0x3b7272d5	0.0036994715
88	0x3e375033	0.17901687
89	0xbdb44f75	-0.08804218
90	0x3d024d03	0.031811725
91	0xbe117259	-0.14203776
92	0x3ab3313f	0.0013671293
93	0xbd7270c7	-0.059189584
94	0x3c6dad6e	0.014506681
95	0xbbb92844	-0.005650552
96	0xbdbd292d	-0.09236369
97	0xbd2112d0	-0.03932458
98	0xbdcb12b4	-0.09915677
99	0x3db428bb	0.08796831
100	0xbc379443	-0.011204782
101	0x3de606ab	0.112317406
102	0xbd30fc0c	-0.04320912
103	0xbd37daca	-0.044886388
104	0xbdf56995	-0.11983029
105	0x3d03eb7f	0.03220701
106	0xbda57ee2	-0.080808416
107	0x3d4da992	0.050210543
108	0x3d39767f	0.045279022
109	0xbddf7997	-0.10911863
110	0xbe330e0a	-0.17485824
111	0x3e50e94b	0.20401494
112	0x3b1fda2c	0.0024391515
113	0xbc099106	-0.008396393
114	0x3da88db1	0.082301505
115	0xbcfd4287	-0.030915512
116	0x3c26057c	0.0101331435
117	0xbe007141	-0.12543203
118	0xbc189374	-0.009312499
119	0xbdeccedc	-0.11562893
120	0xbda2a374	-0.079413325
121	0x3dda9e41	0.10674716
122	0xbde866bb	-0.11347719
123	0xbda56102	-0.080751434
124	0x3da84ca0	0.0821774
125	0xbe28cd3b	-0.16484539
126	0xbd8a0ea6	-0.06741075
127	0x3cafe0c0	0.021469474
128	0x3cbcbbb0	0.023038715
129	0xba88b433	-0.001042968
130	0x3d125732	0.035727687
131	0x3b982868	0.0046434887
132	0xbea7cacf	-0.32771918
133	0xbcd943c8	-0.026521578
134	0xbd3ffed8	-0.046873897
135	0xbe05375e	-0.13009402
136	0xbccb7811	-0.024837526
137	0x3cfddd8d	0.030989433
138	0x3dfcfd14	0.12352958
139	0xbdaecef6	-0.085355684
140	0xbe417528	-0.18892348
141	0x3d259607	0.04042628
142	0xbe10661e	-0.14101455
143	0xbd2c4703	-0.04205991
144	0x3e1a94b2	0.15095785
145	0xbe9b1100	-0.30286407
146	0xbd14b8de	-0.036309116
147	0x3d9844b6	0.074349806
148	0x3d7366d3	0.059424233
149	0x3d9e4722	0.07728411
150	0xbcda2242	-0.026627664
151	0xbdc6ce0d	-0.0970727
152	0x3e235441	0.15950109
153	0xbda56c58	-0.080773056
154	0xbd22334b	-0.039599698
155	0x3d87a014	0.06622329
156	0x3dd144e1	0.10218216
157	0xbe53d395	-0.20686181
158	0xbcb5b8b9	-0.02218281
159	0x3d5760cc	0.052582547
160	0x3e42cf04	0.19024283
161	0x3d19e06e	0.03756755
162	0xbcbbda06	-0.02293111
163	0x3d32a691	0.04361588
164	0x3d5006dd	0.050787795
165	0x3de1407c	0.109986275
166	0xbe047bf7	-0.12937914
167	0x3d9e3448	0.077248156
168	0xbd0941cf	-0.033510026
169	0x3b09b56c	0.0021012677
170	0xbd7c501e	-0.061599843
171	0x3dc75b36	0.09734194
172	0xbd88cf38	-0.06680149
173	0x3e71106a	0.23541418
174	0xbde195f5	-0.1101493
175	0xbdd3b137	-0.103365354
176	0xbbe02522	-0.006840364
177	0x3c2cdde8	0.010550953
178	0x3da74dc0	0.081691265
179	0x3c8336d7	0.01601736
180	0xbe027980	-0.12741661
181	0xbdff5056	-0.12466495
182	0x3e866ea3	0.26256284
183	0xbd06dac4	-0.032923475
184	0xbe08980f	-0.13339256
185	0x3cbe0bb3	0.023198938
186	0xbcea0fdc	-0.028572015
187	0xbdd7bd7a	-0.10534187
188	0xbe162c7f	-0.14665411
189	0x3e4081f7	0.18799578
190	0xbe3499fa	-0.17636862
191	0x3d9931c5	0.07480196
192	0x3d9940c5	0.07483057
193	0x3d1a568e	0.0376802
194	0x3e471559	0.19441737
195	0xbcbe50b6	-0.023231845
196	0x3e254e30	0.16143107
197	0x3c594954	0.013262112
198	0xbe06d09c	-0.13165516
199	0xbda3c938	-0.07997364
200	0x3dcece1e	0.100979075
201	0xbe9d9cd8	-0.30783725
202	0xbd641401	-0.05568314
203	0x3e35bb33	0.17747192
204	0x3ddcc78e	0.107802495
205	0x3bacb8ed	0.0052710683
206	0xbde5aa9d	-0.112141825
207	0x3de3cf78	0.11123556
208	0xbccafbc0	-0.024778247
209	0xbd60c09b	-0.054871183
210	0x3c16a88b	0.009195457
211	0xbd7f3a19	-0.062311266
212	0xbdf1e5f3	-0.118114375
213	0xbd22fc5e	-0.039791457
214	0x3dc051ef	0.093906276
215	0x3c9510ad	0.018196428
216	0xbdc922db	-0.09821101
217	0xbe115b33	-0.14194946
218	0x3cd6b593	0.026209628
219	0xbe42e053	-0.19030885
220	0xbe1c9867	-0.15292512
221	0xbd94903f	-0.07254075
222	0xbd7fd76d	-0.062461305
223	0xbc6f68df	-0.014612406
224	0x3c0ed845	0.008718555
225	0x3c82f275	0.015984753
226	0x3ceaa51f	0.028643189
227	0x3d20007c	0.039062962
228	0x3db4def5	0.08831588
229	0xbe222071	-0.15832688
230	0x3e18583d	0.1487741
231	0xbe0847c3	-0.13308625
232	0xbdc9d705	-0.09855465
233	0x3e36516d	0.17804499
234	0xbc95eb65	-0.018300721
235	0x3d20bc4a	0.039242066
236	0x3da5eba0	0.081015825
237	0x3cfaa6e2	0.030597154
238	0x3e3ac0cb	0.18237607
239	0x3d4e9ca6	0.05044236
240	0x3e41af0c	0.18914431
241	0x3d311cea	0.043240465
242	0x3d7a776c	0.061149046
243	0xbe73e89c	-0.23819202
244	0x3e2b9a3e	0.16758057
245	0xbe2aaef4	-0.16668302
246	0xbda5d130	-0.0809654
247	0x3d02466b	0.031805437
248	0x3d29e595	0.041478712
249	0xbe1bcbaf	-0.15214418
250	0xbcb471f2	-0.02202699
251	0x3d6d1086	0.057877086
252	0x3d81fc3a	0.063469365
253	0xbcffaaee	-0.031209435
254	0xbe09ecbf	-0.13469218
255	0x3e2617c1	0.16219999

_model.1._model.0.bias f4 [64]
0	0x3cecabcf	0.028890518
1	0x3cdd5e87	0.027022613
2	0x3b9ea1e5	0.0048410767
3	0x3c628956	0.013826689
4	0x3cc8b1ea	0.024498899
5	0x3bca7463	0.006178425
6	0x3cdcd160	0.026955307
7	0x3c7594e7	0.014989114
8	0x3c3bfc90	0.01147379
9	0x3b891110	0.004182942
10	0x3b3f74aa	0.0029213824
11	0x3d5b1175	0.053483445
12	0x3cf6f6e5	0.030147025
13	0x3d170877	0.036873307
14	0x3aabd409	0.0013109456
15	0x3c9d8289	0.019227283
16	0x3cd3975a	0.025829006
17	0x3af16bca	0.0018418964
18	0x3b23321b	0.0024901691
19	0x3c8bf4dc	0.017084531
20	0x3c430a23	0.011904272
21	0x3bb054de	0.0053812107
22	0x3c4f3f11	0.012649314
23	0x3c8fb9ec	0.01754471
24	0x39eea68f	0.00045518993
25	0x3c04cb94	0.008105177
26	0xb972df33	-0.00023162067
27	0x3cc4012a	0.023926336
28	0x3bda90b0	0.00667008
29	0x3baf21ad	0.0053445906
30	0x3cb70c1a	0.022344638
31	0x3cd42ccb	0.025900265
32	0xbb81106a	-0.0039387243
33	0x3c3454ed	0.011006576
34	0x3c6decdf	0.0145218065
35	0x3c8e37d0	0.017360598
36	0x3d0776ec	0.033072397
37	0x3cb51cdd	0.02210849
38	0x3c257826	0.010099446
39	0xbb7c73a4	-0.0038521076
40	0x3d295079	0.04133651
41	0x3cb70b09	0.02234413
42	0x3c6ca198	0.014442824
43	0x3ccb4a6c	0.02481576
44	0xba0a8e30	-0.000528547
45	0x3bda95e8	0.0066707022
46	0x3ca78d0a	0.020452995
47	0x3c91cba1	0.017797293
48	0xb7a504af	-1.9671714e-05
49	0x3b3afb16	0.0028531007
50	0x3c1e35b2	0.009656357
51	0x3cbc4f9a	0.022987176
52	0x3b23f008	0.0025014896
53	0x3b84168f	0.0040310095
54	0x3ca6a756	0.020343464
55	0x3cb8a8c2	0.022541407
56	0x3cec8089	0.028869884
57	0xba92533a	-0.001116372
58	0x3bd351db	0.006448967
59	0x3cb98b89	0.022649543
60	0x3d124b5b	0.035716396
61	0x3c5129b2	0.012766289
62	0x3c40558f	0.011739149
63	0xbb5f3e81	-0.0034064355

_model.2._model.0.weight f4 [16, 64]
0	0xbd3a08f4	-0.045418695
1	0x3dbedbd6	0.09319274
2	0xbbc69b4a	-0.0060609924
3	0xbc85745f	-0.016290842
4	0x3c863314	0.016381778
5	0xbccf1b5a	-0.025281597
6	0xbd5014ba	-0.050801016
7	0xbc8bb9c4	-0.017056353
8	0x3b9c0955	0.0047618547
9	0xbce61164	-0.028084464
10	0x3b35cfc4	0.0027742246
11	0xbd7c23ee	-0.061557703
12	0xbbbb5e0b	-0.005717998
13	0xbca543ab	-0.020173868
14	0x3c91ea79	0.017812
15	0xbca8695e	-0.020558055
16	0xbd7392e0	-0.059466243
17	0x3d01efbf	0.03172278
18	0x3c8446fa	0.016147126
19	0xbcbc01ad	-0.022950018
20	0x3d244f47	0.040114667
21	0x3c9ac2ae	0.018891659
22	0x3cc10a41	0.02356446
23	0x3d466740	0.04843831
24	0x3cd594a2	0.02607185
25	0xbc843721	-0.016139569
26	0x3d877e8d	0.066159345
27	0x3d5ec50e	0.054387145
28	0x3af8cc1e	0.001898173
29	0x3c62af87	0.013835794
30	0x3caabc32	0.020841692
31	0x3d1e1ec0	0.038603544
32	0x3cd66d03	0.026175028
33	0x3d6ca7bf	0.057777163
34	0xbcc6b31d	-0.02425533
35	0x3d4c4c3e	0.049877398
36	0x3b78e36f	0.0037977358
37	0xbcb3bafc	-0.021939747
38	0xbcae2eb1	-0.021262499
39	0xba6ab645	-0.0008953552
40	0x3c898214	0.016785659
41	0xbc4d5743	-0.012533012
42	0xbd14004e	-0.036133103
43	0xbd095f18	-0.033537954
44	0xbcbfcd4b	-0.023413321
45	0xbcedbe78	-0.029021487
46	0xbd3593c5	-0.044330377
47	0xbd240909	-0.04004768
48	0xbb847785	-0.004042568
49	0x3d430611	0.047613207
50	0xbb923dff	-0.004462957
51	0xbd50e605	-0.051000614
52	0x3d75b736	0.059989177
53	0xbb8b9e34	-0.0042608026
54	0x3e00f987	0.12595187
55	0x3cadce7b	0.021216622
56	0xbd499da8	-0.04922262
57	0x3bee855c	0.0072790813
58	0x3c9e13dc	0.019296579
59	0xbcaa263a	-0.020770181
60	0xbd8fa4aa	-0.07013829
61	0x3dcf2c27	0.10115843
62	0xbb87fc4c	-0.004149949
63	0x3c196ab2	0.009363817
64	0x3d5b0166	0.05346813
65	0x3d381d5d	0.044949878
66	0x3d1d36f6	0.038382493
67	0xbc8d85c7	-0.017275704
68	0x3c0b0b24	0.008486543
69	0x3b426796	0.0029663793
70	0x3cdd5794	0.0270193
71	0xbd70c0c4	-0.058777586
72	0xbc813078	-0.015770182
73	0x3cd9d813	0.02659229
74	0xbd6e7f81	-0.058227066
75	0x3c8b35b3	0.01699338
76	0x3d90887e	0.07057284
77	0xbd073e19	-0.033018205
78	0x3bd5e438	0.00652745
79	0x3c4e400d	0.012588513
80	0xbd4e22fa	-0.050326325
81	0x3c471d8f	0.012153043
82	0xbc7d4d4c	-0.015460324
83	0x3cfc43f8	0.030794129
84	0xbc5808ae	-0.013185663
85	0x3d0ea7f9	0.03482816
86	0x3c3928b9	0.011301213
87	0x3c5988d1	0.0132772485
88	0x3bcf2c21	0.0063223992
89	0x3ba3c928	0.004998345
90	0x3db67182	0.08908369
91	0x3c9af1bb	0.018914094
92	0xbd0995b2	-0.033590026
93	0xbbc66f31	-0.0060557355
94	0xbc708536	-0.014680197
95	0x3c8e9c3e	0.017408486
96	0x3c313b39	0.010817342
97	0xbbee6a64	-0.0072758663
98	0x3cb52261	0.02211112
99	0x3d183f5f	0.03716981
100	0x3ca29dcf	0.01985064
101	0xbcc773a6	-0.024347138
102	0xbc22e1d2	-0.009941535
103	0x3d67458f	0.05646282
104	0xbaab58b3	-0.0013072699
105	0x3d5cbc63	0.053890597
106	0x3d19c2d2	0.03753931
107	0x3d25bd74	0.04046388
108	0x3ca9f80a	0.020748157
109	0x3d4c47a8	0.049873024
110	0x3d313550	0.043263733
111	0x3c8b626d	0.017014707
112	0x3cb765ff	0.022387503
113	0x3d1aef13	0.037825655
114	0x3c40f92e	0.011778159
115	0xbd10836c	-0.035281584
116	0x3b7eaef1	0.0038861597
117	0x3c55ad52	0.013041811
118	0xbbc8513d	-0.0061132
119	0x3cd65002	0.026161198
120	0x3c03bc26	0.008040464
121	0xbcf59d49	-0.029982226
122	0x3d0e5253	0.03474648
123	0xbcb07c28	-0.021543577
124	0xbcaac101	-0.020843985
125	0xbd9b4f9d	-0.075835444
126	0xbda4ee0b	-0.080532156
127	0x3cf26f90	0.029594213
128	0xbbaefd73	-0.005340272
129	0x3e0c4d4c	0.13701361
130	0x3d44120d	0.047868777
131	0xbd536584	-0.051610485
132	0x3cac6edf	0.021048961
133	0xbad283d5	-0.0016061018
134	0x3b6bc7fd	0.0035977357
135	0xbcd95d99	-0.026533889
136	0xbce60c19	-0.02808194
137	0x3d618f18	0.055068105
138	0xbd1cc5d9	-0.03827462
139	0x3d33538b	0.043780845
140	0x3c863f71	0.016387673
141	0x3d261dd4	0.04055579
142	0xbc719f6c	-0.014747482
143	0x3a44feec	0.0007514793
144	0x3d0f61a7	0.035005238
145	0xbca1bc64	-0.019743152
146	0x3cdfaae6	0.02730317
147	0x3cc682c4	0.024232276
148	0x3cda0179	0.02661203
149	0x3d49bb27	0.049250748
150	0x3d361867	0.044456866
151	0x3cc8a192	0.024491105
152	0xbdea6061	-0.11444164
153	0x3a845f5e	0.0010099222
154	0x3d25bd5d	0.040463794
155	0x3d0f80d8	0.035034984
156	0xbdb38604	-0.08765796
157	0x3cf443cb	0.029817482
158	0x3b18ee69	0.0023335463
159	0xbd9ee91a	-0.07759304
160	0xbbb0727b	-0.005384741
161	0x3c2808e0	0.010256022
162	0x3d0a2e4f	0.03373557
163	0x3c720e9a	0.014773989
164	0x3cc5205e	0.024063285
165	0xbb2e086d	-0.0026555315
166	0xbca0141b	-0.019540837
167	0x3aad24c4	0.001320981
168	0x3dd8b2f8	0.105810106
169	0x3cb82454	0.02247826
170	0x3c945225	0.018105576
171	0xbcea05d7	-0.028567238
172	0x3ceb6519	0.02873473
173	0xbd2bf88c	-0.04198508
174	0x3b895fe2	0.0041923383
175	0x3ce3540e	0.027750041
176	0x3c248e7b	0.010043736
177	0xbd6ceb09	-0.057841334
178	0xbcab8931	-0.020939441
179	0x3ceb33a0	0.02871114
180	0xbd120a19	-0.03565416
181	0x3d23e7db	0.040016036
182	0xbbc25f3c	-0.005931763
183	0x3ccc06fa	0.02490567
184	0x3d842a89	0.064534254
185	0x3cc31500	0.023813725
186	0x3bcd966b	0.0062740347
187	0xbd0dcf02	-0.034621246
188	0x3d3d7216	0.04625138
189	0xbd1eabbb	-0.038737994
190	0xbd3b225e	-0.045687072
191	0xbd1fefa9	-0.039046917
192	0xbc806ce1	-0.015676918
193	0x3e0f5985	0.13998993
194	0xbcf5cafe	-0.03000402
195	0xbc5dd407	-0.013539321
196	0x3c0971f5	0.008388986
197	0xbd29870e	-0.041388564
198	0x3cacefec	0.021110497
199	0xbdaa661a	-0.083202556
200	0xbd9dc7dc	-0.07704136
201	0x3c21a376	0.009865632
202	0xbd82f960	-0.06395221
203	0x3d8cda74	0.06877604
204	0x3d11ad4f	0.03556567
205	0xbdbddd3d	-0.092707135
206	0xbd3b0c7d	-0.045666207
207	0x3bf50d84	0.007478418
208	0xbbcdca7b	-0.006280241
209	0x3cccc09f	0.024994193
210	0xbc0d9bd8	-0.008643113
211	0xbc8855a0	-0.016642392
212	0xbc8c1332	-0.017098997
213	0xbd483d31	-0.04888648
214	0xbd2c4c20	-0.042064786
215	0xbd828bdf	-0.063743345
216	0xbd3047a4	-0.04303707
217	0xbd49a88f	-0.049233016
218	0x3ccb7e4e	0.0248405
219	0x3a0a70f4	0.00052811136
220	0x3d02c862	0.03192938
221	0xbd3e5320	-0.046465993
222	0xbbd39c8f	-0.006457872
223	0x3d0c946f	0.034321245
224	0x3c4d99e5	0.012548898
225	0xbdc032d6	-0.09384696
226	0xbd0effcc	-0.034911916
227	0xbd50e283	-0.05099727
228	0xbd1d6916	-0.038430296
229	0xbc24163d	-0.010015068
230	0xbd4f9509	-0.05067924
231	0xbc3e04b9	-0.011597806
232	0xbc0eb572	-0.008710252
233	0x3da8b311	0.08237279
234	0x3b9da77b	0.004811225
235	0x39027f10	0.000124451
236	0xbc397bdb	-0.011321033
237	0x3cef8a88	0.029240862
238	0x3d2574af	0.04039448
239	0x3da62f78	0.08114523
240	0xbd089ab8	-0.033350676
241	0x3d97bb85	0.074088134
242	0xbcbb199a	-0.022839356
243	0xbded1b1b	-0.115774356
244	0xbd9d3719	-0.07676525
245	0xbd24ecfd	-0.040265072
246	0xbdb63061	-0.08895946
247	0xbd21b41b	-0.039478403
248	0xbd85a7a0	-0.065261126
249	0xbdb13642	-0.08652927
250	0xbc4031de	-0.011730639
251	0x3cc66871	0.024219723
252	0xbd8406ff	-0.06446647
253	0x3cf10074	0.029419161
254	0x3c196850	0.009363249
255	0xbd737301	-0.05943585

_model.2._model.0.bias f4 [16]
0	0xbce25bd2	-0.027631674
1	0x3c9acb3e	0.018895742
2	0x3cdf07b8	0.02722536
3	0xbc205441	-0.009785713
4	0xbac91397	-0.0015340921
5	0xbaa4e56a	-0.0012580578
6	0x3cf141e0	0.029450357
7	0x3cd3be93	0.025847709
8	0x3bac5871	0.0052595665
9	0xbcfa96a7	-0.030589415
10	0xbc9b9232	-0.01899061
11	0x3c56847d	0.013093111
12	0xbc6aa5b8	-0.014321737
13	0x3d0fd358	0.035113662
14	0xbc688bd5	-0.014193495
15	0x3ca0721f	0.019585667
