data/etc/pretrained_model/fencing/task_agnostic_policy_motor_decoder_exp18_1600.pt (torch_old, 66320 bytes, 6 tensors)

_model.0._model.0.weight f4 [64, 20]
00000000: 4575 9a3d 3682 86be bda4 333c bffb 8bbc
00000010: 127c bbbe e000 a93e 2858 a43e c17f 51bd
00000020: 60eb 063d 4385 d13e 3c0d be3e 8712 cebc
00000030: c3b1 c3be 42e3 b1bd 85d7 6dbe 0cf4 1abb
00000040: 66eb c3bd 6b00 01bf 95a7 4a3e 8795 c83e
00000050: 010a 643e 5e09 953e 51fb 0ebe 2ae1 cb3c
00000060: f0bc 9a3e ef33 c1be 35cf 143e 6dd6 1d3e
00000070: 159b 6cbe 4173 4a3e 58e9 a4bd 291a f9bd
00000080: 96cc 733e 07e7 2e3e c0bb f0be e86d da3d
00000090: e6dc 16bc dec0 0ebe 738a f73e c616 bbbe
000000a0: 3d97 cc3e 25a1 f7bc 0c6e e13e 5b42 76bd
000000b0: ca38 71bd 3ff1 3c3e d5ce a8be c366 2fbe
000000c0: b03e a73e 24bd 93be 7be0 84bd e1d7 883e
000000d0: fca2 2abe 5252 32be 8a32 6bbe 911b 21be
000000e0: 6ec9 1f3e 9e7d 93be fc75 053c 1207 dbbe
000000f0: 4293 e33d 8c08 7f3e 1f0c 603e d83c eebd
00000100: 23a8 4abd 6faf 21be aa3a 2d3d c252 223e
00000110: 6c1e 173e 2535 bb3e 0b2d e53e 9a22 23be
00000120: 7aea e1b9 3fba e33e 2081 e33d 10ef f53e
00000130: 4417 87be 0cd5 e03e 089c 353e d412 cabc
00000140: f361 4fbd 4d5b 38be dd02 8a3e 36cf 33bd
00000150: c161 96be 4965 a5be e610 0e3e ea5c 923c
00000160: 22a6 7bbe 04d5 4bbe 6380 933e e7e9 4a3c
00000170: 93b6 143d 8d6b 283d e654 3bbc d992 af3e
00000180: 827c d5bd aa35 dfbe 6807 4e3d e6eb 1cbf
00000190: de28 46be 1216 153d a67d d83e 81f8 99be
000001a0: fb17 703d 4d6e 573e 5735 7b3d 2d09 9c3b
000001b0: d2db 8f3e b32f dfbd 1646 6b3e 865b a6be
000001c0: 6f3d 593d a53c 72be da8c 983e c3dd 443c
000001d0: 4772 f9bd b9f3 cebe dcc3 013f b35f 533c
000001e0: 8b5f b3be 6c8f 8e3e 0a66 01be eb10 c93d
000001f0: 47ba bc3e c9cc 443e c01c 41be 8cf0 24bd
00000200: 47e9 d13e 0ace 4b3e fb5c 903e d571 48be
00000210: fe68 8abd 189f 063e 0bc4 8b3c 04c4 15bc
00000220: 27bc 3fbe 7bf0 813e 1c57 6cbc 0362 083f
00000230: 01f6 07bd dcb0 a3be 7f4d b93e 66a2 f1bd
00000240: 97d8 5abe 24d8 e7be 55bd 3bbe dfa0 51be
00000250: 040d ca3e 9593 6dbd 73b6 8e3e a047 ae3e
00000260: cbb9 ce3e f7e4 7fbe b35f 973e 4a2a f13d
00000270: b291 aabe 1551 5c3e ebac f5bd 45d2 d7bb
00000280: 8f1d 4f3d dd0a 9ebd 2a5d bebd 02cb 7ebe
00000290: 71e6 84bd 91f3 413d 92e8 49bd e467 96be
000002a0: 6034 913e f57e 603f 7cce fabe ec79 563e
000002b0: 6c9c 17be 4fcf 2d3e 667f aabe 8c4d 35be
000002c0: a268 1dbe ceba 8a3e 54d3 8b3d 2f1e 1abe
000002d0: 6b3b a7be 2dce 053e 7656 62bd ba8f 70be
000002e0: 1107 d4bd 00a3 3d3d 8931 c8be 145e 3abe
000002f0: e101 93be 4dd9 8c3e 91fa f0bd 8331 d0be
00000300: 1c9c 75be e126 bd3e e3ee ed3e 0785 00be
00000310: 4982 82be 71d1 203d 0cba 903e 4bd7 81bd
00000320: fe5e c1be 1f7c a33d bac0 763e 5de5 3bbe
00000330: 3a40 09bf 5976 e5be 43a6 413d 8e23 653e
00000340: fd61 8ebd 97d2 c6bd e93e 90be d30c b03d
00000350: 279c abbe 6fbe 67be 27fa 07be bc82 40bd
00000360: 731a 1fbe c814 d03d 09c0 bebe 2dc9 ffbb
00000370: 29d4 dabd cb6b 0c3e 4068 103f cdd5 53be
00000380: 0e3e 3a3d 7134 fa3c 36d8 2fbe cdf0 b13e
00000390: 3c18 41be d664 c6bd fef4 a03e 3b2c f13e
000003a0: d0a8 233e 45a4 753e 649e 2a3e 384e 9a3d
000003b0: 20a8 cbbe e25c 813e ce6e 923e 9c5e 03be
000003c0: bec9 4abe 2df8 2bbd 94f9 a33e 3f97 903e
000003d0: 66dd e8bc 94a9 0ebe 94ce 1fbd 5d3f 86bd
000003e0: f631 403e b85e ccbc 862f 82be 45a8 b53e
000003f0: f482 a1be 338a c3be 4fa2 e7be 619b 6abe
0.07541899 -0.26271218 0.01096457 -0.017087815 -0.36618096 0.3300848 0.32098508 -0.051147226
0.032939315 0.40921983 0.37119472 -0.025155319 -0.3822156 -0.08685924 -0.23226745 -0.0023643998
-0.09566383 -0.5039126 0.1979049 0.3917658 0.22269441 0.2910871 -0.13963057 0.02488764
0.30222273 -0.37734935 0.14532168 0.15413828 -0.23106034 0.19770528 -0.08052319 -0.12163193
0.23808512 0.17080317 -0.47018242 0.10665494 -0.00920794 -0.1394076 0.48347816 -0.36540812
0.39959136 -0.030228207 0.44029272 -0.060121875 -0.05889205 0.18451403 -0.329703 -0.17129044
0.32665014 -0.2885524 -0.06488129 0.26727203 -0.16663736 -0.17414215 -0.22968498 -0.15733172
0.15604183 -0.28806776 0.008145805 -0.42778832 0.111120716 0.24905604 0.21879624 -0.11632699
-0.049476754 -0.15789579 0.042292275 0.15851882 0.14757699 0.36563984 0.44760928 -0.15931168
-0.00043090043 0.44478032 0.11108613 0.48033953 -0.26384938 0.43912542 0.17735302 -0.024667181
-0.05063052 -0.18003578 0.2695531 -0.043898784 -0.29371455 -0.32303837 0.13873634 0.01786657
-0.24575093 -0.19905478 0.2880889 0.012384868 0.03630693 0.041118193 -0.011433816 0.34291723
-0.104241386 -0.4359563 0.050300032 -0.6129745 -0.19351527 0.036398 0.42283362 -0.30072406
0.05861662 0.2103817 0.061330166 0.004761836 0.28097397 -0.1089777 0.22975954 -0.32491702
0.053037103 -0.23655947 0.2979496 0.012015763 -0.1218 -0.4042032 0.5068948 0.012901234
-0.3503383 0.27843797 -0.12636581 0.0981768 0.36860868 0.19218744 -0.18858624 -0.040268466
0.4099829 0.19902816 0.28195938 -0.19574673 -0.06758307 0.13146627 0.017061254 -0.009140972
-0.18724118 0.25378785 -0.014425065 0.53274554 -0.033193592 -0.3197087 0.36191937 -0.11798553
-0.21371685 -0.4528209 -0.18333943 -0.20471524 0.39463055 -0.058002073 0.27873573 0.3403902
0.40376124 -0.24989687 0.295652 0.11775644 -0.33314282 0.21515305 -0.11995872 -0.0065863454
0.0505653 -0.07716916 -0.092951134 -0.24882129 -0.06489266 0.047351424 -0.049294062 -0.29376137
0.2836027 0.8769372 -0.4898566 0.20944947 -0.14805764 0.16973613 -0.33300322 -0.17705363
-0.15371946 0.27095646 0.06827417 -0.15050577 -0.3266252 0.13066931 -0.055258237 -0.23492327
-0.1035291 0.046298027 -0.39100292 -0.1819995 -0.2871237 0.27509537 -0.11766542 -0.40662774
-0.23985332 0.36943725 0.4647132 -0.12550746 -0.25490025 0.03926224 0.28266943 -0.06339892
-0.37767786 0.079826586 0.24096957 -0.18349214 -0.53613627 -0.44816855 0.0472777 0.22376844
-0.069522835 -0.097081356 -0.28172997 0.08596196 -0.33517572 -0.22631238 -0.1327902 -0.046999678
-0.15537433 0.10160214 -0.37255886 -0.0078059644 -0.106849976 0.13712995 0.5640907 -0.20687027
0.045469336 0.030542584 -0.17172322 0.3475403 -0.18856901 -0.09687202 0.31436914 0.47104058
0.15982366 0.23988445 0.16661984 0.0753445 -0.39776707 0.25266176 0.28600162 -0.1282906
-0.19803521 -0.041984726 0.3202635 0.28240392 -0.028425884 -0.13931876 -0.039015368 -0.06555054
0.18769059 -0.02494751 -0.25426883 0.35479942 -0.31545222 -0.38191375 -0.4524102 -0.22910835

_model.0._model.0.bias f4 [64]
00000000: 528a 8d3b a677 4f3d 6048 023d 17b3 703c
00000010: 7589 4c3d f682 953d 1b35 2e3d af99 77bb
00000020: 4a1c fb3d b22a 923d 5d68 693d 5dea 763d
00000030: c48d e43a d329 c93c 7e22 33ba a450 293d
00000040: 9cfc 903d 657c 543d a862 4d3c 1780 4f3d
00000050: a7fc 263d 2b6c f53c efc0 b83d 2529 193d
00000060: b336 b43d 6461 683c 61bf 303d 75f6 0f3d
00000070: b515 143d 9524 5b3d 4acd b03d f50d 9d3d
00000080: 1d82 783d b524 8c3c 978a bf3c fe1b a93c
00000090: 10bd 023d 04f9 353c f1c2 c53c 4f8a 0c3d
000000a0: 086f 82bc a57d a13b a0fe 953d 0e75 3d3d
000000b0: 2fa3 a23d a2f3 153e 6286 db3d cb0d 93bc
000000c0: bc1a 9a3d d074 163d 6551 7b3d fac4 1c3d
000000d0: 44d8 233d 1732 493d 2193 083c 1f25 953d
000000e0: 3f00 da3d 0e97 503d ee7c 8dbc c861 6bbb
000000f0: ba54 123d 3253 0a3d 0f20 033d bd08 943d
0.0043194676 0.050651215 0.031807303 0.014691136 0.049935777 0.073003694 0.042531114 -0.0037780812
0.12261255 0.0713705 0.056984294 0.0602821 0.0017437269 0.024556076 -0.0006833448 0.04133667
0.070794314 0.051876444 0.0125357285 0.050659265 0.04076829 0.029958805 0.09021174 0.037392754
0.087994955 0.014183376 0.043151263 0.03514715 0.036153514 0.053501684 0.08632906 0.07668678
0.06067096 0.017107347 0.023381514 0.02064323 0.031918585 0.011106733 0.024140807 0.03431159
-0.015922084 0.004928308 0.073239565 0.04625421 0.07941281 0.1464372 0.10718991 -0.017950913
0.075246304 0.036732495 0.06135692 0.03827379 0.04000117 0.049120035 0.0083358595 0.07282471
0.10644578 0.050925307 -0.017271485 -0.0035916436 0.035725333 0.033770747 0.032012995 0.07228229

_model.1._model.0.weight f4 [128, 64]
00000000: e5ae 01be b6a5 36be f499 03be f784 973d
00000010: e81a bfbd c5cf 573e 7bd7 333c b304 e23d
00000020: ab56 48be 0752 093e 27e7 d03d b4dd a23e
00000030: a6a3 b0bd 636f 603d 2497 823d c6c2 013c
00000040: 586e b63c 8bbf 41bd c220 04be b7d2 743c
00000050: 855d 3c3e 7246 04be 6882 783d 67ad 873c
00000060: 7e13 863e ba2d 5ebe 3be2 1dbc 45f7 a73e
00000070: b3c0 433d db4b dabd 3ddb a13d fe82 103e
00000080: 82ca 283d 0f19 1cbe 1632 9ebd 50d7 88bd
00000090: ee50 893d 023d da3d b68c 09be 4a5d f4bc
000000a0: ad6b 263e c1fc e83c ac58 b63d f1af bd3d
000000b0: 8bc3 423e 6312 e2bd e306 4abd 56fe 6a3b
000000c0: 9213 ad3c 6661 e53c d06a 06be 142f 703e
000000d0: 1684 f0bd c45f 58be aabf 463e bac0 9f3e
000000e0: 395c 4cbd ff74 683e d2a2 92bd 25cf cdbc
000000f0: 8dbc 913c 8c73 afbd d874 1abe e000 dabe
00000100: fd6e 983e 591c 43bd c25f 65bd 6cf1 5a3e
00000110: 2534 c9bc 8525 bbba 363d 463e 9b9f 9dbd
00000120: c09c 0f3d 5afc 5abd 685e 833e 2537 083e
00000130: bfb4 4fbe 15e5 1c3e 5abc 5a3d d9e2 9a3c
00000140: 9a01 96bd 7b53 573c eb93 4a3d 3e6a 1abe
00000150: a640 a0bd 0199 e6bd 54d0 30be a6f0 b9bd
00000160: 32b5 c5bd a352 913e d3f5 5cbd df96 8b3d
00000170: ace9 86bd bf23 eb3d 57d7 463e 1a40 0f3d
00000180: f805 f5bb b30f 903d 7a6f 19be cf62 8fbd
00000190: 196c c1be 0ede 453d 309e 4dbe e74f 0abe
000001a0: c373 453d 73c1 9c3d 3ae3 323d 67ba 843e
000001b0: d767 963d 7467 a5bd 7f3b 283e 1743 a6be
000001c0: 3bb4 ed3d 4fc4 61be 8dfa 1d3e 350b 7dbd
000001d0: 646f 7f3d 72f9 403e 52e9 14be fd72 4dbe
000001e0: 0051 b73c 0de4 5abd 4c37 8d3c d18d 91bd
000001f0: a6af e63c df46 dc3b 130a 3d3d 1cb1 b6bd
00000200: 4cc0 313e 90ab d2bd a27b a7bd 02ea 973c
00000210: 0928 2dbe e490 ba3e d1c8 003e 27e1 59be
00000220: 725a c8bd a865 ae3b 6824 47be e2ea a6bd
00000230: 5108 1a3e d7c1 3bbe 06f8 b53d fde2 243e
00000240: 985d 02bb 321a a63e a4df 0abe 9fa5 60bd
00000250: 6563 e63d aa69 073e bdc1 433d e24c a23d
00000260: e24d cfbc 35ae 15be 896f 92be e122 af3d
00000270: 0d3d 07bc ecd3 6abc ef4c 21be 0841 82bc
00000280: da31 3a3e 92e7 11be c7b2 a43d 0dbb bebe
00000290: 2d38 b6bd 095b 093f 927a 17bc 3bec 193e
000002a0: c44c c33e 48c3 66bd 3586 603e a51e 99bd
000002b0: fb09 88bd 4da6 fbbd c60d e03c 1901 893d
000002c0: 352a e2bd acdd cabc 0dbf a13b b828 efbc
000002d0: dfb6 963d c3cd 4ebe e243 9b3d 6470 1bbe
000002e0: add1 ef3d 6acd e33d c5d0 dd3d 947d 663e
000002f0: 04c5 5abe ffc9 b93d 0b54 4f3d 49f2 e3bd
00000300: 2a9d 33ba dbf8 04be 242b 473d 801a f4bd
00000310: f194 c33e 805a c2bc f6cf ea3d caa8 9c3d
00000320: 4089 ee3d 5687 acbd 13ca 79bd c755 2e3e
00000330: 60d3 74bd 51b5 ba3e f93d d03d 6a13 be3d
00000340: b72f 04be dab5 673d 66b8 1cbd 52eb 00be
00000350: b5f9 1dbe 351b b5bb d813 27bd b30a 023e
00000360: 0f3a be3d d07c cd3d 7be7 fb3d fb52 593e
00000370: 5722 183d f211 6ebe 06c7 a6bd d754 0f3e
00000380: d36d a83d 8052 cbbd e62b 80be 3fd7 46bd
00000390: 7274 1f3e b1b8 10bd f901 45be 3fff 463d
000003a0: 4bbb 17be c619 2c3e d9ff 36ba b732 e23d
000003b0: cdc6 27be 3a07 103d 6065 b93d b9f3 76bd
000003c0: df62 3cbe 5770 b23d b120 61be 188f babc
000003d0: 6adf 253e c04a fa3d 59a3 a1bd 81ac 053d
000003e0: db3b c8bd 9850 723e acf8 e4bd 227e fbbc
000003f0: 4c70 28bd f590 b2bd 56eb 40be c4e7 b83d
-0.12664373 -0.17836651 -0.12851697 0.07398408 -0.09331304 0.21075352 0.0109766675 0.110360526
-0.19564311 0.13410197 0.10200339 0.3180977 -0.086249635 0.054793727 0.06376484 0.007919973
0.022269413 -0.04730181 -0.12903121 0.014942816 0.1839505 -0.12917498 0.06067124 0.016562177
0.26186746 -0.21697131 -0.009636457 0.3280584 0.047791194 -0.106589995 0.079031445 0.1411247
0.04120875 -0.15243934 -0.07724397 -0.066816926 0.06704889 0.106561676 -0.13432583 -0.02982964
0.16252013 0.028440835 0.089036316 0.09262074 0.19019906 -0.11038663 -0.049322974 0.0035857162
0.021127496 0.028000545 -0.13126683 0.23455459 -0.117439434 -0.21130282 0.19409052 0.31201726
-0.049892638 0.2270088 -0.07159962 -0.025123188 0.017790103 -0.08566961 -0.15083635 -0.42578793
0.29772177 -0.047634456 -0.055999525 0.21381158 -0.024560997 -0.001427815 0.19359288 -0.07696458
0.035061598 -0.053463317 0.25657964 0.13302286 -0.20283793 0.15321763 0.053402282 0.018906998
-0.07324524 0.013142462 0.04945747 -0.1507959 -0.07824831 -0.11259652 -0.17266971 -0.09079103
-0.09653701 0.2838336 -0.053945374 0.06815886 -0.06587538 0.114814274 0.19418083 0.03497324
-0.007477518 0.070342444 -0.14983931 -0.07001268 -0.37777784 0.04830747 -0.20079875 -0.13507043
0.048206102 0.07654085 0.04367373 0.25923464 0.07344025 -0.08076373 0.16428946 -0.3247306
0.11606642 -0.22047542 0.15427609 -0.061778266 0.06236209 0.18845156 -0.1454213 -0.20063396
0.022377491 -0.053440142 0.017238282 -0.071071275 0.028159928 0.0067223157 0.046152186 -0.089205
0.17358512 -0.10286629 -0.08177878 0.0185442 -0.16909803 0.36438668 0.12576605 -0.21277295
-0.09782876 0.005322177 -0.19447482 -0.08150269 0.15042235 -0.18335663 0.08885197 0.16102214
-0.0019892212 0.3244186 -0.13561875 -0.05484545 0.11249427 0.13223901 0.047792185 0.079248205
-0.025305692 -0.14617236 -0.2860072 0.085515745 -0.008254302 -0.014332753 -0.15752004 -0.01590015
0.1818308 -0.14248493 0.080419116 -0.37252083 -0.088974334 0.53654534 -0.009245532 0.15031521
0.38144505 -0.05633858 0.21926196 -0.07476548 -0.066425286 -0.12287579 0.027350318 0.066896625
-0.110432066 -0.024763905 0.004936105 -0.02919422 0.07359099 -0.2019568 0.07581307 -0.15179592
0.11709914 0.11123164 0.10830835 0.22508842 -0.21364218 0.09071731 0.05061726 -0.111301966
-0.00068517274 -0.12985556 0.048625126 -0.11919117 0.3819957 -0.023724794 0.11465447 0.076493815
0.11647272 -0.08424251 -0.06098373 0.17024909 -0.059771895 0.36466458 0.1016807 0.09281047
-0.12908827 0.05656991 -0.038261794 -0.12589768 -0.15427287 -0.005526925 -0.04079041 0.12699394
0.092884175 0.10033572 0.12300011 0.21223061 0.037142124 -0.23249033 -0.081434295 0.13997208
0.08224072 -0.09927845 -0.25033492 -0.04854512 0.15571764 -0.035332385 -0.19239034 0.048583265
-0.1481754 0.16806707 -0.00069808733 0.11044829 -0.1638443 0.03516314 0.09052539 -0.060291026
-0.18397091 0.087128334 -0.21985127 -0.02277331 0.16198507 0.12221289 -0.07892484 0.032635216
-0.097770415 0.23663557 -0.11180243 -0.030699793 -0.04112272 -0.087190546 -0.18839774 0.09028581

_model.1._model.0.bias f4 [128]
00000000: fb08 933d ef29 15bd 290a 9f3c 0de7 973c
00000010: 0c07 993d 84db 3fbc e02a faba 01b6 013d
00000020: e619 ad3b 7808 163b 7990 0e3c ad14 36bc
00000030: af79 b83c 054f 953b 518b 913c 7763 b93c
00000040: 0b25 933c 2399 f4ba a804 a73c e935 193c
00000050: 8230 033c 6cf3 7b3d 4967 223d e122 073d
00000060: bb8f a03c 2d85 623d 7465 513c 72fc ee3c
00000070: 9528 453d c23c bd3c cdb8 373d a492 9038
00000080: 9a89 7dbc 2425 21bc e9fb 453d 4d30 8f3d
00000090: 6394 c83c 2a3d 6b3d 4213 af3b e9f1 923d
000000a0: f69d 8b3a b9dd 683c 1763 8bbc 9b06 c93c
000000b0: 9406 193d ce27 bdbb 4388 003d fec4 033d
000000c0: 36c4 a03c cd6f 863d 196c 493d 42c9 7d3d
000000d0: 6b6b 723d 19d9 573d 2f70 45bc 526c 913c
000000e0: 0b9a 133d 3287 f43c 2f6c 1d3d 6c8c 3f3d
000000f0: 10fc 5d3c 5db1 29bc fa4b 083d ecc7 0a3d
00000100: d399 f03c 4c5a 853d e1ad ba3c 8c21 043d
00000110: 118e 89bc 2f11 b23b 826a 5abb d5b7 7f3c
00000120: 06cb 03bc d751 e03c e86e 1d3c 8c75 2dbd
00000130: 5bb1 ab3c 67b7 06bc 49dc 6d3d c59e 253c
00000140: be3f da3c 3277 bfba 4610 9d3c 0b15 303d
00000150: 0471 8d3b 64c6 233d 1ba8 823c 9ca7 97ba
00000160: 3a46 60bc 5fe7 dd3c cd05 4b3d 3ef4 803a
00000170: c1f6 f9ba 430f e43c 2155 213d 845c 673d
00000180: f64e b93c bd6d c33c 6f45 023c c55b 523b
00000190: fb36 c93b 2721 933b 6b19 7abc dd82 623c
000001a0: 3b3e 0e3a 80d0 283b 9762 973c c87c 8f3d
000001b0: 0e86 bd3b a842 5f3d 8f47 923c 4e34 d23c
000001c0: f075 2c3d 3253 483d 7174 813b 2891 71bc
000001d0: 182b 043d bc9c e43c 84f9 6e3c 0647 453d
000001e0: 38a3 80ba a0df 7ebc 4a8c 9e3b 1335 bb3c
000001f0: 9f8f ed3c 0489 2f3d c9d2 5e3d b61a 9e3d
0.07179447 -0.036416944 0.019414024 0.01854279 0.07472047 -0.011710051 -0.0019086264 0.031667713
0.0052826283 0.0022893231 0.008701437 -0.011113328 0.02251896 0.004556539 0.017766627 0.022630436
0.017962 -0.0018661361 0.020387962 0.009351232 0.008007171 0.061511442 0.03964928 0.032992247
0.019599786 0.055302788 0.012780536 0.02917311 0.048134405 0.02310026 0.044853974 6.893769e-05
-0.015474701 -0.009835515 0.048335943 0.069916345 0.024484819 0.057431377 0.005342872 0.07175047
0.0010651934 0.014213019 -0.017015023 0.024539283 0.03735979 -0.0057725674 0.03137995 0.03217029
0.01962481 0.06564293 0.049175356 0.061959513 0.059184473 0.052697275 -0.012050672 0.017751846
0.03603558 0.029849622 0.03843325 0.046764776 0.013548866 -0.010357228 0.033275582 0.033882067
0.029370224 0.065113634 0.02278799 0.032258555 -0.016791375 0.0054341774 -0.0033327644 0.015607794
-0.00804401 0.027382774 0.009608962 -0.04234843 0.020958593 -0.008222437 0.05807141 0.010108654
0.026641723 -0.0014607667 0.019172799 0.04298882 0.004316451 0.039984122 0.0159493 -0.0011570337
-0.013688618 0.027087865 0.04956608 0.0009838415 -0.0019070731 0.027839309 0.039387826 0.056484714
0.02262066 0.023856038 0.007951125 0.0032098156 0.0061405874 0.004490036 -0.015264849 0.013825146
0.0005426143 0.0025759041 0.018479628 0.07006222 0.005783803 0.054506928 0.017856387 0.025659706
0.04210466 0.048907466 0.0039506485 -0.014744081 0.03226766 0.027906768 0.014585856 0.048163436
-0.0009814268 -0.015556246 0.004838501 0.022852456 0.028999148 0.042855278 0.05440024 0.077199385

_model.2._model.0.weight f4 [51, 128]
00000000: 5865 33bd 600c 41bd 4251 89bc 0906 bf3b
00000010: 37b3 e7ba 4299 2dbd 0820 2d3e 1021 6dbb
00000020: 77df 7a39 348a abba 7b81 633d 5f77 f13d
00000030: bfeb d1bc 93b1 5cbb 0f99 8abc e1ea 823c
00000040: ff90 13bd e3b0 273c ced5 023e 9536 2fbd
00000050: c1e4 273d 6eea 813c d77c 09bd f0da edbb
00000060: 0e60 8dbd 7adf 48bb eaf3 52bd fbdb 373c
00000070: 36dc 003e df4e cb3c 90bb c03c d359 c33c
00000080: 0738 993d 138f ccbd cd86 5e3c d622 97bd
00000090: 0c5b a83c 596c 9cbd 14a1 793c f6ee 273c
000000a0: 5f2f 12bc 2dfa ba3c 5620 c23b 48aa 403d
000000b0: 28e0 99bc adec d33b a304 e6bb c3db 323d
000000c0: 0364 e83c a86e 433d c26e d6bc 8c63 203b
000000d0: 2150 c83c 3366 043c 0466 563d 9e22 17bc
000000e0: 498e 02bd 5c79 00bb e648 b7bb ec49 4fbd
000000f0: 68a3 41bc 7584 703c 4721 e13c 3e0f bfbc
00000100: 7feb c33b 3db7 29bd f90f 45bc effe f2bc
00000110: 67e5 3a3d f439 c0bc 4a5f 25bd e13f f3ba
00000120: 505d b9bd 9a65 91bc 6298 15bc a23c c03d
00000130: fbce f13c 7780 e1bb d34b 58bd 4c9d 64bc
00000140: 3dc3 acbd 8bc7 40bc ce5c 00bd 79cd 10bb
00000150: 96a4 3fbc a864 c33b c6f5 08b9 cf07 1c3b
00000160: 701e 85bd 2e8d 8fbc 8bc0 01bd 1689 c3bd
00000170: b001 a03d 75d9 45bc bed1 f9bc 3d77 02bc
00000180: 18f6 973d 5e14 be3c 59f9 acbd 9d24 84bc
00000190: b4e3 b43d 4259 043c 78c5 cbbd 9303 23ba
000001a0: 9b63 c9bc 0c56 8a3c 82fe 453d 16bf 7c3c
000001b0: 04a8 e7bc 5a59 06bd 1c60 c5bd 08f0 b0bc
000001c0: a7fc 033d 654f ee3c 6095 50bc e0d8 3f3c
000001d0: 6ee8 953d ec55 b73c b082 5bbd 51d6 01ba
000001e0: 6e24 9abd 601f 3c3c 9925 16bd 7c61 07bd
000001f0: 0ee9 3dbd b4b7 f4bb 40d1 f63b fccf 22bc
00000200: 0f9a 573c b269 943c cc5d 59bc 0936 07bc
00000210: ee3b 5cba 8846 d9bc d7ea 2bbc d5fb 7d3a
00000220: aece b83b 5baf fb3b c6f2 213c 929a e0bc
00000230: d7c8 f0bc eb64 e03c 3092 0ebc b02d c43c
00000240: c20e 44bb e20c 013d 4b21 413d f25f 113b
00000250: 9186 05bb cc59 aabb ba48 6ebd 5218 3c3d
00000260: 6479 b9bc 4504 063d 08f4 b53c 93a7 163d
00000270: a848 8b3c 7ec0 8b3c ccd2 973c 36cf e2b9
00000280: 1fcd 04bd 6810 0abc 77cc e03c 83f4 783c
00000290: e86a b9bb f67a aebc f74a d3bc a34e 0dbc
000002a0: a963 1dbc 3aa2 1bbc 5a15 c03c 1a3d b43b
000002b0: 92a9 96b8 f90b afbc 70d4 7e3b b14e 11b9
000002c0: 83c8 ccb9 ef67 233d cf6c 1e3d 48e9 623d
000002d0: fb50 e3bb a42d 4ebc d831 483b 2b9a b73c
000002e0: 4938 3abc c519 2c3b dbe7 c3bc 02c4 ea3b
000002f0: 7b6d 9bbb 1778 82bb eb6f a63c 5941 59bc
00000300: 7f22 a5bb 9c89 963b 87c8 35bc 263d 17ba
00000310: e223 d03b 7eeb 313c 7f14 243d 1f3f f5bc
00000320: 0c70 a8ba fd91 40b7 6aff 1bbd 3b31 57bd
00000330: 1bb3 fd3b 27ee d43c aff4 7d3d 1f4f d93b
00000340: 7f42 51ba bcb0 9b3c 1e41 e23c 6419 1e3d
00000350: 3502 a53a b676 4b3c 9627 03bb a1de 8cbc
00000360: efb7 5dbc bf14 1fbd 4496 51bc 0c2b 0b3b
00000370: 7132 2bbd 65a3 873c 14f1 50bc 2689 52bc
00000380: 6105 403c 6918 53bb 16fb b1bc 207f c9bb
00000390: bd51 8cbc ae5b bdbc 04c5 3b3d 14c1 9a3c
000003a0: 1253 82bb f72d edbc c33f 453c 9b5b ac3c
000003b0: d694 25bc 46cb 02bc 4f65 aebc cda7 533c
000003c0: fb9d 2e3d 8915 113d 6ce4 833b 1f1e 043b
000003d0: 34d9 163c 4e2a f9bc 7a0f 6c3c 2dee 813c
000003e0: 57db 87bd c07e 2f3c 5145 c03c 9d5d 5cbd
000003f0: 58a4 e0bb 85ad 29bc b568 e53a 82c0 36bc
-0.04379782 -0.047130942 -0.01676238 0.005829577 -0.0017677312 -0.042382486 0.1690675 -0.0036183037
0.00023925105 -0.0013087452 0.055543404 0.11790346 -0.025625108 -0.0033675178 -0.016918687 0.01598114
-0.03602695 0.010235044 0.12776873 -0.042776663 0.04098964 0.015858855 -0.033566322 -0.0072587654
-0.069030866 -0.003065078 -0.051502146 0.011221881 0.12584004 0.024817882 0.023526937 0.023846542
0.074813895 -0.09988227 0.013581944 -0.07379691 0.020551227 -0.07637853 0.015236158 0.010249844
-0.008922427 0.022824371 0.005924265 0.047037393 -0.018783644 0.006467423 -0.0070195957 0.043666612
0.028368002 0.047712952 -0.02617586 0.0024473397 0.024452271 0.008081007 0.052343383 -0.009224562
-0.031873975 -0.0019603586 -0.005593407 -0.050607607 -0.011818744 0.014680018 0.027481688 -0.023322698
0.005979001 -0.041434515 -0.012027734 -0.029662577 0.04562893 -0.023465134 -0.040374078 -0.0018558466
-0.09051001 -0.017748643 -0.009130569 0.09386565 0.029517641 -0.0068817693 -0.052806687 -0.013953518
-0.08435676 -0.011766325 -0.031338505 -0.0022095127 -0.011696955 0.005962927 -0.00013061528 0.0023808365
-0.06499946 -0.017523374 -0.031677764 -0.095476314 0.07812822 -0.012075772 -0.03049552 -0.007962999
0.074199855 0.023203071 -0.08445997 -0.01613074 0.088324934 0.008077921 -0.099497736 -0.0006218489
-0.024583628 0.016886733 0.04833842 0.015426418 -0.028278358 -0.032800056 -0.09637472 -0.02159883
0.03222337 0.029090593 -0.012730926 0.011709422 0.07319723 0.022379838 -0.05359143 -0.0004952895
-0.0752648 0.01148209 -0.03665695 -0.033051953 -0.046364836 -0.007468188 0.0075322688 -0.009937283
0.013159289 0.018116806 -0.013266992 -0.008252629 -0.0008401264 -0.02652289 -0.010493002 0.000968871
0.0056398725 0.007680816 0.009884542 -0.027417455 -0.029392643 0.027391871 -0.008701846 0.023947567
-0.0029916023 0.031506427 0.04715089 0.0022182432 -0.0020374397 -0.005198693 -0.058174826 0.04592163
-0.022640891 0.032718915 0.02221109 0.036780905 0.017002419 0.01705956 0.018533133 -0.00043260463
-0.03242218 -0.008426763 0.027441246 0.015195015 -0.005658496 -0.021298867 -0.025792582 -0.0086247055
-0.00960628 -0.009499127 0.023447681 0.005500448 -7.184142e-05 -0.021368014 0.0038883947 -0.00013857592
-0.00039059305 0.03989404 0.038677987 0.055398256 -0.006937144 -0.012584124 0.0030547287 0.02241238
-0.0113659585 0.0026260477 -0.023914268 0.0071644792 -0.0047432757 -0.003981601 0.020317039 -0.013260209
-0.0050395126 0.004594041 -0.011095173 -0.00057693047 0.006351934 0.010859368 0.04005861 -0.029937325
-0.0012850775 -1.1478082e-05 -0.03808538 -0.052537184 0.0077422983 0.025992466 0.062000927 0.0066317464
-0.0007982626 0.019005172 0.02761894 0.038598433 0.0012589159 0.01241844 -0.0020012609 -0.017196001
-0.013532623 -0.038838144 -0.012792174 0.0021235375 -0.04179615 0.016557405 -0.01275279 -0.012850082
0.011720032 -0.0032210595 -0.021726172 -0.0061491877 -0.01712882 -0.023115005 0.045842186 0.018890895
-0.003977188 -0.028952582 0.012039128 0.021039775 -0.010106286 -0.0079830345 -0.021288542 0.012918425
0.04263113 0.03542093 0.0040250327 0.0020159555 0.009207059 -0.03041568 0.014407987 0.015860641
-0.06633633 0.010711372 0.023470553 -0.053800214 -0.006855529 -0.010356312 0.0017502519 -0.011154296

_model.2._model.0.bias f4 [51]
00000000: 9be6 1a3c be18 273d 9d2a 8abc ed7a a63c
00000010: 92d8 9d3c 0b74 40bd 6382 cfbc dc1b 4f3b
00000020: 556b 9ebb f3d4 80bb b92b bcbc 10b2 d2bb
00000030: b8fd 9c3c 0d3d 2f39 45cd 2f3b 0116 093c
00000040: a1da 1d3c e964 9f3c 6684 debc c379 1a3c
00000050: 7c33 4b3c 6480 3abd 279c 2c3c 7299 e13b
00000060: 078d 7cbc 2223 523c 3be2 713c 3628 ee3a
00000070: ed25 1cbb 5f80 503c 4c9e ce3b 01fd efba
00000080: a881 083c fb10 693c 2fe5 6a3c 4a46 84bc
00000090: 37f6 283c 1651 e83b 627f 08bd 6cfb 1539
000000a0: d85f 74bd 6c31 943c 6087 c6bc d2da 6f3b
000000b0: ba16 823b 6feb 04bb d8ce 3e3d ce11 033d
000000c0: 961d 04bc 194b cb3d 34a6 debc
0.009454395 0.04079508 -0.016866023 0.020322287 0.019268308 -0.046985667 -0.025330728 0.00316023
-0.0048345723 -0.0039316355 -0.022970067 -0.006429918 0.019163951 0.00016712044 0.002682523 0.008367063
0.009634645 0.019457297 -0.027162742 0.009428444 0.012402412 -0.0455326 0.0105352765 0.006884747
-0.015414483 0.012825759 0.01476341 0.0018169943 -0.0023826316 0.012725919 0.0063054916 -0.0018309654
0.008331694 0.01422524 0.014336868 -0.016146798 0.010312608 0.0070897443 -0.033324607 0.00014303409
-0.059661716 0.018089972 -0.024234474 0.0036598933 0.0039699944 -0.002028193 0.04658398 0.0319994
-0.008063694 0.09926433 -0.027178861
