data/etc/pretrained_model/fencing/task_agnostic_policy_body_encoder_exp21_3000.pt (torch_old, 181915 bytes, 6 tensors)

_model.0._model.0.weight f4 [128, 279]
000000 f3 da 03 bd 42 bb 77 3d 29 d4 69 3d 77 f4 1c bf
       -0.032191228 0.060481317 0.057087097 -0.61310524
000010 df dc 97 3d 4a af 3e 3e 97 a3 64 bd 3e bc a9 bd
       0.07415175 0.18621555 -0.055820074 -0.082878575
000020 a3 bc f0 bd fa a6 cd bd 94 9e 7e 3c a5 91 08 3d
       -0.117547296 -0.10041614 0.015540738 0.033342022
000030 f0 83 57 bd 28 18 37 bd dc 42 8d 3d 56 f1 80 3e
       -0.05261606 -0.04470077 0.06897518 0.25184125
000040 bb 2d f5 be 95 df 1b b9 31 d6 ab 3d 12 c8 96 3d
       -0.47886452 -0.00014865243 0.08390463 0.07362379
000050 41 36 ca bd f7 ea fd bc dd 30 b0 bd 6d e8 87 3d
       -0.09873629 -0.030995829 -0.0860307 0.066361286
000060 e9 d1 53 3d c0 7b 36 bd 05 b9 45 3b 23 64 27 bd
       0.051713858 -0.04455161 0.0030170095 -0.040866982
000070 29 87 fd 3d 11 61 f3 bd 0d eb aa 3e b4 d5 e0 bc
       0.123792954 -0.11883748 0.33382455 -0.027445652
000080 20 d3 c9 3c 7a c0 c4 3d 8d 53 27 3d c6 83 18 be
       0.024636805 0.096070245 0.040851165 -0.14894018
000090 b0 c7 d3 ba c1 7f 01 3c 24 f5 02 bd 4a c9 88 3d
       -0.0016157534 0.007903994 -0.031972066 0.06679018
0000a0 23 b4 44 3d 0a 50 11 3d 55 56 b0 be 6c d4 62 3e
       0.048023354 0.03547672 -0.34440866 0.22151345
0000b0 0e dd 11 3e ab 6d 84 3d 65 31 9e bb 72 18 48 3b
       0.14244482 0.0646623 -0.0048276656 0.0030532149
0000c0 7a 96 17 36 5a 7c d6 bc 66 2c 01 bd ec ba 9f 3b
       2.2588342e-06 -0.026182342 -0.031536482 0.0048745777
0000d0 06 d3 8b 3c 85 a3 b5 bc a9 96 68 3e 2d 8f 24 be
       0.017068397 -0.022172699 0.22713722 -0.16070242
0000e0 a3 f1 3e bc e1 4b 09 3d 83 56 d1 bc 58 07 25 bd
       -0.01165429 0.03351963 -0.025553947 -0.040290207
0000f0 4c 07 5e 3c 44 bd 51 bd 40 09 98 bd 00 92 9e 3d
       0.013551544 -0.05120589 -0.07423639 0.07742691
000100 39 3c 0f be c4 05 8e bd b8 8a 94 bc 46 ce 93 3e
       -0.13987817 -0.069346935 -0.018132553 0.28868312
000110 5e b5 36 bf 98 e2 37 3e c3 9b bc bd 6e e6 f2 bb
       -0.71370494 0.17957532 -0.09209397 -0.0074127233
000120 72 80 e0 bc 52 d2 2d 3c ac 8d a5 3b 5a ed e1 bc
       -0.027404997 0.010609226 0.005052289 -0.027578998
000130 71 fc 02 bd d0 8b 61 3d fa ed 5b bd 8f 5d 67 3d
       -0.031979028 0.055064976 -0.05369375 0.05648571
000140 62 52 b3 3e 33 b5 e8 be 03 b6 11 3e a3 3b 30 3b
       0.3502379 -0.45450744 0.14229588 0.0026891015
000150 e1 86 4c 3d 61 2a 82 3d cd 01 37 3d 1f 89 36 bd
       0.049933318 0.063557394 0.04467945 -0.044564363
000160 a1 03 9c 3d 3f 44 ad 3d a0 49 b0 bd f1 c3 2b be
       0.0761788 0.084602825 -0.08607793 -0.16773964
000170 4f ad b9 3c d9 1d f4 be 44 72 4b be 4b f8 c7 3c
       0.022665648 -0.47679022 -0.19867808 0.024410388
000180 46 b4 4c 3e 89 d5 16 bd fa f0 9b bd c7 16 0a 3d
       0.19990644 -0.036824737 -0.07614322 0.03371313
000190 ea 80 1c be 8e 40 4c bd e7 ec 91 bd e5 b1 3d bd
       -0.15283552 -0.04986625 -0.07125264 -0.04631223
0001a0 d5 8e cd bd 70 9e 98 bd 43 49 9e be 24 2f e1 bd
       -0.10037009 -0.074520946 -0.3091527 -0.109953195
0001b0 1a 20 c1 3d f0 a4 66 3e d9 9c db 3c 75 b8 40 bd
       0.09429951 0.22523856 0.02680819 -0.047050912
0001c0 a9 ea af bd b7 a3 61 bd 55 43 3f bd a7 d8 16 3c
       -0.0858968 -0.05508777 -0.046695072 0.009206927
0001d0 7b 0c 63 3d c0 33 72 bd d4 7e 75 3c 9a 55 89 be
       0.055431824 -0.059131384 0.014983851 -0.2682312
0001e0 7f 3f 21 bc 44 7a 58 3e ca 74 61 3e db 5e 8b 3d
       -0.009841799 0.2114039 0.22017208 0.068052016
0001f0 21 58 07 be bc cb 07 3d b1 66 6f be e9 fc b3 bd
       -0.13217212 0.03315328 -0.23379017 -0.08788473
000200 c8 1e 59 3d b5 17 d8 3c c4 8c d4 bd 6d d7 24 3d
       0.05300787 0.026378492 -0.103784114 0.04024451
000210 82 5d 05 be 8f 02 ef bc 31 f6 f6 3d 00 dd 8f 3e
       -0.13023952 -0.029176025 0.12058676 0.28098297
000220 0a b6 05 bc 36 48 0d bd 68 24 66 bc 3b c7 d3 bc
       -0.008161077 -0.034492694 -0.014046766 -0.025851836
000230 58 b7 7d bd b8 ba c1 bc b5 4c 24 bd 15 5b 58 be
       -0.06194243 -0.023648605 -0.040112216 -0.21128495
000240 bd b1 95 bd 84 c3 97 bd 52 87 19 bb a1 54 11 3e
       -0.073092915 -0.074103385 -0.0023426604 0.1419244
000250 f6 5f 43 3e cd 92 f1 bd 0d 02 74 bd 4f 0a af 3d
       0.19079575 -0.11795578 -0.05957227 0.08546888
000260 d7 18 7b 3c 01 18 fc 3c 62 99 f9 3a 11 54 03 3d
       0.0153257465 0.030773165 0.0019042904 0.032062594
000270 63 e9 2e bd 04 82 1d 3d 48 37 a6 be 95 10 ff bb
       -0.042703044 0.03845407 -0.3246405 -0.007783959
000280 c0 21 b6 3d 69 f3 80 3d 0f fc 21 bd 2a 5f cb bd
       0.08893156 0.06296427 -0.039547022 -0.099302605
000290 a4 9e ad 3d ad 7d 96 3c 4f c4 9b bc 98 ab 83 bd
       0.08477524 0.018370474 -0.019014506 -0.06429213
0002a0 d0 b2 a2 bd 5b ed fc bd 67 06 1d 3d 83 df 03 be
       -0.07944262 -0.123499595 0.038336184 -0.12878232
0002b0 56 cd 43 bd cb 48 00 be de b4 20 bd 57 f2 e9 3c
       -0.047803245 -0.12527768 -0.03923499 0.02855794
0002c0 5a 66 7b 3c 5f 3d a5 3d be 6c 75 3a 1b 0b 0e 3d
       0.015344227 0.08068346 0.0009362212 0.03467856
0002d0 35 8d ef 3c 36 8e 71 3d 01 8e 74 3d ec 9a 59 3d
       0.029242137 0.058973514 0.059705738 0.05312626
0002e0 25 c7 fc bc cb 05 9f 3d ee 56 a6 bd 14 c9 4e be
       -0.030856678 0.07764777 -0.08122049 -0.20193893
0002f0 f2 d0 32 3d a7 c5 a2 bd 95 0f b3 3c 7c 77 cf 3d
       0.043656297 -0.079478554 0.021858016 0.10130212
000300 aa 72 36 bd 97 99 2d 3c 68 2c 52 bc e5 8f 34 3d
       -0.044542946 0.010595701 -0.01282797 0.04408254
000310 f0 a6 42 3d 1f 07 35 be 19 d4 aa 3d f0 47 c5 bc
       0.047522485 -0.17678498 0.08341236 -0.024082154
000320 e7 20 e3 bd ad c3 ff 3b be 4b 1a 3d a8 64 3c bd
       -0.1109026 0.007805309 0.03766989 -0.04599443
000330 e2 3d b2 3d f0 6b 91 3d 18 d3 16 3d 93 55 d1 bc
       0.087032095 0.071006656 0.03682241 -0.0255535
000340 20 0f 39 be cf 0c b1 3c 6d 82 4a be 35 e9 06 3d
       -0.18072176 0.021612553 -0.19776316 0.032937247
000350 23 a3 8f 3e f9 0b 1e 3e 74 a2 a0 3d e5 31 d2 bd
       0.2805415 0.15434255 0.078434855 -0.10263423
000360 39 4d f6 3b a6 07 18 bd 51 23 e2 3d c1 73 a6 3d
       0.00751653 -0.03711667 0.11041892 0.08127547
000370 7d 39 60 bd fa 5d 34 bd 0d 03 82 3d 84 4b d9 3d
       -0.054742325 -0.044034936 0.06348238 0.106101066
000380 b9 01 83 be e5 03 8c bd 00 45 13 3d 5e 79 00 3e
       -0.25587252 -0.0683668 0.035954475 0.12546298
000390 db d6 78 3d 14 9e d0 bd 6d 75 29 bd be 19 ac bb
       0.060751777 -0.10186401 -0.04137175 -0.005252092
0003a0 17 ba 0b 3d 05 b4 d2 bb c1 3e ed 3d 9f 8c 4d 3d
       0.034113016 -0.0064301514 0.11584235 0.050182935
0003b0 62 a3 3b 3d e2 7c af bc c0 fc 02 bd 16 2a 40 3e
       0.04581011 -0.021421853 -0.031979322 0.18766055
0003c0 e8 c6 05 bd 67 e6 46 3b bf 6b 5a bd 06 bd da bd
       -0.032660395 0.0030349733 -0.05332541 -0.106805846
0003d0 bb 2f f1 bc b8 5f 15 3d f7 f4 1f bd c2 76 a7 3c
       -0.029441705 0.036468238 -0.039051976 0.02044237
0003e0 91 00 f3 bc 87 69 b8 3d 2d c5 2e 3d d1 49 a5 bd
       -0.029663356 0.09004503 0.04266851 -0.0807072
0003f0 cb 55 05 bd d6 21 d7 3d 90 76 ce bb 10 f6 0b be
       -0.03255252 0.105045006 -0.006300755 -0.13668084

_model.0._model.0.bias f4 [128]
000000 17 e2 02 3d ec 8d 1b bc ef 7d bc 3c 75 db 0d 3c
       0.031953897 -0.009494286 0.023009269 0.00865828
000010 c1 32 ae 3b 82 3a ba 3c ea ea 50 3d 6a 91 e7 ba
       0.005316109 0.022732977 0.05100528 -0.0017667238
000020 2d 49 a8 3c 35 5e 94 bb f2 c9 12 bc 51 2b 03 3c
       0.020542705 -0.004527832 -0.00895928 0.008005933
000030 e3 03 15 bb 9f ee 72 bc 64 80 03 3d e3 80 5a 3c
       -0.0022737912 -0.0148273995 0.032104865 0.013336393
000040 ae 69 0b 3c 50 4f aa 3c 29 44 5b 3c 33 cf 38 3c
       0.008509083 0.020789772 0.01338295 0.011279869
000050 d0 ba c3 3c 09 e3 8d 3c 30 8c 47 bc 71 2e 34 3c
       0.02389279 0.017320173 -0.012179419 0.010997401
000060 a9 ad eb 3c 48 50 15 bc 06 28 d4 3b 08 7a d5 ba
       0.028769331 -0.009113379 0.0064744977 -0.0016286978
000070 6b 22 26 3c e9 72 16 3c c4 3c af 3b b1 46 d8 3c
       0.010140042 0.00918267 0.00534782 0.026400896
000080 38 c7 80 3d 2f b6 73 3c aa ec 8d 3a be bd 85 bb
       0.06287998 0.014874979 0.0010827978 -0.004081457
000090 a4 5a b1 3c 04 7a 17 bc 63 ca 93 3d e9 f7 81 bc
       0.021649666 -0.009245399 0.072163366 -0.015865283
0000a0 a0 57 88 3d e3 7c 25 bc 88 4a d0 3c 21 64 a2 3c
       0.06657338 -0.010100576 0.025426164 0.019823136
0000b0 a2 be 2d 3d 00 26 35 3d ca ef fe ba d6 7e e9 3c
       0.04241813 0.044225693 -0.0019450125 0.028502863
0000c0 24 df f6 3c db bc 4d 3d 96 fa 2f 3d d2 df 11 3c
       0.030135699 0.050228935 0.042963587 0.008903461
0000d0 02 bf cb 3c e8 58 8a 3c 3f 05 0d 3c 6e 2e aa 3c
       0.024871353 0.016888097 0.008607208 0.020774093
0000e0 ee bb 90 3c da 03 13 bc c5 ce 43 3d 61 73 5d bc
       0.017667737 -0.008973086 0.047804613 -0.013516278
0000f0 ce f4 b2 bc ed d8 6e 3d 7e fc e5 3c 4f f0 de 3c
       -0.021845248 0.058312345 0.0280745 0.027214197
000100 8b fe c5 bc 04 db ad 3c c5 8a 16 3c 36 69 2b 3c
       -0.024169227 0.021222599 0.009188359 0.010462096
000110 41 1b eb bb 8f e6 ac 3c 51 d7 64 3d 5b 06 ba 3c
       -0.00717488 0.021106033 0.055869404 0.022708109
000120 4c ee ac bc d0 9e b3 3b 0b 01 11 3d f6 74 80 3c
       -0.021109723 0.0054815784 0.035401385 0.015680771
000130 f9 ff 48 3c 72 a3 05 3d 2c 90 8e 3a e1 0c a1 3c
       0.01226806 0.032626577 0.0010876707 0.019659461
000140 12 db 7a 3d da b5 8c 3c 6a 28 2a 3c 74 d0 3a 3c
       0.061244078 0.017176557 0.010385612 0.011402238
000150 fa e8 39 bc 4c b0 cb 3b d3 cd db bb 5e e1 d3 3c
       -0.01134705 0.0062160846 -0.006707886 0.0258643
000160 6f 34 35 bb 0c 77 87 bc 24 ba 18 bc be 04 05 3c
       -0.002764966 -0.016536258 -0.009321723 0.008118806
000170 14 85 c5 3c f2 e7 18 3d 83 60 10 3c 54 a5 21 3d
       0.024111308 0.037330575 0.008812073 0.03946431
000180 81 d3 a5 bc 86 74 a2 ba 53 05 18 bd f6 a9 50 3c
       -0.020242454 -0.0012394346 -0.037114453 0.012735834
000190 89 9a 31 bc 9b 52 cb 3c 83 26 37 3d 4f 38 8b bb
       -0.010840067 0.024819663 0.044714462 -0.004248656
0001a0 3b 7f c6 3a f3 ec df 3b e5 66 09 3d 72 6a ea ba
       0.0015144119 0.0068336665 0.033545393 -0.0017884506
0001b0 2b 2d b4 3b fc ff 47 bb 75 eb 02 3d 8f ea e7 bc
       0.0054985485 -0.0030517569 0.03196283 -0.028310088
0001c0 06 2d 5b 3b 6c b9 fb 3c a6 16 f4 3c 03 78 b9 ba
       0.0033443584 0.030728064 0.029795956 -0.0014150146
0001d0 82 98 a1 3b f8 ab 01 3c 2b 7d bf 3c bb be 5d 3d
       0.0049315104 0.007914536 0.023375114 0.054136973
0001e0 4b 05 34 3c fe 82 1c 3d 4b bb db 3a 2f 6c 19 3a
       0.01098759 0.03821086 0.0016764192 0.00058526074
0001f0 48 e2 f0 3c 82 9f db 3a e3 29 96 3c ec ff fb bb
       0.029404774 0.0016755911 0.01833052 -0.0076904204

_model.1._model.0.weight f4 [64, 128]
000000 ac 05 b0 3c 9a 10 a2 bd 5e 88 9a 3d 01 b3 b1 3d
       0.02148708 -0.07913323 0.07545541 0.086767204
000010 d9 aa ec 3c fc 3f 6c bd 4e a1 cb bc 2a ff a5 3d
       0.02889006 -0.057678208 -0.02485719 0.08105309
000020 de 9f ed 3d 20 4d 44 bd 8f e2 32 bc bc 68 44 3d
       0.11602758 -0.047925115 -0.010918274 0.047951445
000030 95 02 9b 3d 34 52 30 be 03 3b f1 3d ea d1 87 bd
       0.07568852 -0.17218858 0.11778834 -0.06631835
000040 05 e5 2e 3e b1 35 03 be 58 1f b8 bd 2c 66 20 3e
       0.17079552 -0.1281345 -0.08990353 0.15663975
000050 f0 7f 0a 3e 31 0b c8 bc a2 19 0a 3c 1d bc f4 3d
       0.13525367 -0.024419399 0.008428963 0.11949942
000060 13 04 6c bc 2c 0f 54 bd 81 7d bb bc b0 2b 7b 3d
       -0.014405268 -0.05177228 -0.022886993 0.06132096
000070 66 3b a1 3c 8c f6 88 3d fa 45 94 3c 7f 51 ba bb
       0.019681644 0.0668765 0.018099774 -0.0056859846
000080 12 54 d6 bc a9 2b 0e 3e 5e 13 b2 bd 35 2e 4d 3e
       -0.026163135 0.13883843 -0.086951 0.20037158
000090 b2 49 d4 3d fc 24 82 3c 35 0f f2 bd c3 14 3a bd
       0.10365619 0.015886776 -0.11819307 -0.045429956
0000a0 0e a4 6f be e5 65 e2 bd 7d c8 02 3d 2f 30 20 3e
       -0.23402426 -0.11054591 0.03192948 0.1564338
0000b0 c5 ae c9 bd 17 51 33 3d 2c db a6 bd 47 bf aa 3d
       -0.09847788 0.043778505 -0.081472725 0.083372645
0000c0 4a 8f 6f bd 37 de 8b bd db 2e 39 3d 38 b1 32 3d
       -0.05848626 -0.068294935 0.0452107 0.04362604
0000d0 26 0f 81 3c 4a 3b da 3d 2a a6 85 3c 4b a9 18 3d
       0.015754294 0.1065584 0.016314585 0.037270825
0000e0 82 b2 84 3d 19 f0 8d bc 60 3f 0a bd c3 88 01 3e
       0.0647936 -0.017326402 -0.033751845 0.12649827
0000f0 f4 21 c6 3d ce 65 02 be 2e 4d 7c bd 08 fd 2c 3e
       0.09674445 -0.12734148 -0.06159704 0.16893399
000100 0f df 8f 3d 13 35 29 be ec 69 a0 3d 24 27 db 3d
       0.07024967 -0.16524152 0.07832703 0.10700825
000110 94 61 c0 bc 04 e1 ae 3d b1 f6 83 be 4c 45 a8 3d
       -0.023484029 0.08539012 -0.25774148 0.08216342
000120 5f ad d2 3a ce c6 54 bd ac b8 74 bc e9 3f 8e bd
       0.0016073397 -0.051947407 -0.014936607 -0.06945784
000130 67 f9 6f bc 9f 68 38 3e 2f dd e2 3c bd a3 c2 bd
       -0.0146468645 0.1800866 0.02769336 -0.09503887
000140 4a 02 3d bd fb 32 64 bd cd 49 f3 bd 9c 6b 20 be
       -0.04614476 -0.05571268 -0.11879311 -0.1566605
000150 84 89 3f be d7 81 06 be 20 7c ce 3d d9 e9 e2 bd
       -0.18704802 -0.13135467 0.10082269 -0.11079759
000160 58 cb 44 3e a1 e1 2b 3e 70 3f 63 bd ca 75 02 3e
       0.19218194 0.1678529 -0.05548042 0.12740245
000170 b7 96 8a 3d 06 4b 8c 3d 51 93 62 bd 34 e6 f3 3b
       0.06767028 0.06850247 -0.055316273 0.007443214
000180 95 01 28 be cc 8a 85 3c 22 bd c7 bd 82 22 62 3c
       -0.16406853 0.016301535 -0.09752871 0.013802173
000190 e5 4b bc 3d 71 43 bd bd 08 ee a9 3d b5 59 92 bc
       0.09194163 -0.09241379 0.08297354 -0.017865041
0001a0 a5 b8 6b 3d 1e 30 ee 3c 2e 7e 70 3c cb 47 96 bd
       0.057549138 0.029075678 0.014678521 -0.07337912
0001b0 20 13 9d bc 0b 01 58 3d 2d 75 2c be 4a d2 0b 3c
       -0.019174159 0.05273537 -0.16841574 0.008534024
0001c0 11 8e 21 3d 77 f4 e8 3b 23 81 74 3d d5 4c 0e bc
       0.039442126 0.0071092206 0.059693467 -0.00868531
0001d0 f0 b1 0e be ad 01 05 3e 93 31 75 3d 72 c6 86 bc
       -0.13935065 0.1298892 0.05986173 -0.016452048
0001e0 54 1c 53 3e 85 87 01 be ab f8 c9 bd c5 1f c8 3c
       0.20616275 -0.12649353 -0.09861883 0.024429211
0001f0 49 f9 a6 bd 73 d5 05 3e 3f 90 85 3d 5d b9 1e bd
       -0.08153016 0.13069706 0.065216534 -0.038750995
000200 b4 f4 b7 3c b5 d2 ba 3d 81 10 1f 3d 28 85 a3 3c
       0.02245555 0.091222204 0.0388341 0.019960955
000210 35 25 b6 bc e6 5d 0b bd 30 7f 41 3e dd c2 94 bd
       -0.022234539 -0.034025095 0.18896174 -0.0726373
000220 d0 1c 2a be d3 5f 31 3d cf 08 fc bd 91 1c 31 3e
       -0.16612554 0.043304276 -0.123063676 0.17296053
000230 eb cc 83 be 9b 59 9a 3d 29 53 9a 3d 97 61 95 bd
       -0.25742278 0.07536622 0.07535393 -0.072940044
000240 18 dd 8c 3c 7b 09 24 bd 77 41 e1 bd 91 d2 1a be
       0.01719527 -0.040048104 -0.109988146 -0.15119387
000250 fa 3f 5f 3c bc 39 34 be d2 fe 20 bc 54 dd 0b 3d
       0.013626093 -0.17600149 -0.009826379 0.03414662
000260 b8 4c cd 3c 00 c7 38 bd 51 d0 49 be 57 1f 00 be
       0.025060996 -0.045111656 -0.19708373 -0.12511955
000270 72 33 49 3d 6a 65 4b 3d 6e b7 06 bd f6 66 58 bd
       0.049121328 0.049657263 -0.032889776 -0.052832566
000280 34 d0 61 bd ed 98 11 bd ed 7f 38 3e 4e ae 25 3d
       -0.0551302 -0.035546232 0.1801755 0.040449433
000290 f1 6e 71 3c 6f 2e 29 3e 79 f7 e0 bc 00 78 03 3c
       0.014735923 0.1652162 -0.027461754 0.008024216
0002a0 1c 23 ff 3d 72 da 56 3d e0 5a b8 3d ef 05 00 bc
       0.124578685 0.05245442 0.09001708 -0.007813915
0002b0 bf 6a fc bd 1f 8e 03 be f0 6f 25 3c 1a ba da 3d
       -0.12325048 -0.12847184 0.010097489 0.10680027
0002c0 b7 56 00 3c 2e fe 38 bd 4a 38 62 3b ea 0d 01 be
       0.007833174 -0.04516428 0.0034518414 -0.12602964
0002d0 59 fb d3 3c 9d 4f 30 3d 6d da 39 3e a8 18 c6 3d
       0.025876688 0.043044675 0.18149729 0.096726716
0002e0 f1 08 d7 3d 04 9e 19 3e e0 57 53 3d 4e 03 09 bc
       0.10499752 0.15001684 0.051597476 -0.008362604
0002f0 60 30 ce 3d dc 0a 09 3e e6 70 58 bd 52 ba d1 bd
       0.100678205 0.13383049 -0.052842043 -0.10240616
000300 51 e6 74 bc 05 d2 22 3d a9 ec f8 3c fa 3f f4 3c
       -0.01494749 0.03975107 0.030386286 0.029815663
000310 38 bf 45 bc d3 62 50 3d 48 34 18 3e f3 9b 87 be
       -0.012069516 0.050875496 0.14863694 -0.26486167
000320 25 db 3f bd b4 ae 46 3d 73 36 21 3d 4d b3 b1 3c
       -0.046839852 0.048506454 0.039358567 0.021691943
000330 1a d2 b9 3b 9a 17 12 3e 5e 44 44 3e d1 bf 8f bd
       0.005670798 0.14266816 0.19166705 -0.07019008
000340 7a 20 d5 3d ec 22 6c 3b 08 eb d9 bd a6 ab 49 3e
       0.10406585 0.0036031557 -0.10640532 0.19694385
000350 3b 27 3f 3d de 10 1e 3e 13 0a 25 be 38 72 8f bd
       0.046668272 0.15436122 -0.16117124 -0.070042074
000360 1b aa a3 bd 9a 3d 47 3d d9 5d 89 bd a1 94 ef bc
       -0.079914294 0.048642732 -0.06707353 -0.029245676
000370 0e 31 dd 3c 1e f8 3d 3c 6c 3e e3 3c 1a 4f 2d bd
       0.02700093 0.0115948 0.027739726 -0.042311765
000380 57 a3 22 3e 82 33 1d be f1 24 d5 bc 84 d4 c0 bc
       0.15882622 -0.1535168 -0.026018592 -0.023538835
000390 2a 74 5f 3d 19 be ca bc 2f da b7 3d 04 43 16 be
       0.054554142 -0.024748849 0.08977162 -0.14674002
0003a0 1f d6 b2 bd e1 ba 8c 3d 26 bd 48 be 63 7c f7 bc
       -0.087322466 0.06871582 -0.19603404 -0.03021068
0003b0 07 ff 0c 3e ec 70 97 3d 37 ac 37 3d 7e 42 0b be
       0.1376916 0.07394585 0.04484197 -0.13599584
0003c0 a5 4c f6 3c 6f f6 88 bd a4 aa dd bb fe 67 4b be
       0.030065844 -0.066876285 -0.0067647267 -0.19863889
0003d0 a1 39 86 3d cb b1 0a 3e 98 32 16 be 6a fe 7f ba
       0.065539606 0.13544385 -0.14667737 -0.00097653887
0003e0 c8 0f b8 bd b9 42 4b 3d 2a 02 2b bd d0 9e dc 3d
       -0.08987385 0.04962418 -0.04175011 0.107724786
0003f0 f4 2a d3 bc 7e 26 a4 bd ff e9 23 be b3 01 cc bb
       -0.025777318 -0.08015154 -0.16007231 -0.0062257885

_model.1._model.0.bias f4 [64]
000000 83 9c 8e bc df ab b4 3c f1 a8 18 3b 2a b2 7f 39
       -0.017408615 0.02205461 0.0023294056 0.00024385066
000010 cb 90 c0 3c fd d5 98 3b 14 ce 0d bb f3 3b 56 3c
       0.023506543 0.0046641813 -0.0021637725 0.013075816
000020 85 f2 8f 3c 59 01 fe 3b d8 b7 08 bd 2f c2 11 3c
       0.017571697 0.0077516255 -0.033378452 0.008896395
000030 2b d0 6a bb 0c f4 f7 3b f3 b7 e9 3c 13 6f ef 3c
       -0.0035829644 0.0075669345 0.028530097 0.029227769
000040 bc 44 f1 bb f0 90 a6 bb 39 9a e5 ba 2d 44 e0 3c
       -0.00736293 -0.005083196 -0.0017517275 0.027376259
000050 1d 58 98 3c d8 7d e2 3c cc 8b 98 bb 6f 78 52 3c
       0.018596703 0.027647898 -0.004655337 0.012846096
000060 d5 75 59 bc a0 96 f0 39 cd 66 1f 3c c5 6a c8 3c
       -0.013272722 0.00045888592 0.009729099 0.024464974
000070 ae 97 a6 3b 75 a0 41 3b 3b 9a ff 3b 0d 61 17 3d
       0.0050839996 0.0029545103 0.007800368 0.03695779
000080 aa 69 ec bc cb e1 d8 3c b5 a6 1f 3d a2 93 34 3c
       -0.028858978 0.026474854 0.038977344 0.0110215265
000090 a9 41 8f bb 87 f6 9f bb 4f 13 82 3c 2e 7d 38 3c
       -0.004371841 -0.0048816833 0.015878348 0.011260314
0000a0 d3 1e 0d 3b 22 90 da 3c e7 70 3a 3d 70 ad 0f 3d
       0.0021533265 0.026680056 0.04551783 0.035077512
0000b0 23 a3 bc 3c 15 97 96 3c da 06 5e 3c a5 2d 12 bc
       0.023027008 0.018382588 0.013551438 -0.008922015
0000c0 b9 82 93 bc 68 21 02 3b 14 36 21 3b 62 8f 00 3d
       -0.01800667 0.0019856337 0.0024598883 0.03138674
0000d0 57 d9 d7 bb b1 32 2e 3d 66 9a af bb 8a b4 81 3c
       -0.006587188 0.04252881 -0.005358982 0.015833158
0000e0 ed e0 32 3c ec 46 c8 3c b6 92 b3 3b c9 95 f4 3c
       0.010917884 0.02444788 0.005480136 0.02985658
0000f0 22 c1 5d 3d 61 00 87 3c 26 5a 45 3b ce ed 3b 3c
       0.054139264 0.016479673 0.0030113547 0.011470271

_model.2._model.0.weight f4 [16, 64]
000000 58 b4 13 3d b0 fd ab 3c 64 e7 69 bc e3 d8 58 bc
       0.03606066 0.020994991 -0.014276359 -0.013235304
000010 cf f7 eb 3a e8 67 1a bd f3 49 96 3b 2a 25 02 3e
       0.001800293 -0.03769675 0.004586452 0.1270949
000020 3e 90 42 bd 1e cd 62 3d 78 d8 58 bd 13 d8 be 3c
       -0.04750084 0.055371396 -0.052940816 0.023296392
000030 28 1d 9b 3c a9 c1 19 bd 5e 44 63 bc fb 8b 74 bb
       0.018934801 -0.037538204 -0.0138712805 -0.003731488
000040 06 4b a4 bc 11 78 51 bd 83 ad dd 3c af 6c 83 ba
       -0.020055305 -0.051139895 0.027060276 -0.0010026897
000050 1f 06 26 3b d7 ea 9a bd d7 40 b8 bb 59 24 50 bc
       0.0025333238 -0.075643234 -0.005622964 -0.012703978
000060 c3 f6 2a 3d c3 93 62 3c ec 79 f4 bc 0c 59 ea 3c
       0.041739237 0.013829174 -0.029843293 0.028606914
000070 b8 32 d3 3c 32 3d 92 3a e2 e5 40 bd 87 1b ae 3c
       0.02578102 0.0011157154 -0.047094233 0.02125336
000080 da c9 34 bc 3b ec 4b bd f6 fd f6 bc 51 36 9b 3c
       -0.011034453 -0.049785834 -0.030150395 0.018946799
000090 87 83 88 bc 66 77 16 3d 05 2c 84 3d 6a 40 18 3d
       -0.01666428 0.03673496 0.064537086 0.037170805
0000a0 8b b8 80 bd cc f5 2f 3e 6c 13 40 ba 5b 1b 4f bd
       -0.06285199 0.17183608 -0.0007327113 -0.050563198
0000b0 41 a6 c9 bb 2c 17 c8 3c f3 1c 29 bd 89 93 66 bc
       -0.006153852 0.024425112 -0.041287374 -0.014073261
0000c0 9f 87 ee bc aa 36 77 3b f1 43 0a bd e8 8a 11 bc
       -0.029117404 0.0037721791 -0.0337562 -0.0088832155
0000d0 ee dd 95 3c c0 84 73 bd 97 2c 85 3c b9 e7 4d 3c
       0.0182943 -0.059452772 0.016256614 0.012567454
0000e0 fd a1 d1 bc 0d 4b 14 bc 72 ed 0e bd 4d 7d 0f bc
       -0.025589937 -0.009051097 -0.034894414 -0.008757901
0000f0 57 42 58 bd 52 8d 39 b9 00 1c 31 3d 3a 15 25 bc
       -0.05279764 -0.00017695621 0.043239594 -0.010075862
000100 3c 6c 71 bb 34 d5 b1 3c a3 a8 42 3d aa 3e 1d 3d
       -0.0036838194 0.021708108 0.047524106 0.03838984
000110 df b4 68 3b 7e ec 8b 3c d9 a1 d1 3c db 40 07 3e
       0.0035508198 0.017080542 0.02558987 0.13208334
000120 61 71 06 3e 1a b4 a5 3c 24 ce 04 3d 04 3d e0 bb
       0.13129188 0.02022748 0.032423154 -0.006843211
000130 51 aa dc 3b 3d f7 cc bc 5f 0b 35 bd 5a a6 ff 3c
       0.0067341705 -0.025020236 -0.044200297 0.031207252
000140 63 6b f0 39 c6 04 1a 3c a4 0e bc 3c ec 6a 96 bd
       0.00045856377 0.009400552 0.0229562 -0.073446125
000150 58 d7 d8 3c 22 e7 77 bc 9c 87 ea bc 9f ea 59 bc
       0.026469871 -0.01513079 -0.028629117 -0.013300567
000160 f4 30 36 3d 16 0d 3a 3d bc af c0 bc 90 a8 1a 3d
       0.04448028 0.045422636 -0.023521297 0.03775841
000170 5c 96 03 bc c2 6a 4a bc f9 ae 88 3c 4b f3 62 3d
       -0.008031454 -0.012354555 0.016684996 0.055407804
000180 0d db 34 3d c5 03 c0 bd 53 fb 4d 3d 0b c0 63 bd
       0.044154216 -0.09375719 0.05028851 -0.05560307
000190 c5 91 38 3b 73 cb cb bd 2b b1 56 3d e9 ec 6c 3d
       0.0028163057 -0.09950914 0.052415054 0.057843123
0001a0 6a 87 5c 3c 1e 67 55 3d f7 2f 66 bd e7 c3 2f bd
       0.01346002 0.052100293 -0.056198087 -0.042911436
0001b0 a3 7c 1c bd e3 fc d7 bc eb 1b 48 3b 5b ba c2 bc
       -0.0382048 -0.026365703 0.0030534219 -0.023770502
0001c0 64 0f 9a 3d a0 5f 58 3c 7a ca e4 3c 78 fe 9d bc
       0.07522467 0.0132063925 0.02792858 -0.01928638
0001d0 e5 9b 52 3c 5c 8f 84 bc 66 45 ed bc e5 b1 f1 3c
       0.012854551 -0.01618164 -0.028963756 0.029503772
0001e0 c6 d1 96 3c e4 66 53 3b 3e 5d 4b 3d 99 51 d7 bc
       0.018410575 0.0032257373 0.04964947 -0.026284026
0001f0 ac 6d 9e bc 86 66 37 3d 49 c1 8a bc 2f 5c 37 bd
       -0.019339405 0.04477551 -0.016937869 -0.044765648
000200 f4 c9 56 bc 30 ef e8 bc 17 07 c2 3a 20 d6 66 b9
       -0.013109673 -0.028434366 0.0014803138 -0.00022014277
000210 18 33 6a 3c 36 d4 ca 3d 3d 5d a1 bd 42 e1 d9 bd
       0.014294408 0.09903757 -0.07879112 -0.10638668
000220 1d 3f 27 bd 87 5e 0e 3d cd e9 22 bd 23 f3 0d 3b
       -0.040831674 0.034758117 -0.03977375 0.0021659813
000230 5a ff 88 3c 9e 65 71 3c 62 c6 b1 bb 27 7e 10 3d
       0.016723324 0.0147337 -0.0054252604 0.03527656
000240 78 57 5f bc d2 9a 93 3c 38 67 e2 3b 1d b0 f6 bc
       -0.013631694 0.01801816 0.0069092773 -0.030113274
000250 3f 77 cb 3c a4 ab 8e 39 75 70 ca 3c a5 3e 32 3d
       0.024837134 0.00027212233 0.024711827 0.043516774
000260 e3 99 86 bd 33 d8 9b b9 8e aa 8a bb b8 61 37 3d
       -0.0657232 -0.00029724985 -0.0042317575 0.044770926
000270 d0 33 db bc 22 bc eb 3c 64 46 49 3a f3 fb 0d bd
       -0.026758105 0.028776232 0.00076780305 -0.034664106
000280 09 71 b6 3c d3 c3 4b 3d 18 5d 81 bc ac 3a 3e 3d
       0.022270696 0.0497473 -0.01579146 0.046442673
000290 d6 77 24 bd c0 6a aa 3c 53 6b f2 bd 55 d7 35 bb
       -0.040153347 0.020802855 -0.11836877 -0.0027746756
0002a0 41 5b 12 bd 72 80 a2 bb 81 41 bf 3d 41 86 2b 3d
       -0.035731558 -0.0049591595 0.09338666 0.04187608
0002b0 95 4d 23 b9 8b 12 4a 3d 61 83 1e bb af 1b b0 bc
       -0.00015573793 0.04933409 -0.0024187195 -0.021497576
0002c0 b5 f5 02 bd 96 bc b9 3a dc 16 e6 3b 47 67 bc 3c
       -0.031972606 0.0014170583 0.007021768 0.022998465
0002d0 c1 19 0a bc 67 a6 8d 3b 80 c6 21 bc ed 13 e1 bc
       -0.008428992 0.004322815 -0.009873986 -0.027475322
0002e0 37 3c cb bc b9 65 bc 3c 72 4f a3 3b aa fa 41 3c
       -0.024808986 0.022997724 0.004983836 0.011839548
0002f0 c3 a1 67 3b 1a b7 78 bc 34 c8 8e 3c bd 86 2c 3d
       0.003534422 -0.015180374 0.017429449 0.042120684
000300 76 e6 d6 3b 18 b8 8b 3d db 44 bd bb a4 6e 68 bb
       0.006558235 0.068222225 -0.0057760305 -0.0035466338
000310 68 ff dc 3c 48 f1 85 bc 37 3b c7 3c c9 89 1c 3d
       0.026977256 -0.016350403 0.024320228 0.03821734
000320 29 ab d6 bc f6 c5 19 3d ab e3 20 bd 71 bb b9 3b
       -0.026204662 0.037542306 -0.03927962 0.0056680967
000330 ee 0f b1 bc af 39 a5 bc 66 72 1b 3d d0 91 2e 3d
       -0.021614041 -0.020169107 0.037950896 0.042619526
000340 ae a3 10 bd c8 8f bc b9 f2 2f e3 bc 78 51 24 3d
       -0.035312347 -0.0003596528 -0.027732823 0.040116757
000350 be 8f fc 3c d4 80 66 3c 2c e9 c3 bc ee b9 22 bc
       0.03083026 0.014068801 -0.023914896 -0.009932024
000360 ad 18 69 3d ef 91 dd 3c 74 87 fe bc c3 86 c4 3c
       0.0569083 0.027047126 -0.031070448 0.02399004
000370 3d 99 22 bc 87 88 d3 bc 08 f4 1c bd ba b0 41 3d
       -0.00992423 -0.025821937 -0.038318664 0.04728768
000380 05 c3 9d bd 15 b5 92 3c 1d 8e 8b 3c a3 6f 41 bc
       -0.07703213 0.017908612 0.017035538 -0.011806401
000390 d8 50 52 bd db 4d 97 bc 6c c2 82 bd df 23 b3 bc
       -0.05134663 -0.018469742 -0.06384739 -0.02186769
0003a0 44 13 0c bd 7a ee 2a 3d 8a af 11 3c 28 60 7c 3c
       -0.03419806 0.041731335 0.008891949 0.015403785
0003b0 69 24 ab bc a1 03 c1 bc c1 bd 9e 3a 6d db cb bc
       -0.020891385 -0.0235613 0.0012110994 -0.024884904
0003c0 59 b9 1f bd 95 67 0d bb 25 7b 10 bd 7c 8c e4 bb
       -0.03899512 -0.0021576632 -0.03527369 -0.006974755
0003d0 91 7f 83 bb d6 11 77 3d ed 36 00 bd a0 a9 1e bd
       -0.00401301 0.060319744 -0.03130238 -0.038735986
0003e0 19 c9 93 3c 9b af c9 bb 94 bc fa bc 99 f5 95 3c
       0.018040227 -0.006154967 -0.0306075 0.018305587
0003f0 5a e2 7e 3b ff 7a 9b 3c 5a fe 84 3c f9 8d 3d 3d
       0.003889224 0.018979548 0.016234566 0.046277974

_model.2._model.0.bias f4 [16]
000000 25 8a c4 bc 15 73 b9 bb 15 b0 fb 3c ca 6e 03 3d
       -0.023991654 -0.005659471 0.03072361 0.03208808
000010 10 e9 ec bb bb 48 9c ba 4e 0c 72 bb ce 70 17 3d
       -0.0072299317 -0.0011923531 -0.0036933604 0.036972813
000020 16 55 5f 3d 22 30 e9 bc e9 ae 99 3d 51 ec 22 3d
       0.054524504 -0.028465334 0.075040646 0.03977615
000030 e2 28 c1 3c c8 aa 49 3d 99 80 13 3c 99 f5 c7 bc
       0.023579065 0.049235135 0.009002828 -0.024409102
