data/etc/pretrained_model/fencing/task_agnostic_policy_body_encoder_exp16_1900.pt (torch_old, 181879 bytes, 6 tensors)

_model.0._model.0.weight f4 [128, 279]
000000 4d 9e ee bc dc 8a dc 3c 8c e5 57 bd b0 15 9b be
       -0.029128218 0.026921682 -0.052709147 -0.30289984
000010 a4 81 08 be c1 77 bd 3d 3c 2d 7a bd 7e a2 98 bd
       -0.13330704 0.09251357 -0.061078295 -0.07452868
000020 b5 ac ec bd 5a d7 d4 bd 5d 33 5a bd 7e 56 60 bd
       -0.11556379 -0.103926376 -0.05327164 -0.054769985
000030 1d de 10 3d cb 54 2d 3d 86 79 b3 3c 2e a2 1f 3e
       0.035368074 0.042317193 0.021908533 0.1558921
000040 54 b9 55 3c c8 e7 22 3d 44 23 8a 3b f1 69 56 bd
       0.013044674 0.039771825 0.00421563 -0.052347127
000050 35 ea 7c ba 30 30 6f bd 6a 1a 8f bc ac 85 5a bd
       -0.00096479367 -0.058395565 -0.01746865 -0.053350136
000060 e3 69 56 bd 87 0f 21 bd 5b b5 bb 3b 17 cc 38 3d
       -0.052347075 -0.03932145 0.0057284064 0.04511651
000070 68 fa 56 3d 49 3a 19 be a2 9d 3d 3e 86 e5 67 bd
       0.0524849 -0.1496364 0.18517163 -0.056615375
000080 c6 ac 0b 3d 3a 13 46 3d e3 54 f0 bd a8 0f 08 bc
       0.034100316 0.04835818 -0.11734941 -0.008304514
000090 0e fc eb bd 26 8f 35 3c 07 81 a6 3d d7 e3 b0 bd
       -0.11522685 0.0110814925 0.08130079 -0.08637207
0000a0 52 1e d5 3d ec 0d 72 3d 5c 99 e4 bd 6f 7d 05 bd
       0.10406174 0.05909531 -0.111620635 -0.032590326
0000b0 76 d6 32 3e 5f d4 bc bd 99 60 26 3d 74 67 0c 3d
       0.17464623 -0.09220194 0.040619466 0.034278348
0000c0 08 bb a1 bb 13 4b e8 bd 25 02 a4 bd b3 a8 c3 bc
       -0.004935626 -0.11342444 -0.080082215 -0.023884153
0000d0 ad 98 76 bd a4 fd 48 3d 03 af cd 3c 9d 05 1a 3e
       -0.060204197 0.049070016 0.025107866 0.15041204
0000e0 ef b4 0b be 43 64 39 3e 9c c3 9e 3d 58 55 83 3c
       -0.1364324 0.18104653 0.07752153 0.016031906
0000f0 0e 8a 29 be 01 5f 81 3d 98 1b 89 3d 7f 3b 5e bd
       -0.1655657 0.06316949 0.06694716 -0.05425596
000100 fc a5 aa bc 6d 10 9c 3d 0b a8 82 3d a2 6d a4 bc
       -0.0208311 0.076203205 0.06379708 -0.020071808
000110 35 38 20 3d 28 8d 06 3d 99 e5 c6 3d ac a6 c6 3c
       0.039116103 0.03284946 0.09711761 0.024249397
000120 91 b7 07 bd 02 16 33 be 4b 04 18 3d 69 7c f6 3c
       -0.033134047 -0.17488864 0.03711347 0.03008862
000130 a3 c0 f3 bc ff bd f9 3c 99 1e 0a 3e a4 8d 55 3e
       -0.029754942 0.030486105 0.13488235 0.20854813
000140 b7 76 cb bb de 65 0b 3d 1c e6 10 3d 59 2a 88 be
       -0.0062092203 0.034032695 0.0353757 -0.2659481
000150 71 61 d2 bc 03 ed ef 3c ad e2 87 bc f4 7d b5 bc
       -0.02568123 0.02928782 -0.01658758 -0.022154786
000160 29 e6 03 3d 1f ee ac 3c bf 99 1d 3c 75 0c 20 be
       0.03220192 0.021109639 0.009619175 -0.15629752
000170 f3 1a b7 3d 69 9a a0 be ba eb 3c be d3 17 0d bd
       0.08940687 -0.31367806 -0.18449298 -0.03444655
000180 12 1b 71 3e c6 1e d8 3b bb c6 58 be 75 22 a5 bd
       0.23545483 0.0065954654 -0.2116956 -0.08063213
000190 0e 9f 8a bd 22 d8 b8 bd f1 b3 52 3b a5 fb 17 3d
       -0.067686185 -0.09025599 0.003215071 0.03710522
0001a0 97 a9 6e bd bc 1f 9e 3d 21 bd 71 be 74 d3 8b bd
       -0.058267202 0.077208966 -0.23607303 -0.06827441
0001b0 95 50 de 3d c6 2c f0 3d 1c d7 eb 3d 32 d6 cd bd
       0.108552136 0.1172729 0.11515638 -0.1005062
0001c0 17 a9 40 3c c9 a5 97 bd 4b 2e 0b 3d 39 fb 52 3b
       0.011759064 -0.07404668 0.033979695 0.0032193197
0001d0 69 fc fe bd 72 6b 82 be c6 70 60 3d de 93 6e be
       -0.12450487 -0.254726 0.05479505 -0.23298594
0001e0 86 23 ec bd 6b 56 80 3e f6 27 37 3e ce 3c ff bd
       -0.11530213 0.25065932 0.17886338 -0.124627694
0001f0 ba 81 a2 39 9a 94 a0 bd 3b 5d 19 be 70 6d 13 3d
       0.00030995702 -0.078408435 -0.14976971 0.03599304
000200 e3 ba 2d bd c9 95 0f 3d a1 03 36 be a4 e8 8a 3d
       -0.042414557 0.035054956 -0.17774822 0.06782654
000210 f9 65 81 be c4 cf 6f be bf 92 30 3e ec 0c 2b 3e
       -0.2527311 -0.234191 0.17243479 0.16704148
000220 c4 8a 0c 3d 9e 39 07 be 64 fb 03 be 55 87 d1 bd
       0.034312025 -0.13205573 -0.12888867 -0.10230891
000230 f6 93 dd bc 2d 74 a6 3d 69 f3 8e bd 94 7b 29 be
       -0.027048092 0.081276275 -0.069800206 -0.16551048
000240 ef 47 3c 3d 31 94 ce bd ab 3d da bd 3a 6c fa bc
       0.04596704 -0.10086859 -0.106562935 -0.030569185
000250 af f5 45 3e fb 93 cd 3c 88 74 1a 3d 16 3b 54 bd
       0.19332002 0.025094977 0.03770879 -0.05181416
000260 58 18 23 bd c3 e6 84 bd 72 16 99 3c 7b c9 e7 3b
       -0.039818138 -0.06489327 0.01868746 0.007073579
000270 ee 53 9d bd b6 bd 48 3d 62 c1 36 be 12 b9 88 bd
       -0.07682024 0.049009047 -0.17847207 -0.06675924
000280 09 69 df 3c b7 61 95 3d 19 21 5b 3c f8 f1 0b be
       0.027271764 0.07294028 0.01337459 -0.13666523
000290 7e b8 72 bd 13 6e d5 bd 26 8c 6c 3d 44 05 c8 bd
       -0.059257977 -0.104213856 0.057750843 -0.09766629
0002a0 63 19 16 bd a4 ff 30 bd da 37 cc bc d1 5c 76 be
       -0.036645304 -0.043212548 -0.024928976 -0.24058844
0002b0 6f 74 ed bd fe fc 62 bd 77 9d eb 3c 61 a2 66 3d
       -0.115944736 -0.055417053 0.028761609 0.0563072
0002c0 66 1e 01 be a2 e8 19 be 02 9d 13 be 8b 22 5a bd
       -0.12609252 -0.15030149 -0.14415362 -0.0532556
0002d0 6e 82 13 bd 11 c7 0a bd 4e 4b d4 3c 5e d5 c8 bd
       -0.03601306 -0.03388125 0.025914814 -0.098063216
0002e0 2a 81 20 be 03 a1 07 bd 16 2a 48 bc 15 09 4b 3d
       -0.15674272 -0.033112537 -0.012217065 0.04956921
0002f0 79 e2 7e bd 4e eb a7 bc dc af 60 bc 84 5b b8 bd
       -0.0622277 -0.020497944 -0.013713803 -0.0900183
000300 3e 2e b4 bc d5 30 7a 3d 5e 9e 93 bd 8f 06 83 bd
       -0.021994706 0.061081726 -0.072079405 -0.06397735
000310 00 6c 01 3e b4 99 b3 bd e6 a3 c4 bd 40 1a bc bd
       0.12638855 -0.08769551 -0.09601574 -0.09184694
000320 22 8d f3 3d 31 c8 d1 bd 23 72 09 3d 5d 4e 8f 3c
       0.11892153 -0.102432616 0.033556115 0.017493421
000330 b1 4c e8 3c 24 6b 1c 3c 37 39 02 3c e0 72 92 bc
       0.028356882 0.009547029 0.007948211 -0.017877042
000340 09 26 f6 bc 5e ec ca 3d 4e d8 35 be 4b c1 10 bd
       -0.030047433 0.09908365 -0.17758295 -0.03534059
000350 bb eb 63 3e 72 8b 56 3e d3 0f 42 bd 89 41 d1 bd
       0.22257893 0.20951632 -0.047378372 -0.10217578
000360 27 03 87 bc ab 21 10 be d2 8e a0 3d 19 1d 27 bd
       -0.016480995 -0.14075343 0.07839741 -0.040799234
000370 b7 b0 e0 3c 32 8a 52 bc 44 6c 89 3d 83 27 a2 bd
       0.027428014 -0.012850331 0.06710103 -0.079176925
000380 13 e6 3c be cb d7 a7 3d 76 5c 19 3d 6c 07 1d 3d
       -0.18447141 0.08195456 0.037441693 0.038337156
000390 43 ea 8b bd e9 45 61 3d 0c 29 a4 bd e1 d4 a9 bd
       -0.06831791 0.054998312 -0.080156416 -0.082925566
0003a0 ab 99 74 3c e2 6f 51 bd 9c 08 e8 3c 83 85 37 3d
       0.014929215 -0.05113209 0.028324418 0.04480506
0003b0 c1 97 05 3d d4 f1 e8 bd f4 09 e5 3c 28 d0 ce bc
       0.032615427 -0.1137425 0.027958848 -0.025245741
0003c0 f9 17 7c bd da a9 56 bd de 4b 23 3c 47 45 cc 3c
       -0.0615463 -0.052408077 0.009966819 0.024935378
0003d0 05 00 1c 3d 10 6c 9c 3d ec 4f 01 bd ed 19 6d 3d
       0.038085956 0.07637799 -0.03157036 0.057886053
0003e0 fd 00 9f 3d 50 14 0d 3d 96 50 a8 bd ee 7f a3 3d
       0.077638604 0.0344432 -0.082184955 0.07983385
0003f0 85 5a 79 3d fb 66 34 bb 78 55 d2 bd 6c 37 5e 3c
       0.06087734 -0.0027527201 -0.10270208 0.013563018

_model.0._model.0.bias f4 [128]
000000 39 28 7d 3c 95 33 28 3c 59 4d 56 3c 19 3b 02 3d
       0.015451484 0.010266204 0.013079965 0.03179464
000010 13 1f 03 bc 7d 3e 0f bc 77 c6 9a 3c 34 e2 e6 bb
       -0.008003014 -0.008742926 0.018893464 -0.0070460085
000020 aa c6 dd 3c fa 29 ca 3c 9d bc ce 3c 45 09 3a 38
       0.02707227 0.02467822 0.025236422 4.435449e-05
000030 34 77 39 3d 17 85 55 3c 6e 17 ab 3c 6a 0a 35 3d
       0.045279697 0.013032219 0.020885196 0.044199385
000040 9a 2f c2 3c 5c 1a ca 3c ad 66 b4 3b 98 a3 90 3c
       0.023704339 0.024670772 0.005505404 0.017656133
000050 55 50 03 3c 52 18 4c bc 87 c5 63 3c 8c 88 c0 3a
       0.008014758 -0.01245697 0.013902075 0.0014689132
000060 7b d3 00 3d 09 08 61 bb 48 32 38 ba 26 4d 59 3c
       0.031451683 -0.0034337065 -0.00070265355 0.0132630225
000070 7a ad c4 bb 39 7d 58 bb c6 04 3c 3c 84 33 89 3c
       -0.0060021253 -0.0033033623 0.011475747 0.016748197
000080 f4 1a 20 3c ac 8d 4d 3c 2e 09 f1 3c 3b 6d 6d 3b
       0.009772051 0.012545984 0.029423323 0.0036228437
000090 2a aa 70 3c 09 60 8d 3c f1 cb 0b 3d 8b 48 8f ba
       0.014689008 0.017257707 0.03413004 -0.0010931654
0000a0 87 2a c0 3c f4 4c df 3b 92 8b fb bb fb e8 99 3b
       0.023457779 0.0068145934 -0.00767655 0.004696963
0000b0 24 e8 a1 3c 27 06 65 bc 3d 3f d4 3c 8c 8d 81 38
       0.019764014 -0.013978518 0.02590906 6.1775645e-05
0000c0 83 c4 b8 3c 74 47 81 3b 6d 7d a6 3b 1c b6 14 3b
       0.022554642 0.0039452855 0.00508087 0.0022691553
0000d0 e1 04 1a 3c 58 55 2e bc 57 42 c7 3c 3b 3c a5 39
       0.009400577 -0.010640465 0.024323625 0.00031516128
0000e0 f2 d5 63 3c f9 20 99 3c 63 d2 c2 3c ea e8 98 3c
       0.013905989 0.01869248 0.02378196 0.01866575
0000f0 aa 47 86 3c 12 14 04 bc 06 d7 05 3d d9 2c 26 3d
       0.016391594 -0.008061426 0.032675765 0.040570114
000100 04 5c a6 3b 95 68 9b 3c 0d 78 aa 3c 51 94 28 bb
       0.005076887 0.018970767 0.020809198 -0.002572317
000110 b1 8b f4 3c d7 6b 8f 3c b9 50 02 3d af 60 8c bb
       0.029851766 0.017507477 0.031815264 -0.0042839865
000120 bc 9f 9e 3b 4c c1 90 3c 91 c2 8a 3c f6 22 41 3c
       0.004840819 0.017670296 0.01693848 0.0117881205
000130 4f 38 a7 ba df 3c d7 3a d5 ed 5f 3c f6 7f a0 3b
       -0.001275787 0.0016421339 0.013667543 0.0048980666
000140 0f 86 6f 3c 0d 25 87 3c fa 59 04 3d 6e 54 28 3d
       0.014619364 0.01649716 0.03231237 0.041096143
000150 bf 27 2a ba 74 ee b8 3c 7c dd 00 3d c9 7d fb 3b
       -0.0006490908 0.02257464 0.031461224 0.007674907
000160 69 e8 0c 3c a5 b1 f0 3c 9a 96 1b 3c 6f 6a b9 3b
       0.008600333 0.029381583 0.009496355 0.00565844
000170 15 48 79 3b 6c d0 b3 ba 13 f5 12 3d 0a 2c 4b 3c
       0.003803735 -0.0013718731 0.035878252 0.012400636
000180 c4 68 13 3d cc 37 d3 3c 0a 36 79 3c a9 93 70 bb
       0.035988584 0.025783442 0.015210638 -0.0036709106
000190 e0 f9 ef 3b 57 0a 97 3c 48 37 94 ba eb 6d ba bb
       0.0073234886 0.018437548 -0.0011307979 -0.005689373
0001a0 be 3e 22 3b e5 52 18 3c 28 83 82 3c 5a 3b 66 3b
       0.0024756636 0.009297107 0.01593168 0.003513059
0001b0 6f ab 77 3a da c4 dd 3c 5f 92 c8 3c 78 e8 29 3b
       0.0009447848 0.027071405 0.024483858 0.0025925916
0001c0 32 d4 14 3c 5a e3 38 bc f8 97 07 3d a6 77 13 3c
       0.009083794 -0.011284674 0.033103913 0.009000694
0001d0 31 e5 ce 3c 82 37 26 3d 51 79 50 3c 61 b1 1a 3d
       0.025255771 0.04058028 0.012724237 0.037766818
0001e0 63 f1 f3 3c 1b b8 1f bc b9 0e db 3b c0 07 b4 bb
       0.029778188 -0.009748484 0.0066851047 -0.005494088
0001f0 63 ba b5 3c b8 3c ad 3b f9 d1 8b 3b e4 a4 2e 3c
       0.022183603 0.0052867793 0.004266974 0.01065943

_model.1._model.0.weight f4 [64, 128]
000000 af 5f f0 bd f8 36 09 bd 46 05 3a 3d 19 74 fd 3d
       -0.11737 -0.033499688 0.045415185 0.123756595
000010 d3 b9 ef 3d f8 7f 92 bc c4 ab 6d 3d 1c 1e f1 3c
       0.11705365 -0.017883286 0.058025137 0.029433303
000020 02 89 06 3e 8f 37 e4 3d 52 f4 7c be 4e 81 3d 3d
       0.13138202 0.111434095 -0.24702576 0.046265893
000030 9c 54 27 bd df f4 9f 3d ad f4 b9 3d bc d2 e8 bd
       -0.040852174 0.07810377 0.09079871 -0.113683194
000040 80 00 00 3d 95 c6 99 3c 44 9d 93 3d 31 be 12 bd
       0.031250477 0.01877145 0.072077304 -0.035825912
000050 3c a0 07 be 2e 45 b5 3d d2 ec 76 bc 75 07 11 3e
       -0.13244718 0.088510856 -0.015071111 0.14163001
000060 9d ce b8 3d a0 7f 12 3e 4c 98 a4 3d 23 d3 20 3e
       0.09023783 0.14306498 0.08036861 0.15705542
000070 8b 8a db bc c4 8a 3f be 32 38 0f 3d 17 28 1d be
       -0.02679946 -0.18705279 0.0349657 -0.15347324
000080 90 30 6b 3e d1 20 a1 bc 6a be ac 3d da e9 72 3d
       0.22967744 -0.019668968 0.08434756 0.05930505
000090 a0 1d 8c bd 9c db 7b bc 2c b8 53 3d 9c 5c 4c 3e
       -0.06841588 -0.015372183 0.05168931 0.19957203
0000a0 7d 3e 04 be 53 c8 df 3d 23 84 85 3c 67 93 f8 bd
       -0.12914462 0.10926881 0.01629836 -0.1213749
0000b0 9e ed b3 3d 64 0c 99 bd 11 97 8f 3d 12 51 b9 bd
       0.08785556 -0.074730664 0.070112355 -0.09048666
0000c0 4e 80 14 bc 43 1c f8 bb a1 b0 92 bd 07 f0 e5 3c
       -0.009063793 -0.0075717284 -0.071625955 0.028068556
0000d0 44 1c 93 bd 7f 0e f5 3d 9c a3 c4 3c ae 38 19 bd
       -0.071831256 0.119656555 0.024003796 -0.03740757
0000e0 47 73 0f 3c 9c a2 26 3c 02 2f ee 3b 79 85 d8 bd
       0.008755512 0.010170605 0.0072687874 -0.10572333
0000f0 f7 1a 7a 3e ed 6c 6e bd be 6b 25 3e 2b 93 b8 bd
       0.24424349 -0.05820935 0.16154382 -0.09012445
000100 3e 1e 95 bd 3f 20 9b 3d 4b fb 08 be f0 0a a0 bd
       -0.07281159 0.0757451 -0.1337711 -0.07814586
000110 de 47 51 bd 07 9f 8c bd 3c cc 50 bd 1a d6 39 bc
       -0.05109393 -0.068662696 -0.050976023 -0.01134255
000120 5d 8b d8 bd 98 0b b2 bb 5b c4 34 bb 6b b1 f5 3c
       -0.105734564 -0.005433511 -0.0027582857 0.029991826
000130 2c 9e 35 3e 2c a6 c8 bc ba 9a 56 bd da 29 7c 3c
       0.17736119 -0.0244933 -0.052393652 0.015390838
000140 07 82 0b be 7e 4b 7c bd 26 e4 ec bd 8b 82 eb bd
       -0.1362382 -0.061595432 -0.11566953 -0.114995085
000150 57 a8 ba bd 7e 34 a1 3d 68 12 db 3d 83 b6 31 3e
       -0.091141395 0.0787134 0.1069687 0.17354779
000160 c0 16 f7 3d c6 75 9b ba 90 e2 f9 3c 44 47 be 3d
       0.12064886 -0.0011860661 0.030503541 0.092909366
000170 5e 50 80 3d 20 34 21 3e 2f 68 88 3d 31 fd b8 bd
       0.06265329 0.1574254 0.066604964 -0.090326674
000180 bf a2 0f bd a2 df b2 3d 85 e4 a8 3d b4 c2 7b bd
       -0.035067316 0.08734061 0.08246712 -0.06146498
000190 e4 c0 aa bd 00 29 c5 bb 3f 3b d1 3a ae f8 ba bd
       -0.08337572 -0.0060168505 0.0015963091 -0.09129463
0001a0 ef 38 59 3b ba f0 65 3d 62 32 e7 bc 61 f2 b5 bc
       0.0033145507 0.056137778 -0.028222267 -0.022210302
0001b0 ee 09 e3 3d 11 db 81 bd 5e e3 e7 bc c5 29 12 3e
       0.11085878 -0.06340612 -0.02830666 0.14273746
0001c0 57 39 bd bd aa b5 89 3d ef 2c ea 3b 35 64 11 3e
       -0.09239452 0.06724103 0.00714647 0.14198382
0001d0 96 05 87 3d e0 fb fa bd bc 37 aa bc dc d1 1c 3e
       0.06592862 -0.122550726 -0.02077853 0.1531443
0001e0 e0 11 4e 3d ea 19 cd 3d 52 ea 25 3e d7 a4 f2 ba
       0.050310016 0.10014708 0.16202667 -0.0018512261
0001f0 89 73 bd bd 96 87 18 bd 4d 97 82 3d be 58 3c be
       -0.09250552 -0.03723868 0.063765146 -0.18393227
000200 78 0e 4b 3e c0 ba a4 3c af 8c d0 bc bf ce 59 3b
       0.19829738 0.02010858 -0.025457708 0.0033234803
000210 16 48 90 3d 2f ee 15 be 0e 32 21 3d f4 f2 5b bc
       0.07044999 -0.14641641 0.039354376 -0.013424624
000220 d6 3c 27 bd 59 8b b4 3d 29 c1 89 3d a9 a6 e9 bc
       -0.040829502 0.08815641 0.067262955 -0.028521853
000230 ce 29 6c 3d 37 a8 5f bd c1 ea 06 bd 14 a8 32 bd
       0.057657056 -0.05460378 -0.032938723 -0.043617323
000240 a4 9e 82 bd 78 a3 a0 3d bc 08 72 3d f4 ff 1a be
       -0.063779145 0.07843679 0.05909036 -0.15136701
000250 dd f4 0a 3e 98 6e 8d 3c 65 49 18 3e 03 e4 40 be
       0.1356997 0.01726465 0.14871748 -0.1883698
000260 ff 8a 2f 3d 67 c7 cd 3d 8e 6b fa 3b 92 e3 0b 3e
       0.042857166 0.100477986 0.007642216 0.1366103
000270 6a 5b a6 3c 03 e5 0f be 5b cd 65 be 9b ed 50 bd
       0.020307261 -0.14052205 -0.22441618 -0.05100785
000280 e1 a0 e7 3d 84 ca 54 bd 8d 4e 19 3e 3f 6d a5 bd
       0.11309982 -0.051950946 0.14971371 -0.08077478
000290 e8 8e ee bb 30 6c 10 3e a2 81 24 3c b4 6b b5 3c
       -0.0072802193 0.1410377 0.0100406725 0.022146083
0002a0 e1 98 45 3d d5 be 0f be 3c 82 00 3d 5b bb b4 3d
       0.0482415 -0.1403764 0.0313742 0.08824798
0002b0 60 8a d9 bd 80 0d a7 bd 24 fa ae 3d 78 39 2c 3e
       -0.10622096 -0.08156872 0.08543804 0.16818798
0002c0 21 b0 ba 3d 07 c7 6c bd 66 ba 8c 3d da 25 56 bd
       0.09115625 -0.057806995 0.0687149 -0.05228219
0002d0 4d 01 06 3e 6e 75 b2 bd 85 aa b2 bd 8d 29 e6 3c
       0.13086434 -0.08713804 -0.0872393 0.028095985
0002e0 74 10 78 3c 9b 20 46 3c 05 5d 26 3e a8 00 7f bd
       0.0151406415 0.012092735 0.16246422 -0.062256485
0002f0 7f 93 cb 3d 42 48 a6 3c 02 1e ba bd 20 f1 20 bd
       0.09940242 0.020298127 -0.09087755 -0.039292455
000300 ae ae c1 3c 5e e4 12 3d 8b 1a cd 3c eb b6 61 bd
       0.023642864 0.03586232 0.02503707 -0.055106085
000310 ca 37 76 3d 55 cf e9 3d 9f e8 35 3e 7f c7 75 3d
       0.0601118 0.114164986 0.17764519 0.060004707
000320 5b bb b8 3d 19 14 fa bd d9 c7 b8 bd d5 95 5c bc
       0.0902011 -0.122108646 -0.09022493 -0.013463457
000330 00 20 9c 3d 5a 51 0f be a9 da 24 bd cd 3f f3 3d
       0.07623291 -0.13995877 -0.040247593 0.118774034
000340 74 ce 42 3e 1c 5a 0f be 05 32 14 3e f4 d6 d3 bd
       0.19024068 -0.13999218 0.14472206 -0.103437334
000350 b4 5f 91 3d d4 72 83 bd 41 c7 bb 3d 60 d5 3b 3d
       0.07098332 -0.06418386 0.09168864 0.045857787
000360 7f fe 00 bd 51 a4 16 3d 0e 44 c1 3d 07 82 35 be
       -0.031492706 0.036777798 0.094368085 -0.17725383
000370 20 3e 3b bc 6b 00 22 3c ab 4b ab bd 33 f7 3e be
       -0.011428386 0.009887795 -0.08364042 -0.18648987
000380 53 5f d5 3d d2 0a 4c 3d 2f 40 ce bd cc a7 9f bd
       0.10418572 0.049815007 -0.10070836 -0.077956766
000390 dc 67 ce 3d 89 06 55 bd 78 4c a8 3c 07 ff ee ba
       0.10078403 -0.052008186 0.020544276 -0.0018233963
0003a0 ae ce 16 be 61 81 58 3e 3d 43 9b bd 72 fa 1c 3d
       -0.1472728 0.21143104 -0.07581184 0.03832478
0003b0 94 c3 35 3e 1f 86 a4 be 11 e9 9a 3d 2d da a9 bc
       0.17750388 -0.32133576 0.07563985 -0.020733917
0003c0 fe 4b 9c 3d 17 23 2c bd 9a c9 6e bd ba f1 c3 bc
       0.07631682 -0.04202565 -0.05829773 -0.023918975
0003d0 de 84 24 3d 6d 11 5f 3d e6 44 df bd 7f 04 95 3c
       0.040165775 0.054459978 -0.10901813 0.01819062
0003e0 25 a2 18 3d 25 dc d7 3b fb a7 5f bc 71 9e a8 3b
       0.037264008 0.0065875226 -0.0136508895 0.005145841
0003f0 28 bd c6 bd 98 0d 55 3d 15 50 8c bd 05 39 9a 3d
       -0.097040474 0.052014917 -0.06851212 0.07530407

_model.1._model.0.bias f4 [64]
000000 ec 00 35 bb 05 f0 93 3c 3c 31 77 3c 66 d6 d3 3b
       -0.0027618958 0.018058786 0.015087422 0.0064647673
000010 9a 04 9f 3c 50 45 cd bb df 52 c0 3c e7 0c 25 3c
       0.019411374 -0.006264366 0.023477016 0.010073877
000020 c3 c3 8d ba 03 bd d9 3c 88 a0 a2 3c e4 9a 07 3d
       -0.0010815788 0.026579386 0.019851938 0.0331067
000030 d3 65 10 3d 51 1d cc 3c 8f d7 3c bb 4b 26 eb bb
       0.035253357 0.024916323 -0.0028815006 -0.0071761957
000040 69 25 88 3c 68 58 90 3c 5f 00 9e 3c 24 14 b0 3c
       0.016619401 0.01762028 0.019287286 0.021493979
000050 56 d0 f8 3c 0d ee ec 3c a9 4c fd 3c 86 82 d4 3c
       0.03037278 0.028922105 0.030920343 0.025941145
000060 10 12 4f 3c 54 4d d5 3c 82 17 5f bc a4 55 c6 3a
       0.012638584 0.02603785 -0.013616445 0.0015131724
000070 5d 29 bb bb 35 35 86 3c af 0d ce 3c 35 20 be 3c
       -0.005711718 0.016382793 0.02515301 0.023208717
000080 66 31 c4 3c 88 ec 35 3c 0f 21 8a 3a a0 c6 0b 3c
       0.023949336 0.011103757 0.0010538417 0.008531243
000090 54 58 48 3c d8 cb c9 3c ef 70 c6 3c 66 0c 6f 3c
       0.01222809 0.024633333 0.024223773 0.014590358
0000a0 01 f0 8c bc b4 c8 8a b9 95 a0 b3 bb f5 ee 80 3c
       -0.017204287 -0.00026470947 -0.0054817894 0.015738944
0000b0 c7 d9 be 3b c5 63 3a 3c 18 f3 be 3c 85 24 e6 3c
       0.005824301 0.011376326 0.023309276 0.028093586
0000c0 25 0e 74 3c 35 73 e5 3c 76 43 62 3c 27 48 c4 3c
       0.01489595 0.028009037 0.013810029 0.023960186
0000d0 2a 4a 25 3c d9 ab c0 3c fc 30 06 3c a3 74 19 3c
       0.010088483 0.023519443 0.00819039 0.009366187
0000e0 93 a3 82 3c 0a 6a cb 3b 12 ca b2 3c 5a 6f bd 3c
       0.015947139 0.006207709 0.02182487 0.023124386
0000f0 38 c4 a7 3c e8 b6 35 3c ff cb 40 bc 0e be c2 bb
       0.020479307 0.0110909715 -0.011767386 -0.0059430664

_model.2._model.0.weight f4 [16, 64]
000000 73 44 a5 bc 0c 13 60 3b 7a 62 2d 3c 90 60 a7 bd
       -0.02017424 0.003419104 0.010582561 -0.08172715
000010 5c 33 61 3d 06 7e e2 3c 00 1d c4 3d 74 f5 35 bd
       0.05498062 0.027647983 0.09575844 -0.044423535
000020 8e 1d 5e bc 4d 19 08 3e 06 7e a6 3d 65 66 df 3d
       -0.013556851 0.13290901 0.08129506 0.10908202
000030 10 c8 5b bc 25 54 82 3d a5 ec 01 bd fc 3a 1e 3d
       -0.013414398 0.063637055 -0.031719822 0.03863047
000040 8a 82 a2 bc 14 af 2e bc 02 2e 70 bd 8e e1 a1 bc
       -0.019837637 -0.010661859 -0.058637626 -0.019760873
000050 f5 f2 27 bd 75 31 84 3c 4e df b9 bc 13 29 0f bd
       -0.041003186 0.016136864 -0.022689488 -0.03495128
000060 2f 47 85 bd f4 5d ca 3d 96 5d 32 3c 9a 97 6a bd
       -0.06507718 0.098812014 0.01088657 -0.057273485
000070 28 73 d6 3b b0 e2 57 3c 23 51 44 bd 2a 51 e6 bc
       0.0065444894 0.013176605 -0.04792894 -0.028114874
000080 9f 74 b1 bd 08 00 1b ba a7 a2 18 3d 04 0f 5f 3d
       -0.08664822 -0.00059127854 0.037264492 0.05445768
000090 74 79 fd bc 8f 3b 38 bd 7e fa 8f bb 2b 40 39 3c
       -0.030941702 -0.044978675 -0.0043938747 0.011306803
0000a0 4e 4e e3 bd d2 8c 87 3b 83 89 07 bd bd e1 49 3d
       -0.1109892 0.00413666 -0.033090126 0.049287546
0000b0 bc e2 04 bc bc 10 84 bc b2 c1 5d 3d 56 23 ff 3b
       -0.008110698 -0.01612126 0.0541398 0.007786195
0000c0 8a 2f 1f 3c 8d 89 5b 3c ba d4 69 3d 3c 4e b3 3d
       0.009715924 0.013399494 0.057087637 0.087551564
0000d0 0d dd 9f bc ac 7b 41 3d 04 b2 b2 b9 93 83 74 3c
       -0.019514585 0.047237083 -0.00034083438 0.014923948
0000e0 90 f5 73 bc 2a 70 93 3d 2c f1 f9 3c c9 14 a6 3c
       -0.01489009 0.07199128 0.030510508 0.020273583
0000f0 17 86 ba 3c 3f 35 53 ba 9e 30 f2 3b 0d 33 0a bc
       0.022769017 -0.00080569455 0.0073910495 -0.008435023
000100 8e 26 1f 3c ef 3b ac bb 83 1e d8 3c 4d af 49 bd
       0.009713782 -0.005256168 0.026381737 -0.049239445
000110 03 ff 00 3d 60 dc 8f bb 95 6e a3 3d 9f bb 72 3b
       0.031493198 -0.0043902844 0.07980076 0.00370381
000120 13 7d 11 bc fa 52 30 3d 3c 8b c5 3c cf f2 ec 3d
       -0.008879918 0.043047883 0.024114244 0.115697496
000130 9a 2e 8f bd 5d 6b f8 39 ca bd 07 bb da c6 b0 bb
       -0.069913104 0.00047382238 -0.0020712488 -0.0053947987
000140 87 30 69 3a 05 f7 90 bc c1 f3 06 3b 2c 26 1d bd
       0.0008895476 -0.017695913 0.0020592066 -0.03836648
000150 eb b9 8a bc 6a ae 23 3d e6 4d 0b bd 7c 9a de bc
       -0.016934356 0.039961256 -0.034009837 -0.027173273
000160 f4 c9 91 bd e3 0c 90 3d 8f 14 d1 3b fb fd 42 bd
       -0.071185976 0.07033708 0.0063806246 -0.047605496
000170 d8 6d d4 bb 38 69 6d bd 12 eb 18 3c 55 e8 b4 ba
       -0.006482821 -0.057961673 0.009333389 -0.001380215
000180 4c 50 74 bc 8b b2 23 3c 20 22 11 bc ba 33 5c 3d
       -0.014911722 0.009991298 -0.008858234 0.053760268
000190 0c 4c 2e 3d 3f 43 2f bd df 4f e0 3b d2 34 b3 bc
       0.042552993 -0.04278874 0.006845459 -0.021875773
0001a0 9d 66 e8 bc a0 0e 95 3c 14 b2 4f bc 47 bb 98 bd
       -0.028369242 0.01819545 -0.0126767345 -0.07457595
0001b0 f5 e4 cc bb 03 3b c7 3d 9f 1b ed 3c ed c7 9e 3d
       -0.0062528797 0.097280525 0.028943835 0.077529766
0001c0 86 54 f4 bc 96 22 94 bc 45 a2 97 3d cc 43 89 3d
       -0.02982546 -0.018082898 0.07403997 0.06702384
0001d0 37 57 b0 3c a8 30 e2 3d fa a2 83 bb ba 81 38 3d
       0.021525962 0.11044437 -0.004017231 0.045045592
0001e0 2d b9 69 bd 40 0f 87 3c 87 90 4d bd ef 2a 8b 3a
       -0.057061363 0.016486764 -0.05018666 0.0010617654
0001f0 e0 d3 2a 3d 27 10 8b bd 0a 74 c6 bc 1a 01 85 3c
       0.041705966 -0.0679019 -0.024225254 0.016235877
000200 04 b8 69 bd 29 29 13 3c 7a 87 35 bc 62 4c 5c bc
       -0.057060257 0.008981981 -0.011079663 -0.013445945
000210 1b ad bd 3d 68 1d 57 3c 87 f6 27 bc c9 e7 5f bc
       0.09261533 0.01312957 -0.010251648 -0.013666102
000220 dc 60 b8 bd 91 68 d2 3d 41 d7 fa 3c 4d 69 b7 3d
       -0.090028495 0.10273851 0.03062022 0.089556314
000230 fa 4f 20 3c d6 5c 9c bc f9 09 bb bc 23 10 4e 3c
       0.009784693 -0.019087236 -0.022831904 0.0125770895
000240 22 df f1 bc f3 59 70 3c c3 6d bd bb 6e a6 52 bc
       -0.029525343 0.014669883 -0.005780907 -0.012857063
000250 87 e9 8a 3c f0 f1 99 3d 83 f0 ef 3c 29 32 3f bc
       0.016957058 0.07516849 0.02928949 -0.011669674
000260 d2 11 14 bb a7 55 14 ba 40 3b 1f 3b 7d d5 19 bb
       -0.002259363 -0.0005658515 0.002429679 -0.0023473196
000270 a3 e4 a5 bc 14 1e 53 bc 40 e2 15 3d 02 ab 56 3d
       -0.020250624 -0.012885589 0.036592722 0.05240918
000280 a3 80 0e 3d eb 94 f5 bb 6e 74 a7 bc 66 b2 0c 3d
       0.034790646 -0.007494559 -0.02044126 0.03434982
000290 4b 07 9a 3c 14 ae 07 bd 99 ad 8c bc fd 48 a1 bc
       0.018802306 -0.033125 -0.017172622 -0.019688124
0002a0 e7 1c 0c bd ed fd 8b bc d4 4f d5 3a e2 ff c0 3d
       -0.03420725 -0.017088855 0.0016274401 0.09423806
0002b0 85 47 43 3d 0c 69 9a bd 49 77 3d 3c bf fc 66 bc
       0.04767563 -0.07539567 0.011564084 -0.014098345
0002c0 e1 76 f7 3c 93 c5 89 bc 8b 16 ba 3c f0 3f 1e 3d
       0.030208053 -0.016817844 0.022715827 0.038635194
0002d0 d7 1f fb bc e3 4b 92 3c 60 fb e0 3b 76 19 e8 bc
       -0.03065483 0.017858451 0.0068659037 -0.028332453
0002e0 a1 db 90 3a b1 88 c5 3b 97 76 0d 3d 01 37 3d 3d
       0.0011051783 0.006028258 0.034536924 0.046195034
0002f0 0c 46 e0 bc de 00 30 3d ff d9 46 bc da b6 97 3c
       -0.027377151 0.042969577 -0.012136935 0.018519808
000300 9f 03 41 bd e2 47 46 bc 12 5e 9e bd 45 54 9d 3c
       -0.047122594 -0.012102099 -0.07732786 0.019205222
000310 5a a1 94 bc fb d1 f0 3c 67 7e 82 bd 9d 64 0a bd
       -0.018143345 0.029397001 -0.063717656 -0.03378736
000320 53 40 f0 3c 06 69 8c bc 75 9b 15 bc e4 f1 86 bd
       0.029327547 -0.017139923 -0.009131302 -0.06589106
000330 17 2f bb 3c 19 cb 08 bd 97 e2 09 3d e7 fe f6 3b
       0.022849603 -0.033396814 0.03366336 0.007537711
000340 93 98 e8 bc 47 66 75 bc 08 43 53 3d 08 80 20 bb
       -0.028393066 -0.014977998 0.051577598 -0.0024490375
000350 f7 28 03 bc 03 21 20 3d 0b 80 0a 3d 53 af 86 3c
       -0.008005372 0.039093982 0.033813518 0.016441023
000360 87 69 79 3d 31 09 95 3d b9 1a 71 bc 87 8e 54 3d
       0.060891654 0.07277144 -0.014715844 0.051893737
000370 22 f5 0b 3c b0 28 ae b9 4e 7f 9f bc a1 24 5f 3d
       0.008542331 -0.0003321818 -0.019469883 0.05447829
000380 7f 9d b5 3d ce ef a5 bd e0 82 24 bd 42 86 94 bd
       0.088679306 -0.0810238 -0.040163875 -0.0725217
000390 85 8b ed bc 58 ea d5 3b 47 21 a6 3c 37 8c 54 3c
       -0.028997192 0.00652818 0.02027954 0.012972883
0003a0 2b d6 28 3d 61 c3 ee bc 12 ea 86 bd bb f6 12 be
       0.04121987 -0.029145898 -0.06587614 -0.14351933
0003b0 c0 16 8b bc 2c 67 13 3d 64 03 15 3c ca 30 80 bc
       -0.016978621 0.035987064 0.009095047 -0.015648264
0003c0 b5 52 9e bc fc 1a 26 bb 29 43 43 bc 83 83 97 bd
       -0.019326547 -0.0025345674 -0.011917868 -0.07398131
0003d0 9d 70 22 3d ad 02 9f 3c 98 d3 4b bc 58 f2 61 bc
       0.039658178 0.019410456 -0.012440585 -0.013790689
0003e0 d3 1c a1 bc 87 1b 61 bd 19 73 69 3c ec b9 0e bc
       -0.019667065 -0.054957893 0.014248633 -0.008711319
0003f0 8e f2 f1 bd 69 67 fe 3b cc 62 c7 bb 01 b4 a9 bd
       -0.11813842 0.0077637923 -0.0060847756 -0.08286286

_model.2._model.0.bias f4 [16]
000000 64 54 22 bb b7 e0 a2 bc 75 13 ac bb 65 0f eb 3a
       -0.002476954 -0.019882543 -0.005251343 0.0017933665
000010 32 00 ed 3c ef 2d be bc ce 4c e5 bc 65 8b 87 3c
       0.028930757 -0.023215262 -0.027990725 0.01654596
000020 74 83 f2 bc 66 41 0f bc 23 cd 46 bc dc 82 4c bc
       -0.029603697 -0.00874362 -0.012133869 -0.012482371
000030 4a 5a 75 bc 91 55 b6 ba 48 7e 86 bc a4 d1 ec bc
       -0.01497514 -0.0013910999 -0.016417637 -0.028908558
