data/etc/pretrained_model/fencing/task_agnostic_policy_motor_decoder_exp15_1700.pt (torch_old, 66332 bytes, 6 tensors)

_model.0._model.0.weight f4 [64, 20]
-0.23493184 -0.067180134 -0.271371 -0.4772133 0.06762922 0.22999437 -0.06487237 0.25730532
-0.07476153 0.5355172 0.08381977 -0.27438727 -0.36811775 -0.09581012 -0.24143781 0.5172767
-0.28062516 -0.111263685 0.12809685 -0.15338354 0.019333767 -0.23084669 -0.15413558 -0.21189144
0.33894616 -0.12152984 0.074637234 0.038252894 -0.004659553 0.060018893 -0.19086954 0.060849834
-0.20182376 0.40560448 0.12596722 0.20241104 -0.16772951 -0.59746027 -0.0023424143 -0.58575195
-0.3047038 -0.2506067 0.50006986 0.009910072 0.15611264 -0.18123142 -0.093500495 -0.052504215
0.08812365 0.050090756 -0.22330336 -0.3964095 -0.33508283 -0.09398775 -0.0724108 -0.19779572
0.14608403 0.51494277 -0.04407395 -0.3330505 -0.24031347 -0.06954006 0.10288072 0.020161524
0.051829208 -0.023602238 0.13642766 0.3346413 -0.2347296 -0.3219894 -0.31256887 -0.1637456
-0.4289987 -0.4324784 0.08696559 -0.02024949 -0.14868514 0.3468115 0.007238416 -0.49550498
-0.21846591 -0.35805157 -0.51397914 -0.14746183 -0.11912401 -0.08298828 -0.16675295 0.5350549
-0.07469916 0.22657797 0.32823464 0.077103995 0.3573043 -0.19618157 0.121203944 -0.03404609
0.25938293 -0.12274473 0.06067347 0.4729087 -0.07030232 0.14415339 -0.039384082 -0.3561258
0.14227356 -0.2606772 0.14161235 -0.3047054 -0.3113538 -0.16885917 0.22187899 -0.091481835
-0.0068350974 -0.10311864 -0.0013775539 0.10595633 0.41313797 -0.27721655 0.5625869 0.68945956
-0.003407892 -0.024967948 -0.14764167 0.17509122 0.13459818 0.065324515 -0.049120273 0.46655247
0.014996586 -0.0071634473 -0.49966592 0.038693655 -0.13313602 -0.510455 0.11193899 0.027407493
-0.17645761 0.21536656 -0.16288187 -0.4437457 0.31176537 -0.0367165 0.37833312 0.04294486
0.06870981 0.4091189 -0.070832066 0.0031773008 0.23179139 -0.05242923 -0.16567901 -0.2872533
0.56721854 0.042570245 0.16350669 0.076352075 -0.18360053 -0.33059925 0.47699758 -0.15431365
-0.2677789 -0.583948 0.2200934 -0.123434834 -0.014798464 -0.087914415 -0.35051847 -0.15142028
0.39567783 0.122508645 0.3977148 0.24181184 0.17567442 -0.18987647 -0.17573804 0.0109593775
0.36945042 0.28133565 -0.29916418 0.011862452 0.07813004 -0.19956023 0.074036226 -0.5026892
0.28511995 0.06096064 0.1580564 0.090394825 0.3002876 0.09589156 0.24851592 0.00764227
0.013642261 -0.1275861 0.19700475 0.26011577 -0.24275884 -0.35401052 -0.1970018 -0.5726608
-0.25513828 -0.1575362 -0.23674554 -0.02938067 0.035821322 -0.040372457 0.586344 -0.34353083
0.23320398 -0.23286758 -0.07965388 0.11680689 0.06093433 -0.22188272 -0.51999855 -0.11211563
-0.03463216 0.041630033 0.08635814 -0.29434428 0.30493978 0.61478496 -0.15157823 0.17009331
-0.10753624 0.02263273 -0.0028885189 0.30717605 0.055017807 -0.23920546 -0.23622683 0.38641202
-0.06497124 -0.13760348 -0.18823183 0.08490663 0.40219504 -0.2205087 -0.36015284 -0.17997046
-0.6578403 -0.036392353 0.26983777 0.23458377 -0.31739238 0.026090981 -0.037705153 0.44173276
-0.114187114 0.2636221 0.31685218 0.018177863 -0.35860845 0.0031846748 -0.16518342 -0.12813441
00000000: f991 70be bd95 89bd 24f1 8abe 4d55 f4be
00000010: 3081 8a3d a583 6b3e cedb 84bd 86bd 833e
00000020: 931c 99bd a817 093f b3a9 ab3d 7d7c 8cbe
00000030: ee79 bcbe 1938 c4bd 793b 77be 3f6c 043f
00000040: 1aae 8fbe 37de e3bd d22b 033e 9310 1dbe
00000050: d961 9e3c 1363 6cbe b8d5 1dbe 12fa 58be
00000060: 5a8a ad3e a3e4 f8bd 68db 983d 11af 1c3d
00000070: 2aaf 98bb 5fd6 753d 4e73 43be ad3d 793d
00000080: e3aa 4ebe 64ab cf3e 8dfd 003e d744 4f3e
00000090: 49c1 2bbe 28f3 18bf 3183 19bb d7f3 15bf
000000a0: 2302 9cbe 854f 80be 9404 003f db5d 223c
000000b0: fedb 1f3e bb94 39be 307d bfbd a90e 57bd
000000c0: 2c7a b43d f72b 4d3d a3a9 64be 30f6 cabe
000000d0: fa8f abbe a67c c0bd 1d4c 94bd f68a 4abe
000000e0: 0d97 153e 4ad3 033f e386 34bd 9885 aabe
000000f0: bc14 76be 056b 8ebd 20b3 d23d c829 a53c
00000100: dd4a 543d 7b59 c1bc b1b3 0b3e 1b56 ab3e
00000110: f55c 70be cbdb a4be 0709 a0be edac 27be
00000120: b8a5 dbbe cf6d ddbe 041b b23d 42e2 a5bc
00000130: eb40 18be 4791 b13e 3c30 ed3b d4b2 fdbe
00000140: 87b5 5fbe 8952 b7be 2394 03bf 3c00 17be
00000150: 4af7 f3bd c2f5 a9bd 49c1 2abe 5cf9 083f
00000160: e0fb 98bd 0e04 683e 5f0e a83e b3e8 9d3d
00000170: 97f0 b63e d2e3 48be c639 f83d ea73 0bbd
00000180: d7cd 843e 9761 fbbd bf84 783d 1721 f23e
00000190: aafa 8fbd f29c 133e 3451 21bd 1f56 b6be
000001a0: 29b0 113e 7b77 85be d402 113e 5902 9cbe
000001b0: c469 9fbe 6be9 2cbe 3f34 633e d45a bbbd
000001c0: f4f8 dfbb de2f d3bd 0a8f b4ba a2ff d83d
000001d0: d286 d33e 54ef 8dbe b205 103f 6c80 303f
000001e0: f156 5fbb 9589 ccbc 612f 17be 1d4b 333e
000001f0: 1bd4 093e dcc8 853d 5732 49bd f7df ee3e
00000200: 3eb4 753c 5abb eabb 36d4 ffbe 3d7d 1e3d
00000210: cf54 08be 2ead 02bf 4540 e53d ae85 e03c
00000220: 4eb1 34be 0d89 5c3e 81ca 26be a332 e3be
00000230: b69f 9f3e 0a64 16bd e1b4 c13e f3e6 2f3d
00000240: bbb7 8c3d 0878 d13e 6710 91bd 433a 503b
00000250: b95a 6d3e 08c0 56bd c2a7 29be dd12 93be
00000260: 3c35 113f 235e 2e3d 4c6e 273e 7a5e 9c3d
00000270: c701 3cbe 4e44 a9be 0739 f43e 6604 1ebe
00000280: 511a 89be 9e7d 15bf 2a60 613e 67cb fcbd
00000290: 4275 72bc 790c b4bd 2877 b3be eb0d 1bbe
000002a0: 4996 ca3e d0e5 fa3d 46a1 cb3e 869d 773e
000002b0: ffe3 333e fa6e 42be acf4 33be f68e 333c
000002c0: 9b28 bd3e 3a0b 903e 0c2c 99be bb5a 423c
000002d0: a402 a03d 8459 4cbe 4ea0 973d 3db0 00bf
000002e0: 3efb 913e ddb1 793d 89d9 213e ec20 b93d
000002f0: 4cbf 993e cb62 c43d f57a 7e3e 026c fa3b
00000300: ca83 5f3c eea5 02be 9dbb 493e e52d 853e
00000310: c695 78be de40 b5be d7ba 49be e699 12bf
00000320: 7ca1 82be 2b51 21be 6c6d 72be bbaf f0bc
00000330: 61b9 123d 975d 25bd a41a 163f 46e3 afbe
00000340: 06cd 6e3e d774 6ebe 9321 a3bd 7338 ef3d
00000350: 4796 793d 3935 63be a01e 05bf e19c e5bd
00000360: 74da 0dbd 4184 2a3d 89dc b03d 4bb4 96be
00000370: 1121 9c3e 8c62 1d3f 5337 1bbe f12c 2e3e
00000380: f63b dcbd 4668 b93c 4e4d 3dbb 2e46 9d3e
00000390: 5a5a 613d 47f2 74be 72e5 71be ccd7 c53e
000003a0: a40f 85bd ede7 0cbe d8bf 40be 87e3 ad3d
000003b0: 82ec cd3e 08cd 61be f465 b8be 2d4a 38be
000003c0: 3968 28bf 2610 15bd 2d28 8a3e ba36 703e
000003d0: 4181 a2be c1bc d53c b870 1abd cc2a e23e
000003e0: efda e9bd 7af9 863e 733a a23e bee9 943c
000003f0: 879b b7be fab5 503b d825 29be ab35 03be

_model.0._model.0.bias f4 [64]
0.06278293 0.0486754 0.009494919 0.046343375 0.13054478 0.053225886 0.11554444 0.029800572
0.043233834 0.04281534 0.049557336 0.07759665 0.011563946 0.015190633 0.0033028063 0.110268146
0.022914113 0.012877781 0.054730773 0.047840606 0.04600379 0.08917059 0.07854386 0.075566664
0.071970776 0.030163307 0.022102933 0.010751394 0.0003116271 0.06945105 0.025595203 0.05070957
-0.022506254 0.056786004 0.064316146 0.039702456 0.004240446 0.050813373 0.035210595 0.040818855
0.02948503 0.024908945 0.05128461 0.10069071 0.04172071 0.04906059 0.015252209 0.036257572
-0.03436555 0.012337343 0.0032132403 0.04855564 0.023002917 0.06302657 0.062401712 0.013165204
0.049003325 0.027683368 0.0013224639 0.033295374 -0.01283537 0.047589645 0.06615287 0.030929953
00000000: 5694 803d db5f 473d 9490 1b3c 8dd2 3d3d
00000010: 88ad 053e 6303 5a3d 90a2 ec3d 5420 f43c
00000020: f615 313d 235f 2f3d a2fc 4a3d feea 9e3d
00000030: b476 3d3c 22e2 783c e573 583b 44d4 e13d
00000040: 61b6 bb3c 54fd 523c 602d 603d 83f4 433d
00000050: 786e 3c3d 129f b63d 9adb a03d b2c2 9a3d
00000060: 6a65 933d 0a19 f73c 3611 b53c 9d26 303c
00000070: e261 a339 5a3c 8e3d 08ad d13c d7b4 4f3d
00000080: 095f b8bc 7198 683d 2fb8 833d 0b9f 223d
00000090: 70f3 8a3b af21 503d fc38 103d ac31 273d
000000a0: 978a f13c d80d cc3c d00f 523d ee36 ce3d
000000b0: 56e3 2a3d c2f3 483d 67e4 793c d282 143d
000000c0: e4c2 0cbd 9122 4a3c 3a95 523b 47e2 463d
000000d0: 9d70 bc3c 1314 813d f098 7f3d deb2 573c
000000e0: b6b7 483d 3bc8 e23c 8656 ad3a bb60 083d
000000f0: 724b 52bc 5ced 423d 287b 873d d060 fd3c

_model.1._model.0.weight f4 [128, 64]
-0.13548197 0.0630987 -0.23628163 0.056534898 0.0152904205 -0.19192062 0.23038733 0.057884034
0.055031877 0.20506747 0.06479251 0.2083416 0.18903585 0.050181195 0.31175715 -0.111743726
-0.16107702 0.10928395 -0.1238545 -0.016511768 -0.03058361 0.16984169 -0.06764981 0.060620446
-0.14710058 -0.056129295 -0.21541107 0.1219663 -0.06596432 -0.008172386 0.003242361 -0.10860695
-0.061969925 -0.18479386 0.061463036 0.052928682 0.0095841605 -0.19730577 0.0982492 -0.021886453
-0.2639488 -0.0098745255 -0.049993355 -0.08046555 0.1874427 -0.1505043 0.22245397 -0.15475336
0.263224 0.16003266 -0.0017966717 -0.08793271 0.15540054 0.0162196 -0.032349154 -0.18700425
0.15212853 -0.110072106 0.05582296 -0.25109407 0.09836008 0.19517837 0.04164942 0.2033539
0.15547912 0.06711993 0.006730997 0.20492877 0.05389674 0.056832362 0.14192459 -0.04738142
0.05781617 0.108203046 0.115072004 -0.21668339 -0.09812619 0.15404381 -0.0010486398 -0.04140292
0.2907836 0.09524136 0.12179753 0.22984667 0.27422392 -0.11181663 0.03977772 0.21310109
0.018657353 0.027626392 0.009725246 0.26864022 -0.077173695 0.061615627 0.02799474 0.079532094
-0.037037123 -0.14600104 -0.32833332 -0.15075117 0.2120988 0.0036206995 -0.003388011 -0.018333832
0.07955706 0.22602627 -0.09122561 0.16647853 0.060620207 -0.028038375 -0.004430858 -0.06250043
-0.12651002 0.05326632 0.14448452 0.048405066 0.21624939 -0.2005449 -0.10582103 -0.2026292
0.11169088 0.01086184 -0.11660725 0.35660526 -0.18935509 0.0009565647 -0.14299074 -0.08098097
-0.049833108 0.06905595 -0.13616705 0.18959294 -0.2097796 0.29910424 -0.06145508 -0.15025489
0.005918267 -0.15156901 0.18304595 0.07053814 0.14513667 -0.058221154 0.023907475 -0.10498624
0.013862233 -0.113345996 -0.12834316 0.0013862007 0.04138958 -0.12715662 0.17597969 -0.3887915
0.19045876 0.118239336 0.04679065 -0.16173089 -0.03505592 0.15659387 0.08013296 0.0030263993
-0.18970846 -0.033667136 -0.03473594 0.03974243 0.120925225 -0.027737135 -0.016045889 0.14021498
-0.18624221 0.15657666 0.089944065 0.13714688 0.22358985 0.090878986 0.09122479 0.2225545
0.008940702 -0.11400963 -0.067160845 0.0034015363 -0.06275203 0.34628847 -0.11869659 0.11455847
-0.0033661986 -0.33951387 0.0035470468 0.24665181 -0.03850638 0.081365116 0.06298428 0.09800249
0.10210958 -0.2529525 0.0547098 0.00683078 0.35471204 -0.26262894 -0.04607935 0.1310959
-0.00271565 -0.14904998 0.058908056 -0.21168004 -0.12899528 0.081730895 0.03838414 0.047430094
0.071166396 -0.31567347 -0.03231707 -0.41582417 0.3795966 0.170368 -0.05356578 0.3573519
-0.2805066 0.021724543 -0.024108594 -0.018466195 0.077124365 0.2651597 -0.20437896 0.2532022
0.018318383 0.21264471 0.16133687 0.061782334 0.0678327 0.061434194 0.090815 0.060045455
0.060241316 -0.0010047161 0.1494615 -0.11244744 -0.12720154 0.18526118 -0.06452218 0.1067025
0.008359004 0.3095748 -0.09135113 0.008622417 0.017881399 -0.039143633 -0.061770096 0.027931647
0.1278223 -0.13234998 -0.08201965 0.05585538 0.16236365 -0.03561353 0.0218779 -0.32672775
00000000: c9bb 0abe e439 813d d0f3 71be 2391 673d
00000010: ac84 7a3c d786 44be a8ea 6b3e cf17 6d3d
00000020: 1b69 613d 35fd 513e efb1 843d 8057 553e
00000030: 9d92 413e cc8a 4d3d a29e 9f3e e5d9 e4bd
00000040: 60f1 24be 43d0 df3d 6ea7 fdbd b043 87bc
00000050: 7b8a fabc fbea 2d3e fc8b 8abd 254d 783d
00000060: 89a1 16be d5e7 65bd b894 5cbe 78c9 f93d
00000070: 4d18 87bd 79e5 05bc ca7d 543b 526d debd
00000080: 2dd4 7dbd 9a3a 3dbe aac0 7b3d bfcb 583d
00000090: e206 1d3c 860a 4abe e036 c93d 384b b3bc
000000a0: 4c24 87be c3c8 21bc d5c5 4cbd 1fcb a4bd
000000b0: fbf0 3f3e cd1d 1abe f9ca 633e aa77 1ebe
000000c0: 4cc5 863e 9adf 233e 4c7e ebba 1116 b4bd
000000d0: 5221 1f3e f7de 843c 8c80 04bd 0b7e 3fbe
000000e0: 95c7 1b3e 7c6d e1bd 9ea6 643d 678f 80be
000000f0: 0271 c93d d7dc 473e 9598 2a3d 013c 503e
00000100: eb35 1f3e 2d76 893d b28f dc3b d9d8 513e
00000110: d4c2 5c3d 0dc9 683d ae54 113e 0513 42bd
00000120: a6d0 6c3d 8f99 dd3d dfaa eb3d 40e2 5dbe
00000130: 62f6 c8bd a9bd 1d3e 8372 89ba 1c96 29bd
00000140: 97e1 943e e70d c33d fc70 f93d ed5c 6b3e
00000150: 1467 8c3e 1e00 e5bd f6ed 223d 2c37 5a3e
00000160: 4ed7 983c be50 e23c a356 1f3c 368b 893e
00000170: 3e0d 9ebd ab60 7c3d 3a55 e53c b9e1 a23d
00000180: 3db4 17bd 4c81 15be 4e1b a8be 845e 1abe
00000190: 6e30 593e 4249 6d3b 6409 5ebb d530 96bc
000001a0: d0ee a23d 6e73 673e 7ed4 babd 5979 2a3e
000001b0: e54c 783d bcb0 e5bc bb30 91bb 3a00 80bd
000001c0: d88b 01be c92d 5a3d c0f3 133e 6444 463d
000001d0: 7b70 5d3e a45b 4dbe b2b8 d8bd 077e 4fbe
000001e0: 30be e43d dcf5 313c c8cf eebd f794 b63e
000001f0: 4de6 41be f8c1 7a3a 2a6c 12be 5ad9 a5bd
00000200: cd1d 4cbd 356d 8d3d 606f 0bbe a724 423e
00000210: 77d0 56be 3124 993e 52b8 7bbd 6bdc 19be
00000220: 06ee c13b e834 1bbe 6670 3b3e 4d76 903d
00000230: b59e 143e 4e79 6ebd 9cd9 c33c 0703 d7bd
00000240: 6b1e 633c f221 e8bd 646c 03be 2db1 b53a
00000250: 1f88 293d 5835 02be 0534 343e ae0f c7be
00000260: 9f07 433e 7727 f23d 8da7 3f3d c89c 25be
00000270: cc96 0fbd 255a 203e c01c a43d 8e56 463b
00000280: ef42 42be 8de6 09bd 4647 0ebd f5c8 223d
00000290: a5a7 f73d fd38 e3bc ab72 83bc 8494 0f3e
000002a0: 47b6 3ebe a255 203e 9834 b83d 3b70 0c3e
000002b0: bdf4 643e c31e ba3d 10d4 ba3d 54e5 633e
000002c0: 067c 123c e27d e9bd a08b 89bd 4fec 5e3b
000002d0: 2384 80bd b94c b13e 3317 f3bd a29d ea3d
000002e0: 719b 5cbb c3d4 adbe 9275 683b 4b92 7c3e
000002f0: deb8 1dbd c1a2 a63d e7fd 803d 88b5 c83d
00000300: d41e d13d fd82 81be 6217 603d bcd4 df3b
00000310: d19c b53e 4d77 86be b3bd 3cbd 013e 063e
00000320: 0cf9 31bb 8fa0 18be 9349 713d a7c2 58be
00000330: 5717 04be 8762 a73d b038 1d3d 0f46 423d
00000340: b0bf 913d f49f a1be e75e 04bd e8e6 d4be
00000350: 7c5a c23e f374 2e3e cb67 5bbd d4f6 b63e
00000360: 909e 8fbe abf7 b13c 637f c5bc 6b46 97bc
00000370: 61f3 9d3d 03c3 873e b848 51be b8a3 813e
00000380: 6f10 963c 89bf 593e 7e35 253e 790f 7d3d
00000390: dfeb 8a3d 6ca2 7b3d 37fd b93d 39f2 753d
000003a0: 99bf 763d aeb0 83ba 6f0c 193e d84a e6bd
000003b0: 1f41 02be 1bb5 3d3e 3424 84bd d786 da3d
000003c0: 34f4 083c 9780 9e3e 4d16 bbbd 0a45 0d3c
000003d0: 037c 923c 1355 20bd a402 7dbd e9d0 e43c
000003e0: d9e3 023e c186 07be ebf9 a7bd 9cc8 643d
000003f0: a842 263e 7edf 11bd 4839 b33c dc48 a7be

_model.1._model.0.bias f4 [128]
0.043603983 0.0074631344 0.036195435 -0.023902554 -4.6230223e-05 0.061143905 0.021529842 0.018564714
0.032937072 0.015102703 0.020189991 0.05929113 -0.032247063 0.0007870771 0.050094046 0.04173752
0.008995085 0.041883316 0.0019875143 -0.021737292 -0.009091063 -0.0010921117 0.010755932 0.0016368468
0.020997189 0.025802152 -0.0024734503 0.031090055 0.008484597 -0.0110545615 -0.007581581 0.05216703
-0.007650086 0.021630129 -0.019198773 0.036048073 0.014183148 0.0043029906 0.019180287 -0.0106744645
-0.04064438 0.01979448 0.0427529 0.042536724 0.06860757 0.015259138 0.009884931 0.002533396
0.0027860438 0.028789263 0.008009595 0.015707755 0.00609744 -0.007877023 0.052485015 -0.0020486847
0.038249657 0.021830663 0.01947162 -0.013657494 0.0042064777 0.05198262 0.048461046 0.031662226
0.034476433 0.023216294 0.0011012356 -0.040165797 0.0277863 0.022224171 0.029460048 0.06971202
-0.013241984 -0.039084792 0.056639362 0.021737479 0.008872303 0.047913626 0.050323807 0.061850347
-0.010831401 -0.025986489 0.018242603 -0.014156548 0.013586364 -0.0010680549 -0.0025889496 0.062379263
0.009535328 0.016302776 0.02174432 0.066616446 -0.00022311407 0.011565237 0.029013928 0.040339574
0.004259216 0.009706407 0.026424922 0.06995987 -0.0008134927 0.034911014 0.024200784 -0.014119571
0.021550763 0.000376013 0.003518327 0.057785343 0.05733496 -0.023040816 -0.0065561524 0.01614645
-0.010522522 0.02159729 0.022037687 0.015023451 -0.027978916 0.048074845 0.042443138 0.031933874
0.06923236 0.040033806 -0.008741394 -0.009505628 0.0018911362 0.0061910916 0.015231649 0.043849662
00000000: 179a 323d 4f8d f43b aa41 143d 4acf c3bc
00000010: 53e7 41b8 0872 7a3d 5a5f b03c 0715 983c
00000020: 06e9 063d 5471 773c 7b65 a53c 42db 723d
00000030: 7f15 04bd da53 4e3a 6a2f 4d3d f6f4 2a3d
00000040: 1f60 133c d78d 2b3d f540 023b 6812 b2bc
00000050: aff2 14bc 3025 8fba a639 303c 778b d63a
00000060: 4c02 ac3c 095f d33c 9c19 22bb 92b0 fe3c
00000070: fb02 0b3c 311e 35bc e96e f8bb 18ad 553d
00000080: 93ad fabb ab31 b13c bf46 9dbc 25a7 133d
00000090: 6f60 683c 1a00 8d3b fa1f 9d3c f3e3 2ebc
000000a0: b97a 26bd 0928 a23c aa1d 2f3d fd3a 2e3d
000000b0: 2082 8c3d 7701 7a3c 68f4 213c 5507 263b
000000c0: 0f96 363b 76d7 eb3c ad3a 033c 8dad 803c
000000d0: 09cd c73b a10e 01bc 87fa 563d 3a43 06bb
000000e0: acab 1c3d 38d6 b23c f282 9f3c afc3 5fbc
000000f0: 7ed6 893b baeb 543d 177f 463d 40b0 013d
00000100: 2937 0d3d 1930 be3c 5657 903a e484 24bd
00000110: 18a0 e33c 770f b63c 3356 f13c 2dc5 8e3d
00000120: e8f4 58bc 6017 20bd adfe 673d cc12 b23c
00000130: 235d 113c 1441 443d 5620 4e3d ca56 7d3d
00000140: 3076 31bc 9ee1 d4bc 8371 953c def0 67bc
00000150: 5799 5e3c fafd 8bba 5eab 29bb 6681 7f3d
00000160: 103a 1c3c 668d 853c 2521 b23c 346e 883d
00000170: baf3 69b9 1f7c 3d3c 9eae ed3c 1c3b 253d
00000180: e590 8b3b 9f07 1f3c 1479 d83c 1f47 8f3d
00000190: 9240 55ba dafe 0e3d b940 c63c c655 67bc
000001a0: 3a8b b03c 9c23 c539 bb93 663b 53b0 6c3d
000001b0: 10d8 6a3d 18c0 bcbc fed4 d6bb 8f45 843c
000001c0: a866 2cbc cdec b03c 6188 b43c ec24 763c
000001d0: 0a34 e5bc 21ea 443d dbd8 2d3d 18cd 023d
000001e0: b2c9 8d3d 7dfa 233d 1038 0fbc 7ebd 1bbc
000001f0: 00e0 f73a a4de ca3b 2b8e 793c b49b 333d

_model.2._model.0.weight f4 [51, 128]
-0.00365455 0.036865424 -0.0012532581 0.040530294 -0.04931219 0.077704385 0.074932374 -0.057886317
-0.0010317554 0.018365668 -0.011350117 0.044585917 -0.025100568 -0.027229788 0.019734107 -0.020085063
-0.11614415 -0.019105779 -0.04169159 -0.0033911155 0.0013800694 -0.05095057 0.0086363545 0.0054722563
0.0006524358 -0.060552843 0.036941495 0.018723557 -0.036962032 0.0029433144 -0.031449318 -0.036332764
0.067184456 -0.023976391 0.04235124 -0.02053601 0.015299504 0.007951525 -0.01516218 0.037500747
0.063828066 -0.0048001623 0.08858426 0.018028414 -0.027691847 -0.029416678 0.037933856 0.075574875
0.06176594 -0.032979615 -0.079735495 0.014397012 0.007688772 -0.02044553 -0.015662502 -0.04241781
-0.13067001 -0.022609215 -0.018683461 -0.04292437 0.026355106 -0.043249875 -0.0021078542 0.0104057975
0.028140008 -0.02504423 0.013524438 0.06750009 0.062198203 -0.02311497 -0.03708504 0.030735396
-0.07359864 0.07035213 -0.0064891847 -0.03105022 0.03275035 -0.002208349 -0.05342568 0.043082446
0.037723277 -0.00486534 -0.0497084 -0.040257018 0.01733426 -0.045532245 -0.06939291 0.0036804965
0.03144809 0.0031303666 0.07164747 0.0075017344 -0.06097508 0.011052976 -0.04873253 -0.041370153
-0.0089799855 -0.0011720363 -0.070255466 0.0069097015 -0.01972795 -0.02272462 -0.010472202 0.008334367
-0.0057689487 0.0011924524 0.041439466 -0.019557862 -0.0091692265 0.015757263 0.0062735896 0.03492867
0.05072588 0.050452176 0.010496546 0.023213495 -0.03354606 0.016771173 0.05966992 -0.012606903
0.015539546 0.072305664 0.08311146 0.015201651 -0.0066339853 -0.051455654 -0.028510738 -0.061337765
0.008443219 -0.002543773 -0.0024804287 -0.017268712 -0.012780126 -0.08951092 -0.02651233 0.019947318
0.0032065776 0.009083187 0.02638938 -0.0016385524 0.015876107 0.0047443 0.022963844 -0.0027356395
0.0030054187 -0.029403485 -0.008696484 -0.023460891 -0.0051195025 0.009535951 -0.0073746904 0.027554035
-0.012741682 0.025719369 0.003390692 -0.0026728744 0.0041837413 -0.021288933 0.0218925 0.03194914
0.023055706 0.06767512 -0.028021455 -0.0024821553 0.04098087 0.010218142 0.007004988 0.0016098605
0.004195111 0.01797299 0.0014129434 0.024333252 -0.0028787812 -0.0011910923 -0.007946884 -0.013208173
-0.036790602 -0.006095737 0.057055216 -0.0055161766 -0.0038565805 -0.043564014 -0.0128068505 -0.016025502
-0.012474513 0.0047004544 0.013463153 0.0091116335 -0.019616388 -0.017442457 0.007265936 -0.0204566
-0.0627035 -0.0037038273 0.001987905 0.016721135 0.005061063 -0.012048838 0.0042036204 0.028568435
0.018979609 0.09940256 0.042435538 -0.0023420926 0.00057693286 0.008187754 0.019066572 0.04747987
0.016674329 -0.0501206 0.025197044 -0.022132924 -0.004329555 0.013333501 -0.016272798 0.023145067
-0.0019291661 0.05184974 -0.037197735 -0.010197621 0.009557131 -0.0047405045 -0.033024568 -0.0044693183
0.007505341 0.013791424 0.038649134 0.02862386 0.013736589 -0.009375134 -0.0034214559 0.007739713
-3.9538914e-05 -0.009558549 -0.042455282 0.010742908 0.006957936 0.0063333246 0.013063586 0.007026785
0.008101577 -0.016716022 0.011908511 0.009388747 0.021193236 0.0049851253 0.007495252 0.00023746141
0.014503729 0.045928605 0.01619989 0.014571012 -0.0023350078 0.024388487 0.027165005 0.00547169
00000000: 2d81 6fbb 3300 173d 5d44 a4ba 1803 263d
00000010: 94fb 49bd 7a23 9f3d 2576 993d 341a 6dbd
00000020: f73b 87ba 9973 963c d7f5 39bc b99f 363d
00000030: b59f cdbc 0111 dfbc 6ca9 a13c 6e89 a4bc
00000040: fcdc edbd b983 9cbc cdc4 2abd 7a3d 5ebb
00000050: 72e3 b43a 8bb1 50bd 7f7f 0d3c 9d50 b33b
00000060: 3a08 2b3a 4206 78bd f74f 173d 2562 993c
00000070: 8065 17bd 9fe4 403b 00d1 00bd aad1 14bd
00000080: 0198 893d 236a c4bc 7e78 2d3d 223b a8bc
00000090: c5aa 7a3c 1d47 023c cb6a 78bc 629a 193d
000000a0: 4ab8 823d ae4a 9dbb aa6b b53d 53b0 933c
000000b0: 03da e2bc 3ffb f0bc 8860 1b3d 00c7 9a3d
000000c0: 48fe 7c3d a215 07bd 5d4c a3bd 72e1 6b3c
000000d0: 18f2 fb3b 627d a7bc a64e 80bc 4cbe 2dbd
000000e0: 5cce 05be f636 b9bc 0f0e 99bc 77d1 2fbd
000000f0: aae6 d73c c826 31bd ed23 0abb 147d 2a3c
00000100: e085 e63c 8f29 cdbc 9b95 5d3c 7d3d 8a3d
00000110: 8bc3 7e3d 9b5b bdbc 7ce6 17bd ccc8 fb3c
00000120: e2ba 96bd c714 903d 3aa3 d4bb 085d febc
00000130: 3b25 063d f3b9 10bb e3d4 5abd 3877 303d
00000140: b983 1a3d 6e6d 9fbb 099b 4bbd 8be4 24bd
00000150: 9400 8e3c 0580 3abd df1d 8ebd 7c34 713b
00000160: b6cf 003d d626 4d3b e9bb 923d 1cd1 f53b
00000170: 01c1 79bd 8b17 353c c39b 47bd c073 29bd
00000180: ca20 13bc 039f 99ba 19e2 8fbd c76a e23b
00000190: 839c a1bc fb28 babc 9993 2bbc de8c 083c
000001a0: 7309 bdbb 104c 9c3a 6ebc 293d cf37 a0bc
000001b0: 863a 16bc 6015 813c af92 cd3b 5d11 0f3d
000001c0: f1c5 4f3d f1a6 4e3d b4f9 2b3c 3a2a be3c
000001d0: 9867 09bd b363 893c 7268 743d 2f8d 4ebc
000001e0: 9499 7e3c fe14 943d 5736 aa3d 5810 793c
000001f0: e761 d9bb 2ac3 52bd 5a8f e9bc 4f3d 7bbd
00000200: 6d55 0a3c 6eb5 26bb b08e 22bb 1d77 8dbc
00000210: bc63 51bc 8051 b7bd 6330 d9bc 8f68 a33c
00000220: 7225 523b a6d1 143c 8b2e d83c b2c4 d6ba
00000230: 9c0e 823c 1376 9b3b ac1e bc3c 6a48 33bb
00000240: 8ff6 443b 94df f0bc b37b 0ebc 0e31 c0bc
00000250: 80c1 a7bb ad3c 1c3c 63a7 f1bb 00b9 e13c
00000260: 7dc2 50bc 6db1 d23c 5f36 5e3b 642b 2fbb
00000270: c417 893b 2166 aebc e657 b33c 1add 023d
00000280: 52df bc3c 4199 8a3d 408d e5bc a8ab 22bb
00000290: 8fdb 273d fe69 273c 198a e53b f401 d33a
000002a0: 2477 893b 183c 933c 8332 b93a 8756 c73c
000002b0: efa9 3cbb 6d1e 9cba a633 02bc 1867 58bc
000002c0: beb1 16bd c0be c7bb bbb2 693d 0bc1 b4bb
000002d0: afbe 7cbb 2e70 32bd d3d3 51bc ea47 83bc
000002e0: e661 4cbc 4506 9a3b 8e94 5c3c f648 153c
000002f0: 8cb2 a0bc 7ce3 8ebc 1717 ee3b 9994 a7bc
00000300: b16a 80bd e9bb 72bb 8347 023b c3fa 883c
00000310: 46d7 a53b 7d68 45bc 86be 893b 5a08 ea3c
00000320: 207b 9b3c 9293 cb3d e3d0 2d3d cb7d 19bb
00000330: 4f3d 173a ee25 063c 8031 9c3c 417a 423d
00000340: 9a98 883c 424b 4dbd 086a ce3c 1b50 b5bc
00000350: f1de 8dbb c274 5a3c 884e 85bc b99a bd3c
00000360: 13dc fcba 6560 543d a75c 18bd ec13 27bc
00000370: 8395 1c3c 3c56 9bbb c544 07bd 5c73 92bb
00000380: 5def f53b 6df5 613c 8e4e 1e3d 967c ea3c
00000390: 6e0f 613c 299a 19bc 813a 60bb 6b9d fd3b
000003a0: 96d6 25b8 769b 1cbc 97e5 2dbd 0603 303c
000003b0: 66ff e33b c787 cf3b a708 563c f240 e63b
000003c0: 7abc 043c 0af0 88bc ea1b 433c 42d3 193c
000003d0: 709d ad3c 435a a33b bb9a f53b 10ff 7839
000003e0: 0ca1 6d3c a21f 3c3d a2b5 843c 41bb 6e3c
000003f0: ee06 19bb 5dca c73c 2589 de3c dd4b b33b

_model.2._model.0.bias f4 [51]
-0.026650539 0.03341987 -0.006763162 0.043483276 0.0026800192 -0.03225106 0.00089250936 0.00034982164
0.0024855407 0.018448472 -0.01787868 0.04151343 0.059223693 -0.0030172807 0.01231286 -0.005536103
0.009722508 0.011933128 0.0035554206 -0.018402403 -0.02918282 -0.0061392584 -0.018505413 -0.015915077
-0.0047333594 -0.016846912 -0.015627356 -0.008598598 0.0002952043 0.012203262 0.006715221 -0.003917485
0.0016586486 0.0048259017 0.021626148 -0.0069806967 -0.01413608 0.0056492337 -0.03646659 -0.013696141
-0.05900717 0.022824476 -0.01202605 -0.027863054 0.028266653 -0.025289789 0.011814904 0.029820815
-0.022234054 0.06980015 -0.016278809
00000000: 3b52 dabc 46e3 083d 849d ddbb 851b 323d
00000010: 43a3 2f3b b019 04bd 4af7 693a 4468 b739
00000020: 74e4 223b 4021 973c 4f76 92bc fd09 2a3d
00000030: 8b94 723d 92bd 45bb e1bb 493c 3368 b5bb
00000040: 274b 1f3c 2b83 433c 0f02 693b a3c0 96bc
00000050: cf10 efbc d52b c9bb aa98 97bc 5660 82bc
00000060: 4c1a 9bbb 8902 8abc f104 80bc 22e1 0cbc
00000070: a7c5 9a39 31f0 473c 5b0b dc3b 3f5e 80bb
00000080: 0367 d93a 9922 9e3b 5229 b13c 54be e4bb
00000090: 049b 67bc 351d b93b fe5d 15bd c765 60bc
000000a0: 81b1 71bd 65fa ba3c e908 45bc 0f41 e4bc
000000b0: 788f e73c 882c cfbc 4d93 413c c84a f43c
000000c0: 3124 b6bc 62f3 8e3d 235b 85bc
