data/etc/pretrained_model/fencing/task_agnostic_policy_motor_decoder_exp21_3000.pt (torch_old, 66332 bytes, 6 tensors)

_model.0._model.0.weight f4 [64, 20]
-0.13430527 0.014936681 -0.28886065 0.026174033 -0.39455682 0.07818625 0.42200303 0.2753743
0.31020615 0.011950485 0.15265277 -0.20282158 -0.5072979 -0.024225408 0.12391857 -0.3290121
-0.010359492 0.32633814 0.46125996 -0.6213616 -0.2023649 0.10510337 0.4348492 0.190243
-0.5202994 0.55351555 0.09404364 0.13111486 0.08448307 -0.29577926 0.021289302 0.35226405
-0.22629835 -0.13834132 0.1984297 0.46986082 -0.09568688 0.086100616 0.42855173 0.048781928
-0.2965703 -0.16452043 0.20613152 -0.561501 0.37775984 0.29475027 -0.18231438 0.1263324
-0.018510178 -0.052158594 -0.1478378 0.22082877 0.20318954 0.025687825 -0.26142475 0.37234348
0.12683217 0.32312986 -0.26281765 0.33188865 0.30185077 0.6979785 -0.066988155 -0.24825953
-0.06782083 -0.3293658 0.011908806 0.29751146 -0.21168132 -0.16307266 -0.10004101 0.24764498
-0.07793139 -0.16154623 -0.31938797 -0.29623678 -0.0075625987 0.235171 0.2604621 0.16215855
0.18840948 -0.40732646 -0.071283825 0.13581312 -0.0701578 -0.25526223 0.016062165 -0.01631454
0.344799 0.023242801 0.04636322 0.3481356 -0.20357308 -0.17125425 0.16845238 0.24987905
-0.060355447 0.16695057 0.5249827 -0.6304368 -0.49179366 0.33896884 0.041734442 0.039759737
-0.034921493 0.24564713 0.09252398 0.1186597 0.22477403 0.43168244 0.3054927 0.57730365
0.16390754 0.2806363 0.28703633 0.32465467 -0.35119647 -0.14359118 -0.10562703 0.089440785
-0.19440036 -0.07482829 0.21075378 0.06428956 0.20649436 0.19140404 0.036658835 -0.12085362
-0.40332752 0.20500393 -0.117842376 0.65491843 0.08930237 0.11175478 0.1598688 0.26983285
0.5886204 0.15434122 0.049023777 0.03572418 0.11778955 0.05628352 0.1503203 0.044191048
0.48991352 0.44835842 0.030589651 0.36104456 0.32847232 0.004820631 0.24762633 -0.09604689
0.19831532 0.51183754 -0.31283286 0.14731705 0.069493 -0.0982307 -0.068684444 -0.13629018
0.2801474 0.08766547 -0.23890337 0.4751878 0.04974798 0.4675643 -0.02678378 0.37204707
-0.0057714256 0.08306993 -0.076407224 -0.10559007 -0.2074559 0.049414255 -0.44876295 -0.05327632
0.21487775 -0.082343295 0.2716812 0.25392714 0.23809956 -0.05505211 -0.27018523 0.20004566
-0.026915723 0.26805115 0.2756041 0.13111684 0.18096974 -0.19766138 0.26570326 0.072897
0.19716196 0.051971488 -0.1786037 -0.604589 -0.1671573 0.20781574 0.23559833 -0.41824064
0.1713497 -0.040860485 0.36398146 -0.18354754 0.5217699 0.26681793 0.22715704 -0.00770511
0.011551846 0.04011031 0.1665006 0.33408394 -0.15865293 -0.42981723 -0.21108598 0.12593848
-0.31312397 -0.037847888 -0.24448128 0.14722335 -0.25649133 -0.26018706 0.19575047 -0.2495883
-0.26534903 -0.02905269 0.035176978 0.14611557 0.21977326 0.36765447 0.2781105 -0.07937207
-0.3119393 0.16135539 -0.1605426 -0.18311742 0.28119403 0.4187381 -0.72695845 0.46412456
-0.113039955 0.028323 -0.09612376 0.4572041 -0.48758647 0.078233056 -0.08008848 -0.10941549
-0.37550053 -0.11877549 0.22617891 0.2543366 0.24393429 0.39262035 -0.051917296 -0.25258517
00000000: 5287 09be fbb8 743c 8be5 93be ed6a d63c
00000010: 5a03 cabe 1d20 a03d c810 d83e dcfd 8c3e
00000020: 57d3 9e3e f8cb 433c 0251 1c3e 76b0 4fbe
00000030: 46de 01bf 5d74 c6bc 05c9 fd3d 4674 a8be
00000040: dcba 29bc cb15 a73e 442a ec3e 8e11 1fbf
00000050: bf38 4fbe 7040 d73d 8ea4 de3e 10cf 423e
00000060: 5732 05bf 32b3 0d3f f499 c03d f942 063e
00000070: 7605 ad3d 6170 97be e766 ae3c f45b b43e
00000080: c1ba 67be 59a9 0dbe 2831 4b3e 9991 f03e
00000090: 7cf7 c3bd 8555 b03d 226b db3e 8fcf 473d
000000a0: 10d8 97be 0b78 28be 2414 533e 88be 0fbf
000000b0: bd69 c13e 82e9 963e 9fb0 3abe 485d 013e
000000c0: a8a2 97bc 40a4 55bd cb62 17be f020 623e
000000d0: eb10 503e 466f d23c 77d9 85be cea3 be3e
000000e0: 4be0 013e 4771 a53e 0990 86be 4fed a93e
000000f0: 2f8c 9a3e b8ae 323f 1631 89bd bf37 7ebe
00000100: a6e5 8abd a2a2 a8be 271d 433c 6c53 983e
00000110: fdc2 58be 85fc 26be 4de2 ccbd a596 7d3e
00000120: 7e9a 9fbd 606c 25be d286 a3be 59ac 97be
00000130: adcf f7bb abd0 703e 4a5b 853e e40c 263e
00000140: 6aee 403e 188d d0be 41fd 91bd 9812 0b3e
00000150: e5ae 8fbd bbb1 82be cd94 833c 12a6 85bc
00000160: 7f89 b03e b067 be3c 5ce7 3d3d d43e b23e
00000170: 7675 50be 465d 2fbe c87e 2c3e 4be0 7f3e
00000180: 4637 77bd 17f5 2a3e 4465 063f 4e64 21bf
00000190: 61cc fbbe 538d ad3e bcf1 2a3d 1bdb 223d
000001a0: d709 0fbd ec8a 7b3e 367d bd3d db03 f33d
000001b0: 2a2b 663e 7b05 dd3e 8a69 9c3e 2cca 133f
000001c0: 61d7 273e 90af 8f3e 6df6 923e 2339 a63e
000001d0: 06d0 b3be 9109 13be fc52 d8bd bb2c b73d
000001e0: e310 47be 933f 99bd d7cf 573e 3faa 833d
000001f0: 4273 533e 6cff 433e 9327 163d 1a82 f7bd
00000200: f280 cebe 8dec 513e 5857 f1bd bca8 273f
00000210: 29e4 b63d b1df e43d a6b4 233e 8827 8a3e
00000220: d4af 163f a00b 1e3e 28cd 483d 8553 123d
00000230: a63b f13d 8c89 663d 91ed 193e ac01 353d
00000240: f2d5 fa3e 3c8f e53e 2697 fa3c d5da b83e
00000250: 862d a83e 62f6 9d3b c291 7d3e 3bb4 c4bd
00000260: 2c13 4b3e c907 033f a12b a0be 48da 163e
00000270: 5952 8e3d 2d2d c9bd 6eaa 8cbd a78f 0bbe
00000280: 7b6f 8f3e f489 b33d 16a3 74be d14b f33e
00000290: 8ac4 4b3d 9764 ef3e a869 dbbc f47c be3e
000002a0: 3a1e bdbb 9120 aa3d 647b 9cbd 9b3f d8bd
000002b0: 526f 54be 9a66 4a3d 42c4 e5be 4538 5abd
000002c0: ea08 5c3e 9aa3 a8bd cc19 8b3e bd02 823e
000002d0: 5fd0 733e 527e 61bd b855 8abe c5d8 4c3e
000002e0: 5d7e dcbc 003e 893e fb1b 8d3e 7e43 063e
000002f0: 2250 393e bf67 4abe 420a 883e 064b 953d
00000300: d3e4 493e 0ee0 543d e3e3 36be 58c6 1abf
00000310: 492b 2bbe a6cd 543e b040 713e a323 d6be
00000320: 4c76 2f3e 535d 27bd c75b ba3e e3f3 3bbe
00000330: b692 053f 5c9c 883e db9b 683e 267b fcbb
00000340: f443 3d3c b54a 243d 227f 2a3e 0d0d ab3e
00000350: ea75 22be 0111 dcbe ec26 58be 04f6 003e
00000360: c951 a0be 6306 1bbd 4d59 7abe b8c1 163e
00000370: d552 83be 3d37 85be d072 483e 1394 7fbe
00000380: d4db 87be e8ff edbc bc15 103d 529f 153e
00000390: 3e0c 613e 353d bc3e 8064 8e3e d38d a2bd
000003a0: 82b6 9fbe 593a 253e 4865 24be 2283 3bbe
000003b0: aaf8 8f3e d764 d63e f319 3abf bca1 ed3e
000003c0: 7e81 e7bd a305 e83c 89dc c4bd a816 ea3e
000003d0: efa4 f9be a738 a03d 6e05 a4bd 3a15 e0bd
000003e0: 9b41 c0be 9040 f3bd 729b 673e 6838 823e
000003f0: e9c9 793e 8905 c93e 3ba7 54bd d852 81be

_model.0._model.0.bias f4 [64]
0.015013842 0.063384734 0.086346075 0.028255187 0.10459177 0.083592966 0.121443644 0.042683795
0.05725396 0.043249413 0.026544457 0.057902046 0.08384072 0.06686171 0.041479096 0.023048447
0.09072454 0.10519254 0.06416015 0.048375007 0.007623905 0.046341535 0.086095504 0.024605302
0.051459007 -0.0176806 0.05410821 0.04503806 0.09834403 0.11262952 0.12024406 0.08677426
0.07897834 0.10170211 0.07788758 0.026199901 0.07171498 0.03007225 0.016045356 0.10072076
0.035957783 0.03749678 0.0043938067 0.048243508 -0.003601692 0.0019968054 0.0009369585 0.0049098707
-0.023659619 0.032092944 0.089495115 0.024596592 0.04751707 0.11275774 -0.01938499 0.05616512
-0.015310537 0.05969249 0.09270495 -0.02330869 -0.0002738892 0.06675797 0.086935796 0.07226651
00000000: 9efc 753c dbcf 813d 36d6 b03d 6c77 e73c
00000010: 3634 d63d ca32 ab3d 72b7 f83d 34d5 2e3d
00000020: 2183 6a3d 4c26 313d c373 d93c b22a 6d3d
00000030: afb4 ab3d cbee 883d fce5 293d 19d0 bc3c
00000040: cacd b93d 306f d73d 6666 833d df24 463d
00000050: f3d1 f93b 9fd0 3d3d d752 b03d 0f91 c93c
00000060: aec6 523d e8d6 90bc 92a0 5d3d d479 383d
00000070: 9868 c93d 4eaa e63d 8542 f63d b4b6 b13d
00000080: 65bf a13d 3249 d03d 8683 9f3d 2da1 d63c
00000090: 4edf 923d 145a f63c 8d71 833c b046 ce3d
000000a0: 7848 133d 3996 193d ecf9 8f3b fc9a 453d
000000b0: 5d0a 6cbb d6dc 023b 389e 753a fbe2 a03b
000000c0: d1d1 c1bc e473 033d 3749 b73d cb7e c93c
000000d0: 42a1 423d 88ed e63d 45cd 9ebc 660d 663d
000000e0: 0cd9 7abc 1d80 743d 18dc bd3d def1 bebc
000000f0: c998 8fb9 67b8 883d 650b b23d 7700 943d

_model.1._model.0.weight f4 [128, 64]
-0.03557599 0.04078032 0.02901999 0.1910045 0.036430858 0.029833939 -0.19341522 -0.1863614
0.06417538 -0.051291488 -0.053693295 -0.25692317 0.011260349 -0.010760742 0.060887806 0.20551279
0.106410466 -0.070150554 -0.02059894 0.17015643 -0.07310751 0.096703164 -0.08671537 -0.32383144
-0.17157352 0.21305078 -0.003209495 0.007009331 -0.07651264 0.0062300367 0.08698434 0.007813131
-0.15691109 0.43303773 0.04107914 -0.049145024 -0.022826277 -0.04600544 -0.092075214 0.08890176
-0.027337655 0.1061609 -0.32537484 0.34635043 0.02498027 0.065187424 -0.23095661 0.016748684
-0.09111997 0.23485418 -0.2149181 0.023886546 -0.035104565 0.031336598 -0.15805046 -0.06625026
0.19517584 0.19991393 0.2476011 0.20865373 0.16894133 -0.1943807 0.09285255 -0.14757128
0.013463447 -0.08978615 0.25563565 -0.18370622 0.27911836 0.036229007 -0.07542827 0.009933553
0.01964816 -0.018670637 0.03121198 -0.08202265 -0.16340068 -0.018451506 -0.21529095 -0.041649163
0.0024960944 0.052398637 0.27568495 -0.030356849 0.18161371 0.013847682 0.055896003 0.21366982
-0.25450367 -0.108546734 0.04022821 0.07099585 -0.056697205 0.14801916 -0.08587429 -0.10872968
0.13903949 -0.27354646 -0.044743482 -0.023051752 0.06509113 -0.09548308 -0.07299563 -0.1968425
0.11839433 0.081576824 -0.48262617 -0.02358702 -0.09347949 0.19153877 -0.3112437 0.14620805
-0.13537803 -0.15394114 0.030313976 0.094505034 0.07762594 -0.14200072 0.21599703 -0.2896188
0.23038998 -0.04840213 0.2114507 0.013451668 0.06211191 -0.19054222 0.14383416 0.13365102
-0.08085372 -0.015336233 0.0823965 0.060899362 -0.093773045 0.20547508 0.044302113 0.09400932
0.15624462 -0.16695061 0.14132023 -0.05007782 -0.16107316 -0.52857834 0.071472816 -0.09579533
0.07279303 0.062734924 0.049187973 0.06677421 -0.018153667 0.15929739 -0.07826275 0.13577679
-0.26232794 0.04536156 0.26961088 -0.13612868 -0.0016228259 -0.13677734 0.047933094 -0.04822655
-0.028971784 0.190589 -0.13634554 -0.07496349 -0.00053888914 0.05499512 -0.29853162 0.027127646
-0.25658876 0.07138126 0.11777674 -0.1312841 -0.042545587 0.34289476 -0.117561415 -0.050755814
-0.00022519325 -0.2532932 0.055012945 -0.12956634 0.08507846 -0.001758904 0.07595202 -0.077831745
0.090227135 0.0623385 0.09347024 -0.116122834 0.23857287 0.08550279 0.16027598 -0.062428795
0.08375507 0.10103989 -0.014921052 0.17859241 0.10437122 0.2637631 0.09749108 0.036157653
-0.18787062 -0.1075167 -0.11207102 -0.17550787 0.010007619 0.038090955 0.2025854 0.074129015
0.088717826 0.2454289 -0.13840961 0.10642155 -0.0941576 0.12121312 -0.0380486 -0.03498959
0.12295503 0.18024993 -0.3135411 0.18983172 -0.049948268 -0.08217195 0.105118215 -0.04730732
-0.03927173 -0.18589087 -0.2099566 -0.110894606 -0.12648417 0.13953859 -0.108049765 0.13018602
-0.038921345 -0.01225682 -0.23506568 -0.15427567 -0.044323586 -0.103295304 -0.046454445 0.02015286
-0.10341257 0.109980054 -0.027361637 0.21352269 -0.24727471 0.46267977 -0.013350786 0.20614351
-0.028249681 0.17891642 0.06081783 0.04356651 -0.09262332 0.062967986 -0.13222575 -0.057161618
00000000: 21b8 11bd 4409 273d 54bb ed3c af96 433e
00000010: 8638 153d 4e66 f43c a40e 46be 86d5 3ebe
00000020: 626e 833d 0617 52bd 80ed 5bbd 6f8b 83be
00000030: 547d 383c d34d 30bc 7e65 793d f271 523e
00000040: bbed d93d 18ab 8fbd 1cbf a8bc 7d3d 2e3e
00000050: 64b9 95bd 4f0c c63d d497 b1bd 3ccd a5be
00000060: f8b0 2fbe fc29 5a3e 6456 52bb 88ae e53b
00000070: a9b2 9cbd 5625 cc3b d824 b23d a602 003c
00000080: 4dad 20be 1fb7 dd3e 9a42 283d 4b4c 49bd
00000090: 2cfe babc 3370 3cbd ee91 bcbd 2012 b63d
000000a0: 38f3 dfbc e36a d93d 8897 a6be d854 b13e
000000b0: 6ca3 cc3c fc80 853d e47f 6cbe 8934 893c
000000c0: 1b9d babd 9d7d 703e 7e13 5cbe b8ad c33c
000000d0: cec9 0fbd ce5a 003d fbd7 21be 37ae 87bd
000000e0: 2ddc 473e 3db6 4c3e 258b 7d3e 53a9 553e
000000f0: f5fe 2c3e bc0b 47be 7a29 be3d ed1c 17be
00000100: ca95 5c3c cde1 b7bd ade2 823e 7c1d 3cbe
00000110: 9ae8 8e3e de64 143d 237a 9abd 57c0 223c
00000120: 2ef5 a03c 2af3 98bc 44b0 ff3c 7efb a7bd
00000130: 8252 27be 9d27 97bc 3b75 5cbe 5098 2abd
00000140: 8495 233b f49f 563d 9426 8d3e edae f8bc
00000150: f2f8 393e 63e1 623c 35f3 643d 43cc 5a3e
00000160: 4e4e 82be c04d debd 56c6 243d 4666 913d
00000170: 543b 68bd 5692 173e dcde afbd abad debd
00000180: 5e60 0e3e 480e 8cbe f144 37bd 07d7 bcbc
00000190: 804e 853d a28c c3bd bc7e 95bd 1591 49be
000001a0: ba78 f23d c011 a73d c71a f7be 9139 c1bc
000001b0: 2d72 bfbd bd22 443e 565b 9fbe 90b7 153e
000001c0: 8aa0 0abe bfa2 1dbe 0455 f83c db8b c13d
000001d0: 59fa 9e3d a368 11be 532e 5d3e ea48 94be
000001e0: 5aeb 6b3e 5041 46bd 8886 583e 6364 5c3c
000001f0: 0f69 7e3d 801d 43be 4349 133e d0db 083e
00000200: a396 a5bd d344 7bbc 7fbf a83d 9c71 793d
00000210: 150c c0bd 0f68 523e 2276 353d f587 c03d
00000220: 97fe 1f3e 1af5 2abe 40b6 103e 661e 4dbd
00000230: 5df0 24be e950 07bf 5760 923d 5830 c4bd
00000240: 8314 953d 2b7b 803d 5479 493d ebc0 883d
00000250: 00b7 94bc db1e 233e 3848 a0bd 1209 0b3e
00000260: d94f 86be 0bcd 393d 700a 8a3e 5165 0bbe
00000270: 00b5 d4ba 5c0f 0cbe 7e55 443d 3489 45bd
00000280: 3c56 edbc c329 433e 2a9e 0bbe 7586 99bd
00000290: 3d44 0dba 9042 613d 23d9 98be cc3a de3c
000002a0: 9a5f 83be 5730 923d ee34 f13d 576f 06be
000002b0: 4844 2ebd e78f af3e 0ac4 f0bd 54e5 4fbd
000002c0: da21 6cb9 a5af 81be 4155 613d 0aad 04be
000002d0: 9e3d ae3d 068b e6ba bc8c 9b3d 4066 9fbd
000002e0: 01c9 b83d a856 7f3d 536d bf3d cfd1 edbd
000002f0: 724c 743e 161c af3d 631f 243e 56b5 7fbd
00000300: c787 ab3d 00ee ce3d 6e77 74bc eee0 363e
00000310: 94c0 d53d f50b 873e 67a9 c73d 0c1a 143d
00000320: 2861 40be b731 dcbd 7e85 e5bd 56b8 33be
00000330: fff6 233c 4305 1c3d 8c72 4f3e f4d0 973d
00000340: b1b1 b53d b751 7b3e 40bb 0dbe 8bf3 d93d
00000350: b3d5 c0bd 963e f83d d9d8 1bbd 3f51 0fbd
00000360: d9cf fb3d 7093 383e 7688 a0be 3f63 423e
00000370: 8e96 4cbd c449 a8bd 3848 d73d 52c5 41bd
00000380: 65db 20bd 2d5a 3ebe ddfe 56be b61c e3bd
00000390: 1185 01be 34e3 0e3e 3249 ddbd 7c4f 053e
000003a0: fd6b 1fbd d4d0 48bc 0fb5 70be 71fa 1dbe
000003b0: a68c 35bd 7d8c d3bd 0447 3ebd 9c17 a53c
000003c0: f8c9 d3bd 393d e13d 8325 e0bc b1a5 5a3e
000003d0: 9535 7dbe 5de4 ec3e 41bd 5abc 4917 533e
000003e0: e06b e7bc de35 373e 1e1c 793d cc72 323d
000003f0: 4cb1 bdbd 5cf5 803d 3066 07be 4d22 6abd

_model.1._model.0.bias f4 [128]
-0.013709267 -0.011726144 0.04086911 0.047319695 -0.02159888 0.05356649 -0.015812583 -0.034868043
0.031132309 0.0350423 0.09644562 0.022391515 0.0100003965 -0.0010453287 0.013437921 0.07147957
0.00027512488 0.035421833 -0.019311912 -0.0017266086 0.10558785 0.006555819 0.025036287 0.076496735
-0.023540491 0.020795537 0.060500916 0.061283484 0.055799045 0.01926565 0.09099575 -0.0071584247
0.056767367 -0.05378537 0.024694875 0.0114536295 -0.07152773 -0.025930814 0.01862338 0.0061976016
0.024775904 0.1048173 0.024252066 0.054639306 -0.0109966295 0.037429422 0.07186976 0.032291934
0.01926243 0.06364751 -0.0011904306 0.054370128 -0.022796547 0.040085502 0.05580232 -0.055046465
-0.046661403 -0.06360799 0.024619168 0.0007241917 -0.003753089 0.082937494 0.016844153 0.014642805
0.06490433 0.03257423 -0.013753684 0.04477488 0.0075132074 0.009803811 -0.032533787 -0.036788043
0.03275113 0.00992216 0.051533543 0.030147292 0.022685954 0.039976016 -0.034566198 0.05006713
0.018190842 0.059811193 0.043214153 -0.036608037 -0.02335962 0.084690504 0.031230247 0.011131239
-0.006505922 0.01534449 0.07488303 0.10680534 0.037788935 0.06416255 0.04718689 0.04684077
-0.0063038366 0.00915944 -0.014044326 -0.03194163 -0.047293663 0.013340642 -0.066305585 0.030806694
-0.023900196 0.032138236 0.013422745 -0.026480326 0.0098899305 -0.019604111 -0.0024275328 0.027921509
0.054178383 0.010085767 -0.023578014 0.03113442 0.08435949 0.034334626 0.047311142 0.061103366
0.0332978 0.05388763 -0.0023025027 0.0004036546 0.011492966 0.116210505 -0.011326089 0.019820495
00000000: d59c 60bc 031f 40bc 5e66 273d 4cd2 413d
00000010: 22f0 b0bc 8968 5b3d 6489 81bc cbd1 0ebd
00000020: 2f09 ff3c 8488 0f3d 4885 c53d 696e b73c
00000030: b4d8 233c 6903 89ba ba2a 5c3c e163 923d
00000040: a33e 9039 7c16 113d 0434 9ebc 5f4f e2ba
00000050: 713e d83d 32d2 d63b e618 cd3c 52aa 9c3d
00000060: fdd7 c0bc 675b aa3c cfcf 773d 6404 7b3d
00000070: 8a8d 643d ffd2 9d3c fb5b ba3d 3891 eabb
00000080: e684 683d 0c4e 5cbd e84c ca3c 01a8 3b3c
00000090: 217d 92bd dc6c d4bc 0f90 983c 4015 cb3b
000000a0: d6f6 ca3c 74aa d63d 45ac c63c 77cd 5f3d
000000b0: 352b 34bc 984f 193d 7430 933d 8c44 043d
000000c0: 3ecc 9d3c a059 823d 3908 9cba 36b3 5e3d
000000d0: d3bf babc b230 243d f990 643d 6778 61bd
000000e0: 0720 3fbd e844 82bd 23ae c93c afd7 3d3a
000000f0: 63f6 75bb 22db a93d c0fc 893c 60e8 6f3c
00000100: 90ec 843d 8e6c 053d 2257 61bc dd65 373d
00000110: 5a31 f63b 2aa0 203c 2642 05bd 0faf 16bd
00000120: 0d26 063d 8e90 223c d614 533d 74f7 f63c
00000130: e5d7 b93c e4bd 233d 4995 0dbd 3113 4d3d
00000140: f604 953c 95fc 743d 5301 313d 4ff2 15bd
00000150: ac5c bfbc 3772 ad3d 93d6 ff3c cd5f 363c
00000160: a12f d5bb 7567 7b3c 465c 993d c2bc da3d
00000170: 92c8 1a3d a867 833d 0a47 413d 1bdc 3f3d
00000180: 6a90 cebb 7a11 163c 2c1a 66bc 3ad5 02bd
00000190: 00b7 41bd b592 5a3c 39cb 87bd 525e fc3c
000001a0: 58ca c3bc 62a3 033d 13eb 5b3c 45ed d8bc
000001b0: 6009 223c cd98 a0bc 3e17 1fbb a6bb e43c
000001c0: 27ea 5d3d c63e 253c ae26 c1bc 9c0d ff3c
000001d0: abc4 ac3d 77a2 0c3d 54c9 413d 8647 7a3d
000001e0: 4663 083d 47b9 5c3d 96e5 16bb 9aa1 d339
000001f0: fe4c 3c3c c6ff ed3d 0f91 39bc 975e a23c

_model.2._model.0.weight f4 [51, 128]
-0.039002497 0.006193255 0.030580508 0.0008233683 0.07618506 -0.019593516 0.049803603 -0.07011175
0.025120746 0.08139803 -0.043883782 0.008418592 0.019208567 -0.085631624 -0.054642756 -0.025052069
0.011278344 -0.066355035 -0.09279843 -0.10645653 -0.026113005 -0.06374069 -0.013552609 -0.041845005
0.01379327 0.0073104147 -0.0017675903 -0.03808055 0.009282775 0.016289242 -0.09049136 0.0386666
-0.031301573 0.045494314 0.005873744 0.0069500324 0.06801994 0.07506995 0.027246252 0.07449936
0.08803429 -0.041721083 -0.015366674 -0.06790261 0.05871725 0.014261293 -0.046427853 0.049752094
0.0076178066 -0.025039483 -0.0657685 -0.029062808 -0.11705935 0.011888919 -0.006457328 0.010857477
0.08297101 -0.064049795 0.010415386 -0.018397158 0.1032956 -0.031182276 0.036324643 0.11796412
-0.013149868 -0.047706358 0.06920962 0.04185495 0.034539282 -0.018472897 0.034167275 0.06222658
-0.028265048 -0.01804139 -0.056045055 -0.017773159 0.025930129 0.0035170936 -0.018766496 0.02983252
-0.023181561 0.0024405352 0.02244759 0.0151336845 0.0074123065 -0.012473409 0.106869325 -0.013629774
0.016473738 0.04400031 -0.009926098 -0.03643062 0.08515849 0.012502915 0.0009701643 -0.024232166
0.0957329 0.05012737 0.020898717 -0.053230926 -0.055792384 -0.028864559 -0.03436659 -0.022797137
-0.009103914 0.02268 -0.050884992 0.0194856 -0.0040986817 0.008996101 0.07835116 -0.033055358
-0.04050406 0.03944134 0.04938359 0.001594411 -0.008422633 0.15009224 0.026065674 0.0097304825
-0.050813895 -0.021007389 0.05257432 -0.11557559 0.00737945 0.02251818 0.04618036 -0.0027189336
-0.04213985 0.09753456 0.011848201 -0.013130472 -0.025648806 0.02419188 -0.055738237 0.012800734
0.0010710685 -0.04289048 -0.007228121 -0.015092573 0.034961335 0.040460337 0.0019316283 -0.04738675
0.012475057 -0.011025688 -0.054660454 -0.0798423 -0.0126854805 -0.03099492 -0.021522613 0.02039602
-0.017915362 0.04519304 -0.027557341 0.018556738 0.0031207046 -0.03429196 0.040492103 0.05632848
0.044445008 -0.06223739 -0.012328895 0.08607398 -0.04372189 0.0374393 7.960555e-06 0.043273106
-0.0523436 0.008600577 -0.022158774 -0.06021407 0.02291029 0.018890565 -0.011679077 0.0120354295
-0.007466977 0.03252636 -0.043263394 -0.0128773395 0.1349478 0.026177263 0.050470382 0.0343499
0.015073987 -0.0043912046 0.043350484 -0.017217033 -0.13446113 -0.03319454 0.017563738 0.0061125024
-0.0044960985 0.0037574198 0.045491546 0.017485322 0.021556092 0.012656 0.0022552628 0.004649725
-0.027650213 0.015610986 -0.012200578 0.046517305 0.027249882 0.008831038 0.018605838 0.046450164
-0.012058534 0.03726615 0.010381861 0.04057621 0.012690568 0.025873711 -0.03663329 -0.026463684
-0.030498484 0.0023218319 -0.0041796835 0.025293505 0.018831281 0.038451523 -0.020761333 0.0065640365
0.006838746 0.0037687917 0.038922224 0.034771077 -0.016677283 -0.06305788 0.12455382 0.004729729
-2.0349218e-05 0.008474396 -0.024732826 0.06541803 -0.00080406177 -0.06297286 0.006669562 -0.04887873
0.016041847 0.078264475 -0.04503628 0.03154184 0.024426218 0.024481462 0.031438448 -0.036846302
-0.053195573 -0.012444524 -0.006513612 -0.022454351 0.0628129 -0.0049496577 0.0013998053 0.026802694
00000000: 15c1 1fbd caf0 ca3b f983 fa3c 50d7 573a
00000010: ea06 9c3d 9582 a0bc ddfe 4b3d c096 8fbd
00000020: 06ca cd3c 03b4 a63d 7bbf 33bd 22ee 093c
00000030: 495b 9d3c a25f afbd 15d1 5fbd ff39 cdbc
00000040: cec8 383c 26e5 87bd 1a0d bebd e205 dabd
00000050: f1ea d5bc 7b8a 82bd c30b 5ebc ab65 2bbd
00000060: 2bfd 613c 348c ef3b 7dae e7ba 5afa 1bbd
00000070: c816 183c 0471 853c 8953 b9bd de60 1e3d
00000080: 1436 00bd 3f58 3a3d 8978 c03b 19bd e33b
00000090: 0a4e 8b3d 46be 993d 8833 df3c 1f93 983d
000000a0: 524b b43d bae3 2abd 81c4 7bbc 8610 8bbd
000000b0: 8081 703d 33a8 693c 222b 3ebd dac8 4b3d
000000c0: cb9e f93b 9a1f cdbc a3b1 86bd 2015 eebc
000000d0: d0bc efbd bec9 423c fe97 d3bb 8fe3 313c
000000e0: b4ec a93d 8a2c 83bd 4ca5 2a3c a3b5 96bc
000000f0: a58c d33d f971 ffbc 26c9 143d 2c97 f13d
00000100: 8b72 57bc be67 43bd c6bd 8d3d 1970 2b3d
00000110: 1079 0d3d 7954 97bc fcf2 0b3d 4ce1 7e3d
00000120: 1a8c e7bc 8acb 93bc 808f 65bd 0499 91bc
00000130: 6c6b d43c 0a7f 663b 32bc 99bc 5463 f43c
00000140: 42e7 bdbc 63f1 1f3b 02e4 b73c 46f3 773c
00000150: efe2 f23b 455d 4cbc 4ede da3d 6a4f 5fbc
00000160: eff3 863c ab39 343d 13a1 22bc 4638 15bd
00000170: 9367 ae3d 07d9 4c3c a052 7e3a 8982 c6bc
00000180: 9c0f c43d 5b52 4d3d c933 ab3c ac08 5abd
00000190: 8e86 64bd 5e75 ecbc fbc3 0cbd 10c1 babc
000001a0: 9528 15bc 68cb b93c c86c 50bd 44a0 9f3c
000001b0: 3c4e 86bb 6264 133c 9376 a03d 0e65 07bd
000001c0: 96e7 25bd 3e8d 213d 7346 4a3d 8efb d03a
000001d0: 15ff 09bc c8b1 193e ae87 d53c 9a6c 1f3c
000001e0: 3b22 50bd b017 acbc 2c58 573d e5b2 ecbd
000001f0: 50cf f13b 0c78 b83c 9e27 3d3d 2330 32bb
00000200: d69a 2cbd 33c0 c73d f51e 423c 3121 57bc
00000210: 721d d2bc 0d2e c63c c74d 64bd 2bba 513c
00000220: 1863 8c3a eead 2fbd e0d9 ecbb d746 77bc
00000230: 9e33 0f3d bdb9 253d b12e fd3a 9c18 42bd
00000240: 2e64 4c3c 16a5 34bc a4e3 5fbd 5c84 a3bd
00000250: c3d6 4fbc 0fe9 fdbc 3150 b0bc 8e15 a73c
00000260: 3dc3 92bc 561c 393d efbf e1bc 4d04 983c
00000270: bc84 4c3b ba75 0cbd 0cdb 253d b1b8 663d
00000280: f80b 363d a2ec 7ebd 22ff 49bc 8e47 b03d
00000290: b915 33bd f459 193d 538e 0537 243f 313d
000002a0: 3e66 56bd 6fe9 0c3c 5186 b5bc 07a3 76bd
000002b0: 5cae bb3c 63c0 9a3c 9959 3fbc 4030 453c
000002c0: 8bad f4bb 5c3a 053d f534 31bd 7afb 52bc
000002d0: c22f 0a3e b371 d63c 08ba 4e3d 7bb2 0c3d
000002e0: e2f8 763c 18e4 8fbb 4790 313d bc0a 8dbc
000002f0: 2eb0 09be fff6 07bd d4e1 8f3c 634b c83b
00000300: 0254 93bb 0b3f 763b 5855 3a3d 613d 8f3c
00000310: 6796 b03c 1d5b 4f3c 08cd 133b b85c 983b
00000320: b382 e2bc 39c5 7f3c efe4 47bc ee88 3e3d
00000330: 253b df3c 0fb0 103c 456b 983c 8742 3e3d
00000340: 2891 45bc 64a4 183d ae18 2a3c 3d33 263d
00000350: 1aec 4f3c 1bf5 d33c ca0c 16bd 5eca d8bc
00000360: f5d7 f9bc e029 183b baf5 88bb 5334 cf3c
00000370: 0f44 9a3c 587f 1d3d ac13 aabc 2117 d73b
00000380: 8f17 e03b d5fd 763b e96c 1f3d 1e6c 0e3d
00000390: cc9e 88bc 7d24 81bd 1316 ff3d d8fb 9a3b
000003a0: 9db3 aab7 31d8 0a3c 7f9c cabc e3f9 853d
000003b0: acc7 52ba eaf7 80bd 578c da3b 1035 48bd
000003c0: 316a 833c 2049 a03d f677 38bd 0432 013d
000003d0: 7e19 c83c 598d c83c 9ac5 003d 26ec 16bd
000003e0: 9ae3 59bd 1ee4 4bbc 2370 d5bb 30f2 b7bc
000003f0: 0da4 803d bd30 a2bb ac79 b73a 5391 db3c

_model.2._model.0.bias f4 [51]
-0.058142647 0.025491325 0.012456663 0.037919447 -0.01371714 -0.03505967 0.0062339436 -0.010497368
0.0057302713 -0.031219903 -0.033670258 -0.03947504 0.042417314 -0.023425732 -0.02096822 0.006652388
-0.005000817 0.018963866 0.029990751 -0.017868862 0.033913396 0.013488985 -0.0180441 0.019757558
-0.0071603972 -0.033578087 0.019340267 0.013779984 0.0009473443 0.01747594 0.00017527107 -0.001035216
-0.010583377 0.011474774 -0.0009716317 -0.0705905 0.0010848434 0.026987828 -0.13047484 -0.0027236163
-0.092241794 0.010185821 -0.01928301 -0.0064323805 0.0989355 -0.045333363 0.03470367 0.11239239
-0.02996782 0.08844745 -0.02115194
00000000: fc26 6ebd 2fd3 d03c 0817 4c3c 6c51 1b3d
00000010: dbbd 60bc bb9a 0fbd 1c46 cc3b 27fd 2bbc
00000020: 00c5 bb3b e2c0 ffbc d3e9 09bd 94b0 21bd
00000030: c7bd 2d3d 52e7 bfbc 8bc5 abbc 46fc d93b
00000040: e5dd a3bb 1c5a 9b3c 2aaf f53c b861 92bc
00000050: c6e8 0a3d e700 5d3c 38d1 93bc 9ada a13c
00000060: c4a1 eabb 2d89 09bd 7b6f 9e3c 71c5 613c
00000070: 3357 783a b429 8f3c f8c8 3739 16b0 87ba
00000080: e765 2dbc b100 3c3c 1ab5 7eba c191 90bd
00000090: 4e31 8e3a 9415 dd3c 329b 05be b37e 32bb
000000a0: 44e9 bcbd 6ee2 263c 67f7 9dbc b8c6 d2bb
000000b0: b29e ca3d 7aaf 39bd 6f25 0e3d fb2d e63d
000000c0: 137f f5bc f023 b53d d546 adbc
