data/etc/pretrained_model/fencing/task_agnostic_policy_motor_decoder_exp17_1600.pt (torch_old, 66332 bytes, 6 tensors)

_model.0._model.0.weight f4 [64, 20]
-0.40127903 0.19638209 -0.18260004 0.007060258 -0.19412193 -0.28216368 -0.16889292 0.069412775
-0.03043412 -0.06466557 -0.08945669 0.04753145 0.12302048 0.24614401 -0.015774773 -0.059073623
0.34181476 0.64869463 0.48696476 -0.012194759 0.10885597 -0.23349872 0.31380725 -0.014476148
-0.024311362 0.35650906 -0.35431486 -0.28637397 0.033624247 -0.12807415 0.11916465 0.16382556
-0.29343632 0.18286885 0.6430728 0.0701133 -0.25218022 0.1991041 -0.08450101 -0.070158765
-0.035614148 0.20430534 0.09869475 -0.49771136 0.040377524 -0.03953314 0.4361203 -0.21403284
-0.05068932 -0.3812264 -0.09737368 0.09398067 -0.02590396 -0.08716332 -0.095210165 0.4029635
0.46777865 0.3466873 0.3503392 -0.02895998 -0.19408973 -0.030050224 -0.30481663 -0.50060266
0.08938875 -0.29139742 -0.3027676 -0.13261293 -0.19579555 -0.17478833 -0.11707185 0.34454662
-0.04336713 0.03933949 0.24935323 -0.0253052 -0.2973109 0.23027563 -0.38611984 0.40570566
0.21778576 0.25285137 -0.33293205 -0.34701815 0.31508902 -0.031856548 0.21879132 -0.21487878
-0.034045894 0.23866355 0.15491949 0.06527854 0.0086157685 0.16132715 -0.16718963 0.012208536
-0.19829199 -0.06900954 0.5580474 0.3947348 0.3766611 -0.39047977 -0.39503038 0.21241803
0.46211737 0.28095022 -0.016927734 0.2335791 0.006959736 -0.12926832 -0.16411872 0.003721294
0.6098372 -0.28174064 -0.24137005 0.2041981 0.12032131 0.028829616 0.43999895 -0.00897289
0.49994302 -0.11295216 0.213609 0.34512836 -0.2346022 -0.19082145 0.1496 0.23553279
-0.18737929 0.20494466 0.23118708 0.43106622 -0.3460837 0.36544225 -0.026915126 0.108331084
-0.35377866 -0.036354385 -0.18367684 0.27183548 -0.024774594 -0.41821152 -0.274004 -0.0990449
-0.3593182 0.13513808 -0.123484895 0.10099441 0.34424123 -0.0658464 -0.36021745 0.30878016
-0.013341361 -0.037727945 -0.17248294 0.17148022 -0.501295 -0.07126436 -0.037812464 -0.4310917
-0.27124995 -0.22672679 -0.08879832 0.058514357 -0.1673399 -0.03331763 0.18019915 0.4317203
0.003994109 0.43114945 -0.037100464 0.15229112 -0.18780312 -0.07128098 0.5363217 0.0012852292
-0.03595005 -0.04759313 0.5415997 -0.012474868 0.12358874 -0.13986982 -0.05878126 0.02269581
0.58495694 -0.0078123165 -0.22290087 0.208043 0.15689184 -0.24882993 -0.18373267 -0.0387942
-0.49849337 -0.10827458 0.012991372 0.33156115 -0.24405038 0.054741237 0.5165449 -0.026900463
-0.3525344 0.1551605 0.16708869 -0.11683299 -0.16988869 -0.69035405 -0.032080293 -0.0719725
0.27817026 -0.11272318 0.42931354 0.41913864 -0.01091082 0.016710656 0.1252296 0.06796517
-0.0015748896 0.18610391 0.029933408 0.45635924 0.11721305 -0.3146679 0.073282555 -0.1479663
-0.10415568 0.06105039 0.11547959 0.032938775 0.01015174 0.33935657 -0.17947727 0.33213866
0.043099064 0.083996356 0.3131059 0.29511654 0.57913756 -0.49306238 0.11664165 -0.010882111
-0.019286705 -0.2605266 -0.03191495 0.12385557 0.16931705 -0.41413066 0.35324958 -0.18643825
0.06246983 -0.41897026 0.43909177 -0.0074382583 -0.10973484 0.05446157 -0.33828712 -0.17206982
00000000: 7274 cdbe 6318 493e 81fb 3abe bd59 e73b
00000010: e6c7 46be c277 90be 44f2 2cbe 4928 8e3d
00000020: fa50 f9bc 626f 84bd 1235 b7bd 56b0 423d
00000030: 29f2 fb3d 2d0d 7c3e 193a 81bc 2ff7 71bd
00000040: 5802 af3e da10 263f 7253 f93e 87cc 47bc
00000050: e1ef de3d 4a1a 6fbe 58ab a03e 5e2d 6dbc
00000060: 9f28 c7bc 5b88 b63e c268 b5be 9c9f 92be
00000070: 94b9 093d df25 03be 990c f43d e3c1 273e
00000080: 493d 96be f941 3b3e 6ba0 243f 9097 8f3d
00000090: c41d 81be f2e1 4b3e de0e adbd 66af 8fbd
000000a0: 24e0 11bd 6b35 513e 7920 ca3d 06d4 febe
000000b0: e762 253d 80ed 21bd 294b df3e 6d2b 5bbe
000000c0: 9b9f 4fbd 1b30 c3be da6b c7bd f078 c03d
000000d0: 8b34 d4bc af82 b2bd 8cfd c2bd 3b51 ce3e
000000e0: af80 ef3e ff80 b13e a95f b33e 7b3d edbc
000000f0: 75bf 46be e32b f6bc ed10 9cbe 7f27 00bf
00000100: 7311 b73d 0b32 95be 5b04 9bbe afcb 07be
00000110: a17e 48be b6fb 32be 5ec3 efbd 6a68 b03e
00000120: bba1 31bd 7222 213d 7456 7f3e da4c cfbc
00000130: 2239 98be 60cd 6b3e 80b1 c5be a7b8 cf3e
00000140: 3b03 5f3e bc75 813e 1276 aabe 5dac b1be
00000150: 5953 a13e 037c 02bd d50a 603e 2f09 5cbe
00000160: b573 0bbd 3864 743e 37a3 1e3e c1b0 853d
00000170: 2729 0d3c f232 253e c233 2bbe 5006 483c
00000180: 0e0d 4bbe e054 8dbd 32dc 0e3f ae1a ca3e
00000190: b9d9 c03e f7ec c7be 6c41 cabe 1d84 593e
000001a0: a69a ec3e b5d8 8f3e 08ac 8abc 5c2f 6f3e
000001b0: 7f0e e43b ea5e 04be bd0e 28be f4e0 733b
000001c0: 4a1e 1c3f 4f40 90be b629 77be 4f19 513e
000001d0: 056b f63d 162c ec3c 8b47 e13e 0703 13bc
000001e0: 88f8 ff3e 7653 e7bd 51bc 5a3e aab4 b03e
000001f0: 8f3b 70be b366 43be be30 193e 822f 713e
00000200: 5be0 3fbe 03dd 513e 4ebc 6c3e b6b4 dc3e
00000210: e231 b1be 3f1b bb3e 1c7d dcbc b0dc dd3d
00000220: 7a22 b5be 56e8 14bd c815 3cbe 052e 8b3e
00000230: 17f4 cabc d21f d6be 414a 8cbe 0dd8 cabd
00000240: 8ef8 b7be a361 0a3e a6e5 fcbd 28d6 ce3d
00000250: 6340 b03e 7ada 86bd 6c6e b8be 6f18 9e3e
00000260: b995 5abc 9e88 1abd 5e9f 30be 8398 2f3e
00000270: de54 00bf 0cf3 91bd 3ee1 1abd 0db8 dcbe
00000280: 46e1 8abe 112b 68be e5db b5bd c0ac 6f3d
00000290: 275b 2bbe 1178 08bd 2086 383e 710a dd3e
000002a0: 04e1 823b 9fbf dc3e a8f6 17bd 34f2 1b3e
000002b0: 764f 40be c3fb 91bd 614c 093f 2375 a83a
000002c0: 5c40 13bd 04f1 42bd 47a6 0a3f 6463 4cbc
000002d0: 181c fd3d 093a 0fbe 9ec4 70bd 90ec b93c
000002e0: bdbf 153f 76fe ffbb 2040 64be 3909 553e
000002f0: 41a8 203e 46cd 7ebe 6b24 3cbe abe6 1ebd
00000300: 863a ffbe 10bf ddbd c3d9 543c 62c2 a93e
00000310: 58e8 79be 5938 603d 493c 043f 5c5e dcbc
00000320: 647f b4be 65e2 1e3e 4c19 2b3e 2246 efbd
00000330: 4df7 2dbe 0bbb 30bf a066 03bd 5166 93bd
00000340: 556c 8e3e 69db e6bd fcce db3e 5799 d63e
00000350: 4cc3 32bc c9e4 883c 303c 003e 5331 8b3d
00000360: 876c ceba 0692 3e3e e836 f53c eba7 e93e
00000370: 650d f03d 271c a1be 2a15 963d 7a84 17be
00000380: 934f d5bd f90f 7a3d 9080 ec3d cfea 063d
00000390: 7c53 263c 25c0 ad3e e4c8 37be 140e aa3e
000003a0: a588 303d 4806 ac3d 6b4f a03e 8419 973e
000003b0: 5c42 143f ac72 fcbe d1e1 ee3d e24a 32bc
000003c0: 27ff 9dbc be63 85be 40b9 02bd fda7 fd3d
000003d0: 7361 2d3e ef08 d4be 21dd b43e abe9 3ebe
000003e0: 5de0 7f3d 4583 d6be a3d0 e03e a2bc f3bb
000003f0: a9bc e0bd 1813 5f3d f833 adbe 1233 30be

_model.0._model.0.bias f4 [64]
0.087251686 0.02953892 0.044479474 0.042156577 0.06319198 0.0054639922 0.04276823 0.04443359
0.053882558 0.06859507 0.05548999 0.08137043 0.062557384 0.15876836 0.030481622 0.054322883
0.009463985 0.043336265 0.11732392 0.01928374 0.06483254 0.068906434 0.006878426 0.08054922
0.037766527 0.035892535 -0.0076392908 -0.008748989 0.04652586 0.0035087098 0.042457547 0.039960053
0.031090416 0.063158095 0.041765302 0.042678535 0.06544955 0.039855372 0.041363146 0.06396803
0.06355668 0.026880821 -0.024763683 0.009942047 0.081468 0.083327174 0.03894656 0.050702855
0.07586151 0.005800916 0.06361995 0.041894678 0.071958564 0.0784362 0.10830813 0.0149879055
0.059327003 0.07188477 0.030529121 0.05048945 0.08088025 -0.017908817 0.008065322 0.06804051
00000000: 03b1 b23d 9bfb f13c 1c30 363d 60ac 2c3d
00000010: cc6a 813d 4a0b b33b bd2d 2f3d ffff 353d
00000020: f5b3 5c3d 927b 8c3d 7949 633d 8aa5 a63d
00000030: 161e 803d 2c94 223e 98b4 f93c ac81 5e3d
00000040: d50e 1b3c 5e81 313d 8647 f03d eff8 9d3c
00000050: ecc6 843d d11e 8d3d 6b64 e13b fdf6 a43d
00000060: 13b1 1a3d 0d04 133d 0453 fabb eb57 0fbc
00000070: e691 3e3d 62f2 653b f7e7 2d3d 27ad 233d
00000080: 54b1 fe3c 0859 813d 1812 2b3d b0cf 2e3d
00000090: 6a0a 863d 633f 233d 676c 293d ac01 833d
000000a0: 012a 823d 2b35 dc3c 35dd cabc f8e3 223c
000000b0: b2d8 a63d 70a7 aa3d 6e86 1f3d ccad 4f3d
000000c0: 485d 9b3d 9c15 be3b 2d4b 823d c199 2b3d
000000d0: 035f 933d 29a3 a03d a7d0 dd3d d58f 753c
000000e0: df00 733d 5338 933d 3518 fa3c 07ce 4e3d
000000f0: 8ba4 a53d 83b5 92bc 6a24 043c d358 8b3d

_model.1._model.0.weight f4 [128, 64]
0.019499417 -0.0034859395 0.053229235 0.06520341 -0.035163864 -0.07880474 0.13204683 -0.043836404
-0.21724817 0.03355523 -0.04577199 -0.034983348 -0.0365168 0.06574098 0.23572865 0.12742366
0.24335364 -0.17191046 -0.19959167 0.30433562 -0.17331718 0.029894322 0.10357411 -0.1434501
-0.11442046 0.16772631 0.08008057 -0.019899335 0.0107337115 0.25922602 -0.024324706 0.15158023
-0.18964535 0.036577746 0.037339494 -0.051712897 -0.023843706 -0.35515213 -0.32098624 -0.09566726
-0.1424142 0.2791659 0.03896116 0.034619395 -0.050706964 -0.029868469 0.006046477 -0.14576
0.088149816 0.1533633 -0.005132298 -0.13183703 -0.059440777 0.013528997 -0.2983714 -0.14227548
-0.0118501205 -0.14498405 -0.20166446 0.2214254 0.32005858 -0.02829822 0.21903852 -0.3435405
-0.059200298 0.054746658 0.14157362 0.09093972 0.045810957 0.28791457 -0.24822935 -0.045733694
-0.048366696 -0.15650953 -0.2582884 0.024707953 -0.23950292 -0.16173285 -0.15357189 0.13041565
0.07883663 0.22616813 -0.17087784 -0.11882049 -0.01365706 0.054553345 0.014638851 0.14496686
-0.09707877 0.37141484 0.05528123 -0.07764417 0.13708776 0.13780063 0.21197782 -0.20923568
0.19715239 -0.15471657 -0.314469 -0.10168183 0.12650044 0.024777655 -0.059068672 -0.06625118
0.24795626 0.024453212 0.12622128 -0.08460824 -0.3090552 0.027282448 0.15108499 0.02119378
0.09474568 0.047710292 -0.2114921 0.056005586 0.046076056 0.009807505 -0.024583401 0.002165601
-0.09731029 0.13326462 0.011403582 -0.034377646 0.16927776 -0.16844945 0.08165216 0.055743024
0.19359852 -0.06978731 -0.063941374 0.14409399 0.20786284 0.10442779 -0.025321513 0.105575114
-0.07457295 0.0829597 0.24278872 0.011776774 0.024789635 -0.12268651 0.11579843 0.056663737
-0.15594223 0.08186609 -0.054459475 0.06983383 -0.15409642 0.11381093 0.14881796 -0.29006255
-0.056444548 -0.30713087 -0.0449453 0.06284872 0.07965614 -0.07544788 0.08211063 0.17276391
-0.09516339 -0.19490343 0.047490217 0.04305409 -0.16488138 -0.109747924 -0.33125615 0.12009193
-0.14471531 -0.21051466 0.025409294 -0.22824351 -0.1225673 0.28967604 -0.09921463 -0.073326096
-0.21537647 -0.0058920314 0.24871673 0.09342371 0.21335343 0.025322326 -0.029836113 0.29861683
-0.088512674 -0.2614584 -0.12690271 -0.019886099 -0.30680192 -0.10960074 -0.07640743 0.11280478
-0.13277248 0.090405144 -0.02421244 0.13170075 -0.08924052 -0.1175912 0.10623963 -0.082407676
-0.097866885 -0.15302995 0.34760118 -0.030926714 0.0038210563 0.04722333 -0.056599766 -0.18913496
-0.20119855 -0.14370745 0.09667741 -0.20275371 -0.0069631715 0.07215165 0.0442135 0.12537031
0.09778335 0.012110354 0.08926761 0.0041132746 0.17041138 -0.076799706 0.09568481 0.045830943
-0.04199779 -0.1272068 -0.049369726 -0.33001226 0.08733666 -0.2242654 -0.15183061 -0.025567278
0.08213212 0.052122287 0.2403283 -0.17797966 -0.13963659 0.054832265 -0.06465884 -0.07444384
-0.1839292 0.12259791 0.28756517 0.037909247 -0.19237 -0.03219191 -0.026883777 0.18014303
0.2685133 0.043045066 0.07052669 -0.2622445 0.046085265 0.20980474 -0.2595941 0.50394064
00000000: 3ebd 9f3c 5c74 64bb e606 5a3d 5e89 853d
00000010: fc07 10bd 6164 a1bd 4937 073e cd8d 33bd
00000020: 4e76 5ebe 3571 093d 697b 3bbd b34a 0fbd
00000030: a492 15bd 35a3 863d da62 713e 597b 023e
00000040: b231 793e 4c09 30be c261 4cbe e1d1 9b3e
00000050: 0f7a 31be f0e4 f43c aa1e d43d 95e4 12be
00000060: 4655 eabd 72c0 2b3e 4801 a43d ee03 a3bc
00000070: 73dc 2f3c 46b9 843e 9b44 c7bc d937 1b3e
00000080: 6432 42be 8cd2 153d 4cf1 183d e7d0 53bd
00000090: e053 c3bc 80d6 b5be 4f58 a4be 32ed c3bd
000000a0: 07d5 11be d5ee 8e3e bd95 1f3d 11cd 0d3d
000000b0: 1bb2 4fbd b8ae f4bc 8621 c63b 1c42 15be
000000c0: e487 b43d 450b 1d3e d62c a8bb 4900 07be
000000d0: 2c78 73bd baa8 5d3c 23c4 98be aab0 11be
000000e0: 0227 42bc b376 14be 2181 4ebe 57bd 623e
000000f0: b8de a33e abd1 e7bc a24b 603e 8ae4 afbe
00000100: 037c 72bd 083e 603d adf8 103e 9b3e ba3d
00000110: 45a4 3b3d 8a69 933e d62f 7ebe 4153 3bbd
00000120: 281c 46bd 0944 20be 613e 84be 5568 ca3c
00000130: 4140 75be 4c9d 25be f341 1dbe ae8b 053e
00000140: 1975 a13d 9e98 673e 9afa 2ebe 2858 f3bd
00000150: ddc1 5fbc 5473 5f3d cbd7 6f3c 3172 143e
00000160: 3cd1 c6bd 162a be3e 926e 623d e803 9fbd
00000170: bc60 0c3e 9c1b 0d3e b710 593e e141 56be
00000180: 51e2 493e 056e 1ebe 1502 a1be 903e d0bd
00000190: 5589 013e 82fa ca3c fef1 71bd b3ae 87bd
000001a0: 3fe8 7d3e 1a52 c83c 2740 013e 1647 adbd
000001b0: 7c3c 9ebe 717f df3c 06b6 1a3e 949e ad3c
000001c0: 060a c23d de6b 433d 6391 58be 1d66 653d
000001d0: 3fba 3c3d a8af 203c 2163 c9bc c1ec 0d3b
000001e0: 9e4a c7bd 8576 083e 17d6 3a3c 93cf 0cbd
000001f0: 2657 2d3e 037e 2cbe 3f39 a73d cc52 643d
00000200: b13e 463e a6ec 8ebd b2f3 82bd 608d 133e
00000210: ffd9 543e 3dde d53d 106f cfbc c437 d83d
00000220: b4b9 98bd c6e6 a93d 9b9d 783e 5ff3 403c
00000230: a213 cb3c 1143 fbbd ba27 ed3d 3c18 683d
00000240: 52af 1fbe 69a9 a73d e610 5fbd 0a05 8f3d
00000250: 74cb 1dbe b415 e93d bc63 183e 1483 94be
00000260: 6632 67bd 4240 9dbe 9018 38bd d4b6 803d
00000270: c222 a33d 6b84 9abd 9e29 a83d 06e9 303e
00000280: 06e5 c2bd c494 47be 1a85 423d 7c59 303d
00000290: aad6 28be 85c3 e0bd 689a a9be c2f2 f53d
000002a0: 4030 14be 2891 57be 2727 d03c abb8 69be
000002b0: 9104 fbbd 6b50 943e 0a31 cbbd fe2b 96bd
000002c0: a68b 5cbe f111 c1bb 99af 7e3e ee54 bf3d
000002d0: 5279 5a3e c470 cf3c dd6a f4bc 4ee4 983e
000002e0: 2246 b5bd e0dd 85be c9f2 01be 2ce8 a2bc
000002f0: 2415 9dbe 5a76 e0bd 807b 9cbd 3106 e73d
00000300: 82f5 07be 5526 b93d 2b59 c6bc 90dc 063e
00000310: bcc3 b6bd a8d3 f0bd 2a94 d93d 5bc5 a8bd
00000320: 6f6e c8bd e2b3 1cbe c8f8 b13e 055a fdbc
00000330: b06a 7a3b 406d 413d 28d5 67bd 98ac 41be
00000340: fe06 4ebe 0c28 13be cefe c53d ab9e 4fbe
00000350: 512b e4bb 3fc4 933d 3719 353d 1361 003e
00000360: a342 c83d 826a 463c f0d1 b63d a6c8 863b
00000370: 5280 2e3e 2a49 9dbd 66f6 c33d 3ab9 3b3d
00000380: e005 2cbd 8042 02be e937 4abd 5ef7 a8be
00000390: 90dd b23d d4a5 65be 7c79 1bbe 7872 d1bc
000003a0: e334 a83d 2e7e 553d 9f18 763e 4d40 36be
000003b0: e5fc 0ebe cc97 603d db6b 84bd 0376 98bd
000003c0: f057 3cbe 9d14 fb3d be3b 933e ba46 1b3d
000003d0: a4fc 44be aadb 03bd 5e3b dcbc 6a77 383e
000003e0: 937a 893e 0650 303d 4c70 903d e944 86be
000003f0: e7c3 3c3d 0ed7 563e 85e9 84be 4102 013f

_model.1._model.0.bias f4 [128]
0.021148928 0.0040984508 0.02967628 -0.01254511 0.015101734 -0.04761902 0.070084356 -0.02727543
0.04332347 -0.005171384 -0.015733236 0.035015922 0.0048428653 -0.019975297 0.041876633 0.00803674
0.061888177 0.032918137 0.001823249 0.020956555 0.021701707 0.022057224 0.03374324 0.0069876323
0.014245211 0.069028854 -0.0042912434 0.0090493085 0.048743263 0.019760031 0.07046143 -0.0038567903
-0.03744156 0.026057314 0.0036484976 0.014778845 -0.017910007 0.023794733 0.014258029 0.049869824
0.016359689 0.005856531 -0.03576943 0.016120387 -0.0009620743 0.02437347 0.006172836 -0.0020880275
-0.020552875 0.017983627 0.04342406 0.05286557 0.021043787 0.033165127 0.03799044 -0.0040549054
-0.04642176 0.05804988 0.0659393 0.025272615 0.027314052 0.031032555 0.037605412 0.020942073
-0.013247412 0.034325283 0.0076592625 -0.001430092 0.055531617 -0.009004082 -0.007403427 0.007395882
0.028493116 0.038997483 0.026733896 0.010165036 0.014853823 0.021904705 0.040055882 0.028925525
0.046319917 0.050047155 0.046383604 -0.0038991373 0.029383812 0.04381794 0.0065033315 0.0046727005
0.044181753 0.028015299 0.012536136 0.054627918 0.023851309 0.032149713 0.00814831 -0.0014605365
0.029488483 0.033880442 0.033650726 0.0072871894 -0.0014148795 0.0019020116 0.02505484 0.026315937
0.03856163 0.052274793 0.019279193 0.020775221 0.025999382 0.004873071 0.0023931237 0.0066192225
-0.033594023 0.014958611 0.059935812 0.0035360903 -0.033003297 0.008086764 0.011124032 0.067737006
0.0029691702 -0.013283655 0.05051397 0.019794848 0.012454727 -0.023144241 0.003876357 0.014187897
00000000: 8440 ad3c 4c4c 863b ac1b f33c 018a 4dbc
00000010: 436d 773c 290c 43bd 6388 8f3d b970 dfbc
00000020: f373 313d b774 a9bb fde2 80bc db6c 0f3d
00000030: e6b0 9e3b 3ca3 a3bc d586 2b3d 88ac 033c
00000040: 757e 7d3d 2bd5 063d 16fa ee3a 15ad ab3c
00000050: c7c7 b13c 5ab1 b43c 5a36 0a3d 82f8 e43b
00000060: bf64 693c 005f 8d3d 8f9d 8cbb 8d43 143c
00000070: 04a7 473d cadf a13c 154e 903d 34c2 7cbb
00000080: 525c 19bd 2676 d53c a21b 6f3b f822 723c
00000090: 02b8 92bc 2ced c23c 829a 693c 4d44 4c3d
000000a0: c104 863c 25e8 bf3b f782 12bd e70e 843c
000000b0: b733 7cba dfaa c73c 8045 ca3b 4ad7 08bb
000000c0: 815e a8bc 6652 933c 6ddd 313d 9189 583d
000000d0: 0564 ac3c 28d8 073d dd9b 1b3d 03df 84bb
000000e0: be24 3ebd b6c5 6d3d 2f0b 873d 8408 cf3c
000000f0: b8c1 df3c fc37 fe3c 2208 1a3d b68e ab3c
00000100: ac0b 59bc ab98 0c3d 8dfa fa3b ed71 bbba
00000110: 1f75 633d db85 13bc 7298 f2bb 2859 f23b
00000120: 656a e93c d3bb 1f3d 0b01 db3c 408b 263c
00000130: 735d 733c 7f71 b33c a311 243d 39f5 ec3c
00000140: f4b9 3d3d 3ffe 4c3d bcfc 3d3d ab88 7fbb
00000150: 52b6 f03c 717a 333d e619 d53b 741d 993b
00000160: edf7 343d 5780 e53c 5e64 4d3c 86c1 5f3d
00000170: d263 c33c 6baf 033d 7d80 053c 796f bfba
00000180: d591 f13c 38c6 0a3d 58d5 093d 60c9 ee3b
00000190: 7a73 b9ba eb4c f93a cf3f cd3c 8594 d73c
000001a0: cdf2 1d3d 181e 563d 66ef 9d3c cc30 aa3c
000001b0: a8fc d43c 48ae 9f3b f4d5 1c3b 10e6 d83b
000001c0: e399 09bd f614 753c 417f 753d c0bd 673b
000001d0: 772e 07bd 597e 043c 9241 363c b3b9 8a3d
000001e0: 6996 423b b0a3 59bc bde7 4e3d ce28 a23c
000001f0: e90e 4c3c fe98 bdbc 7b0a 7e3b 5a74 683c

_model.2._model.0.weight f4 [51, 128]
0.09512331 0.004716801 -0.050898734 0.016193809 0.020874783 0.040065195 -0.023224514 0.043209136
-0.011862336 -0.021284048 -0.036707066 -0.02590843 -0.032510053 0.014982255 0.028982073 -0.0125512015
-0.0034241725 -0.008535392 -0.07782535 -0.10549683 -0.020342447 0.013853257 0.009216538 0.025431085
-0.010946222 -0.027216345 -0.015036235 -0.07253775 0.0124178175 0.0029110333 -0.075181454 -0.04437312
0.02830334 0.030254878 -0.046658244 0.000696185 -0.030660264 0.007170858 0.031486575 -0.03536087
-0.007515718 -0.0018783488 0.037412193 0.029970085 -0.01673092 0.05044321 0.03273645 -0.010554808
0.07261931 -0.046309475 -0.025298059 -0.0030502295 -0.007999702 -0.03322922 0.002650616 0.068061054
-0.039662696 0.01981291 -0.04499857 -0.008944286 0.0005835228 0.028511588 0.019921046 0.03298483
-0.0010277206 -0.07298619 0.024291793 -0.055159878 0.0049113506 0.01832868 -0.071471475 -0.040912397
-0.044979256 -0.0032601738 0.055412974 -0.0048287073 0.013638517 0.07017486 0.03870694 -0.009147868
-0.034636766 -0.010684404 -0.026135381 0.06273861 0.0048157475 0.0031971636 -0.053560395 0.043320313
-0.0019779042 -0.0031071298 -0.057206254 -0.038025647 -0.067334525 0.00963586 -0.02193652 -0.040845912
-0.0681245 -0.012568153 -0.031431384 -0.02135721 -0.07568261 0.15866774 -0.0031586546 0.035921585
-0.011293884 0.025008965 -0.016588086 -0.015359758 0.047535505 0.013453958 -0.057297133 0.05666562
-0.0023661116 0.04681801 0.025326042 -0.014438805 0.025340103 -0.040270425 -0.03718188 0.029953321
0.00959266 0.17195705 0.03994786 0.017290529 -0.0001568588 0.0009152227 0.02625323 -0.019215358
0.004937666 0.0328797 0.00983016 -0.013372203 0.003932839 -0.059216335 0.004261329 0.013787811
0.0019655935 -0.0015657822 0.007503625 0.014625581 0.03995787 -0.01641293 0.013007519 -0.011953973
0.0032370118 -0.013279381 -0.002999661 0.00017326667 -0.011356618 0.018450554 -0.025986305 0.03454794
0.0040220562 0.008408822 -0.00068609207 0.0036161386 0.019636001 0.006823611 0.017351877 0.029592475
-0.05259056 -0.0015408293 0.023105904 0.009796608 -0.0061092176 0.00012168715 -0.00045245356 0.017168611
-0.0014215662 0.009177222 -0.020848645 0.023873124 0.008496618 -0.0025998312 -0.06272573 0.010509689
0.011139574 -0.0036288418 -0.001955377 -0.028566327 0.059904102 -0.05049189 0.009146952 0.033374447
0.031126961 0.019335402 -0.010345194 0.016395666 0.03987438 0.025481762 0.011070997 -0.010519369
-0.0015640951 0.04293133 -0.019737883 0.012763166 -0.01239244 -0.025403699 0.00088425254 -0.007563732
0.011429634 -0.014138638 -0.022816066 -0.0034279528 -0.0021972512 -0.023817532 3.3411496e-05 0.004582857
-0.011343743 0.012049456 -0.0010745852 0.02745141 0.011309975 -0.013143078 0.044213932 -0.010398798
0.010526509 0.0059371963 -0.004307099 0.014091394 0.039032042 0.020977436 -0.030222015 -0.014411294
-0.008701077 -0.0049967873 -0.0023115114 0.0035944586 -0.03527859 -0.03945318 0.012917879 -0.018469255
0.0040729423 0.001747678 -0.0057269004 0.012397439 -0.009937635 -0.0076210108 0.028103875 0.025056154
0.0087674465 0.010357639 -0.020832583 0.004452615 0.031004008 0.008605056 -0.086642474 0.017077837
0.030177066 -0.026099076 0.005341412 -0.0046763346 0.024714492 0.010678265 0.055563845 0.013537934
00000000: 03d0 c23d 658f 9a3b 317b 50bd e1a8 843c
00000010: 9801 ab3c 671b 243d 5641 bebc 10fc 303d
00000020: 3e5a 42bc e25b aebc 265a 16bd ea3d d4bc
00000030: 4329 05bd 2278 753c d06b ed3c 8ea3 4dbc
00000040: 1568 60bb 07d8 0bbc e662 9fbd b90e d8bd
00000050: 34a5 a6bc c5f8 623c f600 173c da54 d03c
00000060: c857 33bc d0f4 debc 8a5a 76bc ac8e 94bd
00000070: 1a74 4b3c 09c7 3e3b bcf8 99bd 97c0 35bd
00000080: 68dc e73c 14d9 f73c b71c 3fbd 2f80 363a
00000090: 3c2b fbbc 84f9 ea3b 11f8 003d 8fd6 10bd
000000a0: 6a46 f6bb ed32 f6ba 873d 193d d383 f53c
000000b0: 480f 89bc 8a9d 4e3d a816 063d 13ee 2cbc
000000c0: 6fb9 943d 01af 3dbd e03d cfbc 5ce6 47bb
000000d0: 2f11 03bc 5d1b 08bd f5b5 2d3b 9863 8b3d
000000e0: 5a75 22bd af4e a23c 6c50 38bd 0e8b 12bc
000000f0: 8df7 183a 2291 e93c 7631 a33c 1a1b 073d
00000100: 95b4 86ba c979 95bd 95ff c63c 53ef 61bd
00000110: 65ef a03b 0726 963c a35f 92bd c293 27bd
00000120: 2b3c 38bd a4a8 55bb b7f8 623d 223a 9ebb
00000130: 1674 5f3c d6b7 8f3d 2b8b 1e3d f0e0 15bc
00000140: 48df 0dbd a30d 2fbc de19 d6bc 1a7d 803d
00000150: 6bcd 9d3b 8187 513b 2562 5bbd a470 313d
00000160: ba9f 01bb fda0 4bbb 1b51 6abd c8c0 1bbd
00000170: afe6 89bd badf 1d3c 37b4 b3bc 0b4e 27bd
00000180: dc84 8bbd a8ea 4dbc 32be 00bd 51f5 aebc
00000190: 7cff 9abd cc79 223e 6e01 4fbb 8322 133d
000001a0: fc09 39bc 9adf cc3c bde3 87bc 7fa7 7bbc
000001b0: 97b4 423d fd6d 5c3c 66b0 6abd 361a 683d
000001c0: c410 1bbb 3ec4 3f3d 8f78 cf3c bd90 6cbc
000001d0: 0c96 cf3c 9af2 24bd 074c 18bd ab60 f53c
000001e0: 882a 1d3c 8215 303e 5ea0 233d dea4 8d3c
000001f0: 777a 24b9 8eeb 6f3a 0411 d73c 8769 9dbc
00000200: 25cc a13b ddac 063d ae0e 213c 1617 5bbc
00000210: 0bdf 803b d48c 72bd 9ea2 8b3b 45e6 613c
00000220: 30d1 003b ef3a cdba f8e0 f53b 22a0 6f3c
00000230: ddaa 233d 6974 86bc 7d1d 553c 99da 43bc
00000240: 0c24 543b c391 59bc f695 44bb ebae 3539
00000250: 1c11 3abc 9e25 973c 3be1 d4bc 2482 0d3d
00000260: 74cb 833b 28c5 093c dcda 33ba bdfc 6c3b
00000270: aedb a03c 9998 df3b 8625 8e3c eb6b f23c
00000280: 3369 57bd a7f5 c9ba 9848 bd3c f481 203c
00000290: d52f c8bb 4b32 ff38 4a37 edb9 30a5 8c3c
000002a0: d953 baba 0f5c 163c c7ca aabc 9291 c33c
000002b0: 6635 0b3c ee61 2abb 5976 80bd d530 2c3c
000002c0: c382 363c ddd1 6dbb c825 00bb ee03 eabc
000002d0: 015e 753d 96d0 4ebd 19dd 153c a5b3 083d
000002e0: f8fd fe3c 4765 9e3c e37e 29bc 3450 863c
000002f0: 5153 233d 21bf d03c 2163 353c 6e59 2cbc
00000300: 5302 cdba c3d8 2f3d 57b1 a1bc 991c 513c
00000310: a909 4bbc 6b1b d0bc 2fcd 673a 2fd9 f7bb
00000320: 5c43 3b3c bfa5 67bc c2e8 babc 81a7 60bb
00000330: c2ff 0fbb fc1c c3bc 5223 0c38 ca2b 963b
00000340: 1bdb 39bc 156b 453c 19d9 8cba c8e1 e03c
00000350: 794d 393c 1156 57bc ab19 353d b85f 2abc
00000360: 6177 2c3c d08c c23b 9122 8dbb 97df 663c
00000370: 10e0 1f3d dfd8 ab3c 2994 f7bc 591d 6cbc
00000380: f68e 0ebc 17bc a3bb ba7c 17bb 0291 6b3b
00000390: 4880 10bd a899 21bd 83a5 533c d64c 97bc
000003a0: 5176 853b 5812 e53a b9a8 bbbb a11e 4b3c
000003b0: 76d1 22bc acb9 f9bb 193a e63c 9042 cd3c
000003c0: 56a5 0f3c 16b3 293c 18a9 aabc 3ee7 913b
000003d0: 1efc fd3c 39fc 0c3c 9c71 b1bd d2e6 8b3c
000003e0: e535 f73c bbcd d5bc 0307 af3b f03b 99bb
000003f0: 0c76 ca3c e4f3 2e3c ea96 633d 36ce 5d3c

_model.2._model.0.bias f4 [51]
0.0013577706 0.024361635 0.020672478 0.011751495 0.0048276605 -0.00843455 -0.006172055 0.014401075
-0.005531151 0.0046348865 -0.033585224 0.014228119 0.068706304 -0.013139639 0.012279597 -0.0022793538
-0.0015392604 0.00833062 -0.007584505 -0.022799982 -0.0029664803 -0.018398797 -0.015027312 0.011840713
-0.009744716 -0.018614652 0.0035760526 0.0044986084 -0.0059403847 0.013486016 0.019937614 -0.0007833401
0.0072290897 0.008621109 0.024092495 -0.013159056 -0.0047598328 -0.013844614 -0.04197916 -0.014414382
-0.06736486 0.020768043 -0.010883034 -0.0141037805 0.002758045 -0.0022976755 0.01665334 0.030491915
-0.01646728 0.06336856 -0.015846668
00000000: 39f7 b13a 0d92 c73c 5459 a93c 5889 403c
00000010: 5a31 9e3b 1131 0abc f33e cabb 7df2 6b3c
00000020: a83e b5bb 3fe0 973b a990 09bd 0e1d 693c
00000030: e4b5 8c3d a447 57bc 5d30 493c 3661 15bb
00000040: 02c1 c9ba 277d 083c 7087 f8bb 07c7 babc
00000050: 4869 42bb 13b9 96bc 1d35 76bc 8dff 413c
00000060: 4da8 1fbc c17d 98bc 355c 6a3b 1069 933b
00000070: 8fa7 c2bb 73f4 5c3c 3554 a33c 1059 4dba
00000080: 00e2 ec3b 8d3f 0d3c a05d c53c 1599 57bc
00000090: 5ff8 9bbb 85d4 62bc 57f2 2bbd 4d2a 6cbc
000000a0: 96f6 89bd be21 aa3c c14e 32bc 8b13 67bc
000000b0: 51c0 343b 9994 16bb 966c 883c 2eca f93c
000000c0: 64e6 86bc 60c7 813d dfd0 81bc
