data/etc/pretrained_model/fencing/task_agnostic_policy_body_encoder_exp9_1400.pt (torch_old, 181879 bytes, 6 tensors)

_model.0._model.0.weight f4 [128, 279]
00000000: 4005 e4bb 75e0 0fbd f1f2 a8bd c0f8 813e
00000010: ad94 afbd 2e64 74bd e17f 183d 927b 2f3d
00000020: 0416 d03c b761 3abc fb1a bf3b 1490 5b3d
00000030: 3465 2dbd 6980 0f3e 1b91 c9bd 3baa 53be
00000040: 6cb4 553e b125 58bd da07 6b3e af19 8abc
00000050: 24f0 8ebc 6676 be3c 28c9 463d 8373 06bd
00000060: 6161 b9bb 6c7d 6abc 58ac 6a3d 6e78 4dbd
00000070: 0867 4fbd 01d1 c03c 3606 fabd 2aac c23d
00000080: 0185 79bb 393c 7fbd 65c0 853c ecb0 9dbc
00000090: dc42 87bd dcb5 243d ce70 edbc 4486 793e
000000a0: 650a 763e 0f37 0ebe 20e8 fa3d 9af5 96be
000000b0: 496b 0a3f 0aa2 e2bd 3da2 cebd 313a 1d3e
000000c0: d335 903d f6b7 18bd 471a 023c dfc4 c8ba
000000d0: aa38 83bd 027e 183d 019e 3dbd ac53 29be
000000e0: ed2b d5bc 495e 0ebe f2ea 8ebd 5e71 15be
000000f0: 6372 85bc 61d8 3d3d d0e3 7fbd 9848 bf3d
00000100: 76e2 25bd 3a5c eabd 1b26 09bd 2370 523d
00000110: 7f01 06bd 751c 24bd df9a 81be c209 46bd
00000120: 5bd3 803c 4d8e 86bd 89e0 3fbd 0c61 903a
00000130: 7570 ccbb a364 263e 688d eabd 3763 4dbe
00000140: d6cb 16bc 1ade 7cbd 2d0c 1fbe ae39 3ebd
00000150: fcfb b33b 4c53 a1bd a399 c8bc 854b 6d3c
00000160: 093d bcbc f84d 35bd 12d9 593d 5a0f abbd
00000170: eb82 c9bd bd48 be3d f6ca 2a3e 2f6f 8bbd
00000180: 5619 52bc d1ec 73bd f86a d73b b63e e7bc
00000190: bc35 21bc 87fd 64bb 9f1c 243d 8b39 453c
000001a0: 5e5b 21be 55d8 d5bd 235d 2c3d 2456 293d
000001b0: de8d 5ebd be1a cc3d 8c1a b23d efcc acbd
000001c0: 3e93 eebd 06e7 6d3d f50a 2b3d 0962 c0bd
000001d0: fe58 8a3d 8f58 0e3d 2daa be3a 2e6b 1dbd
000001e0: 1797 3f3d 5a57 9bbb 355f e93d c2fa 1a3c
000001f0: b40a 9dbd 0970 29bb 0ecc 5fbd e5de 95bd
00000200: 6a07 58bd febe 163d c70e a1bd 5277 90bd
00000210: 2930 0a3e 9964 5cbd 04b0 b6bd ec6a 8a3d
00000220: f352 1b3d ccd4 5abd f513 0c3d f8c3 9a3c
00000230: 8a38 6cbd cf5d 1cbc f260 00bd 69dd 8bbd
00000240: f33f b1bd 4994 81bc 35c0 213d 503a 96bd
00000250: f882 6f3d dfd8 813d 74e6 9a3c 9282 003d
00000260: 053c cebb 04ef 293d 61fc c1bb 0d7c f1bc
00000270: 3c08 4a3d 5838 c03d f3bd c9bc b484 fcbc
00000280: 805f 093d 5825 97bc d110 8dbc 2804 cf3c
00000290: a402 e5bb 1968 033e a3ed 11bd 659c 273d
000002a0: 8d98 ea3c 74f8 fc3a 9623 b4bd d5be c3bd
000002b0: 6243 12bd 59c8 a83d 09c5 0c3a c07c 33bd
000002c0: e8a8 92bc fc7a d7bd 65a2 be3a 8b92 0dbb
000002d0: f881 67bc e82f 16bc 2132 cdbb 6f67 d63d
000002e0: db27 c8bc b9c2 1f3c 3083 b23d 86dc 1e3d
000002f0: af34 8dbc 1311 9abd 4756 e2bd 58d0 74bd
00000300: 6a8b 193d a8dd 493d 83ca af3b 1797 5f3e
00000310: 5700 f53c 14a3 59bd 7aad 3bbd f702 18bd
00000320: d3aa 923c fc84 d83d 6bc2 fabc 3918 cabd
00000330: cc3c 0e3d 70af 70bd bebe 2abd f095 4cbd
00000340: 880a df3b 9c70 d1bd b3ae 31bd 1c52 66bd
00000350: ecce b3bc de27 90bc 7aac 063d e7df 09bd
00000360: 570f 483d 436f 60bd b93d 413c ffa8 513d
00000370: 022f 32bd 662c 663c e776 c5bc 75d8 4c3e
00000380: e2ff 3c3d 6323 213e e54f d63c 949b 34bc
00000390: 8325 e83d 200b b8bd edc9 f7b9 03e3 263c
000003a0: 4651 1fbc 00cb a53c 113e 8c3c c9e6 2ebe
000003b0: ad47 883d 5965 cdbc dfeb 8bbd 697f aebd
000003c0: 7231 913d e5de e43d f9ab c9bd 219c e8bc
000003d0: 03ac 1ebd 14c3 343b 65ae 403c 979a 85bc
000003e0: 357b 51bd a65b b73d 14b2 203d 3407 d8bc
000003f0: 17e1 fdbd bd9a 353d f703 8dbb ae39 8dbd
-0.0069586337 -0.03512617 -0.082494624 0.25385094 -0.085732795 -0.05966585 0.03723133 0.042842455
0.025401123 -0.011375836 0.0058320737 0.0536042 -0.042332843 0.14013828 -0.0984213 -0.20670407
0.20869607 -0.05277032 0.22952214 -0.01685795 -0.017448492 0.023249816 0.04853168 -0.032825004
-0.0056573604 -0.0143121295 0.057293266 -0.05016368 -0.050635368 0.02353716 -0.12208216 0.09505494
-0.0038073661 -0.062313292 0.016327092 -0.019249402 -0.06604549 0.040212497 -0.028984454 0.24367625
0.24027403 -0.1388819 0.122513056 -0.29484254 0.54069954 -0.11066063 -0.10089538 0.1535423
0.07041516 -0.037284814 0.007940835 -0.0015317461 -0.06407292 0.037229545 -0.046293262 -0.16535825
-0.026021922 -0.13903154 -0.06978406 -0.14594027 -0.016289895 0.046348933 -0.06247312 0.09340018
-0.040499173 -0.11443372 -0.033483606 0.051376473 -0.03271627 -0.0400662 -0.2531347 -0.04834915
0.015725782 -0.065701105 -0.046844993 0.001101525 -0.006238992 0.16249327 -0.11452752 -0.20057379
-0.009203872 -0.06173525 -0.15531988 -0.046441726 0.0054926854 -0.07877216 -0.024487322 0.014483337
-0.022978323 -0.04426381 0.05318553 -0.083525375 -0.09839424 0.092912175 0.16678986 -0.06808316
-0.012823423 -0.059552018 0.006574031 -0.028228145 -0.009839471 -0.0034941153 0.040066358 0.012037645
-0.1575751 -0.10441653 0.04208101 0.041341916 -0.054334514 0.09966038 0.0869647 -0.084375255
-0.11649178 0.05808165 0.041758496 -0.09393699 0.06755255 0.034752425 0.0014546566 -0.038432293
0.04677495 -0.0047406377 0.113951124 0.009459199 -0.07668057 -0.0025854132 -0.05463796 -0.073179044
-0.052741446 0.036803238 -0.07864147 -0.070540085 0.13494934 -0.053806875 -0.08920291 0.06758675
0.037920903 -0.053425595 0.03419872 0.018892273 -0.057671107 -0.00954385 -0.031342454 -0.0682934
-0.086547755 -0.015817778 0.039489944 -0.07335341 0.05847451 0.06340193 0.018908717 0.03137452
-0.006293776 0.04148771 -0.0059199785 -0.029478097 0.04932426 0.09385747 -0.024626708 -0.030824997
0.03353834 -0.018450424 -0.017219933 0.025270537 -0.00698884 0.12832679 -0.03562702 0.040920634
0.028637195 0.0019300119 -0.0879585 -0.09557883 -0.035708793 0.08241338 0.00053699367 -0.043820143
-0.017902806 -0.10521504 0.0014544247 -0.002160224 -0.014130108 -0.009166695 -0.0062620793 0.10468947
-0.024433067 0.009751015 0.08716428 0.038784526 -0.017237036 -0.07522788 -0.11051612 -0.059769005
0.03748647 0.049283653 0.0053647174 0.2183498 0.029907389 -0.05313404 -0.045819737 -0.037112202
0.017903721 0.1057224 -0.030610284 -0.09867901 0.03472595 -0.05876106 -0.041685812 -0.04994768
0.0068066753 -0.10226557 -0.043379497 -0.05623065 -0.021949254 -0.017597135 0.03287933 -0.033660796
0.048842754 -0.054793607 0.011794501 0.051186558 -0.04350186 0.014048671 -0.024104549 0.20004447
0.046142466 0.15736155 0.026161144 -0.011023421 0.1133528 -0.08986497 -0.00047261958 0.01018596
-0.009723967 0.0202384 0.01711944 -0.17080225 0.06654296 -0.02507274 -0.06832098 -0.08520395
0.07089509 0.11175326 -0.09847254 -0.02839476 -0.038738262 0.0027582096 0.011760329 -0.016309066
-0.05114289 0.089530274 0.03923233 -0.026370622 -0.12396448 0.044337023 -0.004303451 -0.06895767

_model.0._model.0.bias f4 [128]
00000000: b5b6 4e3b a242 9f3c 96d2 423c 26fa a93c
00000010: 8349 9d3c 2bbb 143d edac 48bb add8 ec3b
00000020: dad9 933c 55c3 073d bd5c 0c3d b932 e93c
00000030: 1733 723c 3973 953c 1298 023b 5d28 bd3c
00000040: 8ca0 c93c 2d74 9a3c c3fd af3c 635a babb
00000050: 35ca 033d 8b09 913c 53c3 883c dca7 55bc
00000060: 45c5 8c3c d0e7 1c3c 10b3 d83a c0fd e03b
00000070: 99f3 473c d178 c03c 483e a93c 9d9c dd3c
00000080: af77 aa3c 0d94 d33c 0c72 e63c 7975 cc3c
00000090: f89a 99bb 83dc ee3c 08e6 813c fb08 b23c
000000a0: 623b 9abb 16a7 b93c 72a8 b93c efdd c53b
000000b0: e81d 0abc 5d2c 403c c694 d13c db60 8bbc
000000c0: 2ae6 523c b7d1 c53c bd22 6bbb 7d9e 0c3d
000000d0: 9abe 0fbc 750f bf3c 05e3 043d 10f3 abba
000000e0: 1c6b 8d3c e025 023c ecc4 743c e515 f53c
000000f0: bef0 fb3c 6da0 ac3b 73c1 223c eccb a33c
00000100: 598a 0f3c 7d96 2c3c 1a18 983c d98c e93c
00000110: b540 c13c 3d86 0d3d 5c3a 603c 660f b73b
00000120: 97ec c13c e1ae 14bb 9ae6 8b3c 8649 9c3c
00000130: 5bb2 d73b 1ae8 823c da60 763c 4890 043c
00000140: 3f73 093c 16d8 d63b 2ab7 ef3c 7155 dbbb
00000150: 4349 ea3b bacc 0b3d d49d 3c3c d52d c33c
00000160: 74f2 a43c 54f2 823c 187d 573c 74ac b63c
00000170: 97af 853c 3fe6 9c3c bf19 553b 9159 883b
00000180: 9fa2 e73c 09f7 8fbb 8921 a43c ad96 ac3c
00000190: cba5 4c3c 5df8 1d3d 841b c43c babc e53c
000001a0: 9ceb ab3c caca a03c 4b13 cf3c 41f3 743c
000001b0: 024c 963c 4388 0e3c 9cd5 48bb b373 943b
000001c0: 902e 493c a5b5 bb3c 5071 ca3c 786f da3c
000001d0: 4c27 9e3c 2e33 b13b 6a37 28bc df0f f03c
000001e0: 8c9d 003d e80e 983c 76a5 8b3b 6349 ff3c
000001f0: 33a5 873c a249 0e3b a705 013c cb2e 7abb
0.0031542007 0.019440953 0.011891028 0.020749163 0.019200092 0.03631131 -0.003062065 0.007227978
0.018048216 0.033145268 0.03426813 0.02846657 0.014782689 0.018243419 0.0019927067 0.023090536
0.024612688 0.018854225 0.021483308 -0.0056870445 0.03217526 0.017704746 0.0166947 -0.013040509
0.01718391 0.009576753 0.0016532857 0.006866187 0.012204074 0.02349511 0.02065958 0.027052218
0.020809023 0.025827432 0.028130554 0.02495836 -0.004687663 0.029157883 0.015856758 0.021732798
-0.004706786 0.02266268 0.022663329 0.0060384194 -0.008429982 0.011729327 0.025583636 -0.017013958
0.012872258 0.024147851 -0.003587886 0.034330834 -0.00877347 0.0233228 0.032443065 -0.0013118703
0.017262988 0.0079436 0.014939528 0.029917667 0.030754443 0.0052681477 0.009933817 0.019994698
0.008761012 0.010533926 0.01856618 0.028509544 0.023590425 0.034551848 0.013685789 0.0055865524
0.023672385 -0.0022687244 0.017077733 0.019078027 0.006582541 0.015979815 0.01503774 0.00809104
0.008389293 0.006556521 0.029262144 -0.006693535 0.0071498468 0.03413079 0.0115122385 0.023825565
0.020135142 0.015984692 0.013152383 0.022299029 0.01631908 0.019152759 0.0032516567 0.004161068
0.028275786 -0.0043934626 0.020035522 0.021067942 0.0124907 0.038566936 0.023938902 0.028044093
0.02098637 0.019627947 0.025277754 0.014950574 0.01834679 0.0086994795 -0.00306449 0.004530394
0.012279168 0.022913763 0.024712235 0.02666448 0.019305848 0.0054077124 -0.010267118 0.029304443
0.03140025 0.018561795 0.004261668 0.031162923 0.016558265 0.002171137 0.007874883 -0.0038174863

_model.1._model.0.weight f4 [64, 128]
00000000: 936f 0b3e ec4d 14bd 25c3 203e 9fd7 f03d
00000010: 6970 cfbd fc79 043e 9b3a b7bd 80c0 083d
00000020: 4f55 b83d 4a54 a0bd 6cec bc3d 8b47 6b3d
00000030: 814d dd3c 1b42 0dbe 605c 2ebe 2a5c ce3d
00000040: 6189 e4bd 7dc5 1bbe ae7e 80be ceec 643d
00000050: 9020 623e dc8c 453b 910e 3a3d b6e5 dfbc
00000060: e1ee f33b d972 bebd 675f 1d3e d474 99bc
00000070: 600c 223e bfa6 1abd 7ffb 0d3e b596 4b3e
00000080: 69c4 0f3d 6182 943d be2e 2fbd 829a c23d
00000090: 5ea3 d03c de4d 503e 3829 3ebe 4be2 0f3c
000000a0: 710c 023e 573f 4ebd 9320 d8bd cee8 503d
000000b0: d09c 32bd a261 ccbb 18b2 c83d f0da c2bb
000000c0: 81e0 893c ea2f 61bd bc61 7f3d 7cf9 abbd
000000d0: a1a6 033e dd5d 383a d11d 6dbd bdd5 23bd
000000e0: 5794 8c3d 31fe 9dbd 0fc5 11be 88bd 1f3e
000000f0: eb2f 84bc 9268 c4ba b467 55bd dc96 2a3d
00000100: 0944 c2bd fcf5 a43d 2d1c 8cbc 3fd8 863c
00000110: 0a5c 173c 99a8 9b3c 17f4 38bd 372b d93d
00000120: ed3e 21bc cd68 a03d 50eb 3bbe 31ab d93d
00000130: 876e 2a3d 481c 8f3c 957d bf3c 6bb6 a0bd
00000140: 362d 1c3c 2482 803c 272e 18be 5fe2 9b3d
00000150: a935 07bc 7565 6bbd 3e89 843a 6f57 dcbd
00000160: eedc 6a3c d026 e9bd f178 84bd 2e15 cdbc
00000170: 31e9 5bbd 9767 5ebd 6481 0a3e d65b bb3d
00000180: d3a7 58be 5559 b2bd c464 78bd 76f8 eabb
00000190: c007 22bd 3b85 933d e7ed 283e fa03 fdbd
000001a0: 5937 b2bd eb46 ff3c 2775 87bd 57c0 503b
000001b0: 4e32 013e 3083 62bd a214 443d 48aa 20bd
000001c0: 9928 243e b979 f13d 83af f83d ca69 a13d
000001d0: 0fa3 cabc 2c2a e4bd 6fcd 903d b2eb 463e
000001e0: e5c0 813d de24 613d ff0f 353e 8a5f 063d
000001f0: 24a0 1ebe 66cb 85bd 3a75 533e 7ee9 e03d
00000200: 92b9 9ebd 94b3 89bb c3e1 a4bb e21f f13c
00000210: 6f3f cf3c 301c 91bc 8f95 373c 5460 b83b
00000220: 85ae 74bd 061b 243d 9f1d 593e 0ce5 093e
00000230: 4899 0c3e d4af e83c ff04 6d3d 2427 adbd
00000240: cb0d 0bbd 567f 25bc 8a7f 2d3d 60a8 ca3d
00000250: 0ecb 9c3d 8a10 cb3d 26b0 093d 83a8 65be
00000260: b962 18bd ebd5 34bd 7aeb d9bc 346c 05bd
00000270: 0d3b 63bd cfc0 11be 7377 bdbc 1f44 d23d
00000280: 3652 3abe c961 34be bbeb 66bd 9e8f 86bd
00000290: d141 283e bfcf e23d c566 56bd 7c16 d03c
000002a0: 5866 2a3d 2abf b73d bdff 10be f8fb 5cbd
000002b0: fa7f e2bd 9227 0f3c 3adb a13e 5f2e 01be
000002c0: fbf9 c43a bf5a 6fbd 43fd 00bd 7961 29bc
000002d0: 80b3 853c c338 2fbd 5915 9bbd 045e 10be
000002e0: fb4d 913d dd05 c13d f9f9 c4bc ab54 38bd
000002f0: 1066 813d 4854 b9bc 7bf7 0f3e 48df 463c
00000300: b5a2 25be b148 cdbc 872a a23d b12f b53d
00000310: 7ea5 c93d d16c 3f3b 23ea bdbd 003e 003e
00000320: 8398 973d d7ff 883d 7841 ac3d 2b1d 823d
00000330: dc17 f6bc edec 74bd 56b6 6fbd b7f9 913d
00000340: 09f3 873d a477 bf3c 6f4b b1bb 6ed0 eabc
00000350: f0ba 083d f758 6e3c be39 5bbe d28e 6fbd
00000360: e828 7bbc 2213 80ba 123c 533d 3d05 b93d
00000370: 4f61 37be 16b0 153e 8d22 1a3d dbb2 073e
00000380: 767e 633d d5a0 32be e517 38be d2a5 d13d
00000390: e162 07bd 73d8 f8bc f2b7 c0bd 9e21 213e
000003a0: 66a3 3dbd a356 30bb ce5b e1bd c19b afbd
000003b0: e6e4 9dbd 6b3b 533d 71cf fa3d 9772 6fbd
000003c0: 669e 24be 65e9 213d cd3f 4e3d 52bd 65be
000003d0: 8d91 1cbd bdda b4bd 8721 06be 0a4f 9bbc
000003e0: c8d1 2a3d e71a 193d 632b 6cbd e9b9 abbc
000003f0: e285 ac3d a4e8 68bd ca21 81bd d33a 2d3d
0.13616781 -0.036207125 0.15699442 0.117598765 -0.101288624 0.12937158 -0.08946725 0.033386707
0.09000646 -0.07828577 0.092247814 0.057441276 0.027014496 -0.13794748 -0.17027426 0.10076173
-0.111590154 -0.15212055 -0.2509665 0.055889897 0.22082734 0.0030143773 0.045424048 -0.027331214
0.007444248 -0.09299249 0.15368424 -0.018732466 0.15825033 -0.037756678 0.1386547 0.19881709
0.03509942 0.0725143 -0.042769186 0.09502126 0.025468525 0.20342204 -0.18570411 0.00878198
0.12700059 -0.050353374 -0.10553088 0.05100327 -0.04360658 -0.0062372247 0.09799594 -0.0059465095
0.016830685 -0.054977335 0.062349066 -0.08397195 0.12856533 0.00070330297 -0.057889763 -0.03999876
0.06864231 -0.07714499 -0.14235328 0.15599644 -0.01613613 -0.0014984778 -0.052100852 0.041647777
-0.09485633 0.0805473 -0.017103279 0.016460536 0.009238252 0.019001292 -0.045154657 0.10603946
-0.009841663 0.07832489 -0.18351483 0.10628355 0.041609313 0.01746954 0.023375312 -0.078472935
0.0095322635 0.015687056 -0.14861356 0.07611536 -0.00825254 -0.057469804 0.0010111702 -0.10758864
0.0143349 -0.11384356 -0.0646838 -0.025034513 -0.053689186 -0.05429801 0.13525921 0.09148376
-0.2115777 -0.08708445 -0.060642973 -0.007170732 -0.039558172 0.07203146 0.16497003 -0.12354274
-0.08701963 0.031161746 -0.06614142 0.0031852925 0.12616846 -0.05530089 0.04787124 -0.039224893
0.16031112 0.11790795 0.12142851 0.07881506 -0.024735956 -0.11140856 0.07070433 0.19425848
0.0633562 0.0549668 0.17681883 0.032805957 -0.15490776 -0.06532936 0.20650187 0.10982035
-0.077502385 -0.0042023156 -0.0050317957 0.029434148 0.025298802 -0.017713636 0.011205091 0.0056267176
-0.059736747 0.040064834 0.21202706 0.1346628 0.13730347 0.028404154 0.057866093 -0.08454731
-0.0339487 -0.01010116 0.04235796 0.09895396 0.07655917 0.09915264 0.033615254 -0.22427563
-0.037203524 -0.04414932 -0.026601542 -0.032573894 -0.055476237 -0.14233707 -0.023128247 0.10266899
-0.18195423 -0.17615427 -0.056377154 -0.065703616 0.16431357 0.11074781 -0.052344102 0.025401346
0.04160151 0.089720085 -0.14160056 -0.053951234 -0.11059566 0.008737462 0.3161257 -0.12615345
0.0015028113 -0.05843615 -0.03149153 -0.010338181 0.016320944 -0.04277874 -0.07572431 -0.14098364
0.07094952 0.094249465 -0.024044978 -0.04500262 0.06318295 -0.022623196 0.1405925 0.012138195
-0.16175349 -0.025059076 0.07918268 0.08846987 0.09846018 0.0029209147 -0.09273174 0.12523651
0.07402136 0.066894226 0.08410925 0.063532196 -0.030040674 -0.059796263 -0.0585235 0.071277075
0.06638152 0.023372479 -0.0054106037 -0.02866384 0.033381402 0.014547578 -0.21408746 -0.058485813
-0.015329577 -0.0009771327 0.05157096 0.09034202 -0.17908214 0.14617953 0.037630606 0.13251822
0.055540524 -0.17444165 -0.17977865 0.10236706 -0.033053283 -0.030376649 -0.09410085 0.1573548
-0.046298407 -0.0026907108 -0.110038385 -0.085746296 -0.077096745 0.051570337 0.122465976 -0.05845889
-0.16076049 0.039529223 0.050353814 -0.22435501 -0.038224746 -0.088307835 -0.13098727 -0.018958587
0.04170397 0.03737917 -0.057658564 -0.020962672 0.084239736 -0.05686249 -0.06305273 0.042292427

_model.1._model.0.bias f4 [64]
00000000: 98aa 893c 9d1d e83b ae1e dfbb a646 b83c
00000010: 8ef4 d63b 19e2 2f3c 27dd c43b 489e 1e3b
00000020: 9353 893c a83c e13c 8f01 b93c a3c2 833c
00000030: c84b 273c db8c d23c 4e07 753c e519 e13c
00000040: e39c d73c 7c8e a53c 5eba fe3b 6dc6 7f3c
00000050: 1c24 073c 5ce0 803c 9361 a03c 617e ee3c
00000060: ee61 fa3a 79a6 ea3b f09b 193c c79f c63c
00000070: b202 c53c 95cf 363c 6d98 9b3c a523 953b
00000080: 9721 a13c cda3 353c 3e78 a63c 4b46 d13c
00000090: f541 b83c 1c39 ca3c bba6 e73b 9307 b43c
000000a0: 5251 263c 3fd5 983c 8d6e 823c fab6 7c3c
000000b0: 1a98 113c 8910 443c 1746 b53c 7e0f aa3c
000000c0: 43ff 873a 0b87 2e3c 25dc 3c3c 9ffb d03c
000000d0: 9afa de3c 7807 973c 7fbc 263b 4a86 103c
000000e0: c246 fd3c 11bd 493a 95ae 2a3c b1b8 10bb
000000f0: 6cd5 213c 2b72 a73c 441a 8c3b 7bd8 563c
0.016804978 0.0070836083 -0.006809077 0.022494625 0.006559915 0.010735058 0.0060078087 0.002420323
0.016763484 0.027494743 0.022583751 0.016084021 0.010210939 0.02570193 0.014955355 0.027478168
0.026319927 0.020209543 0.0077736815 0.015611273 0.008248355 0.015731983 0.019577777 0.029112997
0.0019102672 0.0071609584 0.009375557 0.02424611 0.024049137 0.01115789 0.01899358 0.0045513683
0.019669337 0.011086416 0.020321008 0.025546214 0.022492388 0.024685435 0.0070694364 0.021976268
0.010151224 0.018656371 0.015921855 0.015424484 0.0088863615 0.011966833 0.022128148 0.02075934
0.0010375757 0.010652314 0.011527096 0.025510607 0.027219106 0.018436179 0.0025441942 0.0088210795
0.030917529 0.00076957146 0.0104176 -0.002208274 0.009877544 0.020440182 0.004275592 0.013113136

_model.2._model.0.weight f4 [16, 64]
00000000: 30ac 00bd aa82 e9bc d2a1 793c 561c 26bc
00000010: b77a 573c 4eb7 333b dde9 093d d801 f93c
00000020: 94fe 423c c100 9f3c 7e8a 12bc ba3e 94bd
00000030: 1eca 483d da1e 473d c649 b3bd 2c02 37bc
00000040: 6f98 033d fbc5 d63c fb57 073e 32a4 65bd
00000050: edc4 6a3b 1046 51bd 0b22 3ebd d549 0dbc
00000060: 1b35 ec3c f8a2 9dbb bd34 783c a5d9 5dbc
00000070: a8e1 9d3c c427 853c 9b6f 3f3d e7a3 bd3c
00000080: 8067 053d 76a7 323d 201d 77bd ca48 01bd
00000090: 700f 813a 8a1e 2dbd 1d26 f63b 70db 953d
000000a0: 8494 9a3c 94cc 993c 0b14 f0bc 68dd f33c
000000b0: 4d63 773b be73 84bc 1040 193c 75a6 eb3c
000000c0: 0a7c 043d 981c 78bd 3606 8bba b707 d0bd
000000d0: 7ee5 07bc 0090 c23d 2a71 2cbc 5ae7 1b3c
000000e0: b26c 5dbc 8c27 673d b585 e43b a50c 923d
000000f0: 38ed 3cbc be7d 96bc 9320 823d e347 d1bc
00000100: ed59 153d b87b 1cbd 79db 8e3d 3776 1abc
00000110: b840 7ebc 61ed 4bbc 430f 8fbc 9ec0 55bd
00000120: 820c 853b 5587 b83d 0c6d 94bc aff7 cd3b
00000130: fbec c7bc 709c dc3c 0a3d 353c 0741 87ba
00000140: edb8 883c 2b28 613d f6a7 aebd 7eca edbb
00000150: 8180 dcbc d272 38bd 1877 423d 7b6c 923b
00000160: abb0 99bc 6e7f 45bd 11da 283d 3541 583b
00000170: 4fa7 b23a 7d96 a5bc 5fff 3dbd 8c5d c0bc
00000180: 0d32 86bb 9890 9abc 967a a0bd eec2 e7bd
00000190: 9ac9 dfbb 14db e1bc eb93 e83c dd4d 0b3d
000001a0: 5ce6 a4bc 157e 83bb fefa 8ebd 474d 7ebb
000001b0: 5822 6d3c 1b1f 733c 47b5 c33c f064 063d
000001c0: d283 6a3b a47d a33c 01e8 0cbc d214 d23c
000001d0: ee2c 02bd 8488 2838 db47 023d 0f8a 9ebc
000001e0: b2d8 2d3d 0b3c 493c 2e14 06bd c467 0a3c
000001f0: 6fdb a5bc 5c7c 993d 3441 d93a 5cf4 e8bc
00000200: 4285 cdbc 1faa c8bc 41df 3abd 3601 4e3b
00000210: 9567 c63c efc7 dc3b 68ba fc3c cf43 30be
00000220: a721 06bd f3c7 4f3c ee6b 44bd 618a 053b
00000230: 0624 79bd 99af 8bbd 4bed 913c 82f4 cebb
00000240: a13c 61bc 26b9 a1bc 686c 9a3d 4d88 ce3c
00000250: d671 48bb 6774 703a 9458 a73c 35ae 70ba
00000260: 805e 9e3c ea29 cd3d afc3 46bd 32d4 6bbd
00000270: fb91 afbc bfd9 733a 0a1a 133d eaca 6abc
00000280: e8a4 02bd d1a8 d13c 1cd2 84bd 9016 d4bd
00000290: e38a 973c 7ae2 9c3c a499 98bc 4591 fabd
000002a0: 5c51 9ebc 25cb 08bd 8f7b 773c e875 c23a
000002b0: 3d29 8cbb 021c ebbc 2433 d2bb 32b5 27bc
000002c0: 7e1b 82bd 82ac a73c fd31 4e3d 4949 d0bc
000002d0: 7a93 b2bb b13d afbc b020 043c 413d 3bbb
000002e0: 97ea 9ebc 5b4f 723c 8c98 dbbc 011f b13c
000002f0: b55a 9b3c e4ca 3bbd f58f a6bc efed c1bb
00000300: b245 313d 73e8 0abc 4e29 47bd ec5f 18bd
00000310: 52f0 58bd 9cb3 123d 3f1e 973c 6d0f 963c
00000320: f3db 2ebc afb8 10bd 5f81 39bd 6ec2 db3b
00000330: 038d b03c 933e 7a3c b57f b33c 6a48 7dbc
00000340: f432 0abd 3988 d0bd e78e fa3c 65f5 a4bd
00000350: 9ed2 713a 349f 84bc 8a1a 2b3c 29ff eebc
00000360: aedf e63c d478 13bd 4c12 0dbd ac91 2c3b
00000370: 1a3a 4fbc 686a 793b c1d0 793b 0251 823c
00000380: a0e7 a2bc e458 17bc 0d1d d73c fb68 a33d
00000390: 60aa d5bc 46bd 3e3c 32ea 10bd 0768 a83d
000003a0: f869 86ba f437 d8bc a692 a7bb 8c70 2ebc
000003b0: 38b2 eabb d625 5fbd 5b03 d7bc 44ec a7bc
000003c0: d32f ccbc 064b ec36 550f 223c 60bf 87bc
000003d0: f76a 64bd f032 04bd e904 21bd d816 4abd
000003e0: 9b1e bbbc 88eb aebc 95eb 2c3d 0eb0 59bc
000003f0: 3ef6 763b b61b b63c fc57 c53c 0f99 623c
-0.03141421 -0.028504688 0.015236335 -0.010138592 0.013151816 0.002742249 0.033670295 0.030396387
0.0119015165 0.01940954 -0.008944152 -0.07238527 0.04902088 0.048613407 -0.087543055 -0.011169951
0.032127794 0.026217451 0.13217156 -0.056064792 0.0035822943 -0.051092207 -0.046419185 -0.00862356
0.028833916 -0.004810687 0.015149293 -0.01354066 0.01927264 0.016254313 0.046737295 0.023149444
0.03256941 0.043616734 -0.06033051 -0.031563558 0.000984652 -0.042265452 0.0075118677 0.07317245
0.018869646 0.018774308 -0.029306432 0.02976866 0.0037748397 -0.016168471 0.009353653 0.028765896
0.032344855 -0.060574144 -0.0010606709 -0.101577215 -0.008294461 0.09500122 -0.010525027 0.009515608
-0.0135146845 0.0564342 0.006973947 0.07131318 -0.011531167 -0.018370505 0.06353869 -0.025546974
0.036462713 -0.038203925 0.06975455 -0.009427599 -0.01551836 -0.012446732 -0.017463332 -0.052185647
0.004060329 0.090101875 -0.018118404 0.0062856297 -0.024404993 0.026930064 0.011061916 -0.0010319062
0.016689742 0.054969948 -0.0852813 -0.007256805 -0.026916744 -0.045031376 0.047476858 0.0044684983
-0.018761 -0.04821723 0.04122359 0.003299785 0.0013630184 -0.02021336 -0.04638612 -0.023482107
-0.004095322 -0.018867776 -0.078358814 -0.11316477 -0.0068294527 -0.027570285 0.028390845 0.034009803
-0.020129375 -0.004012833 -0.06981467 -0.0038803385 0.01447352 0.014838959 0.02389015 0.032811105
0.0035784137 0.019957371 -0.008600236 0.025644694 -0.03178113 4.018146e-05 0.031806808 -0.01935294
0.042442985 0.012282382 -0.03273409 0.008447591 -0.020246236 0.07494423 0.0016575218 -0.028436832
-0.025087956 -0.024495183 -0.045623068 0.0031433827 0.024219314 0.006737701 0.030850604 -0.17213367
-0.032746937 0.012681949 -0.047954492 0.002037667 -0.06082537 -0.06820602 0.017813345 -0.0063157687
-0.013747365 -0.019741606 0.07540208 0.025211478 -0.003058543 0.0009172619 0.02042798 -0.00091812323
0.01933217 0.1001776 -0.048526462 -0.057575412 -0.021431914 0.0009302161 0.035913505 -0.014330605
-0.031895548 0.025593193 -0.06485388 -0.10355866 0.018498844 0.019150961 -0.018627949 -0.12234739
-0.019325905 -0.03339686 0.015105142 0.0014836164 -0.004277377 -0.028699879 -0.006414788 -0.010236071
-0.063529 0.020468 0.05034064 -0.02542557 -0.0054497095 -0.021391721 0.008064434 -0.0028570446
-0.01939897 0.014789428 -0.026806138 0.02162123 0.01896415 -0.04584779 -0.020332316 -0.0059182565
0.043279357 -0.008478272 -0.048623376 -0.037200853 -0.052963562 0.03581582 0.01844704 0.018317902
-0.010672557 -0.035332378 -0.045289394 0.0067065274 0.021551615 0.015273708 0.021911481 -0.015459159
-0.03374 -0.101822324 0.03058572 -0.08054618 0.0009224805 -0.016189195 0.010443339 -0.029174404
0.02818283 -0.036003903 -0.034441277 0.0026331944 -0.01264813 0.0038057808 0.0038118812 0.015907768
-0.019885838 -0.009237502 0.02625897 0.07979008 -0.026082218 0.011641806 -0.035379596 0.08222967
-0.001025497 -0.026393868 -0.0051139174 -0.01064695 -0.0071623586 -0.054479443 -0.026246717 -0.020498402
-0.024925148 7.042082e-06 0.009891351 -0.016570747 -0.055766072 -0.03227514 -0.039311323 -0.04933819
-0.022841742 -0.021352544 0.042216856 -0.013286604 0.0037683393 0.02223001 0.024089806 0.013830437

_model.2._model.0.bias f4 [16]
00000000: ef5f 5dbb 0497 7d3c 4e72 0fbc e354 ccbc
00000010: 4605 07bd ea36 edbc 9a07 ea3c 067a 5bbc
00000020: ad7e 9b3c 45b2 b4bc e75a c739 9ad7 9cbc
00000030: 9827 133a 69f1 f73b ed6e 013b a67b ac3c
-0.0033779105 0.015477899 -0.00875528 -0.02494282 -0.032964014 -0.02895685 0.028568078 -0.013395792
0.018981302 -0.022057662 0.00038023965 -0.019145776 0.0005613505 0.00756662 0.0019749955 0.021055054
