data/etc/pretrained_model/fencing/0.95/body_encoder.pt (torch_old, 227144 bytes, 6 tensors)

0._model.0.weight f4 [128, 279]
0.025871344 0.09430328 0.01270248 -0.27726942 0.22484109 0.4594081 -0.09387753 0.009471617
0.088972375 -0.17926915 -0.049765162 -0.04622849 0.05692637 -0.09432722 -0.060165156 0.25210008
-0.23355088 -0.06801045 0.10540639 0.13611937 -0.05512059 -0.060374465 0.032143287 -0.012454927
0.015116044 0.06786797 0.11975067 -0.020277966 0.18449272 -0.11574942 0.22738573 0.28753486
0.015402704 0.0010305147 -0.006680201 0.08910996 -0.00023433992 -0.02282862 -0.00021524321 0.3359899
0.08742004 0.13592641 -0.16715077 -0.085908286 0.29667032 -0.02551593 0.018646436 -0.07556033
0.017348848 0.04785598 -0.051670615 -0.09860944 0.033289596 -0.09027979 0.10878975 -0.1264726
-0.057563074 0.15997913 0.04870656 0.010933783 -0.05528539 -0.06062136 -0.036764387 0.08111168
0.060759045 0.13373807 0.111283325 0.24957578 -0.12849016 0.015962841 0.19341575 -0.033432454
-0.045387927 0.0054479125 0.08479398 -0.052869726 0.008570361 -0.062681586 0.13892561 0.15195112
0.157963 -0.13627394 -0.1333027 -0.072517395 0.049840454 0.05849876 -0.047136895 0.085040145
-0.004945126 0.076675266 0.0018973053 -0.2547144 -0.0446476 -0.13277915 -0.06591655 0.11978387
0.22666477 -0.13653708 -0.07257928 0.07014945 -0.010390626 -0.028242594 0.013301239 -0.0021864255
-0.27583492 0.020323839 -0.037215557 0.004008494 0.10579875 0.13777675 0.037304774 0.03047803
-0.004122736 -0.14393601 0.036299407 -0.023985002 0.032279953 -0.22420827 -0.011391875 -0.08847672
-0.01304965 0.06525639 0.1551262 0.08114825 -0.07918766 0.02323041 -0.07655109 0.032187253
-0.005059486 0.015317982 -0.20335962 -0.025163535 -0.12972401 -0.010533555 0.16948785 0.01687376
-0.0070365393 0.029799094 -0.045368794 -0.019223787 -0.048712794 0.01490735 0.069784 -0.16574278
0.052646227 -0.15784572 -0.14055909 0.02144858 0.0031556622 0.059503064 -0.08879351 0.048429973
-0.09597458 0.0007251062 0.019953504 -0.046178762 -0.041460223 0.102115326 -0.07021415 0.014968139
0.07310744 0.022183428 0.07203387 -0.06531904 0.032313146 -0.10404027 -0.037340485 -0.0040363595
0.029360855 0.06360671 -0.0070754252 -0.087681465 -0.13619873 -0.08615998 -0.04806946 0.08944426
-0.06451109 -0.096028864 -0.10551008 0.026082482 0.043746307 -0.033726525 0.036616683 -0.0504437
-0.16548719 -0.10159061 0.014028521 -0.020797452 -0.06274333 0.022570021 -0.01630336 0.026760556
0.019396096 0.072094955 -0.03176013 -0.035973366 -0.055922966 -0.081749596 0.04644023 0.060464066
-0.0383782 0.024103725 0.026713217 -0.011904456 -0.0672433 0.031379335 -0.023704736 0.07282385
-0.05224486 -0.06575732 -0.016541833 0.05780424 0.16838248 0.058367267 0.042268082 -0.0111533655
0.13506834 -0.049531892 -0.08845616 -0.014903312 -0.043012064 -0.026209468 -0.010433671 -0.08765431
-0.10066128 -0.008967391 -0.06584242 -0.018682318 -0.07482972 -0.07004323 -0.0013431448 -0.010198389
0.033785943 0.018222261 -0.048926797 -0.060037453 -0.053897616 -0.003949916 -0.059933107 0.086435355
-0.110007584 -0.032045443 -0.026718799 -0.08018279 0.05176936 0.043656185 -0.00037451627 -0.07388493
0.0251094 0.010298531 0.023784418 -0.043730084 0.021791784 0.09299092 0.010335994 -0.0022970405
00000000: 24f0 d33c 1422 c13d 101e 503c 42f6 8dbe
00000010: be3c 663e 8a37 eb3e dd42 c0bd d72e 1b3c
00000020: 2637 b63d 5592 37be 8ed6 4bbd 165a 3dbd
00000030: a02b 693d a12e c1bd bd6f 76bd 4313 813e
00000040: f627 6fbe 1049 8bbd 4edf d73d e062 0b3e
00000050: 21c6 61bd 374b 77bd aea8 033d c00f 4cbc
00000060: 49a9 773c 5dfe 8a3d d73f f53d fa1d a6bc
00000070: a9eb 3c3e 080e edbd ced7 683e c537 933e
00000080: 9f5b 7c3c 5612 873a 96e5 dabb 487f b63d
00000090: 25b9 75b9 1603 bbbc e9b2 61b9 de06 ac3e
000000a0: 4709 b33d 4b30 0b3e 9229 2bbe aff0 afbd
000000b0: 2ce5 973e c906 d1bc 69c0 983c 60bf 9abd
000000c0: 2c1f 8e3c a204 443d 91a4 53bd bff3 c9bd
000000d0: ac5a 083d 9ce4 b8bd 29cd de3d 0982 01be
000000e0: 42c7 6bbd 92d1 233e 8880 473d 9c23 333c
000000f0: ef72 62bd 1a4e 78bd 4196 16bd e11d a63d
00000100: 7ade 783d a2f2 083e 83e8 e33d cb90 7f3e
00000110: ed92 03be 81c4 823c c70e 463e 78f0 08bd
00000120: b1e8 39bd 6784 b23b 77a8 ad3d ed8d 58bd
00000130: b36a 0c3c 345f 80bd 8442 0e3e 1399 1b3e
00000140: 0dc1 213e 658b 0bbe 8180 08be 0084 94bd
00000150: 8125 4c3d 659c 6f3d 9e12 41bd 8729 ae3d
00000160: b90a a2bb ec07 9d3d 00af f83a ed69 82be
00000170: 67e0 36bd 42f7 07be 42ff 86bd 3f51 f53d
00000180: cf1a 683e 60d0 0bbe 72a4 94bd 84aa 8f3d
00000190: 723d 2abc 035d e7bc 71ed 593c 224a 0fbb
000001a0: 3c3a 8dbe 2e7e a63c 576f 18bd af59 833b
000001b0: 04ad d83d 5915 0d3e e4cc 183d 10ad f93c
000001c0: 0418 87bb f663 13be b0ae 143d 327c c4bc
000001d0: fc37 043d da96 65be fda4 3abc 4833 b5bd
000001e0: 33ce 55bc 24a5 853d 67d9 1e3e 0e31 a63d
000001f0: 242d a2bd b34d be3c d1c6 9cbd c8d6 033d
00000200: 0bca a5bb 46f8 7a3c 813d 50be c223 cebc
00000210: 5fd6 04be ef94 2cbc 398e 2d3e d73a 8a3c
00000220: c592 e6bb 3b1d f43c a1d4 39bd 347b 9dbc
00000230: 1187 47bd f53d 743c eaea 8e3d 7ab8 29be
00000240: 92a3 573d 4fa2 21be b9ee 0fbe efb4 af3c
00000250: 3acf 4e3b 7cb9 733d 5fd9 b5bd 825e 463d
00000260: 528e c4bd 0e15 3e3a 8875 a33c f125 3dbd
00000270: 32d2 29bd d721 d13d 70cc 8fbd ed3c 753c
00000280: 5ab9 953d 05ba b53c 7e86 933d fdc5 85bd
00000290: ca5a 043d 1113 d5bd 56f2 18bd 7043 84bb
000002a0: 2d86 f03c 3c44 823d f8d8 e7bb 5792 b3bd
000002b0: ae77 0bbe a574 b0bd 7be4 44bd 8d2e b73d
000002c0: 641e 84bd c8aa c4bd ab15 d8bd eeaa d53c
000002d0: 542f 333d d324 0abd 60fb 153d 0e9e 4ebd
000002e0: 7975 29be bd0e d0bd e2d7 653c 6b5f aabc
000002f0: 937f 80bd c4e4 b83c a08e 85bc f438 db3c
00000300: 90e4 9e3c 85a6 933d e916 02bd cf58 13bd
00000310: 7b0f 65bd 556c a7bd 1c38 3e3d 2ba9 773d
00000320: 7632 1dbd 2d75 c53c add5 da3c e80a 43bc
00000330: dbb6 89bd 9e87 003d 6f30 c2bc ac24 953d
00000340: b5fe 55bd c6ab 86bd bd82 87bc 24c4 6c3d
00000350: 756c 2c3e 8412 6f3d 4c21 2d3d 9bbc 36bc
00000360: 5b4f 0a3e f4e1 4abd 8128 b5bd 052d 74bc
00000370: 6b2d 30bd 3db5 d6bc fdf1 2abc 1a84 b3bd
00000380: 8027 cebd f7eb 12bc 64d8 86bd a90b 99bc
00000390: 5340 99bd d372 8fbd 760c b0ba 2517 27bc
000003a0: 2163 0a3d da46 953c 7767 48bd d5e9 75bd
000003b0: bfc3 5cbd 4c6e 81bb 6b7c 75bd 0505 b13d
000003c0: a84b e1bd 1542 03bd 62e1 dabc e036 a4bd
000003d0: 1c0c 543d d4d0 323d b95a c4b9 fb50 97bd
000003e0: 3ab2 cd3c 2bbb 283c 8ad7 c23c 511e 33bd
000003f0: af84 b23c 0672 be3d 4d58 293c f289 16bb

0._model.0.bias f4 [128]
0.011171395 0.018239042 -0.019197663 -0.008019545 0.017956829 0.011575433 -0.0106181055 0.01617957
0.031769164 -0.0076096673 0.022862334 0.009854177 0.019056924 -0.00039686318 0.014003337 0.016164057
-0.011041441 0.009881971 0.00592083 0.011831598 -0.0037698448 -0.013238344 0.0034051903 -0.007776426
0.014392013 -0.020223407 0.007999097 0.011122037 -0.012252848 0.0062347814 0.019430064 0.01800059
0.004159742 0.0049436074 0.0005972788 0.008115951 0.023043305 0.016027153 0.011888557 -0.011989474
0.011612369 0.009866608 0.018926468 -0.0048099235 0.014879438 0.0053719985 0.0060462193 0.016892212
0.015299971 0.010661841 0.016106674 -0.006225712 0.006173809 -0.00016217983 0.003865595 0.0016705112
0.015207779 0.009712224 0.008325466 0.02229768 0.014270098 0.007516808 0.002646201 0.0009400423
0.019249013 0.010153435 0.01621229 0.010645287 0.029851735 -0.00047062992 -0.0012586357 0.010184979
0.0044144727 -0.0065109516 -0.0023333519 -0.0051982147 0.0051125023 0.01042925 -0.0025456354 0.015581199
0.008273064 0.009625673 -0.00035615196 0.018883497 -0.0023457808 0.01642099 -0.009024863 -0.000120755365
0.01266737 0.020514619 0.002345573 0.009894606 0.017145706 0.017540863 0.0029841696 0.0031409978
0.021009289 0.019192131 0.006544657 -0.019228997 0.0069410373 0.0041047568 0.021512872 0.022987911
0.017002987 0.028018005 0.0007857474 0.0024198552 0.0009870941 0.0072842143 0.017972969 -0.00023827322
0.018268516 -0.014863626 -0.0014170217 0.012122585 0.002806896 0.010107739 0.0030984874 0.007913556
0.030775312 -0.0025896179 0.015522496 0.011490949 -0.002680408 0.01909475 0.018443516 0.002896488
00000000: 3a08 373c 0b6a 953c 6b44 9dbc 6964 03bc
00000010: 331a 933c e3a6 3d3c 90f7 2dbc 058b 843c
00000020: 6220 023d 845a f9bb ca49 bb3c 6a73 213c
00000030: 441d 9c3c 1312 d0b9 416e 653c 7c6a 843c
00000040: 29e7 34bc fee7 213c 8603 c23b 52d9 413c
00000050: 800f 77bb a4e5 58bc 9d29 5f3b 64d1 febb
00000060: 7acc 6b3c 8fab a5bc a50e 033c 3439 363c
00000070: 2bc0 48bc 234d cc3b cc2b 9f3c f975 933c
00000080: 724e 883b fcfd a13b b492 1c3a c4f8 043c
00000090: 50c5 bc3c 604b 833c 39c8 423c 806f 44bc
000000a0: ce41 3e3c 8ea7 213c ae0b 9b3c 909c 9dbb
000000b0: e3c8 733c 9707 b03b 5d1f c63b 8961 8a3c
000000c0: bbac 7a3c 01af 2e3c 25f2 833c 0f01 ccbb
000000d0: aa4d ca3b d10e 2ab9 ec55 7d3b 0ef5 da3a
000000e0: 0c2a 793c 0520 1f3c 8967 083c a0a9 b63c
000000f0: 21cd 693c 8e4f f63b e36b 2d3b 2c6d 763a
00000100: 1bb0 9d3c 985a 263c a3cf 843c 9269 2e3c
00000110: a08b f43c e1be f6b9 cef8 a4ba e6de 263c
00000120: 48a7 903b d259 d5bb 26eb 18bb c955 aabb
00000130: c786 a73b 72df 2a3c add4 26bb 4948 7f3c
00000140: bf8b 073c 00b5 1d3c e8b9 bab9 90b1 9a3c
00000150: acbb 19bb 5085 863c 05dd 13bc 0b3e fdb8
00000160: cd8a 4f3c 460e a83c 2fb8 193b fc1c 223c
00000170: 2775 8c3c dbb1 8f3c 0f92 433b 33d9 4d3b
00000180: ac1b ac3c d138 9d3c 9074 d63b 2186 9dbc
00000190: a471 e33b 3281 863b c33b b03c 2551 bc3c
000001a0: d949 8b3c 0486 e53c 9efa 4d3a 6f96 1e3b
000001b0: 6261 813a 6bb0 ee3b 0c3c 933c fbd8 79b9
000001c0: dba7 953c 9186 73bc 5cbb b9ba cf9d 463c
000001d0: e7f3 373b ee9a 253c fe0f 4b3b dca7 013c
000001e0: 821c fc3c 94b6 29bb 1152 7e3c 8944 3c3c
000001f0: c9a9 2fbb 986c 9c3c db16 973c 01d3 3d3b

1._model.0.weight f4 [128, 128]
-0.03986249 0.028580323 -0.10187901 -0.09600723 0.10355747 -0.098050214 0.114249945 -0.13564394
-0.06342779 0.14951228 0.08547128 0.19762172 -0.18413605 0.024073899 -0.03482454 0.034275595
0.09267623 0.014211638 -0.002062554 0.12903692 -0.10615623 -0.032219943 0.02904374 0.09042394
-0.0841618 -0.05367423 0.04026792 0.07811282 0.009377557 0.09458158 -0.224559 0.115178205
0.01431068 0.065625586 -0.0017693273 0.043915145 0.021165982 0.023277001 -0.04262697 -0.0392046
0.14858985 0.04561575 -0.0593107 0.08376145 -0.0063335546 -0.0066396585 -0.03661285 0.092632286
-0.020269074 -0.10733243 0.07815982 -0.1261679 0.026176251 -0.13775887 0.21964352 -0.07107437
0.00066728966 0.023245944 0.018066144 -0.02538011 -0.03889804 -0.13632865 0.033271976 0.0020002679
-0.024544412 0.005026573 0.22000034 0.061708823 0.12672116 0.092658445 -0.05424005 0.02342753
-0.032826927 -0.13612889 0.08861716 -0.12582666 0.15819377 0.085174024 0.061664585 -0.047949314
0.24389978 0.11051274 -0.15666857 0.066136286 0.033456348 0.06389548 -0.17892836 -0.018334143
0.053139918 0.08030511 0.06776987 -0.031678047 0.05318151 -0.056683376 -0.08066053 0.15088505
-0.21927147 -0.09636058 0.07038969 -0.072266065 -0.12931119 -0.015303498 0.038646206 -0.034545366
0.099883586 -0.046456642 0.018342244 0.0007387379 0.016558845 -0.18912677 -0.037859365 0.0068241246
-0.057172585 0.05764336 -0.09452593 0.060873564 0.067106254 -0.009823582 0.034378223 -0.0099567035
0.025660776 -0.00844453 0.007895324 0.11637102 0.07321685 -0.103194095 0.05587152 -0.13522795
-0.017763637 0.07150114 -0.15872745 -0.047996584 -0.041314304 -0.002718 0.14339297 -0.054232556
0.15134569 -0.24710557 0.10752592 0.03050034 -0.04530856 0.13827166 -0.102647565 0.012682997
-0.057982326 0.10378066 -0.062543586 0.06844527 0.15610951 -0.056317132 0.015468337 -0.01877522
0.052696187 -0.088931344 0.15901867 0.08816028 0.054624654 0.13932356 -0.026195822 0.07536343
-0.058696833 -0.17436461 -0.08480648 -0.10764224 -0.102055684 0.026243882 -0.07759045 -0.06341263
0.11128952 0.13350582 -0.017168434 -0.06404815 0.04349729 -0.18981145 -0.0020987147 0.13254516
-0.0109532345 -0.09982359 -0.142093 -0.074771635 -0.0070257885 -0.039205916 -0.17980795 -0.12737583
0.08625234 0.12967059 -0.12069285 0.05473997 0.089876495 -0.027901033 -0.03357748 0.08759028
0.014036601 -0.0041024997 -0.061894722 0.07708764 0.14928395 -0.0008723006 -0.03501209 0.19035788
-0.08267105 -0.017477747 -0.034234658 0.058169197 -0.06809603 -0.08059814 -0.06259083 -0.072227165
0.0734973 0.063325025 -0.05606379 0.064364605 0.06023255 -0.04996936 -0.047745015 -0.056192882
0.048017953 0.14044553 0.11947869 -0.12794408 -0.0028356335 0.09563641 0.03277006 0.007456352
-0.19029056 0.116666906 -0.0009404527 -0.06860021 -0.008571178 -0.17615908 -0.0327226 0.07445149
0.029303808 -0.12823203 0.07110745 0.1870469 -0.0863638 -0.025147976 0.00044367966 -0.19816026
0.007868521 0.02708351 -0.05569267 0.03881051 -0.03906427 -0.07242096 -0.052717958 -0.054693263
-0.03725137 0.0027068262 0.07595614 -0.0140328 0.08625272 0.08004923 -0.2694835 -0.124414474
00000000: da46 23bd 4821 ea3c f1a5 d0bd 709f c4bd
00000010: f015 d43d 8dce c8bd e0fb e93d 3fe6 0abe
00000020: 6ee6 81bd bf19 193e 910b af3d 595d 4a3e
00000030: 298e 3cbe a036 c53c 2da4 0ebd 9164 0c3d
00000040: 09cd bd3d eed7 683c ea2b 07bb 4122 043e
00000050: 7068 d9bd 0ff9 03bd 23ed ed3c 3030 b93d
00000060: 065d acbd 82d9 5bbd f9ef 243d 9df9 9f3d
00000070: 53a4 193c fdb3 c13d cbf2 65be 8de2 eb3d
00000080: 5877 6a3c b566 863d c6e8 e7ba 5ee0 333d
00000090: 4864 ad3c 69af be3c 9e99 2ebd 0195 20bd
000000a0: f027 183e 95d7 3a3d c7ef 72bd 208b ab3d
000000b0: b589 cfbb 7e91 d9bb 5bf7 15bd ffb5 bd3d
000000c0: 540b a6bc 1bd1 dbbd 4112 a03d 2832 01be
000000d0: 946f d63c a910 0dbe 3bea 603e 708f 91bd
000000e0: 0ded 2e3a 476e be3c 73ff 933c f3e9 cfbc
000000f0: 8d53 1fbd bd99 0bbe 3248 083d ed16 033b
00000100: 5d11 c9bc f3b5 a43b c547 613e 64c2 7c3d
00000110: 31c3 013e b6c3 bd3d d12a 5ebd 17eb bf3c
00000120: 8775 06bd 5f65 0bbe ea7c b53d b4d8 00be
00000130: 8cfd 213e b86f ae3d 0194 7c3d 8066 44bd
00000140: ddc0 793e 8154 e23d ba6d 20be 7672 873d
00000150: 8609 093d a2db 823d ff38 37be 7c31 96bc
00000160: 3ea9 593d 0177 a43d eeca 8a3d d7c0 01bd
00000170: dbd4 593d d42c 68bd 5931 a5bd 9c81 1a3e
00000180: b388 60be b258 c5bd 7828 903d 3b00 94bd
00000190: 276a 04be 86bb 7abc 7c4b 1e3d 717f 0dbd
000001a0: c48f cc3d 5249 3ebd 7942 963c dca7 413a
000001b0: 6aa6 873c 73aa 41be 6c12 1bbd e89c df3b
000001c0: cd2d 6abd 721b 6c3d d096 c1bd 8f56 793d
000001d0: 016f 893d 17f3 20bc 2ed0 0c3d 7121 23bc
000001e0: 8c36 d23c ed5a 0abc 645b 013c ee53 ee3d
000001f0: b7f2 953d 6d57 d3bd 89d9 643d 3279 0abe
00000200: 0c85 91bc 316f 923d 7389 22be 1198 44bd
00000210: 3039 29bd 7920 32bb 9bd5 123e f522 5ebd
00000220: 5dfa 1a3e 3e09 7dbe 8d36 dc3d d9db f93c
00000230: 7895 39bd 1697 0d3e e338 d2bd 58cc 4f3c
00000240: e07e 6dbd f48a d43d da16 80bd 092d 8c3d
00000250: 2cdb 1f3e cbac 66bd e86e 7d3c 7dce 99bc
00000260: f5d7 573d a321 b6bd cad5 223e 608d b43d
00000270: 1abe 5f3d d6aa 0e3e 9f98 d6bc 2458 9a3d
00000280: 176c 70bd a38c 32be 05af adbd 8973 dcbd
00000290: 9202 d1bd 69fd d63c bee7 9ebd 7bde 81bd
000002a0: c3eb e33d c0b5 083e d1a4 8cbc ad2b 83bd
000002b0: 372a 323d ef5d 42be 978a 09bb ebb9 073e
000002c0: 3275 33bc 4f70 ccbd d480 11be df21 99bd
000002d0: 9638 e6bb 6296 20bd 931f 38be cf6e 02be
000002e0: 11a5 b03d 5ec8 043e d02d f7bd 0537 603d
000002f0: 2b11 b83d b590 e4bc 8a88 09bd 8862 b33d
00000300: c6f9 653c 436e 86bb 5285 7dbd 20e0 9d3d
00000310: e4dd 183e 1aab 64ba d668 0fbd 2ded 423e
00000320: 714f a9bd 7e2d 8fbc a439 0cbd d342 6e3d
00000330: ee75 8bbd a310 a5bd 9f2f 80bd d6eb 93bd
00000340: c185 963d 8db0 813d 25a3 65bd 97d1 833d
00000350: 68b6 763d acac 4cbd 4790 43bd 822a 66bd
00000360: 79ae 443d f4d0 0f3e 3eb1 f43d c603 03be
00000370: 09d6 39bb 06dd c33d e639 063d 6a54 f43b
00000380: 87db 42be 0fef ee3d b688 76ba 447e 8cbd
00000390: 206e 0cbc 0c63 34be 2208 06bd 067a 983d
000003a0: 8a0e f03c 424f 03be c8a0 913d 3989 3f3e
000003b0: 81df b0bd 2103 cebc ad9d e839 86ea 4abe
000003c0: f8ea 003c 3dde dd3c ff1d 64bd c5f7 1e3d
000003d0: db01 20bd 7151 94bd c9ee 57bd 0b06 60bd
000003e0: e494 18bd 0265 313b e58e 9b3d d4e9 65bc
000003f0: 44a5 b03d daf0 a33d bef9 89be 04cd febd

1._model.0.bias f4 [128]
-0.015071598 0.005201844 0.018887514 0.034939464 -0.007120374 -0.0038513222 -0.016784662 0.020422097
-0.012893109 0.02145585 0.0018623695 -0.011572887 0.025381824 -0.0049979375 -0.012656833 -0.014393582
-0.018066635 -0.0011023531 -0.0022322435 0.004599023 0.0034225222 0.032084715 0.01843714 -0.024452502
0.01132054 0.008324563 0.008421394 0.010431602 -0.02294051 0.029188555 -0.002032827 0.0028185502
0.033657867 0.024104878 0.017079726 -0.0126424935 -0.0124334525 0.014910398 0.0012466202 0.02613272
0.00434569 -0.0075633097 0.011406026 -0.00429463 -0.0005909926 -0.0037574407 0.018744498 0.015462966
-0.010460418 0.020280771 -0.014823716 0.017248988 0.008567864 0.009101982 -7.0377246e-05 0.018694147
0.020728296 0.0018666869 0.0068869637 -0.0042179003 -0.010309387 0.010499396 0.0036660985 0.0048506153
0.0021188809 0.010558384 0.0015038602 -0.00036684578 -0.007280911 0.022699676 -0.018916871 0.013172474
0.005375141 -0.013466694 0.0100929905 -0.0030565397 -0.021123312 -0.003192058 0.0077583888 -0.004012043
-0.0071009207 -0.02089631 0.009591409 0.017827503 -0.028814973 -0.015223747 -0.005953254 -0.0015591104
0.0042364723 -0.018425578 0.0070738434 -0.0067860526 -0.010772253 -0.00095107814 0.010987013 -0.0025424385
0.00898324 0.0038050658 0.0029306298 0.0014915678 -0.009869996 0.013144856 0.01946463 -0.021847488
-0.011040512 0.004597209 -0.0062213703 -0.0009929993 0.007489435 -0.0049847253 -0.017019605 -0.003719171
0.016376132 -0.00550109 0.01482062 0.0015869306 0.009514836 0.008338326 0.023772309 0.0149132805
0.008062225 0.007666279 0.014313775 -0.01511057 -0.025768582 0.0042730994 0.01258719 0.007961161
00000000: ddee 76bc 3b74 aa3b fdb9 9a3c af1c 0f3d
00000010: 0752 e9bb 7766 7cbb fd7f 89bc 3e4c a73c
00000020: 9e3d 53bc 2ec4 af3c c01a f43a 359c 3dbc
00000030: 8bed cf3c bdc5 a3bb 9b5e 4fbc 0fd3 6bbc
00000040: 7b00 94bc d57c 90ba d54a 12bb 67b3 963b
00000050: 654c 603b 436b 033d 7c09 973c 9d50 c8bc
00000060: c979 393c bf63 083c e3f9 093c 4fe9 2a3c
00000070: bded bbbc d61c ef3c 2d39 05bb 6db7 383b
00000080: d5dc 093d 9877 c53c c8ea 8b3c 7622 4fbc
00000090: aeb5 4bbc be4a 743c a265 a33a 4914 d63c
000000a0: 4a66 8e3b a4d5 f7bb 57e0 3a3c f8b9 8cbb
000000b0: d8ec 1aba 653f 76bb 108e 993c 6158 7d3c
000000c0: 2c62 2bbc dc23 a63c 2cdf 72bc c04d 8d3c
000000d0: 3a60 0c3c 7b20 153c 7f97 93b8 7824 993c
000000e0: 63ce a93c 9eab f43a 0aac e13b 5036 8abb
000000f0: b4e8 28bc a905 2c3c ed42 703b e9f1 9e3b
00000100: ecdc 0a3b 12fd 2c3c 2d1d c53a 3555 c0b9
00000110: b594 eebb acf4 b93c 8ef7 9abc 5cd1 573c
00000120: f321 b03b 69a3 5cbc 125d 253c 3a50 48bb
00000130: cc0a adbc d931 51bb 153a fe3b 7577 83bb
00000140: d7ae e8bb bd2e abbc 4925 1d3c fc0a 923c
00000150: 610d ecbc 066d 79bc 8413 c3bb 105b ccba
00000160: 1bd2 8a3b 3df1 96bc b3cb e73b 895d debb
00000170: 1b7e 30bc c651 79ba df02 343c 0a9f 26bb
00000180: 712e 133c 695e 793b cf0f 403b b680 c33a
00000190: c4b5 21bc 865d 573c 4a74 9f3c 81f9 b2bc
000001a0: 43e3 34bc 2fa4 963b a3dc cbbb 8727 82ba
000001b0: ef69 f53b e856 a3bb b36c 8bbc 56bd 73bb
000001c0: 3d27 863c 7d42 b4bb 30d2 723c 8e00 d03a
000001d0: 1de4 1b3c 799d 083c 25be c23c d556 743c
000001e0: 6c17 043c 6935 fb3b 5384 6a3c 5392 77bc
000001f0: a218 d3bc 5b05 8c3b 803a 4e3c 886f 023c

2._model.0.weight f4 [32, 128]
0.033578753 -0.036796663 0.030844554 0.070141815 0.13480382 0.10719417 0.01660913 0.13389239
-0.11943952 0.007549097 0.00066481665 -0.06750013 -0.023473538 0.19533549 -0.029219572 0.09408758
0.18269065 0.021257063 0.14714201 -0.12627673 0.025581138 0.13043393 -0.070611976 0.09701331
-0.09356001 0.041010305 -0.020694025 -0.1485326 0.11784317 -0.047031708 -0.04586704 -0.050829567
0.061990097 -0.093032785 0.12170441 -0.12404439 0.06627016 -0.09497564 0.09298451 -0.027279388
0.0063726795 0.029049262 -0.03279536 -0.017289063 -0.06623763 0.1762554 -0.052772954 -0.1611991
0.1187875 0.052157935 0.0015648803 -0.03847275 -0.0034518149 -0.123132214 -0.21657713 -0.0545036
-0.11823362 -0.081015244 -0.036498405 -0.06805531 0.13568877 0.102137394 -0.015499895 -0.015840866
0.0725155 -0.116984986 -0.10455525 -0.08729847 0.05176304 -0.061428636 -0.09840292 0.060604375
-0.16470693 0.27298468 0.13669078 -0.014479377 0.095327176 0.03310575 0.006706864 -0.23342037
0.114346385 0.02820715 0.041820027 0.042392015 -0.09349382 -0.13952431 0.02748153 0.06478552
0.0826473 -0.10892272 0.005841154 0.16845682 -0.13808706 -0.0076138163 0.113687254 0.06709679
0.12454727 0.16701701 -0.030060364 -0.077024564 0.18278408 0.050326534 -0.1424648 0.06604827
-0.04581482 -0.024288815 0.09809413 -0.0111672245 0.013757117 -0.016339889 -0.0785105 -0.1418966
-0.12028881 -0.06509041 -0.048029073 0.016925555 0.045519907 -0.109427266 -0.0064179157 0.015304383
0.002238207 0.10756482 0.23287956 -0.084685855 -0.013139277 0.107448906 0.11321204 -0.022567425
0.1958243 -0.14551535 0.037856642 -0.034856483 0.1005903 -0.16307117 -0.11732331 -0.038160894
-0.1515046 0.10143771 -0.021821754 0.04035029 0.10187658 -0.04120383 0.13239136 0.025323724
-0.046494998 0.04037116 -0.12938708 -0.08817159 0.021746548 -0.039344743 0.12558359 0.12902912
-0.08623094 0.014735515 -0.020763252 0.029136749 -0.04286266 -0.046433948 0.10694281 0.046405997
0.011211936 0.0863581 0.010809751 0.024472024 0.027186131 0.00977474 -0.25088143 -0.058000997
0.07663124 0.076961346 -0.06452659 -0.1741403 -0.16480072 0.15115303 -0.12201485 0.054636355
0.1058503 -0.0495989 -0.034520023 -0.016201189 0.06687003 -0.17284343 0.061711643 0.12471475
0.1090296 0.08728866 0.05908311 -0.14890729 0.008702635 0.07140085 0.0306874 0.051037747
0.05542861 0.016053826 0.19820502 0.02020531 -0.0080673965 -0.010559178 0.061183643 0.042256873
-0.00065821456 -0.05001668 -0.16259299 0.22675027 0.0127191115 0.06800744 0.111441314 0.08198122
-0.13611981 -0.04783661 0.13711652 -0.0791883 -0.015488373 0.013499501 0.034925386 -0.014743773
0.004639086 -0.05623743 -0.05008269 0.1579352 0.12495271 -0.105564035 0.10185163 -0.0751225
-0.0360306 -0.00650198 -0.10814217 -0.02387339 -0.025343284 -0.075359955 -0.069764495 0.22210483
-0.10902818 0.054077223 -0.16018191 -0.089653775 -0.10925704 -0.09130006 0.0046394886 -0.0946592
-0.05071889 0.15015218 0.1468302 0.003795476 0.15137714 0.0930418 -0.0024611347 -0.00964698
-0.18892334 -0.077475704 0.0045795124 0.029676594 0.00744291 -0.16892916 -0.051756017 -0.04777258
00000000: e089 093d 19b8 16bd b8ad fc3c 83a6 8f3d
00000010: 030a 0a3e 9e88 db3d df0f 883c 161b 093e
00000020: b59c f4bd 6a5e f73b 1747 2e3a 823d 8abd
00000030: 944b c0bc 0706 483e e25d efbc fdb0 c03d
00000040: 4213 3b3e 4b23 ae3c 65ac 163e b04e 01be
00000050: 898f d13c 7990 053e 039d 90bd eaae c63d
00000060: 649c bfbd 6cfa 273d 8486 a9bc ee18 18be
00000070: c357 f13d 52a4 40bd 14df 3bbd aa32 50bd
00000080: 54e9 7d3d f987 bebd 2940 f93d fc0a febd
00000090: a6b8 873d 9782 c2bd aa6e be3d 0679 dfbc
000000a0: e9d1 d03b b8f8 ed3c 6d54 06bd cba1 8dbc
000000b0: 98a7 87bd 4c7c 343e 7428 58bd 6011 25be
000000c0: dc46 f33d 8fa3 553d ab1c cd3a 9a95 1dbd
000000d0: d837 62bb be2c fcbd 65c6 5dbe 2b3f 5fbd
000000e0: 7824 f2bd 52eb a5bd 5a7f 15bd 9560 8bbd
000000f0: fff1 0a3e 692d d13d 46f3 7dbc b4c4 81bc
00000100: 0283 943d d395 efbd 1021 d6bd 8ac9 b2bd
00000110: 7b05 543d 989c 7bbd 7887 c9bd 4b3c 783d
00000120: efa8 28be a6c4 8b3e abf8 0b3e e93a 6dbc
00000130: e53a c33d e599 073d 41c5 db3b c005 6fbe
00000140: 702e ea3d ae12 e73c 7a4b 2b3d 40a3 2d3d
00000150: b079 bfbd 76df 0ebe f220 e13c 45ae 843d
00000160: fd42 a93d e012 dfbd 2767 bf3b f27f 2c3e
00000170: b266 0dbe 527d f9bb ddd4 e83d 0b6a 893d
00000180: a412 ff3d 8206 2b3e 2741 f6bc 0ebf 9dbd
00000190: c02b 3b3e 3223 4e3d 4be2 11be 5144 873d
000001a0: 52a8 3bbd 56f9 c6bc 93e5 c83d bcf6 36bc
000001b0: 8865 613c 3bdb 85bc 1dca a0bd 584d 11be
000001c0: fb59 f6bd 1f4e 85bd 22ba 44bd 76a7 8a3c
000001d0: 1573 3a3d 671b e0bd 614d d2bb 3cbf 7a3c
000001e0: e2ae 123b f24a dc3d fb77 6e3e c76f adbd
000001f0: 1f46 57bc 2c0e dc3d b7db e73d 52df b8bc
00000200: 2a86 483e fa01 15be 910f 1b3d acc5 0ebd
00000210: 4a02 ce3d 21fc 26be 3447 f0bd 994e 1cbd
00000220: 0624 1bbe 93be cf3d 89c3 b2bc 5846 253d
00000230: aba4 d03d 59c5 28bd 9a91 073e b373 cf3c
00000240: 8a71 3ebd 3b5c 253d 0c7e 04be 4e93 b4bd
00000250: d125 b23c f427 21bd fc98 003e 3620 043e
00000260: d999 b0bd 3b6d 713c b217 aabc 31b0 ee3c
00000270: c290 2fbd 8631 3ebd d504 db3d 3714 3e3d
00000280: 45b2 373c 84dc b03d 621b 313c 8e79 c83c
00000290: 73b5 de3c 3b26 203c 8873 80be 7492 6dbd
000002a0: d7f0 9c3d e99d 9d3d 8426 84bd d651 32be
000002b0: 85c1 28be dcc7 1a3e ece2 f9bd 5fca 5f3d
000002c0: 0bc8 d83d 3728 4bbd de64 0dbd 5bb8 84bc
000002d0: 27f3 883d defd 30be 59c5 7c3d 726a ff3d
000002e0: e94a df3d 66c4 b23d 2201 723d 277b 18be
000002f0: 7f95 0e3c 9c3a 923d 2464 fb3c f50c 513d
00000300: 1c09 633d 5083 833c 42f6 4a3e 9b85 a53c
00000310: 1d2d 04bc 6700 2dbc b39b 7a3d 8b15 2d3d
00000320: 088c 2cba 4ade 4cbd c77e 26be 3931 683e
00000330: d263 503c 7c47 8b3d 583b e43d c5e5 a73d
00000340: fe62 0bbe 52f0 43bd 4668 0c3e 7a2d a2bd
00000350: f2c2 7dbc 032d 5d3c ec0d 0f3d de8f 71bc
00000360: 7903 983b 3859 66bd 8223 4dbd c4b9 213e
00000370: 35e7 ff3d f531 d8bd 9697 d03d d3d9 99bd
00000380: d394 13bd 900e d5bb a479 ddbd 2192 c3bc
00000390: b89c cfbc 5256 9abd b0e0 8ebd 736f 633e
000003a0: 2b4a dfbd 1480 5d3d ba06 24be 669c b7bd
000003b0: 28c2 dfbd 87fb babd da06 983b afdc c1bd
000003c0: 9cbe 4fbd 7ec1 193e a85a 163e 85bd 783b
000003d0: 9c02 1b3e b38c be3d fd4a 21bb 5e0e 1ebc
000003e0: 1f75 41be 95ab 9ebd bc0f 963b 541c f33c
000003f0: a8e3 f33b c4fb 2cbe 1efe 53bd 2ead 43bd

2._model.0.bias f4 [32]
-0.0029237466 0.029152635 0.0015721025 0.030738896 0.007856932 0.02417882 -0.0018858293 -0.010236322
0.006343594 0.0070444536 0.0129463 -0.013123214 0.010951459 0.0007018161 0.0023358439 0.01400147
-0.02287875 -0.003762397 -0.0055903345 -0.007856816 -0.02031967 -0.006080799 0.013731778 0.0049276864
0.016448367 0.047315434 -0.06398551 0.02359279 -0.027174272 -0.006106385 -0.01346412 -0.008062943
00000000: 549c 3fbb 82d1 ee3c 020f ce3a 23d0 fb3c
00000010: 5cba 003c a912 c63c ee2d f7ba 3fb6 27bc
00000020: ecdd cf3b 29d5 e63b b81c 543c c002 57bc
00000030: c06d 333c 15fa 373a f514 193b 6c66 653c
00000040: 376c bbbc 8c92 76bb 202f b7bb e0b9 00bc
00000050: 7075 a6bc 7041 c7bb 40fb 603c 6e78 a13b
00000060: babe 863c d4cd 413d d60a 83bd ab45 c13c
00000070: 949c debc 1218 c8bb 9d98 5cbc 6f1a 04bc
