data/etc/pretrained_model/fencing/0.95/motor_decoder.pt (torch_old, 126857 bytes, 6 tensors)

0._model.0.weight f4 [128, 64]
-0.25661412 -0.16230437 0.119060874 0.346316 0.1592673 -0.0737061 0.17032383 -0.27445903
0.06786514 -0.1478003 0.086790375 -0.17425042 -0.022675129 0.09172686 -0.09861872 0.106995024
0.07566753 0.043576736 0.07632972 -0.06197623 -0.05583989 -0.049157694 -0.1418478 -0.018902175
0.07620517 0.3017524 0.008800684 0.046684146 0.21960306 0.12279392 0.12872493 -0.19085582
0.067466825 0.05228078 -0.09131316 0.0011205866 -0.010547741 0.099964075 -0.108231656 0.06279539
-0.17871776 0.20948547 -0.21333732 0.14580463 -0.0034930923 0.06711874 -0.0882106 0.06704911
-0.048946843 0.03290852 0.11404781 -0.39408016 0.05495226 0.16383763 -0.11119492 -0.15231882
0.041377448 0.010076443 -0.08125186 -0.20915683 0.13608164 -0.22344647 0.061851848 -0.025054779
-0.23258762 -0.0408121 -0.10138051 0.018198311 -0.070730604 0.12102913 -0.20740467 0.20709196
-0.16423485 -0.04902631 0.10040061 0.08098304 -0.05707981 -0.23902427 -0.0035237912 0.07838852
-0.10414584 0.09723289 0.12322175 -0.004511217 0.1695513 -0.14477976 0.019974977 -0.016632987
0.12464178 -0.007265021 -0.041971892 -0.059400097 0.19596191 -0.23743384 0.061782982 0.023622015
0.16343339 -0.14782797 -0.010196942 -0.02180736 -0.014999251 -0.12794392 0.12479089 -0.031033186
-0.07437404 -0.35786277 -0.43080336 0.20369396 0.23232383 -0.01950031 0.08858096 -0.013420251
-0.020304525 -0.02620518 0.16443789 -0.0596546 0.049189877 -0.09729795 -0.045144435 -0.12907329
-0.06762378 -0.1445632 -0.19183405 -0.2349943 -0.17202596 -0.16129981 -0.33608982 0.28249788
0.043380875 0.34083745 0.23802128 -0.13855582 -0.07570173 -0.06415312 0.049076345 -0.05662938
-0.07046309 0.012619754 0.2074254 0.040477723 0.019946018 0.21018045 -0.14479287 -0.12292118
0.058653563 0.010052357 0.182632 0.020247463 0.22859834 -0.18923457 0.07112974 0.17446977
-0.18190159 0.07954986 -0.090836346 0.007883052 0.003427166 0.038968362 0.10163956 0.20542836
0.12261075 -0.18933247 0.058230836 -0.13959144 0.12871782 -0.12502675 -0.17350346 -0.16292135
0.04503873 0.016307343 0.27781507 -0.17146552 0.13623685 -0.09760979 0.023968758 0.06841149
-0.051082205 0.24348737 0.11308626 0.07221242 -0.29917473 -0.09898519 0.030424977 0.28564274
0.047578264 0.07657515 0.06309758 -0.16084057 -0.010787736 0.15371475 -0.26915607 -0.09199246
-0.1749422 -0.15754142 -0.042858355 -0.18547684 -0.19094558 0.037292436 0.18915863 0.037919942
0.19283606 0.19011697 0.18366304 -0.13093454 -0.27122226 0.009410646 0.23195669 -0.0589355
0.09774594 0.04547768 0.13188174 0.08326797 0.14721514 -0.067834616 -0.007990092 -0.10020529
-0.17048158 0.17348947 -0.022206586 0.0039861817 -0.03422241 -0.060651075 -0.06468635 -0.037106592
-0.14983135 0.04020035 -0.12389509 -0.032728978 -0.007831136 0.20331025 0.22976379 0.19731902
0.19079648 0.09806134 -0.05703198 -0.03713296 0.19349124 0.056521006 0.04388692 -0.17239656
0.21194866 0.07156197 0.33323157 0.20566674 -0.08077076 -0.014682312 -0.057358697 0.21892186
-0.2676247 0.1390288 -0.012197138 0.03045722 -0.0071931966 -0.097807325 0.304118 -0.107555896
00000000: ed62 83be 1e33 26be 30d6 f33d 5550 b13e
00000010: f816 233e 39f3 96bd 5f69 2e3e e585 8cbe
00000020: e1fc 8a3d f658 17be 27bf b13d b46e 32be
00000030: 31c1 b9bc 4bdb bb3d 9df8 c9bd 3520 db3d
00000040: 94f7 9a3d 857d 323d c252 9c3d cada 7dbd
00000050: 5eb8 64bd 9459 49bd 8d40 11be bcd8 9abc
00000060: 7511 9c3d 4a7f 9a3e be30 103c e037 3f3d
00000070: a0df 603e 617b fb3d 78d0 033e b56f 43be
00000080: 0c2c 8a3d 5f24 563d 6502 bbbd a6e0 923a
00000090: 6fd0 2cbc f7b9 cc3d 8fa8 ddbd df9a 803d
000000a0: ca01 37be 5c83 563e 1975 5abe cf4d 153e
000000b0: 5dec 64bb 8d75 893d c2a7 b4bd 0b51 893d
000000c0: 7c7c 48bd 16cb 063d e691 e93d e0c4 c9be
000000d0: 9f15 613d 0dc5 273e 2aba e3bd 77f9 1bbe
000000e0: 667b 293d aa17 253c 6067 a6bd 352d 56be
000000f0: fc58 0b3e 27cf 64be 5d58 7d3d ae3f cdbc
00000100: 732b 6ebe 972a 27bd 96a0 cfbd a014 953c
00000110: 35db 90bd 1fde f73d e461 54be ea0f 543e
00000120: 2e2d 28be d0cf 48bd d69e cd3d 70da a53d
00000130: 85cc 69bd c7c2 74be 68ef 66bb 298a a03d
00000140: 6a4a d5bd 0a22 c73d af5b fc3d d5d2 93bb
00000150: db9e 2d3e 2541 14be 90a2 a33c e741 88bc
00000160: 3144 ff3d 6a0f eebb b8ea 2bbd 844d 73bd
00000170: 3daa 483e db21 73be 2710 7d3d f582 c13c
00000180: 155b 273e 3760 17be 1311 27bc 59a5 b2bc
00000190: 6bbf 75bc bb03 03be 5e92 ff3d 4f39 febc
000001a0: 6b51 98bd ca39 b7be 4292 dcbe 2695 503e
000001b0: 4ce6 6d3e 1dbf 9fbc ef69 b53d 9de0 5bbc
000001c0: ad55 a6bc 3fac d6bc 6862 283e 6258 74bd
000001d0: 537b 493d 2644 c7bd 5fe9 38bd ca2b 04be
000001e0: 567e 8abd 6008 14be 2570 44be 59a2 70be
000001f0: 9327 30be c72b 25be f713 acbe 90a3 903e
00000200: 25b0 313d 3f82 ae3e dabb 733e 94e1 0dbe
00000210: 8209 9bbd b662 83bd 4704 493d 35f4 67bd
00000220: f44e 90bd 16c3 4e3c 5367 543e f8cb 253d
00000230: d565 a33c 8b39 573e 9544 14be 1abe fbbd
00000240: b83e 703d a4b2 243c e203 3b3e 02de a53c
00000250: af15 6a3e b5c6 41be 78ac 913d 34a8 323e
00000260: 6944 3abe 09eb a23d 6808 babd eb27 013c
00000270: 4e9a 603b 4a9d 1f3d 6728 d03d d05b 523e
00000280: 581b fb3d 5fe0 41be 7583 6e3d 0ff1 0ebe
00000290: 9bce 033e 0307 00be e4aa 31be dbd4 26be
000002a0: 887a 383d fa96 853c c73d 8e3e a894 2fbe
000002b0: ac81 0b3e a4e7 c7bd 215a c43c 531b 8c3d
000002c0: 933b 51bd c154 793e c599 e73d 1be4 933d
000002d0: 6e2d 99be bfb8 cabd cd3d f93c c43f 923e
000002e0: 6de1 423d 6fd3 9c3d 4e39 813d 64b3 24be
000002f0: 0bbf 30bc 6667 1d3e d3ce 89be 8b66 bcbd
00000300: 0c24 33be 8a52 21be 3e8c 2fbd a4ed 3dbe
00000310: 3d87 43be f4bf 183d cdb2 413e f151 1b3d
00000320: d176 453e 06ae 423e 2a12 3c3e b413 06be
00000330: a5dd 8abe 1c2f 1a3c 0e86 6d3e 5a66 71bd
00000340: 062f c83d ce46 3a3d 020c 073e 6688 aa3d
00000350: 91bf 163e e0ec 8abd e0e8 02bc 6e38 cdbd
00000360: b992 2ebe 39a7 313e 96ea b5bc 849e 823b
00000370: cc2c 0cbd 436d 78bd 477a 84bd 15fd 17bd
00000380: 646d 19be 1fa9 243d b5bc fdbd d20e 06bd
00000390: 2a4e 00bc 9030 503e 3347 6b3e ff0d 4a3e
000003a0: 2760 433e 62d4 c83d 5e9a 69bd bb18 18bd
000003b0: 9122 463e 9282 673d c5c2 333d b988 30be
000003c0: 1209 593e 158f 923d 549d aa3e 4d9a 523e
000003d0: 246b a5bd 148e 70bc f4f0 6abd 0d2d 603e
000003e0: 1b06 89be 915d 0e3e 81d6 47bc 6b81 f93c
000003f0: e8b4 ebbb 354f c8bd 5bb5 9b3e 4446 dcbd

0._model.0.bias f4 [128]
0.062690035 0.02969701 -0.009064411 0.09842079 0.055493694 0.04164409 0.030357134 0.02482466
0.020364342 0.033194654 0.056406505 0.023017157 0.057675034 0.03634837 0.010795736 0.039232444
0.050284263 0.013727215 -0.00068966835 0.037035607 0.042290192 -0.0026029404 0.04056549 -0.028184677
0.039183192 0.014693793 0.0368302 0.06189139 0.047206055 0.024228813 0.018214175 0.069975294
0.035874747 0.033464804 0.024442825 0.047558688 0.022281084 0.054969534 0.0015657729 0.052907445
0.042144362 -0.017572952 0.00534761 0.026321556 0.038469102 0.03152352 0.04323784 -0.027012
-0.0011724689 0.025079282 0.015413574 0.028528575 0.06489106 0.046538066 0.008516286 0.018696094
0.05620557 0.0015034823 0.054974288 0.012239885 0.014095125 0.036343116 0.044933334 0.051775772
0.038851872 0.036114175 0.0047409097 0.035075866 0.01146795 0.057549857 0.04301509 0.01898312
0.015317419 0.056872405 0.04218389 0.017345626 0.051502448 0.040743914 0.0124296425 0.011652735
0.04650833 0.027553583 0.05269121 0.0054500103 0.024436295 0.006211513 0.018213117 0.04087969
0.019629834 -0.017194549 0.040252466 0.026835073 0.042498168 0.04889409 0.039762944 0.00033308516
0.03566883 -0.012807855 0.053989366 0.032120626 0.04679532 0.02215364 0.02449629 0.039540492
0.0014948604 0.05526483 0.039294653 0.035804644 0.03267923 0.025821494 0.0029452168 0.10763372
0.017166749 0.036762945 0.040190108 -0.0047798655 0.04869978 0.016285172 0.035723574 0.016907258
0.04218159 0.015752167 0.034712143 0.056336712 -0.0061087795 0.052498076 0.05900452 0.036509965
00000000: a263 803d 2547 f33c e582 14bc d790 c93d
00000010: 5b4d 633d fe92 2a3d 86af f83c 165d cb3c
00000020: 1fd3 a63c 1ef7 073d 820a 673d 7a8e bc3c
00000030: a83c 6c3d 07e2 143d 99e0 303c 33b2 203d
00000040: dff6 4d3d 1de8 603c dcca 34ba a6b2 173d
00000050: 7b38 2d3d 1896 2abb 0028 263d 8de3 e6bc
00000060: 8e7e 203d 3cbe 703c 44db 163d d381 7d3d
00000070: 235b 413d 817b c63c e535 953c 354f 8f3d
00000080: 66f1 123d 6412 093d 523c c83c e6cc 423d
00000090: d286 b63c bc27 613d 9f3a cd3a 7ab5 583d
000000a0: 919f 2c3d 27f5 8fbc 013b af3b 4ea0 d73c
000000b0: c791 1d3d ce1e 013d 291a 313d 4548 ddbc
000000c0: 87ad 99ba 1173 cd3c 3789 7c3c c2b4 e93c
000000d0: 9be5 843d b39e 3e3d e487 0b3c 8d28 993c
000000e0: d037 663d 7f10 c53a b82c 613d cc89 483c
000000f0: 3def 663c 85dc 143d 040c 383d d512 543d
00000100: 2423 1f3d 75ec 133d a259 9b3b b6ab 0f3d
00000110: 12e4 3b3c 66b9 6b3d 9730 303d 7d82 9b3c
00000120: e9f5 7a3c 0af3 683d 04c9 2c3d 6a18 8e3c
00000130: 3bf4 523d 17e3 263d b3a5 4b3c 1deb 3e3c
00000140: 857f 3e3d 0db8 e13c bdd2 573d 0096 b23b
00000150: a02e c83c f389 cb3b ad33 953c 7671 273d
00000160: bfce a03c 95db 8cbc c5df 243d 3ad5 db3c
00000170: 8f12 2e3d 2b45 483d 78de 223d efa1 ae39
00000180: 7b19 123d 0ad8 51bc f423 5d3d eb90 033d
00000190: 73ac 3f3d 8d7b b53c 72ac c83c 36f5 213d
000001a0: 31ef c33a 605d 623d 6ef3 203d e4a7 123d
000001b0: a8da 053d 9987 d33c 8a04 413b 116f dc3d
000001c0: 48a1 8c3c be94 163d 629e 243d 6ba0 9cbb
000001d0: 6c79 473d 7b68 853c e252 123d 1781 8a3c
000001e0: 9ac6 2c3d b00a 813c 522e 0e3d 53c1 663d
000001f0: 282c c8bb 3908 573d b9ae 713d 798b 153d

1._model.0.weight f4 [128, 128]
0.02826514 0.14897215 0.07476795 -0.15734397 0.04257121 0.12774977 -0.116074614 -0.019596048
0.080234215 -0.019762447 0.061180662 0.066047676 0.09353651 0.12045037 0.0876417 -0.13579838
-0.11054431 0.03875433 0.21279746 -0.002371136 -0.17444798 0.03618225 -0.16772372 -0.16872731
-0.054384466 0.20608838 0.09658083 -0.049351506 -0.19169825 -0.101287745 0.01274528 -0.05681649
-0.025455764 -0.063106336 0.031281088 -0.0726741 -0.44353467 -0.19470713 -0.11024432 -0.12860866
-0.123610206 0.067660294 -0.08837308 0.12736385 0.07579758 -0.09934192 0.057394374 0.0685771
0.025710639 0.13759737 0.11014307 0.1345793 0.20708288 -0.06528912 0.15892272 -0.13796122
-0.18303248 0.04772172 -0.013631245 0.12040409 -0.07372322 0.055108145 -0.16900763 -0.03206442
-0.09194782 -0.11487982 -0.1359548 -0.01861276 0.07675254 0.08802399 0.062161893 -0.13981621
0.09914036 0.03161756 0.040935732 0.20278214 -0.05975028 -0.1984516 0.14902936 0.17457502
-0.20718788 -0.115916245 -0.035637062 -0.08074032 -0.038533386 -0.010094357 0.03634971 0.07578239
-0.099386476 -0.07386056 -0.19672689 -0.13337918 0.001467905 0.19311261 0.14260344 -0.05049695
0.1281656 0.1140677 0.038448893 -0.03604549 0.030290455 0.021421812 0.104069345 0.07052098
-0.09348087 0.15732956 -0.05991483 -0.0811506 -0.0033063495 0.26573253 0.0069732247 0.062181648
-0.13902237 -0.06960387 0.0037078965 0.06588666 0.004588385 -0.051401213 -0.0981078 0.014823428
-0.041824453 0.14767721 0.07657817 -0.10940078 0.05370463 -0.058032606 0.017767614 0.15167959
0.07402136 -0.02929243 0.1295557 -0.21531366 -0.09023505 -0.010366771 -0.033992816 -0.06425973
0.080747396 -0.015861323 -0.084011815 0.059686664 0.046798173 0.03625338 0.15702264 -0.029207107
0.08689186 0.019979192 -0.15677415 0.038845487 -0.04817995 0.15645096 -0.12881239 0.06348968
0.14992957 0.035234593 -0.030007107 0.026742965 -0.06233682 -0.13816142 -0.12733378 -0.00021091511
0.2567921 0.057109796 -0.03609743 0.013721876 -0.11895532 -0.096816786 -0.07941874 0.02926456
-0.23048788 -0.18026844 -0.038376417 0.009535836 0.09181267 -0.004749199 0.013638519 -0.12340013
0.18928817 0.104927585 0.09815617 0.006103858 0.059151825 -0.010949235 0.02114685 -0.14064968
-0.16166756 -0.114136 0.040733404 0.17293404 0.050039068 -0.15936838 0.13595317 -0.14240694
-0.0037266358 -0.17652231 -0.17770113 -0.013135666 0.15809835 0.060223114 -0.11183002 -0.0892518
-0.091068216 0.09782604 -0.10629051 -0.058783285 -0.15085685 0.15247042 0.010736918 0.06905145
0.044216152 -0.06245276 -0.04949007 -0.1352362 -0.088814996 0.068816885 0.005577512 0.02112181
-0.029850224 0.0045367707 0.054199528 0.07916475 0.069433816 0.22218654 0.09041454 0.0017605831
0.17061451 -0.10612247 0.08728585 -0.002866111 -0.091599435 -0.11823054 -0.15132374 0.07269033
0.05049332 -0.013653572 0.19544098 0.010036765 -0.010199288 0.065591045 -0.16386639 -0.019044766
-0.09198026 -0.21332274 -0.14830808 0.059527673 -0.023174753 -0.1154141 -0.062014066 0.0010592941
0.014599309 0.20706125 -0.12038389 0.08051698 0.09272415 -0.15565123 -0.017175457 0.23393054
00000000: 4b8c e73c 288c 183e f01f 993d c71e 21be
00000010: 265f 2e3d d6d0 023e 87b8 edbd e487 a0bc
00000020: d651 a43d dbe4 a1bc 9398 7a3d 0144 873d
00000030: 1290 bf3d afae f63d 7e7d b33d bb0e 0bbe
00000040: 0e65 e2bd dcbc 1e3d 94e7 593e 1065 1bbb
00000050: 7ea2 32be d733 143d c4bf 2bbe dac6 2cbe
00000060: 3fc2 5ebd d508 533e 2ccc c53d ce24 4abd
00000070: 8c4c 44be f36f cfbd 94d1 503c 68b8 68bd
00000080: 9b88 d0bc e53d 81bd 9920 003d 29d6 94bd
00000090: fa16 e3be 4e61 47be c6c7 e1bd fdb1 03be
000000a0: 5927 fdbd 7b91 8a3d f2fc b4bd ab6b 023e
000000b0: c33b 9b3d c773 cbbd 5d16 6b3d 2772 8c3d
000000c0: 1e9f d23c 53e6 0c3e b192 e13d 28cf 093e
000000d0: 890d 543e 4db6 85bd a3bc 223e b545 0dbe
000000e0: de6c 3bbe da77 433d 9655 5fbc 6b96 f63d
000000f0: 33fc 96bd 14b9 613d 5610 2dbe fb55 03bd
00000100: 234f bcbd 1c46 ebbd bc37 0bbe c979 98bc
00000110: 7030 9d3d ec45 b43d 789d 7e3d fb2b 0fbe
00000120: 1a0a cb3d 6a81 013d 3aac 273d 1fa6 4f3e
00000130: b6bc 74bd e536 4bbe 279b 183e cbc3 323e
00000140: 0f29 54be 7f65 edbd 2bf8 11bd 2e5b a5bd
00000150: 2fd5 1dbd cd62 25bc 6fe3 143d cc33 9b3d
00000160: 238b cbbd 3544 97bd c672 49be 8d94 08be
00000170: b866 c03a 50bf 453e a306 123e e4d5 4ebd
00000180: d83d 033e 549c e93d 967c 1d3d 70a4 13bd
00000190: b023 f83c cc7c af3c 4f22 d53d 4e6d 903d
000001a0: e672 bfbd 001b 213e 4169 75bd 4932 a6bd
000001b0: 57af 58bb 180e 883e a67f e43b 2fb2 7e3d
000001c0: e15b 0ebe 798c 8ebd 2e00 733b 96ef 863d
000001d0: 2a5a 963b 148a 52bd beec c8bd f7dd 723c
000001e0: 1e50 2bbd b238 173e 04d5 9c3d 840d e0bd
000001f0: 63f9 5b3d 99b3 6dbd 638d 913c e551 1b3e
00000200: 8398 973d aef6 efbc 40aa 043e 2f7b 5cbe
00000210: 27cd b8bd 64d9 29bc 0d3c 0bbd 9b9a 83bd
00000220: e45e a53d 9bef 81bc 630e acbd 017a 743d
00000230: 71af 3f3d 6d7e 143d 8bca 203e be43 efbc
00000240: 5cf4 b13d 67ab a33c 6789 20be 721c 1f3d
00000250: 5758 45bd ae34 203e 65e7 03be e106 823d
00000260: 2387 193e 2652 103d 77d1 f5bc 1014 db3c
00000270: e554 7fbd 307a 0dbe c963 02be 1829 5db9
00000280: 417a 833e f6eb 693d e6da 13bd b8d1 603c
00000290: d99e f3bd e147 c6bd 4ba6 a2bd 3bbc ef3c
000002a0: 0405 6cbe 4a98 38be 9730 1dbd 323c 1c3c
000002b0: 4808 bc3d 2b9f 9bbb 1874 5f3c 35b9 fcbd
000002c0: c2d4 413e 46e4 d63d 1a06 c93d df02 c83b
000002d0: 2f49 723d 6c64 33bc 293c ad3c 7806 10be
000002e0: 2e8c 25be 23c0 e9bd 12d8 263d 9f15 313e
000002f0: c4f5 4c3d 7731 23be 4f37 0b3e 20d3 11be
00000300: 933a 74bb 44c2 34be 49f7 35be fa36 57bc
00000310: 89e4 213e 83ac 763d 2307 e5bd a6c9 b6bd
00000320: f981 babd 0559 c83d d7ae d9bd bec6 70bd
00000330: 387a 1abe 3521 1c3e e6e9 2f3c d96a 8d3d
00000340: ff1b 353d 77ce 7fbd 1ab6 4abd 5c7b 0abe
00000350: a3e4 b5bd deef 8c3d 90c3 b63b a507 ad3c
00000360: 7588 f4bc 31a9 943b 5300 5e3d 2121 a23d
00000370: 5133 8e3d de84 633e 422b b93d 5ec3 e63a
00000380: 92b5 2e3e bd56 d9bd ecc2 b23d 5dd5 3bbb
00000390: 7c98 bbbd da22 f2bd 9cf4 1abe abde 943d
000003a0: 15d2 4e3d 3bb3 5fbc ae21 483e 3e71 243c
000003b0: ea1a 27bc 9954 863d 97cc 27be c503 9cbc
000003c0: 2660 bcbd 4771 5abe 13de 17be 4ad3 733d
000003d0: fbd8 bdbc 3a5e ecbd 7602 7ebd 03d8 8a3a
000003e0: f131 6f3c dd07 543e d48b f6bd 16e6 a43d
000003f0: 29e6 bd3d 0963 1fbe 8bb3 8cbc 7d8b 6f3e

1._model.0.bias f4 [128]
0.023063855 -0.0026171135 0.020984277 0.007195731 0.0006566362 0.026099484 0.02146947 0.0056938278
0.017143326 -0.016931733 0.035431758 0.004074603 0.021670396 0.0021992938 0.021792132 0.025145458
0.044726737 -0.021891795 0.0076719746 0.023545777 -0.009298905 0.014597512 0.020332979 0.01309188
0.031404432 -0.009757178 0.009088768 0.01692577 0.015244316 0.036421843 0.01971187 0.0026107375
-0.0026434665 0.023873564 -0.005527948 0.009854145 0.01913069 0.0074979872 0.02027352 0.02260188
-0.002267048 0.016250083 0.019767273 0.026315223 -0.0018189673 0.047497194 0.0024866445 0.034356497
0.02162536 0.02672527 0.006827147 0.036168884 -0.019842144 0.017679272 0.004784364 0.0023943076
0.009535873 0.025790969 -0.0022160814 0.015243655 0.00047518843 0.05191996 -0.006601467 0.009102462
0.038216352 -0.0068405466 -0.009154589 0.0138693135 0.024037182 0.0076508964 0.0072143343 0.029025683
0.025195314 0.03213761 -0.006652648 0.023436336 0.021407817 -0.016893938 0.012875893 0.029876726
0.03221183 0.013268497 0.0138812 0.021393627 0.028131908 0.024868531 0.017135551 0.030715171
0.021067394 0.011329746 0.032315407 -0.0128833 0.0032102095 -0.007510097 0.03322933 0.03634831
0.0003945669 0.0048685237 0.031465653 -0.003732617 0.016545905 0.020346027 0.02503919 -0.0026084036
0.0182813 0.026197609 0.023476696 0.024896763 0.009261213 0.0075367303 -0.0022776057 0.008674362
0.038269497 0.023085997 0.017093433 0.010920719 0.03259044 0.033868864 -0.012119834 0.026040178
0.02993702 0.0024846392 0.013667012 0.008700112 0.024005901 -0.0020610995 0.009338858 0.024954835
00000000: 69f0 bc3c e183 2bbb 38e7 ab3c 2bca eb3b
00000010: 1c22 2c3a 96ce d53c bee0 af3c 4a93 ba3b
00000020: 2970 8c3c 6bb4 8abc e420 113d 3f84 853b
00000030: 1d86 b13c 0722 103b 6a85 b23c d9fd cd3c
00000040: 6233 373d 6c56 b3bc 3065 fb3b 13e3 c03c
00000050: 6f5a 18bc 672a 6f3c 5991 a63c 537f 563c
00000060: efa1 003d 92dc 1fbc 0ee9 143c eaa7 8a3c
00000070: 4cc3 793c 122f 153d ca7a a13c e818 2b3b
00000080: 023e 2dbb 7e92 c33c ca23 b5bb 4873 213c
00000090: f7b7 9c3c adb1 f53b a714 a63c 9427 b93c
000000a0: c192 14bb e51e 853c faee a13c 0693 d73c
000000b0: 6a6a eeba 6b8c 423d f9f6 223b 66b9 0c3d
000000c0: ab27 b13c f4ee da3c 43b6 df3b d325 143d
000000d0: fe8b a2bc 1fd4 903c 27c6 9c3b d1e9 1c3b
000000e0: 5a3c 1c3c 9547 d33c ad3b 11bb 86c0 793c
000000f0: b622 f939 06aa 543d 1e51 d8bb 7e22 153c
00000100: c088 1c3d aa26 e0bb 21fd 15bc 1e3c 633c
00000110: a0e9 c43c 5fb4 fa3b 3966 ec3b 45c7 ed3c
00000120: 6766 ce3c baa2 033d 75fe d9bb 8ffd bf3c
00000130: 725f af3c 2865 8abc 69f5 523c 09c0 f43c
00000140: 8df0 033d 1c64 593c f96d 633c b041 af3c
00000150: e374 e63c 17b9 cb3c db5f 8c3c 629e fb3c
00000160: 8795 ac3c 66a0 393c 295d 043d 7a14 53bc
00000170: 6162 523b 4317 f6bb 7a1b 083d f7e1 143d
00000180: dfdd ce39 2388 9f3b 21e2 003d ec9e 74bb
00000190: 478b 873c b6ac a63c fd1e cd3c c0f1 2abb
000001a0: aac2 953c 5e9c d63c 3352 c03c 4cf4 cb3c
000001b0: 58bc 173c adf6 f63b e243 15bb e91e 0e3c
000001c0: 7ac0 1c3d d81e bd3c 8707 8c3c d1ec 323c
000001d0: 8e7d 053d 14ba 0a3d 4592 46bc 3652 d53c
000001e0: 7b3e f53c 54d5 223b 9aeb 5f3c ea8a 0e3c
000001f0: 06a8 c43c 8313 07bb 0202 193c 156e cc3c

2._model.0.weight f4 [51, 128]
0.024316417 -0.097746514 -0.019214202 -0.0007265361 0.028043158 0.0067671994 0.03593192 0.007083806
0.029240735 0.037861146 -0.014801828 0.002032073 -0.022045976 -0.01685283 0.007985755 0.010933383
0.005691971 0.010368598 -0.001868699 -0.03203479 -0.016324114 -0.037178688 -0.013240089 -0.047056887
0.03887314 0.00052316335 0.048224114 -0.03593291 -0.0043628616 -0.015477127 0.025335502 0.008697005
0.020329999 0.020215595 -0.0026393107 0.042537652 -0.010559726 -0.00958551 0.005323382 -0.025606375
0.0020119192 -0.029941153 0.040131155 0.014740247 0.029033571 0.0293397 -0.009330743 -0.034105808
-0.019447569 -0.008117324 0.002237297 -0.018357385 0.029668206 0.02797777 0.079295546 0.001432277
-0.023231354 -0.045369625 0.011625429 -0.009635973 0.007845893 -0.012950715 0.019654974 -0.017793642
-0.009130288 -0.011073 0.019628584 0.030537792 0.02086913 0.00039653693 0.012709273 -0.008386373
-0.07084467 0.0020467977 -0.008880897 -0.015305105 -0.009049413 -0.005202431 0.015578115 -0.041818358
0.0034654392 -0.033624697 0.01200848 0.02040412 -0.024120968 0.017026601 -0.06150331 -0.0057938006
0.02381617 0.017704034 0.0021807903 0.008783495 -0.012591707 -0.042159405 0.051571168 -0.017371977
-0.013985166 0.017181 -0.016573492 0.07407464 -0.020281047 -0.004199865 0.003489722 0.034905884
-0.0054395697 -0.012403984 -0.037502944 0.012668067 0.008837469 0.022276293 0.041928913 -0.06289361
-0.01062418 1.8406077e-05 0.00629319 -0.041377917 -0.01568398 -0.019707462 -0.003844136 -0.018989611
0.024932647 0.019329108 0.010697404 0.048687622 0.008165617 -0.04005644 -0.025325563 -0.0030660906
0.012396994 0.030047059 0.00856903 0.010645666 -0.021025095 0.029380366 0.02354732 -0.0016639453
-0.01742088 -0.009429041 -0.0045657475 0.0086247455 -0.0027944003 0.010848244 -0.011989441 0.023622116
0.0101867 0.039382562 -0.009087691 0.013095038 0.022283675 0.027798291 -0.03576689 -0.0018424732
0.015982598 -0.0068707895 0.005499571 -0.029114997 3.348026e-06 -0.00096739136 -0.005970512 0.023920033
-0.005930913 0.008381975 -0.0014434787 0.02007419 -0.005770265 -0.0068979454 -0.008681745 -0.002167974
0.0061262213 -0.017983124 0.001479763 0.0023420132 -0.009343219 0.01974365 -0.010170086 0.0016901338
-0.0044216802 0.006486497 0.011776081 0.0021505433 -0.03901802 -0.017265247 -0.0035412444 0.007614782
0.022670075 -0.003886502 0.011112758 0.005506574 0.008709943 0.000821139 -0.02291652 -0.0010048882
-0.015679829 -0.0045164325 -0.026227683 -0.017728573 0.009254953 -0.0027185376 0.016488336 0.0019698434
-0.027078435 -0.000736582 -0.0029700177 0.030805595 -0.011596355 0.025681365 0.015089502 0.009834331
0.018012447 -0.017991837 0.03184291 -0.015887437 0.0033650354 0.023003409 -0.02165381 0.024832841
0.020969488 -0.0037871578 0.031207334 0.05030816 0.025819793 -0.02274749 0.014731985 0.009553625
0.00516149 -0.006697769 0.019561239 0.0035169323 0.013295759 -0.0122199785 -0.012525433 -0.005972951
-0.0024000495 0.00013893205 -0.008698534 -0.019725718 0.011783398 -0.0068246108 -0.032007102 0.013440384
-0.008121406 -0.02039016 0.0059519247 -0.009598183 -0.015971398 0.010431836 -0.0005635707 -0.011637528
0.0096142525 -0.010047118 -0.008558253 0.016849566 -0.011884328 -0.018423392 -0.012716916 -0.000797176
00000000: 3933 c73c 532f c8bd 1a67 9dbc 0375 3eba
00000010: c4ba e53c 62bf dd3b 592d 133d 461f e83b
00000020: 448a ef3c 4a14 1b3d 5e83 72bc 872c 053b
00000030: c399 b4bc f20e 8abc afd6 023c ef21 333c
00000040: b783 ba3b 0de1 293c 22ef f4ba e936 03bd
00000050: 26ba 85bc ae48 18bd f5ec 58bc b9be 40bd
00000060: 7139 1f3d e624 093a a686 453d 632e 13bd
00000070: 56f6 8ebb c793 7dbc 668c cf3c e27d 0e3c
00000080: 198b a63c 2d9b a53c 49f8 2cbb f63b 2e3d
00000090: b302 2dbc 8b0c 1dbc c46f ae3b 76c4 d1bc
000000a0: 67da 033b 2647 f5bc 9160 243d 1481 713c
000000b0: d0d7 ed3c cf59 f03c f9df 18bc 88b2 0bbd
000000c0: 8250 9fbc 86fe 04bc 9d9f 123b 3a62 96bc
000000d0: bd0a f33c a331 e53c b465 a23d 3ebb bb3a
000000e0: ae4f bebc 80d5 39bd 9578 3e3c 33e0 1dbc
000000f0: 0f8c 003c 3c2f 54bc 7803 a13c f9c3 91bc
00000100: 3497 15bc 876b 35bc 20cc a03c 642a fa3c
00000110: bdf5 aa3c 49e6 cf39 8e3a 503c ff66 09bc
00000120: 0317 91bd 9123 063b 2f81 11bc 43c2 7abc
00000130: fd43 14bc 2879 aabb 5a3b 7f3c ba49 2bbd
00000140: 6c1c 633b 0dba 09bd 37bf 443c 8b26 a73c
00000150: 5699 c5bc 5f7b 8b3c e5ea 7bbd ecd9 bdbb
00000160: 211a c33c 0d08 913c 97eb 0e3b a6e8 0f3c
00000170: 724d 4ebc 57af 2cbd 4a3c 533d ad4f 8ebc
00000180: 0a22 65bc 2bbf 8c3c 22c5 87bc 72b4 973d
00000190: 7024 a6bc 059f 89bb d2b3 643b 79f9 0e3d
000001a0: 6b3e b2bb 143a 4bbc b09c 19bd b98d 4f3c
000001b0: 08cb 103c c67c b63c a7bd 2b3d 5dce 80bd
000001c0: 0a11 2ebc c066 9a37 1b37 ce3b e47b 29bd
000001d0: b17b 80bc 8b71 a1bc e6ed 7bbb 1a90 9bbc
000001e0: 8d3f cc3c 1458 9e3c 2a44 2f3c ac6c 473d
000001f0: 14c9 053c 3912 24bd 8e77 cfbc 77f0 48bb
00000200: c31c 4b3c 4025 f63c 1e65 0c3c 296b 2e3c
00000210: d23c acbc 18af f03c 4fe6 c03c bd18 daba
00000220: 3cb6 8ebc 447c 1abc 449c 95bb ce4e 0d3c
00000230: 4222 37bb d5bc 313c 5c6f 44bc 2b83 c13c
00000240: 1ee6 263c 9c4f 213d 8ae4 14bc 928c 563c
00000250: 418c b63c 3eb9 e33c 4d80 12bd 247f f1ba
00000260: f0ed 823c 5c24 e1bb bf35 b43b 9382 eebc
00000270: a6ae 6036 8998 7dba 49a4 c3bb f2f3 c33c
00000280: 1b58 c2bb 8d54 093c 1c33 bdba a172 a43c
00000290: 7e14 bdbb 2908 e2bb e13d 0ebc 9114 0ebb
000002a0: 78be c83b 5851 93bc 9bf4 c13a 767c 193b
000002b0: 4d14 19bc 6fbd a13c 6fa0 26bc 7b87 dd3a
000002c0: bee3 90bb ae8c d43b 77f0 403c 21f0 0c3b
000002d0: 5cd1 1fbd d96f 8dbc 3914 68bb 6c85 f93b
000002e0: 98b6 b93c afb4 7ebb 4912 363c 7e70 b43b
000002f0: 26b4 0e3c b541 573a 6dbb bbbc 74b6 83ba
00000300: fc72 80bc 95fe 93bb 70db d6bc 833b 91bc
00000310: 16a2 173c 7e29 32bb 8c12 873c 7d18 013b
00000320: 98d3 ddbc 2e17 41ba a1a4 42bb 045c fc3c
00000330: a3fe 3dbc ba61 d23c f539 773c 2d20 213c
00000340: d78e 933c 9e63 93bc b66d 023d 5f26 82bc
00000350: ed87 5c3b a571 bc3c 5563 b1bc 3e6e cb3c
00000360: 34c8 ab3c f731 78bb 86a6 ff3c ee0f 4e3d
00000370: 0884 d33c f258 babc 6c5e 713c cf86 1c3c
00000380: b721 a93b f578 dbbb e43e a03c 557c 663b
00000390: 75d6 593c 4e36 48bc 7937 4dbc bfb8 c3bb
000003a0: 264a 1dbb 4aae 1139 4c84 0ebc d497 a1bc
000003b0: 270f 413c fca0 dfbb e119 03bd 0e35 5c3c
000003c0: a50f 05bc 4409 a7bc 5d08 c33b b341 1dbc
000003d0: 73d6 82bc 4bea 2a3c 97bc 13ba 55ab 3ebc
000003e0: 1985 1d3c ab9c 24bc ea37 0cbc 1a08 8a3c
000003f0: 7cb6 42bc a7ec 96bc 9d5a 50bc 93f9 50ba

2._model.0.bias f4 [51]
-0.022394745 0.0063594263 0.010593371 0.007675006 -0.005519202 -0.012225036 0.00033252986 0.008696117
-0.0023267926 -0.019275991 -0.043227594 -0.006107466 0.02826233 -0.016275594 -0.0044511994 0.006520709
-0.00844767 0.0006729615 0.024923934 -0.022617046 -0.0034222894 -0.007906614 -0.0043994407 -0.001138067
-0.01152917 -0.009492013 0.0071537583 0.0012673731 -0.011595591 0.006508372 0.007119382 -0.002036482
-0.006525609 -0.0021296805 0.011940371 -0.008015683 -0.008194715 0.005552361 -0.02714611 -0.006883514
-0.048316233 0.022848597 -0.015216094 -0.002074067 0.009691473 -0.015791414 0.02677503 0.0434987
-0.017004216 0.03168284 -0.008882097
00000000: 2f75 b7bc bc62 d03b d18f 2d3c 9e7e fb3b
00000010: 6cda b4bb 844b 48bc 6757 ae39 297a 0e3c
00000020: 1a7d 18bb afe8 9dbc 6b0f 31bd 2321 c8bb
00000030: 6786 e73c 6554 85bc 5edb 91bb acab d53b
00000040: 1968 0abc af69 303a 472d cc3c 6247 b9bc
00000050: 7d48 60bb be8a 01bc 2f29 90bb 312b 95ba
00000060: d8e4 3cbc 6384 1bbc 136a ea3b fc1d a63a
00000070: 6ffb 3dbc 2e44 d53b b449 e93b 8076 05bb
00000080: c7d4 d5bb 1c92 0bbb 8ca1 433c 3654 03bc
00000090: 2043 06bc 94f0 b53b 8561 debc 1a8f e1bb
000000a0: 3ee7 45bd fb2c bb3c ed4c 79bc 12ed 07bb
000000b0: fcc8 1e3c ff5c 81bc 4f57 db3c b12b 323d
000000c0: 6d4c 8bbc dec5 013d 3786 11bc
