data/etc/pretrained_model/boxing/imitation/exp27/5000/task_agnostic_policy_motor_decoder.pt (torch, 624455 bytes, 6 tensors)

_model.0._model.0.weight f4 [256, 298]
00000000: 15d1 3dbc 0604 aa3d ea27 c03d e066 e03d
00000010: a5b9 62bd e4aa 54be 3fb7 e7bd e844 c23c
00000020: ef95 a93d eb74 84bb 5197 d5bd 6514 c8bc
00000030: 1e8e 2bbd 281a 933c 7140 1d3c 3096 803b
00000040: c9af fd3d de81 ab3d a6a7 18bd e171 a33d
00000050: 40c9 3fbc 8474 20bc e02b fd3b d624 c4bb
00000060: 42a6 0a3d ecf0 93bc 9116 11bd 7624 2d3c
00000070: c6be bcbd 0b07 50bd 2c42 7d3b 6414 16be
00000080: 41fb 84bd a958 9e3c 575e 1abe c940 40be
00000090: 2df3 0a3d ce84 39bd 7bde 3a3d d29c b83c
000000a0: 6b55 c5be a0e6 24bd b691 15bf 6743 873d
000000b0: 3dc1 2ebe d910 71bd 5215 0d3d 160a 843d
000000c0: 5c6e b8bd 5c08 09bc 6af6 d63c cc3f d0ba
000000d0: e99a 8cbc 2942 f33d 4767 75bd 8035 e13d
000000e0: 604f 093e b312 43bd 2a2f 293d fe1a 973c
000000f0: 051d 433d c5fc febc 2cbd 943c 9204 463d
00000100: 73c5 fe3c 35d8 b6bb dff7 f8bd 9750 3fbe
00000110: 8ee4 903e c0a5 af3d 1e26 3fbe 9212 6dbc
00000120: e8d8 89bd 1b7e e73b 3f90 343c 0637 383d
00000130: fc7e f43c a5d3 0d3c ef4f 6bbd a7c8 63be
00000140: 9615 6cbe de5f de3d 0373 c9bc e4bc 023e
00000150: b610 c63c 4eba babd 706b b63d 03de 17bd
00000160: d3de bcbb dab9 f13b dea7 b83c 6aef 783e
00000170: ec11 ae3c 194c 023e d368 3abd 4d0d 3cbd
00000180: 44a5 093c eff7 8c3d 36ca f1bc 3c19 733d
00000190: 5761 783d b0fe 013c 6da9 96bd 6e71 97bd
000001a0: 7c0f 0f3e b867 823d 1000 3bbc 3070 e63d
000001b0: 3cba 873d 7060 70bd 9b59 d9bc 2438 cb3b
000001c0: e97f 7fbd 3fae 413c 00d4 003d b654 933d
000001d0: 0ff0 473d a975 473e 80a4 f53b 5a98 f9bc
000001e0: 542d 31bd 256c db3d 1ba9 54bd 73b2 9f3a
000001f0: a0af 083e 13ec a2bd eafe 063d cdf6 8abd
00000200: 5c06 4fbd a830 763d ecb5 533d a6a6 713d
00000210: 4ee8 b73d 22f9 133e 71dd a53d 74ec 52bd
00000220: 8313 c83c 169c abbd eb3c 0ebd 4111 693d
00000230: 37e9 063d 9db1 b23c a892 a6bc 8a7a 7f3d
00000240: eb8c 133d 34e2 afbb 1868 fcbd 715d d7bd
00000250: 6275 98b9 8137 afbd faf0 453d d557 2b3d
00000260: 5c84 9abd 2f91 883b 4827 983c 593f 48bc
00000270: a232 773d 2146 babc 68cd 0d3e 28d9 5b3d
00000280: 4736 ce3d 3e97 43bd 48f5 9fbc 8a5a 383d
00000290: 7e67 c63c 064f 1a3c d6ce 143c 96ca e8bc
000002a0: 25da 33ba fc6b e63d b0aa 4c3d ed06 1b3d
000002b0: 2449 a2bd b81d 553d 80d7 74bd 866e 03bc
000002c0: 1fc3 f13d 4842 08bd e435 d2bd b0d2 f2b9
000002d0: fcc1 8abd 1d4f 40bd 10a9 133d 8e6b bcbd
000002e0: 80e9 9cbc dffd d73b b3f3 993a ba88 e4bd
000002f0: c684 403d 052c b03d 1658 4b3d 7abb 53bd
00000300: 996f f3bc 5638 993d b922 a3bd 4fe7 6b3d
00000310: a4ed 9ebd 2fce f8bd f5fe ca3c de8b 4cbd
00000320: a412 5ebe e27c 0ebc 0e5a c13c 3dc9 bcbc
00000330: e008 bebd d672 823b 9bbc cdbc a590 a83d
00000340: 5cba c5bc 75f0 eebc 21e3 e93c f21c 5abd
00000350: f136 0d3e 6b5d a5bc 52d9 26bd 6964 b939
00000360: f9aa 08be 9c99 333d 208d 47bd eb97 06bc
00000370: 2d9f 903b c575 593d 8200 573d c1fe 313c
00000380: d1b7 cc3d 0338 fa3d 1c1f 293d c033 12bd
00000390: 87ca d83d fe75 9ebd 2ebe a5bc 9f4f 3f3d
000003a0: f7e5 b83d c348 2bbd 533c ea3d 4322 d93d
000003b0: 46c0 223d 9821 a6bd bf44 943d 325c 9c3d
000003c0: 12c7 123c cf6c b43c 91fb edbc abca 4abd
000003d0: 5a7a a23c f2f3 1ebd 647a 88bd ec27 9a3d
000003e0: 5f10 6c3b 886a 973b 7109 2bbe eab8 41bd
000003f0: a3e4 5bbc 0082 8c3d 0b6e 1bbd ef11 e03c
-0.011585494 0.08301549 0.09382613 0.10957122 -0.055352826 -0.20768315 -0.11314248 0.023714498
0.08280551 -0.004042258 -0.10429252 -0.024423787 -0.04188358 0.017956808 0.009597884 0.0039241537
0.12387044 0.083743796 -0.037269257 0.07980705 -0.011705697 -0.0097934045 0.0077261776 -0.0059858365
0.033849962 -0.018059216 -0.03542191 0.010567775 -0.09216075 -0.050787967 0.0038644178 -0.14656216
-0.064932354 0.019329386 -0.1507505 -0.18774714 0.033923317 -0.045292668 0.04562233 0.022535715
-0.3854173 -0.040259004 -0.5842546 0.06604653 -0.17065902 -0.058853958 0.03444416 0.06447236
-0.090054244 -0.008363809 0.026240546 -0.0015888154 -0.01716371 0.118778534 -0.059912946 0.109965324
0.13409185 -0.047625255 0.041304745 0.018445488 0.047635097 -0.03112639 0.01815661 0.048344202
0.03110001 -0.005579973 -0.12156653 -0.18683086 0.28299373 0.08576536 -0.18666884 -0.01446976
-0.06730825 0.0070645935 0.011020719 0.04497435 0.029845707 0.008656417 -0.057449277 -0.22244512
-0.2305511 0.10858129 -0.024590975 0.12767369 0.02417789 -0.09117566 0.08907211 -0.03707696
-0.0057638674 0.0073768916 0.022540983 0.24310079 0.02124878 0.12724341 -0.045510124 -0.045911122
0.008401219 0.06883227 -0.029515367 0.059350237 0.060639706 0.007934257 -0.07356534 -0.07394682
0.1397075 0.06367439 -0.011413589 0.11251867 0.06627318 -0.05868572 -0.026531985 0.006201761
-0.062377844 0.011821329 0.03145218 0.07193892 0.048812922 0.19478478 0.0074964166 -0.030468155
-0.04325612 0.10713986 -0.051919084 0.0012183919 0.13348246 -0.07955184 0.03295795 -0.06785355
-0.050543174 0.060104996 0.051687166 0.05899682 0.089798555 0.14450505 0.08098877 -0.05149503
0.024423366 -0.083793804 -0.034726065 0.05690122 0.032937255 0.021813208 -0.020333603 0.06237272
0.03602306 -0.0053675417 -0.12324542 -0.105158694 -0.00029079156 -0.085555084 0.048325516 0.04183181
-0.07544777 0.004167698 0.018573418 -0.0122221345 0.06035102 -0.022738518 0.13847888 0.053673893
0.10068946 -0.047751658 -0.019526139 0.04500822 0.02421927 0.009418255 0.009082517 -0.028416913
-0.0006860814 0.11251065 0.049967468 0.0378484 -0.07924107 0.052030295 -0.05977583 -0.008021956
0.118047945 -0.033266336 -0.10264185 -0.0004631481 -0.06775281 -0.04695045 0.036049902 -0.09200202
-0.01915431 0.006591543 0.0011745602 -0.11158891 0.047001623 0.08602146 0.049644552 -0.051692463
-0.0297163 0.07481448 -0.07965607 0.05759364 -0.0776017 -0.121487014 0.024779776 -0.049938075
-0.21686798 -0.008696767 0.023602512 -0.023045177 -0.092790365 0.0039809747 -0.025114348 0.08230714
-0.024136715 -0.029167393 0.028550686 -0.05325026 0.1379049 -0.020186147 -0.040734597 0.0003536076
-0.13346471 0.043847665 -0.04871857 -0.008214931 0.0044135065 0.05309083 0.05249072 0.010863961
0.09995998 0.12217715 0.041289434 -0.035693884 0.10585504 -0.07737349 -0.020232286 0.046706792
0.09028237 -0.041817438 0.11437287 0.10602238 0.039734147 -0.08111876 0.07239675 0.07634772
0.008958595 0.02202454 -0.02905062 -0.049509685 0.019833732 -0.038806863 -0.06663969 0.07527146
0.00360205 0.004620854 -0.1670282 -0.04729549 -0.01342121 0.06860733 -0.037946742 0.027352301

_model.0._model.0.bias f4 [256]
00000000: 90de 26bb b11d 723c 6372 f03b 3e87 40bc
00000010: 6b6f 6abb 7e08 a6bb 09b0 933c 8d84 a13b
00000020: 6378 5dbc aa7f e03c b2ca 483b 9733 36bc
00000030: 934f 093c 940d 983c 7bef 0ebb babf b93b
00000040: f1d0 c7bc 097a 5e3c 0692 a8bc 3c85 50bb
00000050: bc3b 3bbc 60ca 0dba 9559 c43b 7646 823a
00000060: 2e54 93bc 7412 96bc c67e 363c bacc af3b
00000070: e268 dc3b 6ab0 35bc c53e 4bbc 637c bc3c
00000080: 3e28 073c acaf 3cbc ca0d 93bc 4409 f9bb
00000090: 2e05 83bc b14c fd3a a8ed d7ba eb84 d13b
000000a0: 1c52 7dbc 60f1 593b cae2 e2bb d338 23bb
000000b0: 721c a23c a136 e63b cca5 bebc 868e 4abc
000000c0: 87f6 acbc c808 5eba a000 eebb c913 173c
000000d0: 2776 433a 2c29 16bc e1d6 c33c 832e ec39
000000e0: 1b7e 2cba 8d79 df3c 63a3 a6bb ca2d 32bc
000000f0: 190e 2e3b becb f7bb eb9f 61ba 4fde 943b
00000100: 6700 1bb9 9ca3 53bc 22a0 c23c de12 293c
00000110: ab0f 723c c9a0 b1bc 2a26 9bbb cc1e cdbc
00000120: c52e 13bc 3fca dbbb 01fe e4b9 c963 a23c
00000130: 0df4 923c 1d22 1bbc 473b ccbc 9097 8f3c
00000140: d065 33bc d87f 7a3c a8f3 b43b 87fc 1dbc
00000150: cc70 043b 3559 f8ba ee3a 453c fd37 dcba
00000160: ec4b e43b 101d 6ebc 10cc 97ba 8e9b 673b
00000170: 5488 cd3b 3d05 903c db34 54bc 1418 92bc
00000180: c029 94bb bb3a fabb 798e 233c a039 86bc
00000190: 9da9 fdbb cee7 f73c 5338 19bc 1c69 d6bb
000001a0: bfec 833c 05a0 aabb 69e8 233b 74c2 a73c
000001b0: ab80 a83c f8f9 5fbc 3866 243a b372 24bc
000001c0: 32ee 2cba 36f3 febb 6a23 513b caef a5b7
000001d0: 0e09 243c 791d 8a3c d41a 6d3c 7cac 28bc
000001e0: 5c8f 97ba 4d8b c9ba b4d5 98ba efdd 0cbc
000001f0: 8e67 d83b 00f0 163a 6b3b ccbb fba8 e5bb
00000200: 00b7 33ba 4850 d6ba 41d8 bb3c 693f 513b
00000210: 994c 08bc b3af 8abb 58b6 c43a 5dcf c5bb
00000220: e7da 863c 6aba abba 393a 7abc 9417 b9bb
00000230: 6ce7 9ebc 62d6 333c 5055 99bc fc17 c0ba
00000240: 951d d43a e058 523c 227e 34bb ca74 ac3c
00000250: e8a0 53bc 67de 67bb 5b54 f6bb bd75 64bc
00000260: e740 703c 6986 b9bb fd1b 9bbb a62b fd3b
00000270: 79a1 be3b 0d57 113c 6b96 a93d 0082 08bc
00000280: 5a57 a8bc 690b bebc 9ca6 debc 6c16 813c
00000290: 91ff 83bc 81ea 59bc 6879 aa3b 95ef 46bc
000002a0: 4834 d8bb c480 283c c78a ff3b 9593 833c
000002b0: e8b1 4d3c b789 2e3c 6a43 45bc 6ca0 3f3b
000002c0: 55b2 9cba b45b da3a b115 43bc 939d 9abb
000002d0: 3f82 6fbc 2407 433c edfd e1bb 45d4 fe3b
000002e0: 4331 d63c 5c2e 4a3c 4775 bebb c542 0fbc
000002f0: 75d9 103d 30aa 793b 18ba 30b5 1b24 3dba
00000300: 1c99 743b ebba fe3b b3cf b83c f524 533c
00000310: f585 f53b 14f9 c7bb a6f9 f5ba 0a16 3cbb
00000320: 1014 3cb5 47a6 91bc e0b9 d0bb 6358 16bb
00000330: 9f90 92bc 6222 f03b 105f 8b3b 163c 563c
00000340: cfaa 38bc 0a4b 163b 85dd 1c3c 291a 883b
00000350: cb96 13bc ea65 babc af9d c6bc 42e3 52bc
00000360: 19b5 91bc 0fbe 743b 05a1 1cbd a668 cc3c
00000370: 9bd1 aa3c e79e 713c fc62 a9bb d6b9 6a3c
00000380: 0ef7 86bc 5270 163c e07b 1abc 135d 24bb
00000390: 9d05 f0ba f779 6cbc 844b 62bc 73be 07bc
000003a0: 8a3a 183c 2a01 af3b aa59 92bc a5f1 88bc
000003b0: 8a94 ac3a d78a 7e3b da75 953a 97cd 043c
000003c0: 7153 143c a7f9 a9bb c650 203b 732c 4c3b
000003d0: 83bf 22bc a8f1 80bc 1090 30bc c6ec 9337
000003e0: c0da a83b 8643 bbb9 30cc c6b9 baa5 a3bb
000003f0: 1ed9 a8bb 70f2 67bc 7570 dcbb 2671 5ebc
-0.0025462247 0.014777587 0.0073378547 -0.011750994 -0.0035771977 -0.0050669303 0.018028276 0.0049291314
-0.013517472 0.027404625 0.0030638394 -0.011120698 0.008380788 0.018561162 -0.0021810222 0.0056686075
-0.024391623 0.0135789 -0.020577442 -0.0031817695 -0.011427816 -0.00054088794 0.0059921243 0.0009939212
-0.017984476 -0.018319346 0.011138624 0.0053649815 0.00672637 -0.011089424 -0.012405102 0.023008531
0.008249341 -0.011516493 -0.017950911 -0.0075999815 -0.01599368 0.0019325224 -0.0016474025 0.006394019
-0.015461471 0.0033255443 -0.006924008 -0.0024905696 0.019788954 0.0070255552 -0.023272417 -0.012363082
-0.021113647 -0.00084699364 -0.007263258 0.009221026 0.0007456266 -0.00916509 0.023906173 0.00045048082
-0.00065800705 0.02727964 -0.005085395 -0.010875175 0.0026558696 -0.0075621298 -0.00086068985 0.004543103
-0.00014782102 -0.0129174255 0.023757998 0.01031944 0.014774243 -0.021683114 -0.004734774 -0.0250391
-0.008983319 -0.006707459 -0.00043676796 0.019822972 0.017938638 -0.009468582 -0.02493061 0.017528325
-0.010949567 0.015289269 0.00552221 -0.009642727 0.0020208834 -0.0018947484 0.012037976 -0.0016801354
0.0069670584 -0.014533296 -0.0011581201 0.003534052 0.006272355 0.017580623 -0.012952055 -0.017833747
-0.0045215786 -0.0076363957 0.009982699 -0.0163849 -0.0077411667 0.0302619 -0.009351808 -0.0065432917
0.0161041 -0.005207064 0.0025010353 0.020478465 0.020569166 -0.013670437 0.00062713353 -0.010037112
-0.0006596773 -0.007780458 0.0031911978 -1.9781193e-05 0.010011924 0.016859757 0.014471728 -0.01029503
-0.001156311 -0.0015376598 -0.0011660368 -0.008597835 0.0066041416 0.00057578087 -0.006232669 -0.0070086694
-0.0006855577 -0.001635083 0.022930266 0.0031928665 -0.008319044 -0.0042323708 0.0015007956 -0.0060366825
0.016461803 -0.001310182 -0.01527267 -0.0056485627 -0.01939746 0.010976406 -0.018717438 -0.0014655585
0.0016183133 0.012838572 -0.0027541001 0.021051783 -0.012916781 -0.0035380365 -0.00751738 -0.013944087
0.014663911 -0.005661775 -0.004733561 0.0077261506 0.005817589 0.008870852 0.08280643 -0.008331776
-0.020549465 -0.0231988 -0.027179055 0.015757762 -0.016113074 -0.013300539 0.005202461 -0.012142082
-0.0065980293 0.010284606 0.007798526 0.016061584 0.012554623 0.010652951 -0.012039999 0.0029239906
-0.0011955003 0.001665941 -0.011907027 -0.0047184913 -0.014618455 0.011903558 -0.0068967254 0.0077767693
0.026146537 0.0123401545 -0.0058123204 -0.008743946 0.035363633 0.0038095824 -6.583591e-07 -0.0007215158
0.0037322706 0.007773747 0.022559976 0.012887229 0.0074927756 -0.0061026905 -0.0018766418 -0.002869966
-7.006465e-07 -0.017779483 -0.0063698143 -0.0022940866 -0.017891226 0.0073283175 0.0042532757 0.013075849
-0.011271193 0.002293291 0.009574299 0.004153509 -0.00900812 -0.022753675 -0.024245111 -0.012871565
-0.01778655 0.003734473 -0.038239498 0.024952244 0.0208519 0.014747358 -0.0051692706 0.014326533
-0.016475227 0.009182053 -0.009428948 -0.002507989 -0.001831222 -0.014433376 -0.01381195 -0.008285153
0.009291301 0.005340715 -0.01786502 -0.016716788 0.0013166827 0.003884008 0.001140292 0.008105657
0.009053097 -0.0051872316 0.0024462207 0.0031154423 -0.009933355 -0.01574023 -0.010776535 1.7634022e-05
0.00515303 -0.00035717728 -0.00037917634 -0.0049941214 -0.0051528355 -0.014156923 -0.006727273 -0.013576781

_model.1._model.0.weight f4 [256, 256]
00000000: 4d74 c83d 5b4c bbbd 354f 2fbc b03d 47bd
00000010: 9fd4 fe3c e682 483b 8174 b9bc cacf 90bd
00000020: 3749 caba f1d7 92bd 8ca4 ae3d ca41 363c
00000030: be90 0f3d f69e db3d 71ef 383a a5bb e3bd
00000040: d47e aabd b7c6 403d 281a 553d 0ad0 893d
00000050: 24dc e03d a751 7e3b db7a e03d 0fc3 87bd
00000060: c897 9bbd 1bc7 a2bd aa88 a73d f727 ef3c
00000070: f9a4 5e3d c4be e13d ba3f 833d 2167 f6bd
00000080: 6510 d2bc ba64 01bd e9cd c53d 3c81 42bc
00000090: 44eb 06bd bd2e 74bc d513 233d d17b 373c
000000a0: 74d3 aabd 852a d1bd d113 e43d 48fa 8bbd
000000b0: a91f 28be d71f b0bc 777d 9f3c 34d8 303e
000000c0: 9d5f ce3d 52cd 59bd 2ea6 ca3c b01b 953d
000000d0: 02e5 afbd 5b20 a23d 8cbb 6bbd 8104 d93a
000000e0: af11 703d e792 75bc abfc e23d 5eef 783d
000000f0: 8673 a63d be47 d83d a10f 1abd 0688 753d
00000100: fcaf 673c 421e 78bd a564 54bc bcd2 b9bc
00000110: 70fc 1ebc 7a9d 913d 2145 c13d 4e10 3abe
00000120: 2c17 0ebc dad2 68bc 7a4a 3cbd 32f0 053d
00000130: d04b 58bc b180 a4bd 5c2b af3c e192 9d3d
00000140: 9b85 8bbc 02b0 e8bd 206b bdbd a283 fa3b
00000150: 520f 11bd e45e a73c c451 2bbe b6e3 28bd
00000160: 3e8f 743d e766 713d 7e6c 73bc dad7 a4bc
00000170: ecda 063d a719 953d f24a fd3d 6b17 9a3d
00000180: 7ad4 6bbd 5877 d1bd 34c4 18be 6666 b1bc
00000190: 1866 92bd 84c1 223b 0148 abbc eef0 023d
000001a0: ffa0 cfbd 0916 1f3d 187b 18be de13 fa3c
000001b0: be54 b5bd 7eb4 5abd 090e 043d 2f0f d43c
000001c0: 1785 d43d 5bbd 8e3d d956 8dbd 4a85 9a3d
000001d0: 592a 823d 03b3 2c3c abab ce3b 46b6 af3c
000001e0: 884c ae3c baef 05bc ae5a 043d ec04 b93c
000001f0: 6e05 ef39 ac9f 99bd dcca 093d 2246 da3c
00000200: dbf9 1dbb 34c1 fe3c 4808 21bb 2a85 bf3c
00000210: e1e6 a73c 2601 e13c aae5 4fbd 87c3 7bbd
00000220: 373e a3ba 2d3a 0d3d 3de7 d2bd af0a 61bd
00000230: ab9d a63d cd09 4bbb 0c72 31bd ed07 3f3d
00000240: 27b1 1cbd cae0 1cbd 5987 a5bc ea8a 503d
00000250: 7832 2cbd c20c fc3d 6a02 8ebc a957 c73d
00000260: 84b8 f9bd a2bc 5f3d d21e 9ebd 0d87 96bc
00000270: d520 f2bc 2390 593d 3bcd 80be e7d0 b3bd
00000280: ad6d 53bd dd01 35bb 79fe 46bc 6fc0 95bd
00000290: e1a3 0cbd 10dc 333d 9c1f ab3a cd2b 9e3d
000002a0: 6839 91bd fa51 53bd e1d4 c2bd 046e 873b
000002b0: b9b3 6bbd 5909 e9bc 3ddd edbc 5e62 7abc
000002c0: ddf8 a03d 5115 d6bd 5257 a4bd 6dfa 283d
000002d0: 5ab6 38bd 66c2 10bd 0151 31bd f751 623d
000002e0: dc0b eabc 0cba adbd 8301 df3c 5fa5 f13d
000002f0: 0c0c d53d 22f9 77bd c765 fdbc 147d 1fbe
00000300: d6a2 90bc c2e3 ba3b 7458 36be 80c1 d0bd
00000310: ed03 8a3d 55bd 923d 0a08 afbd cc27 c43b
00000320: c94c af3d 4bba a3bb d6de b03d 1ac5 27bd
00000330: 17f0 fa3c d2a9 18be e3d1 863d 108c f4bc
00000340: 8ee4 293e aafb 57bd c38e 25bd e10a 45bd
00000350: 1027 eb3c 64b3 ab3b 502d 263e 7c96 5e3d
00000360: 24fc 3a3d 8632 183d 2ade 193d da9d ad3d
00000370: ba6c 013d b1ef 883d 3451 093d a1a1 9ebc
00000380: 49d9 623d 0956 aebd 7a3d 493d 80ef 46bd
00000390: 6dd8 9e3d ae04 5bbc a9da 69bc aa46 4cbc
000003a0: 1c1d 27bd 66e5 c8b8 59b5 04be c0eb 603d
000003b0: e058 f13c 5ae3 13bd cf88 5f3d 35a1 2c3e
000003c0: e91e 3dbc 41ce fabc 9816 713c c188 a1bd
000003d0: 40f9 a0bc 1e8b 1e3d f146 2e3d b363 973d
000003e0: 07cc aabd cd3f 8ebd e7de 833d 9f86 06bd
000003f0: 496e 6dbd e6a6 18be 5328 bbbd 0f65 16be
0.097878076 -0.09145423 -0.010700037 -0.048642814 0.031107245 0.00305956 -0.022638561 -0.070708826
-0.0015433197 -0.07170094 0.085274786 0.011124084 0.035050146 0.10723679 0.00070547225 -0.11119775
-0.08324972 0.04706451 0.052026898 0.067291334 0.109794885 0.0038805993 0.10960933 -0.06629001
-0.07597309 -0.079481326 0.081803635 0.029193861 0.05435655 0.11022714 0.06408639 -0.12031389
-0.025642583 -0.0315902 0.09658415 -0.011871632 -0.03293921 -0.014903721 0.039813835 0.011198954
-0.08341113 -0.10213188 0.11136592 -0.06834847 -0.16418327 -0.021499557 0.019469006 0.17269975
0.100768305 -0.053174324 0.024737444 0.072806716 -0.08588602 0.079163276 -0.057551906 0.0016557128
0.058610614 -0.0149886375 0.11083349 0.060775153 0.08127503 0.10560559 -0.03761256 0.059944175
0.014141079 -0.06057573 -0.012963449 -0.022683494 -0.0097037405 0.071101144 0.094370134 -0.18170282
-0.008672517 -0.014210427 -0.045969464 0.03269977 -0.013201669 -0.080323584 0.02138298 0.076940306
-0.017031481 -0.11361696 -0.09248948 0.0076450864 -0.035415 0.02043099 -0.1673041 -0.041232787
0.05970692 0.058936026 -0.0148574095 -0.020122457 0.032923624 0.072802834 0.1236781 0.07523998
-0.05757568 -0.10227841 -0.14918596 -0.021655273 -0.07148379 0.0024834583 -0.020908358 0.03196805
-0.101381294 0.038839374 -0.14890707 0.030527052 -0.08854054 -0.053394787 0.032239947 0.025886146
0.103769474 0.069697104 -0.069013305 0.07544954 0.063557334 0.010540727 0.0063070855 0.02144922
0.021276727 -0.008174831 0.03231304 0.022585355 0.00045589678 -0.07501158 0.033640727 0.02664477
-0.0024105224 0.031097986 -0.0024571586 0.023378927 0.020495834 0.027466368 -0.050756134 -0.061465766
-0.0012454455 0.03447931 -0.102980115 -0.05494183 0.081355415 -0.0030981184 -0.043321654 0.046638418
-0.038254883 -0.038300313 -0.02020614 0.05091373 -0.04204032 0.12307121 -0.017335135 0.09733517
-0.12193397 0.054623254 -0.07720722 -0.018374944 -0.029556671 0.053115975 -0.25156578 -0.08780079
-0.051618267 -0.0027619519 -0.012145632 -0.073120944 -0.034335975 0.04391104 0.0013055685 0.07723198
-0.070910275 -0.05159185 -0.0951326 0.004132988 -0.057544444 -0.02844684 -0.029036159 -0.015282242
0.07859967 -0.104532845 -0.080244675 0.04125445 -0.04509578 -0.035341643 -0.043290142 0.05525395
-0.028570108 -0.08482751 0.0272224 0.1179912 0.104026884 -0.060540326 -0.03093232 -0.15575057
-0.017655771 0.0057034204 -0.1780718 -0.10193157 0.0673903 0.071650185 -0.08546455 0.0059861895
0.085595675 -0.004996573 0.086362526 -0.040959455 0.030632062 -0.14908531 0.065830015 -0.029851943
0.16591093 -0.05273024 -0.04041935 -0.048106078 0.02870515 0.005239891 0.16228223 0.05434273
0.045650616 0.037157558 0.037565388 0.084773734 0.03159783 0.066863425 0.033524707 -0.01936418
0.055383 -0.08512504 0.049130894 -0.04856825 0.07756124 -0.013367815 -0.014273324 -0.0124680195
-0.040799245 -9.579472e-05 -0.12959804 0.05491233 0.029461324 -0.03610549 0.05457383 0.1685837
-0.011543014 -0.030615928 0.014714859 -0.07887412 -0.019650102 0.03870689 0.042548124 0.07392063
-0.083396964 -0.06945763 0.064389996 -0.03284323 -0.057966504 -0.14907417 -0.091385506 -0.14686988

_model.1._model.0.bias f4 [256]
00000000: 4eff 93bb d205 c4bc 5d7d 6fbb c7bb a7bc
00000010: 488b 81bc 2f99 9e3b 39f6 b9bc eecc a63c
00000020: 0baf e13b 9af7 4bbb eacc 1e3c 643f cfbc
00000030: de7b a1bc 6f78 3f3c eccd 0bbb 0b36 5dbc
00000040: c659 e0bc 8d4c 48bb b72d ad3c 4267 60bc
00000050: 99c9 25bc fc7d babc 5029 b03a e852 16bb
00000060: 7ca7 233c e3f3 203c 3cde 80bc 04f0 e2bc
00000070: 9756 a7bb 1e26 1abb e5b8 0bbb 2492 ce3c
00000080: a491 363c da99 d8bc 7881 29bc f2f8 39bc
00000090: 8c5f 9a3c 6015 18bd fa0f c4bb 0402 6d3c
000000a0: a89f 9d3b 1717 003c 3df5 f5bb c50c 5cbc
000000b0: 3ae3 833a 408e 0e3b ab7f 013c d3b2 68bc
000000c0: ebe4 933c dc64 a53c 94f0 413b 0140 96bc
000000d0: 95c7 91bc cf46 8dbb 1f53 cebb e982 d73c
000000e0: 174d a0bc fbc8 4ebc 7054 8cbc c30f 0a3c
000000f0: 997a efbb 3b20 77bc 2b1f 873b d116 19bc
00000100: 9ee4 5c3c 9ef5 d2bb 33e9 f0bc 5a43 e9bb
00000110: c89e 0a3b ef54 54b9 ee5d 883c a950 bdbc
00000120: 0d86 9dbc 3ae7 1d3c db3c be3c 2c1a e839
00000130: d32f ff39 f288 f0ba 2c42 9c3c a258 f6b7
00000140: 1fcb e6bc c920 0f3c 3602 2a3c d2c4 fa3b
00000150: 7a91 9abb 1c3b bdbb 6e5c e23c 93c8 deba
00000160: 16ca d7bc 5f5c 26bc 0546 ec3a f356 c2bc
00000170: eba8 9e3c 2f13 bf3c 38a1 55bc 903f 8bbc
00000180: 19a0 b9bb c424 df3b f656 8dbb ef9f dc3b
00000190: 922f a23b 75ff 793c ffc9 35bc 194e 8dbc
000001a0: 5b08 783c 7b69 b5bc 0712 023c b40e d3bc
000001b0: d7eb 55bc 3624 90bb 0e95 10bc 8c8e aebb
000001c0: 3f1b b9bb 0775 55b9 c01d 2d3b c4c0 283b
000001d0: 812a 233b 66a1 513b cec1 e5bb a2c6 833a
000001e0: e271 e6bb 476b 07bc fe39 35bc 6b32 0f3c
000001f0: ce1f a0bc f281 e7bb 4780 a53b 26cf 873c
00000200: 29a5 fbbc bd01 c2bc 331b 45bb 5d63 13bd
00000210: 1d4d fa3b c484 773c 89fb c03b de10 b43a
00000220: e938 f6bc cc17 2abc bb25 1d3c 01b0 cdbb
00000230: 7e1d 92bc 7664 933c a7da a1bb a801 e8bc
00000240: c3b0 7cbb 98fc 5ebc 9a52 203c 6a7b 483b
00000250: 0ed4 933c f918 0cbc 5a76 bb3c a502 ff3b
00000260: 8910 d13c 3ec6 8c39 96d4 9cbc 45dd d0bb
00000270: 8e6b 3e39 4785 11bc 537b 93bc 9107 c23b
00000280: 6640 d13c e865 b2ba 2f75 43bc 99e9 c4bb
00000290: 0682 3fbc 67e5 d33b a96e b3bb cd1f 3c3c
000002a0: 8ed3 6d3a 3261 11bd 851b 86bc 7771 1abc
000002b0: cb6f 45bb 0ff8 c2bc f61c 91bc 1ffa d8bb
000002c0: 3b16 dd3c 1585 1ebc 5e95 f73b c4da e53b
000002d0: c674 9cbc 6d3d 29bd ce9c c7bc 182c 62bc
000002e0: aca3 babc 6c9c 1abb 137e 163c 39e6 14bc
000002f0: 7f2e 593a ed2d 3bbc d150 313b 269a 253c
00000300: 830f be3a 955c 6ebb 3fc9 ae3b a30c 453c
00000310: 4710 d03b 8186 e8bc e88a 443c c0c1 94bb
00000320: 0d6e 5d3c 141a a83b 73c9 5c3b 293a 263c
00000330: 11af ad3c 0112 7abc 33fe d7ba a98c ee3b
00000340: bb57 a4bc 16a1 a5bc 3cc9 5bba bd15 b63c
00000350: 2cd5 143b dddb 503c 7f5a 7b3c c89a 9a3c
00000360: 8749 cfbc 1011 d73c 1605 58bc 5293 383c
00000370: 6129 e439 e9f6 623b ac71 843b f957 b73b
00000380: a116 f03c 8acc b839 7eb8 a33b adfa c63b
00000390: ed68 c9bc f64a cfbc 9aea 453c 8d76 433c
000003a0: 8323 143a dc18 e43a 9d25 e73b d8fd 363c
000003b0: ff28 0bbd e943 13ba f075 603b 8735 fd3c
000003c0: 8cb2 533c 9262 a4b9 ac72 f23c 7b00 2739
000003d0: 60da e63c 504e e53b baec e6bb bf8b 81bc
000003e0: be8a 9c3b ab44 bf3b 6ad8 a73a 5e91 23bd
000003f0: 36df 453b c802 45bc 124d 1ebd 8c2b f03b
-0.0045165187 -0.023928557 -0.0036543228 -0.020475281 -0.015813485 0.0048400383 -0.022700416 0.02036139
0.006887322 -0.0031122924 0.00969241 -0.025298782 -0.019712385 0.011686428 -0.0021332456 -0.013501654
-0.027386557 -0.0030563206 0.021139963 -0.013696494 -0.010118865 -0.022765152 0.0013440046 -0.00229376
0.009988662 0.009823772 -0.01573097 -0.027702339 -0.005106758 -0.0023521255 -0.0021319923 0.02521617
0.011143122 -0.02644055 -0.010345809 -0.011350857 0.018844388 -0.03712976 -0.00598335 0.014465813
0.0048102923 0.007818005 -0.0075060413 -0.013430779 0.0010062226 0.0021752268 0.007903974 -0.014202791
0.018053493 0.020189695 0.0029592859 -0.018341066 -0.017795363 -0.0043114196 -0.00629653 0.02630754
-0.01956801 -0.01262116 -0.017130107 0.008426609 -0.007308316 -0.015083368 0.0041235886 -0.009343819
0.013482241 -0.0064379713 -0.029408073 -0.0071186246 0.002115177 -0.00020249536 0.016646352 -0.02310975
-0.01922896 0.009637648 0.023222378 0.00044269988 0.00048673022 -0.001835136 0.019074522 -2.9366758e-05
-0.028173028 0.008735844 0.010376504 0.0076528573 -0.004717049 -0.0057748687 0.027631965 -0.0016997032
-0.02634148 -0.010153859 0.0018026239 -0.023723101 0.019367656 0.023324577 -0.013038926 -0.016998082
-0.005664837 0.0068098027 -0.004313345 0.0067329328 0.0049495185 0.01525866 -0.011095523 -0.017249154
0.015138711 -0.022145024 0.007938868 -0.025763847 -0.013056717 -0.004398848 -0.0088246 -0.0053270515
-0.005649 -0.00020356859 0.0026415437 0.0025749663 0.002489716 0.003198707 -0.0070116287 0.0010053704
-0.007032619 -0.008265323 -0.01106119 0.008740048 -0.019546416 -0.0070650512 0.0050506922 0.016578268
-0.030718403 -0.02368247 -0.0030076026 -0.035983432 0.007638587 0.015107337 0.0058893603 0.0013737937
-0.030056434 -0.01038165 0.009591515 -0.006277085 -0.017836329 0.01799224 -0.0049393955 -0.028321102
-0.0038557507 -0.013610028 0.009785319 0.0030591139 0.018045451 -0.008550876 0.022883583 0.0077822977
0.02552058 0.00026850583 -0.019144338 -0.0063740336 0.00018159879 -0.008881873 -0.018003142 0.005921312
0.025543403 -0.0013610693 -0.011929794 -0.0060092923 -0.011688715 0.006466556 -0.005475838 0.011482191
0.00090723566 -0.035493083 -0.016370544 -0.009426466 -0.0030126448 -0.023799924 -0.017714005 -0.0066216136
0.02698814 -0.009675284 0.0075556478 0.0070146043 -0.01909865 -0.041318346 -0.024366762 -0.013804458
-0.022783123 -0.002359177 0.009185332 -0.0090880925 0.00082848215 -0.011424524 0.0027056227 0.010107553
0.0014500472 -0.00363711 0.005334049 0.012026939 0.0063495967 -0.028384449 0.011996008 -0.0045396984
0.013515008 0.005130062 0.003368941 0.010145702 0.021201642 -0.0152630815 -0.0016478956 0.0072799516
-0.020061364 -0.020218413 -0.0008384173 0.022227162 0.0022710068 0.012747732 0.0153414 0.018872634
-0.025303615 0.026253253 -0.013184806 0.011265593 0.00043518379 0.0034632033 0.004041871 0.005595204
0.029307665 0.00035247608 0.0049963584 0.0060723634 -0.024586165 -0.025304299 0.012079859 0.01193012
0.00056510436 0.0017402428 0.0070540444 0.0111689195 -0.033974644 -0.00056177244 0.0034249984 0.030909313
0.012920987 -0.00031353958 0.029595695 0.0001592654 0.028180301 0.006997861 -0.007047263 -0.015813706
0.0047772815 0.0058370433 0.0012805585 -0.039933555 0.0030192859 -0.012024589 -0.03864772 0.00732941

_model.2._model.0.weight f4 [51, 256]
00000000: 72fe cc3c 01e3 173d cfef a6bc 4581 22bd
00000010: d9fa a4bc 16eb 6d3b d4bc 30bd 80a8 b63b
00000020: 90f8 98bc f937 afbb 194e 723d 4d0d 93bd
00000030: 51c7 793b 13c6 fdbb 0a78 813c 20fd 1a3c
00000040: 700f 0e3d db17 ac3c 0fee 67bc 380a 8f3d
00000050: 3a2a ebbc f2cc 39bc 3e6c 67bb bd77 b8bd
00000060: 675e 9abc 8919 023d b0a0 40bc 7482 43bc
00000070: 3f94 d03c 0876 5fba ce81 69bb 356c 7a3c
00000080: c3c0 f13c 895b 80bd bf50 823c 1ed7 1fbc
00000090: 0c13 a63c 41b8 40bd bcd0 d6bc 3718 783c
000000a0: e858 293c 695f 843c d2bd 18bd e5d4 943c
000000b0: 76ca 58bc b496 e03b 638b 15bc 6a29 c63c
000000c0: de4c 823b 718b abbc a40a ea3c 435a 9d3c
000000d0: e65c 75bd a550 543d 441f 9dbc c12c 3c3b
000000e0: bdda a9ba e2b4 afba 6434 c7bb 398b 0abc
000000f0: a487 283d 02a4 31bd 4b50 113d 3f78 3bbc
00000100: 3ca4 f1bb 6c16 d73c 0acd 82bc 0b1a e13c
00000110: e4dd 76bb 77ba 3f3d 8e63 1a3d 2baa 4c3d
00000120: bdcb 8c39 ba05 77bc cca1 323d 1b07 443b
00000130: 2fe2 e13c 35f7 083d 1a80 f0bc 4ad8 dcbc
00000140: 3035 dfbc dba0 10bc e3d4 c13c 6d3b 1b3d
00000150: 4133 5b3c 9c54 26bd 3fe8 113b 58a8 c43d
00000160: f96d 203b 90a5 eb3b eba8 33bc 44df 82bb
00000170: 8c6d 3a3c d580 ccbc fd07 1b3d f575 6fbd
00000180: d386 3fbb 170e 28bd 7aad 24bd cf36 38bd
00000190: 41af 9dbc 87bb 6cbd cb21 84ba ae4f 293c
000001a0: e4ea 9a3b 0925 49bb 7402 0ebd 9c36 b13c
000001b0: e632 da3c 080a 5a3c 9ba2 86bc 9679 b5bc
000001c0: ae81 083d b9d7 733c b47f 173d 60b5 273d
000001d0: 46d9 ce3b ddfb 623d 6fc6 a93b b5cb ff3b
000001e0: a571 fabc d724 96bb ae77 a239 8a33 233d
000001f0: d499 6a3c 6313 b0bc 44b0 c3bc 409a 903d
00000200: 23d6 243d 692e 88bc d05a 863d d000 a53c
00000210: 086a 943d b60b 88ba aad6 113c e411 89ba
00000220: 2e11 46bd 2f9d 1bbc 8594 cbbb a0cb e5bc
00000230: fb71 c63c c927 ed3c 79fd 6dbb d68a 95bd
00000240: 01d7 fcbb 4877 cd3c d787 473c c20d 40bc
00000250: d882 593c 97f4 c73c fc33 123c 28b9 b33c
00000260: 86f5 823d 3ea4 9b3b 84a4 4bbd fc8f 333d
00000270: 068d 4a3d 8479 14bd b17e 1e3d f9ec b53c
00000280: 3e5a 9f3d e376 9bbc fe9f ccbc 7504 a73c
00000290: 8ab4 c73c 0edd 703c 77b1 5cbc 5a76 a2bc
000002a0: a3c9 643c fd0d ebbc 0f2c 2bbd 6fab 173c
000002b0: 4677 4bbc 631f a3bb c684 f53b 3cc5 42bc
000002c0: 33ad fc3a cb22 1a3a dda5 8c3b c70d 143d
000002d0: 26df c7bc ee7d 85ba 5843 de3c 5d3d 953c
000002e0: 643c c63c 5b41 b4bc 19f7 e7ba ef07 a2bb
000002f0: 760b 48bb 2f12 e4bc 6e1f 883b b9d4 603c
00000300: a261 49bc 6eb8 9ebc bdd1 7b3c f654 8e3d
00000310: b2d1 5e3c f467 19bc a44e ddbc 9963 973c
00000320: 1b38 12bc 273e f3bb b999 563c 8bb4 ef3c
00000330: dde5 063d e8fe 81bd 08d9 e83c 6811 913c
00000340: 4a9e af3c 214d d03c 8512 033c a114 8b3c
00000350: 6486 1a3c 6d27 22bd 28d2 13bc ffc7 783c
00000360: 85f5 eabc 4bc8 233d e27e 85bc 29d4 943c
00000370: 3cf8 a7bc ff3c f93c 37eb a53a 81eb 9f3c
00000380: 5305 0dbd 818d f6bc f633 e0bc 1fbb 1fbc
00000390: c027 1bbd 4cbc 10bb e516 91bc 3caa 58bc
000003a0: 709b 203d e78b 74ba fae6 b6bc d9fc d8bb
000003b0: e0e5 e43b 4821 ebbb c7f7 103d 17f3 7d3b
000003c0: f843 39bc e3ae e4ba ac18 1a3d 95f7 3d3d
000003d0: 77d2 a0bb 9ad9 483d ce00 283d b51e 033d
000003e0: 493c 70bb bfb5 a3bc 2436 0cbc 1dcf a0ba
000003f0: 2469 c8bb 9b3a 41bd fde2 2e3d dd9d 6ebc
0.025023673 0.037081722 -0.020378022 -0.039674062 -0.020139145 0.0036303452 -0.04314883 0.005574286
-0.018673211 -0.0053472486 0.05915651 -0.07180271 0.0038113187 -0.0077445596 0.01580431 0.009459764
0.03468269 0.021007469 -0.014155879 0.06984371 -0.028706659 -0.011340367 -0.003531232 -0.09007213
-0.018843843 0.031762633 -0.011757061 -0.011932958 0.025461314 -0.0008524363 -0.0035630348 0.015284588
0.029510861 -0.06267459 0.015907643 -0.009755878 0.020272754 -0.04705072 -0.02622258 0.015142492
0.010336138 0.016158776 -0.0372904 0.018167922 -0.013231864 0.0068539027 -0.009127471 0.02418967
0.0039764484 -0.020940514 0.028569527 0.01920808 -0.059903048 0.05183472 -0.019179948 0.00287132
-0.0012958866 -0.0013405348 -0.0060792435 -0.008456045 0.041144982 -0.0433693 0.035476964 -0.011442243
-0.0073743146 0.026255809 -0.01596691 0.027478239 -0.0037668878 0.046808686 0.0376926 0.049966972
0.00026854678 -0.015077049 0.043611333 0.0029911462 0.027573673 0.03343888 -0.029357959 -0.026958603
-0.027247041 -0.008827413 0.023661083 0.03789847 0.013378919 -0.040608034 0.0022263674 0.096024215
0.0024479611 0.0071913674 -0.010965566 -0.0039939005 0.011378657 -0.024963776 0.037849415 -0.058462102
-0.0029224649 -0.041029062 -0.040204503 -0.044974145 -0.019248607 -0.057796028 -0.0010080872 0.0103339385
0.004727708 -0.003069224 -0.03467031 0.021632485 0.026635598 0.013308056 -0.016434958 -0.022152703
0.033326797 0.014882975 0.03698702 0.040944457 0.006312522 0.055415977 0.005181126 0.007806266
-0.030571768 -0.0045820284 0.00030988216 0.039844073 0.014318902 -0.02149362 -0.023887761 0.07060671
0.04024328 -0.016623693 0.0656029 0.020141989 0.07246786 -0.0010379467 0.008901278 -0.0010457602
-0.048356228 -0.009497925 -0.0062127733 -0.028051198 0.024224272 0.028949635 -0.0036314412 -0.073018715
-0.00771606 0.025081292 0.012178383 -0.01172203 0.0132758245 0.024408622 0.008923527 0.021938875
0.06394486 0.004749804 -0.04971744 0.043838486 0.049450897 -0.0362487 0.03869504 0.022207724
0.07780884 -0.018977588 -0.024978634 0.020387867 0.02437808 0.014701141 -0.013470045 -0.019831825
0.01396409 -0.028693194 -0.041790064 0.009257182 -0.012418574 -0.004978107 0.0074926345 -0.011887845
0.0019277692 0.00058798183 0.0042922334 0.03614595 -0.024398398 -0.0010184625 0.027131721 0.018217737
0.024198718 -0.02200382 -0.0017697542 -0.0049447934 -0.003052441 -0.027840702 0.0041541373 0.013722592
-0.012291344 -0.019375052 0.01536983 0.06949799 0.0135998 -0.009363163 -0.027015038 0.018480109
-0.008924509 -0.0074231806 0.013098174 0.029260894 0.03293406 -0.06347448 0.028423801 0.017708495
0.021437783 0.025427403 0.008000021 0.01697761 0.009431455 -0.03958838 -0.009022273 0.015184402
-0.028681526 0.039985936 -0.016295854 0.018167572 -0.02050411 0.030424593 0.00126586 0.019521477
-0.034428906 -0.030096771 -0.027368527 -0.009749203 -0.037879705 -0.002208489 -0.017711112 -0.013224181
0.039210737 -0.00093287084 -0.022326935 -0.0066219387 0.006985411 -0.0071755983 0.03539255 0.003874963
-0.011307709 -0.001744714 0.037621185 0.04637869 -0.004907902 0.049035646 0.041016392 0.032011706
-0.0036657027 -0.019984124 -0.00855783 -0.0012268756 -0.0061160494 -0.04717503 0.04269694 -0.014564005

_model.2._model.0.bias f4 [51]
00000000: 71f8 823d 74e5 1c3c e0d1 0abb 69e7 54bd
00000010: 2de4 7a3c 1b22 f93c 1521 233d 4ec4 78bb
00000020: 77cb 1d3a 7e2b 93bd 83f7 e93c 89c9 debc
00000030: ffe0 bcbc 70a4 6f3c 2fe1 c5bc d1f9 693d
00000040: 7154 ddbb 83e9 973c 07e4 9c3b 7d9d babc
00000050: 4c45 e33b 8c0f b6bb 70d5 c73c e599 6d3c
00000060: 8454 c1bc 4bff 66bc 1ec2 1e3c 6b1e d3bc
00000070: 764c 17bd ac76 25bc e924 52bd 9243 1bbc
00000080: d8c6 463b 249d 213d 2a6b 9b3c 291e 94bc
00000090: 76a5 0f3d fc2c 843d 56f5 16bd 171d 8cbc
000000a0: cb07 f7bc c2b4 6ebd 4e16 b3bc a74a e2bc
000000b0: 0a38 093d ce7d d1bb c7ef 87bd 41f6 133c
000000c0: 5ef6 6abc e26b 1b3d 0b55 0bbc
0.06395043 0.00957619 -0.0021182224 -0.051978502 0.01531319 0.03041177 0.03982647 -0.0037958804
0.00060193933 -0.0718603 0.028560406 -0.027195709 -0.023056505 0.014626607 -0.024155227 0.05712301
-0.006754451 0.018543964 0.004787925 -0.022780174 0.006935751 -0.0055560526 0.024393767 0.014502023
-0.02359987 -0.0140989525 0.009689836 -0.02577134 -0.036938153 -0.010099094 -0.05130473 -0.009476559
0.0030330922 0.0394565 0.018971998 -0.018080788 0.035069905 0.064538926 -0.036855064 -0.017103715
-0.030155083 -0.058277853 -0.021861222 -0.027623488 0.03350071 -0.006393171 -0.06637531 0.0090308795
-0.014340965 0.037944682 -0.008504163
