data/etc/pretrained_model/boxing/imitation/exp26/5000/task_agnostic_policy_motor_decoder.pt (torch, 624455 bytes, 6 tensors)

_model.0._model.0.weight f4 [256, 298]
0	0x3e099d29	0.13438858
1	0x3cb1a5c0	0.021685481
2	0xbda28d40	-0.079370975
3	0x3db7759e	0.089579806
4	0xbde3273a	-0.11091466
5	0xbd836484	-0.06415656
6	0x3d56692a	0.052346386
7	0xbdf56657	-0.119824104
8	0x3cdcb745	0.026942858
9	0x3c495202	0.012287619
10	0x3d870197	0.065921
11	0xbe080811	-0.13284327
12	0x3bd41954	0.006472746
13	0xbb559c87	-0.0032594518
14	0xbbdbf024	-0.0067119766
15	0xbe1137dc	-0.14181465
16	0x3de1bff6	0.11022942
17	0xbe17f165	-0.14838178
18	0x3dc4ecc6	0.096154734
19	0x3defa5d9	0.11701555
20	0xbe068589	-0.13136877
21	0x3dbe57df	0.09294104
22	0x3c57f9c1	0.013182105
23	0xbc1282eb	-0.008942346
24	0xbd73785f	-0.059440967
25	0x3d15102a	0.03639237
26	0xbd98019c	-0.07422182
27	0xbddb8e65	-0.10720519
28	0xbdab7cbf	-0.08373403
29	0x3e4474d3	0.1918519
30	0xbd3dd08c	-0.046341464
31	0xbd064444	-0.032779947
32	0xbde873a4	-0.11350182
33	0xbd585e77	-0.052824464
34	0x3d23b448	0.03996685
35	0x3d97e926	0.074175164
36	0x3a6a2d28	0.00089331204
37	0xbcc0a5c0	-0.023516536
38	0x3d918466	0.07105331
39	0xbd34159c	-0.04396592
40	0xbe79423f	-0.24341677
41	0xbd9841dd	-0.074344374
42	0x3e751390	0.23933244
43	0xbbfe2ab8	-0.0077565573
44	0x3c38ca0c	0.0112786405
45	0x3c52c451	0.012864188
46	0xbe4c0b9f	-0.19926308
47	0xbe0872f3	-0.133251
48	0x3cae9422	0.02131087
49	0x3b40c7b2	0.0029415903
50	0xbd87798f	-0.06614982
51	0x3d84ca71	0.06483925
52	0x3d3cf0ef	0.04612821
53	0xbd99d001	-0.07510377
54	0x3dbc5730	0.09196317
55	0x3d52f560	0.05150354
56	0x3e47ba0f	0.1950457
57	0x3d839e8c	0.06426725
58	0xbce0a18d	-0.027420783
59	0xbd835e08	-0.064144194
60	0xbd085f2f	-0.0332939
61	0xbdb5975f	-0.08866762
62	0x3d3674af	0.044544872
63	0x3cea4d9a	0.028601456
64	0xbd707e86	-0.058714412
65	0x3d7888db	0.06067739
66	0x3b8c76ae	0.0042866087
67	0x3d718a75	0.058969934
68	0xbb0dc599	-0.002163267
69	0x3d89cfdd	0.067291
70	0x3e600d61	0.21880104
71	0xbd84ac0d	-0.064781286
72	0xbdf2623c	-0.11835143
73	0xbb76fe31	-0.003768813
74	0xbd3f0293	-0.046633314
75	0x3d77c965	0.0604948
76	0xbd4fbc72	-0.050716825
77	0x3b469238	0.0030299556
78	0x3e82f747	0.25579283
79	0xbd9cead5	-0.07661978
80	0x3e3c4316	0.18384966
81	0x3e172a86	0.14762315
82	0xbda4396f	-0.08018767
83	0x3ee56bdc	0.44808853
84	0xbda568be	-0.080766186
85	0x3d81b9cf	0.06334268
86	0x3ddb7d27	0.1071723
87	0x3c0c7e0e	0.008574976
88	0x3db24bd0	0.08705866
89	0x3d202fb4	0.039107993
90	0xbd8030bf	-0.062592976
91	0x3d86bd94	0.06579128
92	0x3c707f93	0.014678854
93	0xb9ba0668	-0.00035481458
94	0x3db8f0a3	0.09030273
95	0x3cc07340	0.023492455
96	0x3cbabc1a	0.022794772
97	0x3c7fefc8	0.015621133
98	0xbca9c017	-0.020721478
99	0x3d43e644	0.04782702
100	0x3c56df3d	0.013114748
101	0xbd4d69ba	-0.050149657
102	0x3e072c58	0.1320051
103	0xbd819c9a	-0.063286975
104	0xbe227486	-0.15864763
105	0xbda2044f	-0.07910978
106	0x3d496bfb	0.049175244
107	0x3dc91ddc	0.09820148
108	0xbe19acf4	-0.15007383
109	0x3d8f61bc	0.07001063
110	0x3d7d5413	0.061847758
111	0xbd84390c	-0.06456193
112	0xbcfa4a1d	-0.030552918
113	0xbd740d33	-0.0595829
114	0xbd1d44ca	-0.03839568
115	0xbe15ce2b	-0.14629428
116	0xbd84ef3b	-0.06490942
117	0xbd8e17a7	-0.06938105
118	0xbc91ce22	-0.017798487
119	0x3d469930	0.048485935
120	0x3e20658c	0.15663737
121	0xbd01d379	-0.031695817
122	0x3d037603	0.032094967
123	0xbc1c80a2	-0.009552153
124	0xbd031e9b	-0.03201161
125	0xbca65a50	-0.020306736
126	0x3cf8d7db	0.030376365
127	0xbd0a45b9	-0.0337579
128	0x3d5adadb	0.053431373
129	0x3c401cd0	0.011725619
130	0x3c8ff38c	0.017572187
131	0xbc0ad647	-0.008473939
132	0x3d784416	0.060611807
133	0x3e1f7c30	0.15574718
134	0x3cd4f4d8	0.025995657
135	0xbdfe8ae4	-0.12428835
136	0x3d38f8a3	0.045158993
137	0x3de3c485	0.111214675
138	0x3cee82c5	0.02911509
139	0x3d650199	0.055909727
140	0x3d279ce7	0.040921118
141	0xbd21bf22	-0.03948892
142	0xbcf4293e	-0.029804822
143	0xbbe47e35	-0.006973053
144	0xbd8a85b4	-0.06763783
145	0x3bd1de28	0.006404657
146	0x3e564a64	0.20926815
147	0x3c88c077	0.016693337
148	0xbdf4f911	-0.11961568
149	0x3c746ada	0.0149180535
150	0xbd1fe438	-0.039036006
151	0xbcac2bcc	-0.021016978
152	0xbda8a03a	-0.08233686
153	0x3b953b00	0.0045541525
154	0x3da7f75b	0.08201476
155	0x3d7af0ec	0.061264917
156	0x3abc04de	0.0014344712
157	0xbd343795	-0.04399832
158	0x3d4b2b64	0.049601927
159	0x3dda026e	0.10644995
160	0x3cc252dd	0.023721153
161	0xbca5c82a	-0.020237047
162	0x3d042f1c	0.03227149
163	0x3b60116b	0.003419007
164	0x3d8db376	0.06918995
165	0x3dc70603	0.097179435
166	0x3cdfe143	0.027329093
167	0x3c862c58	0.016378567
168	0x3cf574c0	0.029962897
169	0xbd9ce5ea	-0.0766104
170	0xbe1d0c94	-0.1533683
171	0x3d2c7506	0.04210379
172	0x3d00c494	0.03143747
173	0xbd55d4ef	-0.052205022
174	0x3dca3b81	0.09874631
175	0xbd2b505b	-0.04182468
176	0x3ca40373	0.020021176
177	0xbda6618f	-0.081240766
178	0xbd8868c0	-0.066606045
179	0xbb540051	-0.0032348821
180	0xbca22fe1	-0.019798221
181	0x3d0140ca	0.03155593
182	0xbca559b0	-0.020184368
183	0xbd9051e8	-0.070468724
184	0x3d11c4a2	0.035587914
185	0xbd8b676d	-0.06806836
186	0xba32ca56	-0.00068203115
187	0xbd52cbc2	-0.05146385
188	0xbda132c7	-0.07871013
189	0x3d77ce39	0.060499404
190	0x3b9c4698	0.0047691576
191	0x3e1f417d	0.15552326
192	0x3d761099	0.060074423
193	0xbd2417a1	-0.040061597
194	0xbd4492c4	-0.04799153
195	0x3b05365d	0.0020326592
196	0xbcd8b0e5	-0.026451537
197	0x3da61a7a	0.08110519
198	0x3d1f3e1c	0.03887759
199	0x3d05015e	0.032472007
200	0x3cc48dc7	0.023993386
201	0xbc0e21b1	-0.008675025
202	0x3d7c0dfa	0.061536767
203	0xbcbe6820	-0.02324301
204	0xbc0e0aaa	-0.008669535
205	0x3bde086a	0.0067759054
206	0x3b0a6ab6	0.0021120734
207	0xbb3e07c3	-0.0028996326
208	0x3bdd8d3c	0.006761221
209	0xbce008fa	-0.02734803
210	0x3d4a5950	0.04940158
211	0x3d5462f5	0.051852185
212	0x3c7dfcce	0.015502168
213	0xbd3d7f8e	-0.046264224
214	0x3e02f205	0.12787636
215	0x3c2b4748	0.0104540065
216	0xbda39709	-0.07987792
217	0x3c9c5e33	0.019087886
218	0x3dd7ebd1	0.10543025
219	0x3c90f5eb	0.017695388
220	0x3c6037ba	0.013685161
221	0xbd4c301c	-0.04985057
222	0x3ceda308	0.029008403
223	0x3d37932c	0.04481809
224	0xbcf098cc	-0.029369734
225	0x3c064692	0.008195536
226	0x3b4f3abc	0.0031620702
227	0xbd948627	-0.0725215
228	0xbd74a563	-0.059728038
229	0x3deb8136	0.114992544
230	0xbd35a0b5	-0.044342715
231	0xbd865a44	-0.065601856
232	0xbd061aff	-0.03274059
233	0x3d4c9a74	0.049951985
234	0x3c33aa4e	0.010965897
235	0xbd3f8e57	-0.046766605
236	0x3ad6baf2	0.0016382618
237	0xbe289dc5	-0.16466434
238	0x3c198404	0.009369854
239	0xbd7f41ed	-0.06231873
240	0xbc0c8dc5	-0.008578722
241	0xbd12fd11	-0.035885874
242	0x3cd552ed	0.026040519
243	0x3d41b588	0.047292262
244	0xbc89e8a1	-0.016834559
245	0x3d95a0e8	0.07306081
246	0xbd075fbd	-0.033050288
247	0x3ad89e1a	0.001652661
248	0x3d1384c8	0.036015302
249	0x3d4755d7	0.048665848
250	0xbd5bdcdf	-0.053677436
251	0xbc36e7fc	-0.011163708
252	0xbd9f97d9	-0.077926345
253	0x3af0f6f3	0.0018384143
254	0x3b818f8e	0.0039538806
255	0xbc0cbde2	-0.008590193

_model.0._model.0.bias f4 [256]
0	0x3c441199	0.011967086
1	0xbbf023c7	-0.0073284837
2	0x3c304dfd	0.010760781
3	0xbb8d74fe	-0.004316925
4	0xbb492fdb	-0.003069869
5	0xbc678d66	-0.014132833
6	0xbb98ebd9	-0.004666787
7	0xbbafdade	-0.005366667
8	0xbbfd94e9	-0.0077386987
9	0xbcd43b43	-0.025907164
10	0xbb34a61e	-0.0027564834
11	0xbbd84024	-0.006599443
12	0x3c93186a	0.017955977
13	0x3c8d2cd2	0.017233286
14	0x3bc8d502	0.006128908
15	0xbb6245ec	-0.003452654
16	0xbba31d51	-0.00497786
17	0xbc593bbe	-0.013258873
18	0xbbf0ec8a	-0.0073524164
19	0x3b81bc20	0.003959194
20	0x3b52884f	0.0032124703
21	0x38b6ec4b	8.722449e-05
22	0xbcc2dbd2	-0.02378646
23	0xbc484ae8	-0.01222489
24	0xbb385357	-0.0028125846
25	0xbbd67304	-0.0065444726
26	0xbc225de1	-0.009910078
27	0x3ba45ec2	0.005016179
28	0xbbace552	-0.0052763605
29	0xbc473f7f	-0.012161135
30	0x3b5cf322	0.0033714254
31	0xbc14763c	-0.009061392
32	0xbc9d86f8	-0.019229397
33	0x3be2709a	0.006910396
34	0x3beafb31	0.0071710576
35	0xbc2e3f43	-0.0106352
36	0xbb67074a	-0.0035252147
37	0x3b171c45	0.0023057621
38	0x3ba59e05	0.005054238
39	0xbbf578a1	-0.0074911867
40	0xbc7c4feb	-0.015399913
41	0x3a1b2a22	0.0005919059
42	0x3aa0e0ed	0.0012274064
43	0x3b133484	0.0022461722
44	0xbbc38296	-0.005966495
45	0xbaadf58b	-0.001327203
46	0xbbd12cdd	-0.006383522
47	0x3ae83e8c	0.0017718836
48	0xbb9f1f7f	-0.0048560495
49	0x3c6b014e	0.014343573
50	0xbbe34f23	-0.006936924
51	0xbc1257bd	-0.008932051
52	0xbc60d6d9	-0.013723099
53	0xbc2869c8	-0.010279126
54	0x3b1f4744	0.0024303952
55	0xbb897869	-0.004195262
56	0xbbdc17a0	-0.0067166835
57	0x3cdaf310	0.02672723
58	0xbc5a4bc2	-0.013323726
59	0x3c63d899	0.013906621
60	0x3ca6987e	0.020336386
61	0x3c951cc5	0.018202195
62	0x3b8ec4e2	0.0043569664
63	0xbbbcd867	-0.005763102
64	0xbbc8f4eb	-0.006132712
65	0xbb21f986	-0.0024715378
66	0x3adaf518	0.0016705124
67	0x3960acac	0.0002142663
68	0xb86ada69	-5.5993358e-05
69	0xbbf98e9e	-0.0076158782
70	0x3bb16ce0	0.0054145902
71	0x3c3f49b5	0.011675288
72	0x3c4cf948	0.012510605
73	0xbc2c5877	-0.010519139
74	0x3c1cea04	0.009577278
75	0x3ab9aefb	0.0014166528
76	0x3c75209b	0.014961387
77	0xbc65074b	-0.01397879
78	0xbb3da311	-0.0028936306
79	0xbc7dc8fd	-0.015489814
80	0xbcae9470	-0.021311015
81	0x3c7c81d5	0.015411814
82	0xba8f177c	-0.0010917033
83	0x3c378777	0.011201731
84	0xbc17ffb2	-0.009277271
85	0x3b80d490	0.0039315894
86	0xbc680f72	-0.014163839
87	0xbc00a1a2	-0.007851036
88	0x3bd83991	0.0065986593
89	0xbbf61ebe	-0.007510989
90	0xbb6fe630	-0.0036605708
91	0x3b85be41	0.004081518
92	0x3c05562a	0.008138219
93	0xbc0d9e76	-0.008643737
94	0xbc6c368d	-0.014417303
95	0xbc4cc3b4	-0.012497831
96	0x3c89734a	0.016778607
97	0x3c15f46a	0.009152511
98	0x3bd199ce	0.006396509
99	0x3bd88e24	0.0066087414
100	0xbc98e8b2	-0.018665645
101	0x3cbd6d31	0.023123356
102	0xb98d28eb	-0.00026924102
103	0x3c8c87c6	0.017154586
104	0x3c6df446	0.014523571
105	0x3bca7533	0.006178522
106	0x3a8300cc	0.0009994744
107	0x3c0e2135	0.008674909
108	0xba872cf7	-0.0010313083
109	0x3bdc90f6	0.006731148
110	0xbc258801	-0.010103227
111	0xbcec27d0	-0.028827578
112	0x3bc3f08b	0.0059796027
113	0xbbe085d1	-0.0068518897
114	0x3b835252	0.004007616
115	0xb7d5827f	-2.5452346e-05
116	0x3c12abe7	0.0089521175
117	0x3b3fb56d	0.0029252425
118	0x3c14fd1d	0.00909355
119	0xbb9f307c	-0.0048580747
120	0x3b8c9747	0.0042904946
121	0x3c1b76f4	0.00948881
122	0xb90a0eab	-0.0001316617
123	0x3c8788a7	0.016544653
124	0xbca930dc	-0.02065318
125	0xbc6a8c70	-0.0143157095
126	0x3a1bb69a	0.00059399905
127	0xbb11040b	-0.0022127654
128	0xbc818e30	-0.01581487
129	0x3c405ced	0.011740905
130	0x3b9862a0	0.004650429
131	0xbc5dc688	-0.013536103
132	0xbbaa94c5	-0.005205723
133	0xbb951287	-0.004549328
134	0x3b8c05a8	0.004273135
135	0xbbe02fbb	-0.0068416274
136	0x3c04c20e	0.008102907
137	0xba31bda2	-0.00067802717
138	0x3baa4d89	0.005197231
139	0xb9b3caa1	-0.0003429251
140	0x3ca6cf3f	0.020362495
141	0xb9b087b2	-0.00033670437
142	0xbb9b70ae	-0.004743657
143	0xbc70d065	-0.014698123
144	0xbb1db9a6	-0.0024066954
145	0x3c158dd9	0.009128057
146	0xbc235e6c	-0.009971242
147	0x3cb303df	0.021852432
148	0xbb4e53d9	-0.0031483083
149	0xbb3d0971	-0.002884474
150	0xbcac5993	-0.021038806
151	0xbb9ed4d2	-0.0048471475
152	0xbb18b8d5	-0.0023303528
153	0x3af00d25	0.0018314464
154	0xbb731e6d	-0.0037096993
155	0x3bc05e4b	0.0058706156
156	0x3c4c1118	0.012455247
157	0x3cbbb433	0.022913074
158	0xbbb46d2e	-0.0055061793
159	0x3c01433c	0.007889565
160	0x3c749fbf	0.014930665
161	0xbc40778f	-0.011747255
162	0xbb8aebb1	-0.0042395224
163	0xbc9925b0	-0.018694729
164	0x3b0cef81	0.002150506
165	0xbac61998	-0.0015113829
166	0x3cda0608	0.026614204
167	0x3bc073d1	0.0058731814
168	0x3c8677c8	0.016414538
169	0xbc015120	-0.007892877
170	0x3c83fbc7	0.016111268
171	0xbc1b1d49	-0.009467431
172	0xb985af06	-0.0002549814
173	0xb9f1a467	-0.0004608959
174	0xbc60a905	-0.013712172
175	0x3bd432c2	0.0064757774
176	0xbc0fc8af	-0.008775874
177	0x3c089965	0.008337353
178	0xbaf2fc96	-0.0018538411
179	0xbc6260fa	-0.013817066
180	0x3c18c544	0.009324376
181	0x3c52397f	0.012831091
182	0xbcc85dd7	-0.024458809
183	0x3bbc606c	0.005748799
184	0xbbc1fb48	-0.0059198476
185	0xbb798486	-0.0038073375
186	0x3c15788a	0.009122977
187	0xbc224969	-0.009905198
188	0x3c834986	0.01602627
189	0xbc814477	-0.015779717
190	0x39eac244	0.00044776697
191	0x3b00912f	0.0019617786
192	0x3c0255b3	0.007955003
193	0x3c21733f	0.009854137
194	0x3c21d79d	0.009878066
195	0xbaae8e92	-0.0013317636
196	0x3cc1aa6d	0.023640836
197	0x3c35c944	0.011095349
198	0xbc24310b	-0.010021458
199	0xbc47e76a	-0.0122011695
200	0x3bf7bc63	0.0075602992
201	0xbc7e041e	-0.015503911
202	0x3c152f31	0.00910549
203	0xbb641b5e	-0.0034806351
204	0xbc926e2d	-0.017874802
205	0x3b6c4732	0.0036053178
206	0xbc41b5e9	-0.011823156
207	0x3bf9c9dd	0.007622941
208	0xbbd71b00	-0.006564498
209	0xbc0f2e97	-0.008739135
210	0xbc933db9	-0.017973768
211	0x3c9c3ffe	0.019073483
212	0xbc043273	-0.008068669
213	0xbc09ce16	-0.008410951
214	0x3c46b594	0.012128253
215	0xb9d625e3	-0.0004084549
216	0xbc70b2ce	-0.014691068
217	0xbc552ac7	-0.013010687
218	0xba0cc4ac	-0.00053698826
219	0xbc1fcda1	-0.009753616
220	0xbc052ce5	-0.0081283795
221	0xbc2b3881	-0.010450483
222	0x3bce8b3a	0.006303218
223	0xbc471e40	-0.012153208
224	0x3c6609d0	0.014040425
225	0x3d04e738	0.03244707
226	0x3c543a2d	0.012953323
227	0xbb89b6c6	-0.0042026965
228	0xbc5cbdc3	-0.013472977
229	0x3a9d76e5	0.0012013583
230	0xbbb0177d	-0.005373894
231	0xbb93f0c8	-0.0045147873
232	0xbc1d4f69	-0.009601452
233	0xbaaa2b2c	-0.0012982837
234	0x3b87caa0	0.004144028
235	0xbcb210d4	-0.02173654
236	0xba33df46	-0.00068615784
237	0x3c11c937	0.008898071
238	0x3bf414c1	0.007448763
239	0x3a68486d	0.000886089
240	0x3ba03888	0.0048895516
241	0x3c020689	0.007936128
242	0xb9b4cf7c	-0.00034486863
243	0xbc0d6414	-0.0086298175
244	0xbc0452fb	-0.008076425
245	0xbca9867e	-0.020694014
246	0xbba81b94	-0.0051302407
247	0x3c45e18a	0.0120776985
248	0xbb38e3a1	-0.002821185
249	0x3ac40de7	0.0014957757
250	0x3ca79f1c	0.020461611
251	0xbc433108	-0.011913545
252	0xbb6f27ed	-0.0036492303
253	0xbc03449c	-0.008011963
254	0x3beb667d	0.0071838484
255	0xba8c5312	-0.0010705909

_model.1._model.0.weight f4 [256, 256]
0	0x3d5ec4ac	0.05438678
1	0x3bc9a420	0.0061535984
2	0x3d030f01	0.03199673
3	0xbd46adfa	-0.04850576
4	0xbd485507	-0.048909213
5	0x3d85351d	0.06504271
6	0xbe2fc45e	-0.17164752
7	0xbc48a7be	-0.012247024
8	0x3ceb5f3f	0.02873194
9	0xbcd650d8	-0.026161596
10	0x3d6752f5	0.0564756
11	0xbd3fc04b	-0.046814244
12	0xbc28fe09	-0.010314473
13	0xbe25a2ed	-0.16175433
14	0x3d73cc6f	0.059521135
15	0x3d891fc8	0.06695515
16	0xbd5e2ee2	-0.05424393
17	0x3d93bffa	0.07214351
18	0x3de88187	0.113528304
19	0xbdcf9c4b	-0.101372324
20	0xbd7a4b37	-0.061106887
21	0x3d208ffc	0.039199814
22	0x3e1384bd	0.14406104
23	0x3d80095b	0.062517844
24	0x3c5c884a	0.013460228
25	0xbe082404	-0.13294989
26	0xbb9ec527	-0.0048452797
27	0xbc7fc76f	-0.0156115135
28	0xbb88397f	-0.0041572447
29	0xbcf4a0f1	-0.0298619
30	0x3c32923a	0.010899121
31	0x3d886cd3	0.066613816
32	0x3d5b5882	0.053551205
33	0x3d06faa5	0.032953877
34	0xbd2b2f34	-0.041793063
35	0xbdaaf7ee	-0.0834807
36	0x3d3d7fd8	0.0462645
37	0xbcff3eac	-0.031157814
38	0x3c38d2e5	0.01128075
39	0x3e36cace	0.17850801
40	0xbc2ade33	-0.010428953
41	0xbe0adb02	-0.13560107
42	0x3cd632ac	0.02614721
43	0xbe123bf2	-0.1428068
44	0x3d8176d2	0.06321491
45	0x3d5ff441	0.054676298
46	0x3d9da46e	0.07697378
47	0xbd0acc23	-0.033886086
48	0xbd21824d	-0.039430905
49	0x3ae0ae41	0.0017141775
50	0xbd6ca1da	-0.05777154
51	0x39ebfe49	0.0004501215
52	0x3be61454	0.0070214663
53	0xbd1c8f46	-0.038222574
54	0xbd2e6124	-0.04257311
55	0x3d70df1f	0.058806535
56	0x3d3930e4	0.04521264
57	0xbe0e278f	-0.13882278
58	0xbdfdb000	-0.12387085
59	0xbcf68675	-0.030093411
60	0x3c9fc8af	0.019504873
61	0x3cf8f12b	0.030388435
62	0xbd6f9cd7	-0.058499184
63	0x3d85f619	0.0654108
64	0x3c5c5d49	0.013449975
65	0x3d22d61f	0.039754983
66	0x3dc35013	0.09536757
67	0x3c38c0bf	0.011276423
68	0xbb85fa10	-0.0040886477
69	0xbd1765e0	-0.03696239
70	0x3d82009b	0.06347772
71	0x3cb567cb	0.022144219
72	0xbd9b809b	-0.07592889
73	0x3d5f5bc4	0.054530874
74	0xbd1aa9ac	-0.037759468
75	0x3d90f8c3	0.070786975
76	0x3dac57a9	0.08415157
77	0x3dc6423e	0.096806034
78	0x3cfb6973	0.03068993
79	0xbd26610f	-0.040619906
80	0x3c185d83	0.009299639
81	0xbd45470b	-0.048163455
82	0x3d227ce3	0.039669883
83	0xbc560784	-0.013063315
84	0xbc0a7d96	-0.008452794
85	0x3d0d7001	0.034530643
86	0xbdcb1b27	-0.09917288
87	0xbc143a0b	-0.009047042
88	0x3d49244d	0.049106885
89	0xbd15c478	-0.03656432
90	0xbd77d7a8	-0.0605084
91	0x3d6e4a8a	0.058176555
92	0xbc9f6253	-0.019456064
93	0x3cb60811	0.022220643
94	0x3cd6193e	0.026135083
95	0x3cde50c5	0.027138123
96	0xbc962c57	-0.01833169
97	0x3ce892e6	0.02839036
98	0x3dad973e	0.08476113
99	0x3dcc74da	0.09983225
100	0xbd86602c	-0.06561312
101	0xbda349ed	-0.079730846
102	0x3dad47bf	0.0846095
103	0xbcd1d53e	-0.025614377
104	0xbe4b8787	-0.19875918
105	0x3d494cc5	0.04914548
106	0xbd531202	-0.051530845
107	0xbdacda39	-0.0844006
108	0x3cba4623	0.022738522
109	0xbd1982da	-0.037478305
110	0x3b14be91	0.0022696594
111	0x3db283cd	0.08716545
112	0xbe004dfb	-0.12529747
113	0xbc449303	-0.011997941
114	0x3dafb3a2	0.08579184
115	0xbde8107f	-0.113312714
116	0xbdee8775	-0.1164693
117	0xbb4854f3	-0.0030568212
118	0xbc60afd7	-0.0137137985
119	0x3cadc102	0.021210197
120	0x3d0c1d1c	0.03420745
121	0xbdc44a27	-0.09584456
122	0xbb34f6ae	-0.0027612853
123	0xbd50c35a	-0.05096755
124	0x3a7a6f5f	0.0009553339
125	0xbd862be5	-0.06551341
126	0xbc8c0611	-0.017092736
127	0xbcd191f6	-0.025582295
128	0x3cc766db	0.024341037
129	0xbd5a1293	-0.05324037
130	0x3dcb2441	0.09919024
131	0x3de3d228	0.111240685
132	0xbd5e5fbb	-0.054290514
133	0x3ddf280e	0.10896312
134	0xbc690aa6	-0.01422373
135	0xbac6a993	-0.0015156738
136	0xbd936803	-0.07197573
137	0xbc936b20	-0.017995417
138	0x3de37d80	0.111079216
139	0xbd081312	-0.033221312
140	0xbd79c7b3	-0.060981464
141	0xbdd79260	-0.10525966
142	0x3d67c373	0.05658288
143	0xbda3cdee	-0.07998262
144	0xbc4a4e4a	-0.012347767
145	0x3d1e250d	0.038609553
146	0xbd9f994e	-0.077929124
147	0xbd8d7792	-0.06907572
148	0xbcc8e8ff	-0.024525164
149	0x3d8e6042	0.069519535
150	0x3d7fb0ea	0.062424578
151	0xbc79f139	-0.015255266
152	0x3cf1a401	0.029497148
153	0xbd18b0cb	-0.037277978
154	0x3b8a2e3e	0.0042169383
155	0xbcb3264e	-0.021868851
156	0xbd9558e2	-0.07292344
157	0x3d1490f1	0.03627104
158	0x3d80730f	0.06271946
159	0x3d08e465	0.03342094
160	0xbceb2435	-0.028703788
161	0xbc216aa6	-0.009852087
162	0xbe0194ad	-0.12654372
163	0x3c18c7e6	0.009325003
164	0xbccf074d	-0.025272036
165	0xbcab00b9	-0.020874368
166	0xbe0da8c6	-0.13833913
167	0x3e501f89	0.2032453
168	0x3c1ab239	0.009441906
169	0xbdb244ec	-0.08704552
170	0xbd2905e6	-0.04126539
171	0xbd833cf3	-0.064081095
172	0x3aa5b4af	0.0012642349
173	0x3c23b8fa	0.009992832
174	0xbd8a233b	-0.06745001
175	0xbd12921b	-0.03578387
176	0x3d0e4674	0.034735158
177	0x3cce66dc	0.025195532
178	0xbda471b3	-0.08029499
179	0x3d38f4d2	0.045155354
180	0xbd2a2c9d	-0.041546453
181	0xbccad425	-0.024759362
182	0xbe0feab2	-0.14054373
183	0x3d0a3b6d	0.03374808
184	0xbd3b703b	-0.04576133
185	0xbe0cf5db	-0.13765661
186	0xbdc1e850	-0.09468138
187	0x3d09325f	0.033495303
188	0xbd80a4ad	-0.062814094
189	0xbd625a76	-0.05526205
190	0x3ce2c2c0	0.027680755
191	0xbd4e3148	-0.050339967
192	0x3ce3c7fb	0.027805319
193	0x3dd003f6	0.101570055
194	0xbd8fd8e8	-0.070237935
195	0xbcf3681e	-0.029712733
196	0x3dd7ffe7	0.105468564
197	0x3d24f9b1	0.040277187
198	0xbdb44aba	-0.088033155
199	0x3e251911	0.16122843
200	0xbd891b0e	-0.066946134
201	0xbc8d264d	-0.017230177
202	0x3d294f96	0.041335665
203	0x3dc4069b	0.095715724
204	0xbd2070ad	-0.039169956
205	0xbd7d5935	-0.061852653
206	0xbd359c2d	-0.044338394
207	0x3d47e5d8	0.04880318
208	0xbda070e1	-0.0783403
209	0x3cd12c33	0.025533771
210	0xbbf5b65e	-0.0074985465
211	0xbd4bcbcf	-0.049754914
212	0x3dfebe44	0.12438634
213	0x3d154a2f	0.0364477
214	0xbe526c84	-0.20549208
215	0x3d47dc3f	0.048794027
216	0x3d2902e8	0.041262537
217	0x3d02b207	0.03190806
218	0x3dcc5996	0.09978025
219	0x3d6e2cb0	0.058148086
220	0x3db8d055	0.09024111
221	0x3d879f82	0.066222206
222	0xbd147084	-0.036240116
223	0xbe4eab7d	-0.20182605
224	0xbad94f3d	-0.0016579401
225	0xbdf30fee	-0.11868273
226	0xbd82a246	-0.063786075
227	0xbcf9211e	-0.0304113
228	0x3cd35eb3	0.025801992
229	0x3ddae21f	0.106876604
230	0x3bee6baa	0.007276018
231	0xbcdb1891	-0.026745113
232	0xbc830f56	-0.015998524
233	0x3c78a6f7	0.015176526
234	0xbdc21cf6	-0.0947818
235	0xbdd63ac8	-0.104604304
236	0xbd214b35	-0.039378364
237	0x3dac17f0	0.08403003
238	0xbaf56e35	-0.0018724861
239	0x3d859ea8	0.06524402
240	0x3c7d8644	0.015473906
241	0xbd772fbb	-0.060348254
242	0xbd22373f	-0.039603468
243	0x3cdaec17	0.026723905
244	0x3cbae683	0.022814995
245	0x3e1058ff	0.1409645
246	0xbd0e41bd	-0.03473066
247	0xbd6d17ea	-0.057884134
248	0x3d87ff13	0.066404484
249	0xbd83ef1b	-0.0644209
250	0xbde328b1	-0.11091746
251	0xbcbce3fb	-0.023057928
252	0xbd4bbb02	-0.04973889
253	0x3cc5daab	0.02415212
254	0xbe15c274	-0.14624959
255	0xbe265a66	-0.16245422

_model.1._model.0.bias f4 [256]
0	0x3bd5f8cb	0.0065299026
1	0xbc3073d1	-0.0107698
2	0x3c0061c5	0.00783581
3	0xbc94ea82	-0.018178228
4	0xbc215a35	-0.009848167
5	0x3beb264e	0.007176197
6	0xbc38f102	-0.0112879295
7	0xbbcd321f	-0.0062620784
8	0xba818367	-0.000988108
9	0x3c8c1862	0.01710147
10	0x3bf0431b	0.0073322183
11	0x3d1a2e0f	0.03764158
12	0x3c591f48	0.013252087
13	0xbc612979	-0.013742798
14	0x3a2ee934	0.0006672323
15	0x3cc02bbe	0.023458358
16	0x3b4bbf1d	0.0031089254
17	0x3b11e724	0.0022263015
18	0x3cd9647f	0.026537178
19	0xbcaa4f9e	-0.020789918
20	0xbc82e672	-0.015979026
21	0x3c502991	0.012705223
22	0x3ce41a6e	0.027844634
23	0x3bf30e87	0.0074175033
24	0xbc9c4605	-0.019076357
25	0x3c2725a3	0.010201844
26	0x3ca45aa0	0.020062745
27	0x3a425dee	0.00074145093
28	0xbcd53dca	-0.02603044
29	0xbbe5839c	-0.0070042145
30	0x3c0f3d0e	0.008742584
31	0x3c410f70	0.011783466
32	0xbc1741a0	-0.009231955
33	0x3c8e6808	0.01738359
34	0xbcf31b7f	-0.029676197
35	0xbb0b0415	-0.002121215
36	0xbc8b8ae7	-0.017034007
37	0xbc85277b	-0.016254177
38	0xbb2f23d3	-0.0026724234
39	0x3b7d6bfc	0.00386691
40	0x3aa93519	0.0012909501
41	0x3bb50647	0.00552443
42	0xbc12bb8e	-0.008955849
43	0xbd09c108	-0.033631355
44	0x3b3afd79	0.002853243
45	0xbcddfb96	-0.027097505
46	0xbca0f70b	-0.01964905
47	0xbbf4020a	-0.007446532
48	0xbbfb041b	-0.0076604015
49	0xbd31260b	-0.04324917
50	0xbbb03ef2	-0.0053785974
51	0x3bad720a	0.0052931355
52	0x3b3bd978	0.0028663557
53	0x3d0c5ab8	0.034266204
54	0xbcc9aaee	-0.024617638
55	0xbce4f7a5	-0.027950117
56	0xbc745821	-0.01491359
57	0xbcbfc88f	-0.023411063
58	0x3c5d1ebd	0.013496098
59	0xb949b6bb	-0.00019236926
60	0xbc267114	-0.010158796
61	0xbb248bd9	-0.002510777
62	0x3d06e1a6	0.03293004
63	0xbcde78f4	-0.027157284
64	0x3c7c635b	0.015404548
65	0x3bb63760	0.0055608004
66	0xba9041ff	-0.0011005996
67	0xbc143067	-0.009044743
68	0x3cea9fd5	0.028640667
69	0xbca301b0	-0.019898266
70	0xbc759a5c	-0.014990415
71	0xbca372ab	-0.019952139
72	0x3bf93254	0.0076048765
73	0xbc5a0e90	-0.013309136
74	0xbcdbcb4d	-0.02683034
75	0xbd09dee8	-0.033659846
76	0x3cafc9bb	0.021458497
77	0x3d12adc1	0.035810236
78	0x3b9a3cf1	0.004706972
79	0x3c014a51	0.007891254
80	0xbd3f0e82	-0.046644695
81	0x3bf43d21	0.007453576
82	0x3aa8da08	0.0012882361
83	0x3c3bad69	0.011454918
84	0xbbb0311e	-0.005376949
85	0xbc01ac4b	-0.007914613
86	0xbc2c3a70	-0.010511979
87	0xbc9cf707	-0.01916076
88	0xbc2d1c37	-0.010565809
89	0x3a565681	0.0008176342
90	0x3aa45c6c	0.0012539751
91	0xb8ecd3fc	-0.00011292842
92	0xbc9bbb68	-0.01901026
93	0xbc5bc693	-0.013414043
94	0xbb846663	-0.0040405258
95	0xbc2813e1	-0.010258646
96	0xbbb7bc12	-0.0056071365
97	0x3b828632	0.0039832825
98	0xbc973183	-0.018456226
99	0x3b52d540	0.0032170564
100	0x3cc656de	0.024211343
101	0x3c37838c	0.011200797
102	0x3c7fd9d4	0.015615899
103	0x3c7f0c40	0.0155668855
104	0xbc685a8b	-0.014181743
105	0x3c0bd720	0.0085351765
106	0x3b0ecca2	0.002178945
107	0xbc264660	-0.010148615
108	0xbcb1a52d	-0.021685207
109	0x3be4a7d4	0.0069780145
110	0x38c239c2	9.261399e-05
111	0x3ca400ec	0.02001997
112	0xbc119efd	-0.008888003
113	0x3c659903	0.014013532
114	0xbc0fc74a	-0.008775542
115	0xbc153b90	-0.009108439
116	0xbc31fcd5	-0.0108635025
117	0x3aa4d449	0.0012575473
118	0x3c60a7b2	0.013711857
119	0xbc985b01	-0.018598082
120	0xbc37322d	-0.011181396
121	0x3ba657f1	0.0050764014
122	0x3c119213	0.008884924
123	0x3b9f1490	0.004854746
124	0xbcdfecc7	-0.027334584
125	0xbc8232c9	-0.015893357
126	0xbd29d7c4	-0.041465536
127	0x3d21a42e	0.039463215
128	0xbb0754c5	-0.0020649892
129	0xbd811174	-0.06302157
130	0xbbc0fa6e	-0.0058892285
131	0xbc2dd8d8	-0.010610782
132	0x3babcd24	0.0052429605
133	0xbc451502	-0.012028934
134	0x3c244207	0.010025508
135	0x3bd0601f	0.006359115
136	0xbc64fb7c	-0.013975974
137	0xbce0975a	-0.02741592
138	0xbcab832e	-0.020936575
139	0x3cc28e45	0.02374948
140	0xbcad2e94	-0.021140374
141	0x3d012a51	0.031534497
142	0x3abd259d	0.0014430765
143	0xbb44b24f	-0.0030013507
144	0x3c2b0397	0.010437868
145	0xbc0bc176	-0.008530011
146	0xbcce7fb1	-0.025207372
147	0xbbac053a	-0.0052496465
148	0x3d29cb33	0.04145355
149	0xbc91445d	-0.017732793
150	0xbc8dcc17	-0.017309232
151	0xbb1d3469	-0.0023987538
152	0x3bbe22a2	0.0058024684
153	0x3c219462	0.009862037
154	0xbcd2420e	-0.025666263
155	0xbca61e32	-0.02027807
156	0x3c15ee04	0.009150986
157	0x3ae3ac6b	0.001737011
158	0xbc58ea35	-0.013239433
159	0x3c1e1313	0.009648102
160	0xbc22f376	-0.009945741
161	0x3c57ec54	0.013178904
162	0x3cb41a32	0.021985147
163	0xbc23b31c	-0.0099914335
164	0xbd43817b	-0.047730904
165	0xbc709abe	-0.014685331
166	0xbc8cfc32	-0.0172101
167	0x3b8fbba4	0.004386382
168	0x3c23839b	0.009980108
169	0x3cbbcb69	0.022924142
170	0x3a620045	0.0008621256
171	0x3c04f113	0.008114117
172	0x38f58c3a	0.000117086296
173	0xbc9f4747	-0.019443167
174	0x3c624dca	0.013812492
175	0xbbd94d03	-0.006631495
176	0x3cbf84dd	0.023378784
177	0x3c2d85af	0.010590955
178	0x3c1bca8f	0.009508743
179	0x3c04c98e	0.008104695
180	0xbca505e0	-0.020144403
181	0xbc615da1	-0.013755233
182	0xbac5d5fd	-0.0015093681
183	0x3cd2ed85	0.025748024
184	0x3b0458d9	0.002019456
185	0x3c88fdb4	0.016722538
186	0xbc61f82e	-0.013792081
187	0x3c12a475	0.008950342
188	0x3c875417	0.01651959
189	0x3c0b0417	0.008484862
190	0xbd021c38	-0.031765193
191	0xbb9c2560	-0.0047651976
192	0x3c88b7ff	0.016689299
193	0xbb6dd64a	-0.0036291056
194	0xbcbaae5e	-0.022788223
195	0x3ca5d814	0.020244636
196	0x3c3cf211	0.0115323225
197	0xbcc7535d	-0.024331743
198	0xbba449fa	-0.0050137015
199	0xbb9ddb5f	-0.004817411
200	0xbb01c641	-0.0019802006
201	0x3bd74b50	0.0065702572
202	0xbbe3f8bf	-0.006957143
203	0xbc9b4ec6	-0.01895846
204	0xbbc3445f	-0.005959078
205	0xbcf25b7e	-0.029584642
206	0x3c3aac27	0.011393583
207	0x3c51c59e	0.012803463
208	0xba85f6c7	-0.001022064
209	0xbb94784a	-0.004530941
210	0x3b9b71f1	0.0047438075
211	0xbc77c19a	-0.015121842
212	0xbc930568	-0.017946914
213	0x3c1c4689	0.009538301
214	0xbc3f9ed0	-0.011695579
215	0x3c3ba98c	0.011453997
216	0xbcda6dc5	-0.02666367
217	0x3c719145	0.014744108
218	0xbc5203e0	-0.012818307
219	0x3b44ee06	0.00300491
220	0xbb143a87	-0.0022617893
221	0xbc822c85	-0.01589037
222	0x3c98204b	0.018570086
223	0x3b8ae25e	0.004238411
224	0xbd1a2bc6	-0.0376394
225	0xbc7dc861	-0.015489669
226	0xbc3dd062	-0.011585327
227	0x3c51228e	0.012764586
228	0x3c8a7225	0.016900131
229	0x3b468d0b	0.003029647
230	0x3b8d3f46	0.0043105213
231	0xbc15db05	-0.009146457
232	0xbc267495	-0.010159631
233	0x3becf9c0	0.007231921
234	0x3aea09b8	0.001785568
235	0xbc5fdf48	-0.013664074
236	0xbc88fe6b	-0.016722878
237	0xbcdae2b1	-0.026719423
238	0xbcdfe924	-0.02733285
239	0x3c591928	0.013250627
240	0x3c58bfbb	0.013229306
241	0x3cec27c2	0.028827552
242	0x3b39ed52	0.0028370214
243	0xbd130a47	-0.035898473
244	0xbcd9e87d	-0.026600117
245	0xbc025385	-0.007954483
246	0xbc704dce	-0.014666988
247	0x3c93f15e	0.018059429
248	0x3c00574f	0.007833316
249	0x3c1e4636	0.009660294
250	0xbce0749d	-0.027399356
251	0x3c8a03aa	0.01684745
252	0x3bd98110	0.0066377
253	0xb9443282	-0.00018710832
254	0xbc498e99	-0.012302064
255	0xbc75d024	-0.015003238

_model.2._model.0.weight f4 [51, 256]
0	0x3c93d3df	0.018045364
1	0xbc2512a9	-0.01007525
2	0xbc3191a3	-0.010837945
3	0xbd77ce90	-0.060499728
4	0xbc9b80f9	-0.018982397
5	0x3cbb04df	0.022829471
6	0x3ca61841	0.020275237
7	0x3b159cc6	0.002282904
8	0xbbfdcb0a	-0.0077451514
9	0x3bdc57d0	0.0067243353
10	0x3d2d1891	0.042259756
11	0x3ca57e49	0.020201819
12	0x3c982c49	0.018575804
13	0xbc06e493	-0.008233207
14	0xbca95fda	-0.020675588
15	0xbb6fbeb3	-0.0036582171
16	0xbccc1573	-0.024912572
17	0x3c6e818e	0.014557255
18	0x3ce2fe1b	0.027709058
19	0xbb3a5457	-0.0028431618
20	0xbbb6ade5	-0.005574929
21	0x3d06ddad	0.03292625
22	0x3cfa79f9	0.03057574
23	0x3c8f78bb	0.017513623
24	0xbdb9a5bd	-0.09064815
25	0xbd213cd8	-0.039364666
26	0x3cd884f4	0.026430584
27	0x3c3e7a4a	0.011625836
28	0x3b81a884	0.003956856
29	0xbcd6e46b	-0.026231965
30	0xbc6868be	-0.014185129
31	0xbb213bf8	-0.0024602395
32	0x3d81eed6	0.063443825
33	0x3aa91d95	0.0012902493
34	0xbd970632	-0.073742285
35	0xbd3a106e	-0.045425825
36	0x3c1f0aed	0.009707195
37	0xbce5a826	-0.028034281
38	0xbbe4b78e	-0.0069798892
39	0x3ce7951a	0.02826934
40	0xbc7eda75	-0.015555014
41	0xbb1f0627	-0.0024265142
42	0xbc9f682f	-0.019458858
43	0xbd56a906	-0.052407287
44	0x3d00c45d	0.031437267
45	0xbacb75b5	-0.001552275
46	0x3c8a3a2c	0.016873442
47	0x3d067fae	0.03283661
48	0x3c2a8384	0.010407332
49	0x3cd3cb21	0.025853695
50	0x3ce329df	0.027729927
51	0x3d129340	0.03578496
52	0x3c49bf6d	0.012313706
53	0x3c97b399	0.018518256
54	0xbc8d237a	-0.01722883
55	0x3d44c8ce	0.048043065
56	0xbb2dc595	-0.0026515473
57	0xbcd59ba0	-0.026075184
58	0xbd69bb7b	-0.05706356
59	0xbc636959	-0.013880097
60	0xbcc57472	-0.024103377
61	0x3cea30d5	0.028587738
62	0x3cd8d8fd	0.026470656
63	0x3d227659	0.039663646
64	0xbc12186e	-0.008916957
65	0xbce3be66	-0.02780075
66	0x3d7c381e	0.061576955
67	0xba127dad	-0.0005588185
68	0x3d820ec1	0.0635047
69	0x3ce35fa8	0.027755573
70	0xbd4afb55	-0.049556095
71	0x3cb77801	0.02239609
72	0xbc2bf8eb	-0.010496358
73	0xbbabd4c8	-0.0052438714
74	0x3b6a591f	0.0035758687
75	0xbc7e847b	-0.0155345155
76	0xbbad3d3f	-0.005286842
77	0xbcea65c9	-0.028612988
78	0x3bf918f1	0.00760185
79	0xb9d891f2	-0.00041307468
80	0xbc8b1093	-0.016975677
81	0x381eaaaf	3.7829097e-05
82	0x3c8a5ca8	0.016889885
83	0xbbcd0bb7	-0.0062575
84	0x3b821189	0.0039693755
85	0xbbe48dae	-0.0069748973
86	0xbcd79fce	-0.026321318
87	0x3d1cfe95	0.038328726
88	0x3d31aabd	0.04337572
89	0x3ca85a37	0.02055083
90	0xbce44269	-0.027863698
91	0x3cd27570	0.025690764
92	0xbce2e709	-0.027698057
93	0xbb4ba614	-0.0031074332
94	0x3c94cf7f	0.018165348
95	0xbb185b3a	-0.0023247735
96	0x3c9f6954	0.019459404
97	0x3cff0c7e	0.031133886
98	0xbb7e3a0c	-0.0038791923
99	0x3d1d5015	0.03840645
100	0x3c20a532	0.009805011
101	0x3c084a6a	0.008318523
102	0x3c22417f	0.009903311
103	0x3d25c35c	0.040469512
104	0xbc9be7b4	-0.019031383
105	0x3a0ffca8	0.0005492666
106	0xbcf04cd2	-0.029333506
107	0xbca84588	-0.020540968
108	0x3cb89aaf	0.022534696
109	0x3aac5132	0.0013146757
110	0x3c7fa73a	0.015603835
111	0x3d1a0d79	0.037610505
112	0x3caf21d2	0.021378431
113	0x3cb1395e	0.0216338
114	0xba9e68a0	-0.0012085624
115	0xbd2bfc12	-0.04198844
116	0xbc5b075a	-0.013368452
117	0xbc9ea24f	-0.019364504
118	0x3ba24aa8	0.0049527474
119	0x3d10812c	0.035279438
120	0xbd001217	-0.03126725
121	0xbaacbce5	-0.0013178854
122	0x3c204a05	0.009783273
123	0x3d8f148b	0.0698634
124	0xbc1d5249	-0.009602138
125	0xbc60c389	-0.013718494
126	0x3bbbb194	0.005727956
127	0xbcaa5369	-0.020791726
128	0xbb581c4a	-0.0032975846
129	0xbc70f2bb	-0.014706309
130	0xbcb41cb7	-0.021986349
131	0xbcd6bab0	-0.026212066
132	0xbd710824	-0.058845654
133	0xbd5c1132	-0.053727336
134	0x3c975397	0.018472476
135	0x3c7552a6	0.014973318
136	0x3b65ebde	0.0035083215
137	0x3cca36c6	0.024684321
138	0xbcb4c946	-0.02206863
139	0x3d11ae8b	0.035566848
140	0xbc3e439e	-0.011612801
141	0x3c48ae2a	0.012248555
142	0x3c1ade6a	0.009452442
143	0x3c51ea98	0.012812279
144	0xbc83f9a1	-0.016110243
145	0x3bc43457	0.0059876847
146	0xbc829395	-0.015939513
147	0x3c3ba935	0.011453916
148	0xbd66c833	-0.05634327
149	0x3d1ab996	0.037774645
150	0xbcae9676	-0.02131198
151	0x3ccb8313	0.024842774
152	0xbc9f0ffe	-0.019416805
153	0x3d902697	0.070386104
154	0xbb196171	-0.0023404027
155	0x3c4a0691	0.012330667
156	0xbc3a70f3	-0.011379468
157	0x3d1aee41	0.037824873
158	0xbcdb2146	-0.026749264
159	0xba8e5c83	-0.0010861311
160	0x3cdde7d8	0.02708809
161	0xbca7da99	-0.020489978
162	0xbc15f253	-0.009152013
163	0xbca5f272	-0.020257208
164	0x3c6533ab	0.013989369
165	0xbd167d76	-0.036740743
166	0x3c20c50f	0.009812607
167	0x3c81342e	0.015771952
168	0xbc50f1c6	-0.012752956
169	0x3c4c4221	0.012466938
170	0x3cc6bad6	0.024259012
171	0xbc4fabea	-0.012675265
172	0xbc175231	-0.009235905
173	0xbb2bbd79	-0.0026205464
174	0x3c29a608	0.010354526
175	0x3c09a591	0.0084012905
176	0x3c3ad5e6	0.011403536
177	0xbd024965	-0.031808276
178	0xbc5eb7dc	-0.01359364
179	0x3c036b16	0.008021137
180	0xbc486c77	-0.012232891
181	0xba69a045	-0.00089121267
182	0x3d4547cd	0.048164178
183	0x3cbb906e	0.022896018
184	0xbc47f6df	-0.012204855
185	0xbb2d7d58	-0.0026472416
186	0x3c238867	0.009981251
187	0x3c388e98	0.011264466
188	0x3c92c10e	0.017914321
189	0xbcaaee9d	-0.020865733
190	0xbd297c0a	-0.04137806
191	0xbb26afa1	-0.0025434273
192	0xbd8404db	-0.064462386
193	0x3d3699ee	0.044580393
194	0xbd0f2a3f	-0.0349524
195	0xbcb45185	-0.022011528
196	0x3d28f8c5	0.04125287
197	0xbd1e14b4	-0.038593963
198	0x3aec66a6	0.0018035963
199	0x3cdd7821	0.027034821
200	0x3afac5b4	0.0019132406
201	0x3bd507de	0.006501182
202	0x3c699b49	0.014258214
203	0x3d2a95e2	0.041646846
204	0x3d38aaf3	0.045084905
205	0x3c8b8c18	0.017034575
206	0xbab2fc51	-0.0013655518
207	0x395e28e8	0.00021186809
208	0xbca58af9	-0.020207869
209	0x3bccc3fd	0.0062489496
210	0x3d0ca494	0.03433664
211	0x3d040508	0.03223136
212	0xbb87baf6	-0.0041421605
213	0x3c12c149	0.008957216
214	0xbca6ea81	-0.020375492
215	0xbc7237e3	-0.014783832
216	0x3a446a64	0.000749266
217	0xbb96cf49	-0.004602347
218	0x3bf2f1e2	0.0074140886
219	0x3d5fc360	0.054629683
220	0x3cb4c06b	0.022064408
221	0xbc54b0f2	-0.01298164
222	0x3c6b69f6	0.014368525
223	0xbceed6e5	-0.029155204
224	0xbc4006e6	-0.011720395
225	0x3c9c70e6	0.019096803
226	0xbd6c8cb5	-0.057751376
227	0xbcf4d956	-0.02988879
228	0xbc0bb347	-0.00852663
229	0xbc029b53	-0.0079716025
230	0xba5e6436	-0.00084835605
231	0xbd7cbea3	-0.061705243
232	0xbcb7ebff	-0.022451399
233	0xbc8d2408	-0.017229095
234	0xbc46dec0	-0.012138069
235	0x3cf5be56	0.029997986
236	0x3a2fbf01	0.0006704182
237	0x3d1894a5	0.037251133
238	0x3cd1deb5	0.02561889
239	0xbd07a0d5	-0.033112366
240	0x3c8790ba	0.016548503
241	0x3c6b6fb5	0.014369895
242	0x3c442dfe	0.011973856
243	0x3c23de78	0.010001771
244	0x3c36ff75	0.011169304
245	0xbc73e204	-0.014885429
246	0x3c9894b1	0.01862559
247	0x3be5402b	0.006996175
248	0x3cd5da30	0.026105016
249	0x3c66598f	0.014059438
250	0x3c39f3df	0.011349647
251	0x3cd69882	0.026195768
252	0xbcbecb42	-0.02329028
253	0xbc1bdae6	-0.009512639
254	0xbd0d1cc5	-0.034451265
255	0xbd21b3d5	-0.03947814

_model.2._model.0.bias f4 [51]
0	0x3db4e907	0.08833509
1	0xbc5ddd7e	-0.013541577
2	0x3ca9d079	0.02072929
3	0xbd50ccf8	-0.050976723
4	0xbc744f9b	-0.014911558
5	0x3da20612	0.07911314
6	0x3d70152e	0.05861395
7	0x3d1d8d66	0.038464926
8	0x3c089bc1	0.008337916
9	0xbdbdfad7	-0.092763595
10	0x3c6344df	0.013871401
11	0xbcddf433	-0.027093982
12	0x3b859128	0.004076142
13	0xbaf40c65	-0.0018619417
14	0x3c04f3c8	0.008114763
15	0x3d85a035	0.06524698
16	0x3be45d4d	0.00696913
17	0x3c8d778d	0.01726892
18	0x3d1daeae	0.038496666
19	0xbcd8b733	-0.026454544
20	0x3b3d6ea8	0.0028905068
21	0xbc85fb31	-0.016355129
22	0xbad4dcc7	-0.0016240113
23	0x3b824e71	0.003976636
24	0xbb9677f6	-0.004591937
25	0xbca3a697	-0.019976897
26	0x3c7fa1de	0.015602557
27	0xbd810624	-0.06299999
28	0xbae71a1f	-0.0017631686
29	0x3b828032	0.003982567
30	0xbd3f44d1	-0.046696488
31	0xbc870828	-0.016483381
32	0xbc332c06	-0.010935789
33	0x3d49539f	0.049152013
34	0xb9c2702f	-0.00037086147
35	0xbd597be1	-0.053096656
36	0x3cf21b77	0.029554112
37	0x3cac8cc9	0.021063225
38	0xbd76daf4	-0.060267404
39	0xbc20a7bc	-0.009805616
40	0xbd33d312	-0.043902464
41	0xbd3897cf	-0.04506665
42	0xbbd5aa80	-0.0065205693
43	0xbcacb05d	-0.02108019
44	0x3d14be06	0.036314033
45	0xbc2085f4	-0.009797562
46	0xbd67780e	-0.056510977
47	0x3cd7a60b	0.026324293
48	0xbcde26be	-0.027118083
49	0x3cf5a14f	0.029984144
50	0x3bac7628	0.0052631088
