data/etc/pretrained_model/boxing/imitation/exp26/5000/task_agnostic_policy_task_encoder.pt (torch, 500485 bytes, 6 tensors)

_model.0._model.0.weight f4 [128, 810]
0	0x3d655e68	0.055998236
1	0x3cca9df2	0.024733517
2	0x3ce2548d	0.027628208
3	0x3b8aef2d	0.0042399378
4	0x3d39938c	0.045306727
5	0xbe3e9bbd	-0.18614097
6	0xbd0be30a	-0.03415207
7	0x3d0e1c0e	0.034694724
8	0x3d05af56	0.032637917
9	0x3d25fe81	0.040525917
10	0xbd5035b2	-0.050832458
11	0x3d232cf4	0.039837793
12	0xbb01d8f9	-0.0019813164
13	0xbdc8b07d	-0.097992875
14	0xbd097f7c	-0.033568844
15	0x3c80bee8	0.015716031
16	0xbd612310	-0.05496508
17	0x3d03ffb1	0.03222627
18	0xbdfc46dc	-0.12318203
19	0xbcb75921	-0.022381367
20	0xbdcde8d6	-0.100541756
21	0x3d7d396e	0.061822347
22	0xbd93a47d	-0.07209108
23	0x3d926383	0.071478866
24	0xbd20d69e	-0.039267175
25	0x3c58ebb7	0.013239793
26	0xbe1f2e3b	-0.1554498
27	0xbd07d5ba	-0.03316281
28	0x3d98531a	0.07437725
29	0x3d01b4a2	0.031666405
30	0x3daabfb6	0.08337347
31	0xbefb8a09	-0.4912875
32	0x3d55d9d2	0.052209683
33	0x3afdb4e8	0.0019356282
34	0x3d1b6b98	0.037944406
35	0xbd4c396e	-0.049859457
36	0xbbf0f9c1	-0.0073539917
37	0x3d552857	0.052040424
38	0x3c76f068	0.015071966
39	0xbe7d2a41	-0.2472315
40	0xbe6a8e3d	-0.22905822
41	0xbc9f0302	-0.019410614
42	0x3de243ae	0.11048065
43	0xbc8b4f82	-0.017005686
44	0xbe773ce8	-0.24144328
45	0xbd9e8266	-0.07739715
46	0xbc9320dc	-0.017960005
47	0x3da28d6d	0.07937131
48	0x3b8a78db	0.004225833
49	0xbbb71ae8	-0.0055879243
50	0x3d3a5e68	0.04550019
51	0xbd08e4c7	-0.033421304
52	0xbd07cc52	-0.03315384
53	0x3ced46ab	0.028964361
54	0x3cb25716	0.021770041
55	0xbbad0d5b	-0.005281133
56	0x3d59a0bc	0.053131804
57	0x3d3a0ed0	0.045424283
58	0xbd558ab0	-0.052134216
59	0xbc6ade3f	-0.014335214
60	0x3e03e527	0.12880383
61	0xbc459bcd	-0.012061072
62	0xbe05e1ce	-0.13074419
63	0xbce5b617	-0.028040929
64	0x39357d6d	0.0001730823
65	0xbd919248	-0.07107979
66	0xbc92b1ec	-0.017907105
67	0x3c5c6bc2	0.013453426
68	0xbcd95cdc	-0.026533537
69	0xbd79d773	-0.060996484
70	0xbceaa31a	-0.028642226
71	0x3af795ab	0.0018889209
72	0x3c9bbdd1	0.01901141
73	0x3caf5c5f	0.02140635
74	0x3c9cfd9c	0.0191639
75	0x3cc3af4c	0.023887299
76	0x3ca56a34	0.020192243
77	0xbbbe5422	-0.0058083693
78	0xbdc04f38	-0.0939011
79	0xbe1d1d31	-0.15343167
80	0x3e16f274	0.14740926
81	0xbd2e842d	-0.04260652
82	0xbd884021	-0.066528566
83	0x3d403362	0.046924002
84	0xbcdbe18f	-0.026840953
85	0xbb76d853	-0.003766556
86	0x3c1825f6	0.009286394
87	0x3c173b87	0.009230501
88	0x3be74b27	0.0070585194
89	0xbca9bfe4	-0.020721383
90	0x3c98d673	0.018656945
91	0x3e4ef0bc	0.2020902
92	0xbc42a14e	-0.011879278
93	0x3d84662b	0.064647995
94	0x3c9d8f64	0.019233413
95	0x3d8575ad	0.065165855
96	0x3c79b771	0.01524149
97	0xba64a299	-0.00087217387
98	0x3d7ba7c3	0.061439287
99	0x3b794231	0.0038033838
100	0xbd3b4db6	-0.045728408
101	0xbb91b8c3	-0.004447074
102	0x3d376b07	0.044779804
103	0xbdaba4d6	-0.08381049
104	0x3e466acd	0.19376679
105	0x3bca9072	0.00618177
106	0x3c8b82bf	0.017030118
107	0x3d189efe	0.037261
108	0x3d25394a	0.04033784
109	0xbcb99fc6	-0.022659194
110	0x3c83ec5d	0.016103918
111	0x3d112ed9	0.035445068
112	0x3d76bb4d	0.060237218
113	0xbc0f99ca	-0.0087646935
114	0xbcc39727	-0.023875786
115	0xbc66c54f	-0.014085128
116	0x3b463f7a	0.0030250237
117	0x3e05bd80	0.1306057
118	0xbda2e78e	-0.07954322
119	0xbd31f7f5	-0.04344936
120	0x3de5668c	0.112012
121	0x3d08f4c9	0.03343657
122	0x3c571e0d	0.013129723
123	0xbb596fa1	-0.0033178108
124	0x3de0216b	0.10943874
125	0xbc49e95a	-0.012323702
126	0xbd140c4d	-0.036144543
127	0x3d658f74	0.05604501
128	0x3d48d025	0.049026627
129	0x3d11eb60	0.03562486
130	0x3e13d577	0.14436899
131	0x3d6849fe	0.05671119
132	0x3c794bd2	0.015215831
133	0x3d6dde92	0.058073588
134	0x3d2ebaf8	0.042658776
135	0xbbfc1c66	-0.007693815
136	0xba2c4260	-0.000657117
137	0x3ce3d169	0.027809815
138	0x3d7377a6	0.059440278
139	0x3cb9159a	0.022593308
140	0x3b339a18	0.002740508
141	0x3b673c96	0.0035283915
142	0x3bfde926	0.0077487407
143	0x3e0c2e63	0.1368957
144	0xbdc0da22	-0.094166055
145	0x3d6d50f0	0.057938516
146	0x3d3877b4	0.045036033
147	0x3da294d2	0.079385415
148	0x3e3db19a	0.18524781
149	0x3d85cedc	0.06533596
150	0x3d572fcb	0.052535813
151	0x3e0e21f6	0.13880143
152	0x395912ec	0.00020701782
153	0x3c20da06	0.009817606
154	0xbc7075ec	-0.014676552
155	0x3cc7d87d	0.024395222
156	0x3d2901b7	0.0412614
157	0x3b87736e	0.0041336333
158	0x3d7f8d44	0.06239058
159	0x3db2cf84	0.08730987
160	0xbd0056e9	-0.031332884
161	0xbd4e04ac	-0.050297424
162	0xbc98ce3f	-0.018653033
163	0x3d70720a	0.058702506
164	0x3cb8cdfb	0.022559157
165	0xbd5823f2	-0.052768655
166	0x3cfd929b	0.030953696
167	0x3c71afa7	0.014751351
168	0x39231b1d	0.00015554992
169	0x3c52faf6	0.012877217
170	0xbc69c616	-0.014268419
171	0x3d4a11d1	0.049333397
172	0x3cc40252	0.023926888
173	0x3db235e0	0.08701682
174	0x3d482109	0.04885963
175	0xbc4fe89c	-0.012689736
176	0xbd3ea240	-0.046541452
177	0xbd2962af	-0.041353878
178	0x3ca46dfa	0.020071972
179	0xbc2e7f18	-0.010650419
180	0x3d1f51ff	0.038896557
181	0x3d3abf86	0.045592807
182	0x3cf4103f	0.029792903
183	0xbe1c51c6	-0.15265569
184	0xbd001074	-0.03126569
185	0xbc8d0e71	-0.0172188
186	0xbcfa056c	-0.030520163
187	0x3d13fca3	0.036129605
188	0x3c590137	0.013244919
189	0xbbd89aac	-0.006610235
190	0xbcf7052d	-0.030153835
191	0xbda03740	-0.07823038
192	0x3d3a89c3	0.045541536
193	0xbd160e5d	-0.03663479
194	0x3c8604ad	0.016359651
195	0x3dadd1f1	0.08487309
196	0xbca79de5	-0.020461032
197	0xbd199d12	-0.03750331
198	0x3bda3c3f	0.006660014
199	0x3ab58a95	0.0013850505
200	0xbd085207	-0.033281352
201	0x3d3cbaf5	0.046076734
202	0x3d04012a	0.032227673
203	0xbc0b63a9	-0.008507648
204	0xbd4bbbab	-0.04973952
205	0x3c11b498	0.008893155
206	0x3c0dfbf2	0.0086660255
207	0xbbf4367d	-0.0074527846
208	0xbd08f4ff	-0.03343677
209	0xbd0c3aa7	-0.034235623
210	0x3d94e20b	0.07269677
211	0x3daaa939	0.08333058
212	0x3cca4fba	0.02469622
213	0x3d1a79d5	0.037713844
214	0xbcca5a11	-0.02470115
215	0x3d865ee7	0.0656107
216	0xbaaa9e95	-0.0013017232
217	0xbc0e97f5	-0.008703222
218	0x3ca6bb4c	0.020352982
219	0xbd11a402	-0.0355568
220	0x3bdc1620	0.0067165047
221	0xbb622ec2	-0.0034512733
222	0xbd96cd10	-0.07363331
223	0x3d43635f	0.04770219
224	0x3d8a37fa	0.06748958
225	0x3b9f1fb3	0.0048560738
226	0xbc6ba8c4	-0.014383499
227	0x3c44c006	0.012008673
228	0x3d54cebb	0.051954966
229	0x3d704c44	0.058666483
230	0x3d4d86ee	0.050177507
231	0x3cf36709	0.029712217
232	0xba03cc76	-0.00050277205
233	0xbd17566b	-0.03694765
234	0x3da26838	0.079300344
235	0xbc2a5c7b	-0.010398026
236	0x3d5d1c3c	0.053982005
237	0x3cb922a9	0.022599535
238	0xbcdc3002	-0.02687836
239	0x3d912839	0.0708775
240	0xbd8dfcf2	-0.06933011
241	0x3c3e8f36	0.011630824
242	0x3c59d4fa	0.0132954065
243	0x3da1db13	0.07903113
244	0x3ad82367	0.0016490043
245	0x3bbc0299	0.0057376144
246	0xbd209bfb	-0.039211255
247	0x3ddd1380	0.10794735
248	0xbcee2287	-0.029069198
249	0x3cbe6d62	0.023245517
250	0xbc978f13	-0.01850084
251	0x3cea5d30	0.028608888
252	0x3b94d340	0.0045417845
253	0xbcd5d841	-0.026104094
254	0xbd131668	-0.03591004
255	0x3db3106b	0.08743366

_model.0._model.0.bias f4 [128]
0	0x3b224c68	0.002476478
1	0xbc8c2e05	-0.017111788
2	0x3a05a424	0.0005098006
3	0x3b962432	0.0045819515
4	0xbbe1545a	-0.0068765106
5	0x3c4fd094	0.012684006
6	0x3b1b6d88	0.0023716409
7	0xbb831e21	-0.0040013944
8	0x3c254e0d	0.01008941
9	0xbb0a04e2	-0.002106004
10	0x3bebb06c	0.007192662
11	0x3b5e170b	0.0033888246
12	0x3bdeb9f1	0.0067970683
13	0xbad8b23e	-0.0016532612
14	0xbc01da1b	-0.007925536
15	0x3c4526c6	0.01203317
16	0x3bf48b34	0.0074628834
17	0x3bda0e05	0.0066545033
18	0xbb88c9d7	-0.004174452
19	0x3c2647f1	0.010148988
20	0xbb236cde	-0.0024936716
21	0x3c68311b	0.014171864
22	0xbc6398d9	-0.013891422
23	0x3bb5a08c	0.0055428203
24	0x3c8802b7	0.016602857
25	0x3b709357	0.0036708915
26	0x3c8934e3	0.016748851
27	0x3bffa8ae	0.0078020906
28	0x3c88c231	0.01669416
29	0x3beb6415	0.0071835616
30	0xbbe1b9bd	-0.006888597
31	0xbc357f2b	-0.0110776825
32	0x3a525a6e	0.00080243393
33	0x3c360395	0.011109252
34	0x3cb1db21	0.021710934
35	0xb98f983f	-0.00027388518
36	0xbc17db31	-0.009268568
37	0x3ba77a5f	0.0051110233
38	0x3c68cdcb	0.014209221
39	0x3be86b54	0.0070928726
40	0x3c8ff8c1	0.01757467
41	0x3ae93648	0.0017792666
42	0x3c1e64b1	0.009667561
43	0x3c8ee9e2	0.017445508
44	0x3bcc1c2b	0.006228944
45	0x3b36a699	0.0027870296
46	0x37b07175	2.1033668e-05
47	0x3c64f236	0.013973763
48	0x3c1872bb	0.009304698
49	0x3c632363	0.013863417
50	0xb9c2b284	-0.00037135568
51	0xba860e72	-0.0010227694
52	0x3b54a020	0.0032444075
53	0x3befc23d	0.007316856
54	0x3c65d8a7	0.014028705
55	0x3a167596	0.00057395676
56	0x3ca95af1	0.020673247
57	0x3bb2ce8b	0.0054567507
58	0x3be501d3	0.006988743
59	0xbaccabbe	-0.0015615148
60	0x3a960e25	0.0011448307
61	0x3cabd217	0.020974202
62	0x3c3c3d65	0.011489247
63	0x3c57ea5e	0.013178436
64	0xbb45668a	-0.0030120932
65	0xbbba4a04	-0.005685093
66	0x3bd77466	0.006575155
67	0xba33e702	-0.0006862731
68	0x3be16d07	0.006879452
69	0xbb4b3736	-0.003100825
70	0x3b85e63f	0.0040862854
71	0x3c1d58d3	0.009603697
72	0x3bdd9c1e	0.0067629954
73	0x3bfe21de	0.007755502
74	0xbb09f720	-0.002105184
75	0x3c0f5f03	0.00875068
76	0xbbb9f4d9	-0.00567494
77	0x3c2df9ce	0.01061864
78	0x3b6bfc77	0.0036008635
79	0xbc40d8fa	-0.011770481
80	0x3c7b0988	0.015322097
81	0xbbdbf9ed	-0.006713143
82	0xbc1a7883	-0.009428146
83	0xbba00821	-0.0048837815
84	0x3ca82b6c	0.020528518
85	0x3cc673c6	0.024225127
86	0x3b5d63ec	0.0033781482
87	0xba609017	-0.0008566393
88	0xba9634b6	-0.0011459801
89	0xbb9b14e4	-0.004732715
90	0x3b273cb4	0.002551836
91	0xbc1e6c76	-0.009669414
92	0x3c05d433	0.008168268
93	0x3bc461a3	0.0059930845
94	0xbbad2746	-0.005284223
95	0x3c6404cb	0.013917158
96	0x3c89bb1f	0.01681286
97	0x3ca0b151	0.019615801
98	0x3be4f15a	0.006986779
99	0x3baea3f9	0.0053296057
100	0x3b08c397	0.0020868534
101	0x3bacb773	0.0052708923
102	0xbb9f5863	-0.0048628314
103	0x3844d14b	4.692496e-05
104	0x3c3aaf6f	0.011394366
105	0x3ba690ae	0.005083165
106	0xba902646	-0.0010997734
107	0xbbdc2758	-0.0067185573
108	0xbb8048c5	-0.003914925
109	0x3b10f481	0.0022118392
110	0x3adc2caf	0.0016797985
111	0xbc874f4d	-0.016517306
112	0x3c3f0cde	0.011660783
113	0x3c8cd8a6	0.01719315
114	0xbc24c918	-0.01005771
115	0x3c37d67d	0.011220572
116	0x3b6a5de7	0.0035761537
117	0x3bf9bbfe	0.0076212874
118	0x3ba015bf	0.004885405
119	0xba9762c5	-0.0011549821
120	0xbadaa643	-0.001668163
121	0x3bee74f1	0.007277124
122	0x3c73b82c	0.014875453
123	0x3c5ce043	0.013481203
124	0x3b247992	0.0025096876
125	0x3c644c6c	0.013934236
126	0xbb83928e	-0.0040152734
127	0x3baeb344	0.0053314287

_model.1._model.0.weight f4 [128, 128]
0	0x3e13f9f2	0.14450815
1	0xbddc834e	-0.10767232
2	0xbc8ee06a	-0.017440993
3	0x3d4c4496	0.049870096
4	0xbd0e60d9	-0.03476033
5	0xbe215c7c	-0.15757936
6	0xbbe829f7	-0.0070850807
7	0x3c1532ea	0.009106377
8	0xbe3169f4	-0.17325574
9	0xb986078b	-0.00025564092
10	0x3c8b292f	0.016987411
11	0x3e53b3b3	0.20674019
12	0x3dfdfee4	0.12402132
13	0x3df7b4f3	0.1209506
14	0x3d82a81e	0.06379722
15	0x3d2eefd9	0.042709205
16	0x3b915744	0.0044354517
17	0xbd752d58	-0.059857696
18	0x3e89f7f3	0.26946983
19	0x3d3d5b37	0.046229567
20	0xbe597a93	-0.21238165
21	0xbc781118	-0.015140794
22	0xbc42cb8a	-0.011889348
23	0xbddbd239	-0.10733456
24	0xbd37be6b	-0.04485933
25	0xbe4641ca	-0.19361034
26	0xbb2e06e7	-0.0026554407
27	0x3dc016e7	0.09379368
28	0x3da92854	0.08259645
29	0x3d751620	0.059835553
30	0xbca7f75b	-0.02050369
31	0x3cf37db0	0.029723018
32	0xbdb37151	-0.08761848
33	0x3d96b24b	0.073582254
34	0x3d9cc5c7	0.076549105
35	0xbdbfb255	-0.09360186
36	0xbdf1a154	-0.11798349
37	0xbe1589b4	-0.14603311
38	0x3e19532f	0.14973138
39	0x3d8156f3	0.06315412
40	0x3e2df584	0.16988188
41	0x3d69fa2f	0.05712336
42	0x3d979541	0.07401515
43	0x3e74f5f9	0.23921956
44	0x3dc96f76	0.098357126
45	0xbdadbea2	-0.08483626
46	0x3db84e0a	0.0899926
47	0xbc438471	-0.011933432
48	0xbd512d70	-0.051068723
49	0x3d8d092a	0.068865135
50	0x3e4595d6	0.19295439
51	0xbdc6e742	-0.09712078
52	0xbd2e2ebf	-0.04252505
53	0x3d81b182	0.06332685
54	0x3d97bb95	0.07408825
55	0x3c08b440	0.008343756
56	0xbb318576	-0.0027087606
57	0xbe2bd6d7	-0.16781174
58	0x3d8b7bab	0.06810697
59	0x3d2b4362	0.041812308
60	0xbc1b2cc8	-0.009471126
61	0x3ce471cc	0.027886294
62	0xbdd24358	-0.10266751
63	0xbd9dfb7f	-0.07713985
64	0x3ce2065a	0.02759092
65	0xbd4aac04	-0.049480453
66	0x3e07c5f8	0.13259113
67	0xbd3fe100	-0.046845436
68	0x3ddd1400	0.1079483
69	0xbdae3019	-0.08505268
70	0xbd1427aa	-0.03617064
71	0xbd292167	-0.04129162
72	0xbbb147f7	-0.00541019
73	0xbdb44f47	-0.088041835
74	0xbd8bf0e2	-0.06833054
75	0xbd7d37a1	-0.06182063
76	0xbdf5cadb	-0.12001582
77	0xbe2c4223	-0.16822104
78	0x3d492098	0.04910335
79	0x3cdd98db	0.027050426
80	0x3da8ab59	0.08235807
81	0x3cba90da	0.022774149
82	0x3ddf9e58	0.109188735
83	0x3b97b4df	0.004629716
84	0x3d8a6dfb	0.06759258
85	0x3dbf14a8	0.09330112
86	0xbcd61aa5	-0.026135752
87	0x3d1a7283	0.037706863
88	0x3e075c58	0.1321882
89	0x3d5f93a0	0.054584146
90	0x3d433004	0.047653213
91	0x3e1d99b3	0.15390663
92	0x3d7c7208	0.061632186
93	0xbcd85dfd	-0.026412005
94	0xbe1ed4fa	-0.15510932
95	0x3db3b2df	0.08774351
96	0xbca6d52c	-0.02036532
97	0xbe31c8d5	-0.17361768
98	0xbe025c19	-0.12730445
99	0xbd5980b0	-0.05310124
100	0x3dc74e22	0.097316995
101	0xbe3ede5f	-0.18639515
102	0x3e00511e	0.12530944
103	0xbc6f5b8d	-0.01460923
104	0x3a677db6	0.0008830683
105	0xbdc7f35a	-0.097632125
106	0x3d2d681d	0.04233562
107	0x3d86ea53	0.065876625
108	0x3e34ccb6	0.17656216
109	0x3d80fd4c	0.062983125
110	0xbe02f08e	-0.12787077
111	0x3cf85184	0.030312307
112	0xbdd7a1a1	-0.10528875
113	0xbc541c1c	-0.012946155
114	0x3d35e2fd	0.044405926
115	0xbd229baa	-0.039699234
116	0x3de1b585	0.1102095
117	0xbd501b46	-0.05080726
118	0x3df65d94	0.12029567
119	0x3c31307b	0.010814781
120	0x3de9549f	0.11393093
121	0xbe60900d	-0.21929951
122	0xbcb629ed	-0.022236789
123	0x3ded0c4d	0.11574612
124	0x3ca23ee9	0.019805389
125	0xbc1d5ad7	-0.009604177
126	0xbdbe3dce	-0.09289132
127	0x3e4db708	0.20089352
128	0x3d39d509	0.04536918
129	0xbe0d94ad	-0.13826247
130	0xbdae1692	-0.08500399
131	0x3cf097f8	0.02936934
132	0x3a71d0f9	0.000922456
133	0x3e0b2af3	0.13590603
134	0x3e15825d	0.14600511
135	0xbd218d74	-0.03944154
136	0xbe0a43a4	-0.13502365
137	0xbdf9fc2d	-0.12206302
138	0x3d74a4a0	0.05972731
139	0xbdd2bc52	-0.102898255
140	0x3cb703f4	0.022340752
141	0x3da907d5	0.08253447
142	0xbe2f0fe8	-0.17095912
143	0xbcb5865c	-0.022158794
144	0x3e351bd8	0.17686403
145	0x3d7574a4	0.05992569
146	0xbe3a43bc	-0.18189901
147	0xbdaf667b	-0.085644685
148	0xbe0bad2b	-0.13640277
149	0xbe29028d	-0.1650488
150	0x3df54d24	0.11977604
151	0xbd5ebbdd	-0.05437838
152	0xbde7e499	-0.113228984
153	0xbda0d448	-0.078529894
154	0xbc64ff91	-0.013976947
155	0x3decf02f	0.11569249
156	0x3bf2001f	0.0073852683
157	0xbd9072a6	-0.070531175
158	0xbcecc1d4	-0.028901018
159	0x3d63fcf8	0.05566117
160	0xbdae38c2	-0.085069194
161	0x3d2551bd	0.040361155
162	0x3d378ca5	0.044811863
163	0x3e8ad593	0.2711607
164	0x3db39672	0.087689295
165	0xbe0194cd	-0.12654419
166	0xbdf848cd	-0.12123261
167	0x3cad61c1	0.021164777
168	0x3d447811	0.047966067
169	0xbe039f97	-0.12853847
170	0x3d8c2afb	0.068441354
171	0x3cc911a5	0.024544546
172	0x3c4dd8d0	0.012563899
173	0xbe232bbc	-0.15934652
174	0xbdc332ed	-0.09531198
175	0xbbd4984f	-0.006487883
176	0xbdc5dd0c	-0.09661302
177	0xbd3be30c	-0.045870826
178	0x3dd26eda	0.102750495
179	0x3e3a7349	0.1820804
180	0xbd3b5d3a	-0.045743205
181	0x3c1105d5	0.008851488
182	0x3d8d137e	0.068884835
183	0x3dc4c3d2	0.09607662
184	0xbc005345	-0.007832353
185	0x3e428945	0.18997677
186	0x3de5a01f	0.11212181
187	0x3de831e1	0.11337639
188	0x3cbb521f	0.022866307
189	0xbd00ce71	-0.031446878
190	0x3c81f14c	0.01586213
191	0x3d6907c4	0.05689217
192	0xbd40f809	-0.047111545
193	0xbd74af25	-0.059737343
194	0x3dd74834	0.105118185
195	0x3e696bfc	0.22795099
196	0x3cf2fc13	0.029661214
197	0x3d165061	0.03669775
198	0xbdc44df4	-0.09585181
199	0x3dbe05ed	0.09278474
200	0x3dbe395f	0.092882864
201	0x3bfacf29	0.00765409
202	0xbdd32735	-0.103102125
203	0x3c723f01	0.014785529
204	0xbd3bf2b4	-0.045885757
205	0xbe35c286	-0.17749986
206	0xbe288542	-0.16457084
207	0xbe4c40e9	-0.19946636
208	0xbd9087fa	-0.070571855
209	0xbe6ac234	-0.22925645
210	0x3dd6f99b	0.10496827
211	0xbda3bd29	-0.07995064
212	0x3bc41c95	0.0059848526
213	0x3cfb2ada	0.030660082
214	0x3e707c0f	0.23484825
215	0x3e1235f2	0.14278391
216	0xbdd1ed16	-0.10250299
217	0xbdf58deb	-0.11989959
218	0xbdea49f9	-0.114398904
219	0xbdda5b7a	-0.10661979
220	0x3d9ab8f4	0.07554808
221	0x3dad03e7	0.0844801
222	0x3cedec85	0.029043445
223	0x3e27e733	0.16396789
224	0x3d6edbb3	0.05831499
225	0x3dd34740	0.10316324
226	0xbda4de30	-0.080501914
227	0x3c40baa4	0.011763249
228	0xbda4621e	-0.08026527
229	0xbe81d0f5	-0.25354734
230	0xbe71c463	-0.23610072
231	0xbbfede71	-0.007777982
232	0x3e4d3c92	0.20042637
233	0x3d218229	0.03943077
234	0x3d9b162d	0.07572589
235	0xbdc07e81	-0.09399129
236	0xbbcba570	-0.00621479
237	0xbd33a2f0	-0.04385656
238	0x3dab942d	0.08377872
239	0xbddb9796	-0.10722272
240	0xbd6fab11	-0.05851275
241	0xbe68c847	-0.2273265
242	0xbda6b89d	-0.08140681
243	0xbe1b8f35	-0.15191348
244	0x3dbf9625	0.0935481
245	0x3e7fdf14	0.24987441
246	0xbdf4eed1	-0.11959613
247	0x3d0f557c	0.034993634
248	0xbe0062cd	-0.1253769
249	0x3e379416	0.17927584
250	0x3dca3222	0.09872843
251	0x3d200a70	0.039072454
252	0x3d8f4fd9	0.069976516
253	0x3dfad0d3	0.12246861
254	0xbc8d180d	-0.017223382
255	0x3cb236c2	0.021754626

_model.1._model.0.bias f4 [128]
0	0x3d09b334	0.033618167
1	0x3cc1fbc5	0.023679623
2	0x3bfed5fc	0.007776974
3	0xbc724973	-0.0147880195
4	0x3ca701d3	0.020386612
5	0x3c612514	0.01374175
6	0x3c02d242	0.0079847
7	0xbc79c24d	-0.015244079
8	0xbc3c547c	-0.011494752
9	0x3c2ea044	0.0106583275
10	0x3c4085f6	0.011750689
11	0xbbcd056a	-0.006256749
12	0x3c3c2375	0.011483063
13	0x3b3ba6b0	0.002863329
14	0x3c01d905	0.007925277
15	0xbc20dcd0	-0.009818271
16	0x3b9331f7	0.0044920403
17	0x3cb54af1	0.022130461
18	0x3c7194cd	0.0147449495
19	0x3c1d5645	0.009603088
20	0x3a276852	0.00063860894
21	0x3b4c75ad	0.003119807
22	0x3b49d56b	0.0030797373
23	0x3b653619	0.0034974872
24	0x3c889be8	0.016675904
25	0xbbda436f	-0.0066608707
26	0xbb791a0d	-0.0038009912
27	0x3c897bcd	0.016782666
28	0x39fb4265	0.00047923918
29	0xbc6f6155	-0.014610608
30	0xbbdb853a	-0.0066992315
31	0x3c93c890	0.018039972
32	0x3caff1c8	0.021477595
33	0xbca1422f	-0.01968488
34	0xbc92dd95	-0.017927924
35	0x3b7132a7	0.0036803873
36	0x3caa8880	0.020817041
37	0xbc5f7a75	-0.013640036
38	0x3cf4c598	0.029879376
39	0x3ca8e475	0.02061675
40	0xbc9904af	-0.018678991
41	0xbc671979	-0.014105194
42	0xbc03fe4d	-0.0080562355
43	0xbb73f814	-0.0037226724
44	0x3c3927ba	0.011300975
45	0x397981ee	0.00023794893
46	0x3cbb24d7	0.022844715
47	0x3cb85fdf	0.022506652
48	0xbbb362c8	-0.005474422
49	0x3bf04245	0.0073321187
50	0x3c9030c9	0.017601388
51	0x3ad2725b	0.0016055809
52	0x3c54135f	0.012944072
53	0x3c65e5c9	0.014031836
54	0xbc83a650	-0.016070515
55	0x3c8cd494	0.017191209
56	0x3c29f235	0.010372688
57	0x3a9cf23a	0.0011974045
58	0xbb58c7d6	-0.0033078096
59	0x3be66f0a	0.00703228
60	0x3b892c13	0.0041861623
61	0xbc302971	-0.010752068
62	0xbc2ca5f6	-0.010537615
63	0xba1df10c	-0.00060249935
64	0x3c281dd5	0.010261019
65	0xbc02efa7	-0.007991708
66	0xbad697ef	-0.0016372184
67	0x3ad962f1	0.0016585273
68	0x3c41a527	0.011819161
69	0x3b9f8ab9	0.004868832
70	0xbab99e28	-0.0014161514
71	0xbb7d7949	-0.0038677028
72	0x3bbb2947	0.0057117078
73	0xbae04d4a	-0.0017112878
74	0xbd0201d0	-0.03174001
75	0x3c901c71	0.017591687
76	0x3c7ae1c9	0.01531262
77	0x3c0a2a8c	0.0084329955
78	0x3c81c539	0.015841113
79	0x3c594f66	0.013263559
80	0xbc8c6d46	-0.01714195
81	0x3c760da9	0.015017905
82	0x3c1b5d71	0.009482727
83	0xbc3bcadc	-0.01146194
84	0x3cac9e23	0.0210715
85	0xbc339ee0	-0.010963172
86	0x3c869653	0.016429102
87	0x3c733bcb	0.014845799
88	0xbbbd9dad	-0.0057866187
89	0xbccde30a	-0.025132675
90	0xbca24351	-0.01980749
91	0x3ce5f76a	0.028072078
92	0x3c1f6c4b	0.009730409
93	0xbae393b8	-0.0017362749
94	0x3c69ccbb	0.014270003
95	0x3c34b0d6	0.011028489
96	0xbca786bd	-0.02044999
97	0x3b4e622a	0.0031491616
98	0x3b08d146	0.002087669
99	0xbb2ad7b9	-0.0026068522
100	0x3b49bd58	0.0030783024
101	0x3c76001b	0.015014674
102	0x3bf77183	0.0075513734
103	0x3c4d5c73	0.012534249
104	0x3cc6b99d	0.02425843
105	0x385ac928	5.216259e-05
106	0x3c9ded51	0.0192782
107	0xba7cf357	-0.00096492976
108	0x3c7d91a5	0.015476619
109	0x3c82c904	0.015964992
110	0xbc9dc15a	-0.019257236
111	0xbc5f6ba5	-0.013636504
112	0xbc0b929c	-0.008518841
113	0xba8257bd	-0.0009944361
114	0xbbc82380	-0.0061077476
115	0xbc07c5f6	-0.008286944
116	0xbbaf6af9	-0.0053533283
117	0xbc22dab1	-0.009939835
118	0x3c16ccf2	0.009204136
119	0x3cf50d26	0.029913496
120	0x3c91160d	0.01771071
121	0x3987dd41	0.00025914054
122	0x3ccd1861	0.025036039
123	0xbadbc5e7	-0.0016767354
124	0xbbb089cf	-0.005387522
125	0x3d068509	0.032841716
126	0x3bda09a6	0.006653982
127	0xba4ab709	-0.0007732963

_model.2._model.0.weight f4 [32, 128]
0	0xbcbb52a6	-0.022866558
1	0x3e1940d3	0.14966135
2	0x3d60a035	0.054840285
3	0x3cf9e31b	0.0305038
4	0x3ccb5c08	0.024824157
5	0x3d27a3da	0.040927745
6	0xbcb2e53c	-0.021837823
7	0xbdd33323	-0.10312488
8	0x3c6e2858	0.014535986
9	0xbd90cd20	-0.070703745
10	0x3d43e8d1	0.047829453
11	0x3d82598a	0.063647345
12	0x3d6ee585	0.058324356
13	0xbd3e40f8	-0.046448678
14	0x3d84f636	0.064922735
15	0xbc0e70c6	-0.0086938795
16	0xbdae78ae	-0.085191116
17	0x3d28b247	0.041185644
18	0xbd643a34	-0.05571957
19	0xbccddb74	-0.025129057
20	0xbca8c9ef	-0.020604102
21	0x3d7140e8	0.05889979
22	0x3b8da761	0.0043229316
23	0x3ddc5536	0.1075844
24	0xbd8e5c9e	-0.06951259
25	0xbbe8da76	-0.0071061207
26	0x3d34430c	0.044009253
27	0x3c0564c1	0.008141697
28	0xbc188859	-0.009309852
29	0x3b96b461	0.0045991396
30	0xbbc74495	-0.0060811737
31	0x3bb0f408	0.0054001845
32	0xbd003bb8	-0.031306952
33	0x3cdea30e	0.02717736
34	0xbd86c262	-0.06580044
35	0xbd4f27b2	-0.050574966
36	0xbc7702e0	-0.015076369
37	0x3d49c9f8	0.049264878
38	0xbbc07cd6	-0.0058742566
39	0x3d3f2585	0.04666664
40	0xbc8f799d	-0.017514044
41	0x3c310233	0.010803747
42	0x3d68c61e	0.056829564
43	0x3cd8461a	0.026400615
44	0x3d95c878	0.07313627
45	0xbdcb33b8	-0.09921974
46	0xbd2b8d33	-0.041882705
47	0xbc86a2ef	-0.016435115
48	0x3db29d0c	0.087213606
49	0x3a2c0ec4	0.00065634795
50	0xbd534234	-0.051576808
51	0xbc8099d7	-0.015698357
52	0x3d8f9204	0.07010272
53	0x3dc9f3e4	0.098609716
54	0x3d7dde9e	0.061979882
55	0x3cbd50d3	0.023109829
56	0xbdb30970	-0.087420344
57	0x3c58e0b7	0.01323717
58	0xbd0c8483	-0.03430606
59	0x3c6034ec	0.013684493
60	0xbd3df165	-0.04637279
61	0xbcf8adff	-0.030356405
62	0x3d626dca	0.055280484
63	0xbd46f31f	-0.048571702
64	0xbaf0a81a	-0.0018360645
65	0xbdc0267c	-0.0938234
66	0xbd8a6fdb	-0.06759616
67	0xbd11e111	-0.03561503
68	0x3c35e6f4	0.011102427
69	0x3b8c57b5	0.0042829164
70	0x3c9c9f86	0.019119035
71	0x3d1707c7	0.03687265
72	0xbcc0d47a	-0.023538817
73	0x3ca048a6	0.019565891
74	0xbd819b1f	-0.06328415
75	0x3bc550a6	0.006021577
76	0x3d4018dc	0.046898708
77	0x3d4b1112	0.049576826
78	0xbd8f8b2a	-0.07008965
79	0xbd0e9f5c	-0.034819946
80	0xbd019a14	-0.03164108
81	0x3d0ef77b	0.034903985
82	0x3cbea66d	0.023272717
83	0x3d0c56f5	0.034262616
84	0x3d22b803	0.03972627
85	0x3d5175e0	0.051137805
86	0xbbd440df	-0.00647746
87	0xbb0409a5	-0.002014735
88	0x3bf1812b	0.0073701343
89	0x3ce233f7	0.02761267
90	0x3cb62df3	0.022238707
91	0xbcbf7a39	-0.02337371
92	0x3d1909ee	0.037362985
93	0xbadf25bd	-0.0017024797
94	0xbd5d847f	-0.054081436
95	0x3d17ffd7	0.037109222
96	0xbc3596fe	-0.011083363
97	0x3d82d9f2	0.06389226
98	0x3b95133b	0.0045494116
99	0x3d0dae50	0.034590065
100	0xbd542985	-0.05179741
101	0x3c30c486	0.010789042
102	0x3d92aa10	0.07161343
103	0x3bce4533	0.0062948703
104	0x3d6227cd	0.05521374
105	0x3d06217f	0.032746788
106	0xbcf06d10	-0.02934888
107	0xbc210b41	-0.009829343
108	0x3d5d27b1	0.05399293
109	0xbd0bbdab	-0.03411643
110	0x3c0ded0a	0.008662472
111	0xba2ba02a	-0.00065469986
112	0xbdbfa669	-0.09357912
113	0xbcb2148e	-0.021738317
114	0x3d1bb8b5	0.038017947
115	0x3d908831	0.070572264
116	0x3d8efa09	0.06981284
117	0xbd1c1044	-0.03810145
118	0x3d478d6f	0.048718866
119	0xbc05e3ba	-0.00817197
120	0x3d81e04a	0.06341608
121	0x3de2a3a5	0.11066369
122	0xbceaed27	-0.028677536
123	0xbd3c3288	-0.045946628
124	0x3d670530	0.05640143
125	0xbce0edc9	-0.027457135
126	0x3d925f83	0.07147124
127	0xbd5146c2	-0.05109287
128	0xbd45a319	-0.048251245
129	0x3dcc672a	0.099806145
130	0x3d288125	0.041138787
131	0xbd43cde1	-0.047803763
132	0x3d824b9e	0.06362079
133	0x3ce4c30c	0.027925037
134	0xbd4490c0	-0.047989607
135	0x3d66c09d	0.056336034
136	0xbbf793c3	-0.0075554564
137	0xbc5dc4e3	-0.013535711
138	0x3d8d97d9	0.06913728
139	0x3becfd86	0.007232371
140	0xbc479060	-0.012180418
141	0x3d0e8b9a	0.034801103
142	0x3c33a09a	0.010963583
143	0x3d170541	0.036870245
144	0xbd96850f	-0.07349598
145	0xbd9b5a30	-0.07585561
146	0xbcc08855	-0.023502508
147	0x3d470b56	0.048594795
148	0x3c151212	0.009098547
149	0x3c1a9032	0.009433793
150	0x3d391560	0.0451864
151	0xbcac7e1f	-0.021056233
152	0x3c2d228e	0.0105673205
153	0x3d80360c	0.062603086
154	0x3b335e30	0.0027369373
155	0x3c82a855	0.015949408
156	0xbd369843	-0.0445788
157	0x3b5abc5e	0.0033376436
158	0xbd28a300	-0.041171074
159	0x3d42edde	0.04759013
160	0x3b95f967	0.00457685
161	0x3d0f0c47	0.034923818
162	0xbd8f1d62	-0.06988026
163	0xbd2b2565	-0.04178371
164	0x3c32d528	0.010915078
165	0xbd2b8300	-0.04187298
166	0xbc8b999e	-0.017041024
167	0xbc03b152	-0.008037882
168	0xbd72965c	-0.059225425
169	0xbda7ed10	-0.08199513
170	0x3c08e9a5	0.008356486
171	0x3c5b3821	0.013380081
172	0x3d2f0756	0.042731605
173	0x3a2b5204	0.00065353536
174	0xbb2afaa8	-0.0026089344
175	0x39d534e7	0.0004066594
176	0x3d7da352	0.061923333
177	0xbd221e9b	-0.03957997
178	0xbd18a975	-0.03727098
179	0x3d926a5b	0.07149192
180	0xbba7520e	-0.005106217
181	0xbcd5a005	-0.02607728
182	0x3db5593e	0.08854912
183	0x3e081b10	0.13291574
184	0x3ddbf22a	0.107395485
185	0x3dc10722	0.094251886
186	0xbca0abea	-0.019613225
187	0xbd08a31c	-0.03335868
188	0xbcc6e77e	-0.024280306
189	0x3cd4604d	0.025924826
190	0x3e25276e	0.16128322
191	0x3c98ab2a	0.018636305
192	0xbd0940ce	-0.03350907
193	0x3d06da59	0.032923076
194	0xbc14e2d4	-0.009087283
195	0x3de05b35	0.10954896
196	0x3c140f07	0.009036786
197	0xbc7df49e	-0.015500216
198	0x3db17294	0.08664432
199	0xbbe34172	-0.006935292
200	0xbdcf3a8e	-0.1011859
201	0xb9447230	-0.00018734555
202	0xbcd87079	-0.026420819
203	0x3c501507	0.012700326
204	0x3e1d83fb	0.15382378
205	0xbd8750cd	-0.066072084
206	0x3c21f503	0.0098850755
207	0xbcd7e1c9	-0.02635278
208	0x3be61dab	0.0070225797
209	0x3cc90cb4	0.02454219
210	0xbd8368b3	-0.06416454
211	0xbdad5fc3	-0.08465531
212	0x3cd99a3d	0.026562804
213	0x3c153f52	0.009109335
214	0x3c8487c1	0.016178014
215	0x3d1d1c1e	0.038356893
216	0x3cdf9efc	0.02729749
217	0xba8a05e1	-0.0010530317
218	0x3c9e7efd	0.019347662
219	0x3d047459	0.03233752
220	0xbd9087c1	-0.07057143
221	0xbbee68a7	-0.007275659
222	0xbd37be88	-0.04485944
223	0xbdfa7ef2	-0.12231244
224	0x3c8d99a7	0.017285181
225	0x3c853aee	0.016263451
226	0x3ae390ec	0.0017361916
227	0x3d9f5c29	0.0778125
228	0xbd08555b	-0.033284526
229	0xbdcf3392	-0.10117258
230	0xbd97932a	-0.07401116
231	0xbd346dbc	-0.044049963
232	0x3cac0279	0.020997273
233	0x3d649e67	0.055815127
234	0xbb046dd9	-0.0020207076
235	0xbd623fa0	-0.05523646
236	0xbdc7a0d9	-0.09747476
237	0xba1c5076	-0.00059629173
238	0xbd1e7e60	-0.03869474
239	0x3d107cde	0.035275333
240	0xbd9dbbba	-0.077018216
241	0x3a6824a9	0.00088555604
242	0xbbc2b5d3	-0.0059420853
243	0x3d16988b	0.03676657
244	0x3da255c9	0.079265185
245	0xba1df8b5	-0.0006026135
246	0xbbdb1355	-0.006685654
247	0x3d45329a	0.04814396
248	0xbcb10508	-0.021608844
249	0xbdf9a29f	-0.12189221
250	0x3d6c825a	0.0577415
251	0xbe043979	-0.12912549
252	0x3d1ec4f4	0.038762048
253	0x3d33c88d	0.043892432
254	0x3e1ab024	0.15106255
255	0xbd0947c0	-0.03351569

_model.2._model.0.bias f4 [32]
0	0xbbb63776	-0.0055608107
1	0xbc2700f9	-0.010193103
2	0x3bfd84d3	0.007736781
3	0x3a467eb1	0.0007571979
4	0x3c11b15e	0.008892385
5	0xbc2d6b21	-0.010584624
6	0xbba21730	-0.004946612
7	0xbce93dd4	-0.028471865
8	0xbc66cd64	-0.014087055
9	0x3be24268	0.006904889
10	0x3a854e3b	0.0010170409
11	0x3ca0b451	0.019617232
12	0x3ab47592	0.0013767949
13	0xbada84b1	-0.0016671625
14	0x3bf8770e	0.007582552
15	0xba8b3ce5	-0.0010623006
16	0xbca8dabb	-0.020612111
17	0xbc458806	-0.012056356
18	0xbbcb08c7	-0.0061961147
19	0xbcb39be4	-0.02192492
20	0x3b7e7b70	0.0038830899
21	0x3c99d6ce	0.018779185
22	0x3bf565a5	0.0074889236
23	0xbb9dd9a0	-0.0048172027
24	0xb58c697d	-1.0461514e-06
25	0x3cc96231	0.024582954
26	0x3bd8d319	0.0066169617
27	0x3bf8eeed	0.0075968415
28	0x3c551a5a	0.013006771
29	0xbc3daf65	-0.011577462
30	0xbac1090a	-0.0014727425
31	0x3c466d6f	0.012111052
