data/etc/pretrained_model/boxing/imitation_policy_expert_00_boxing_exp3_1200.pt (torch_old, 99591 bytes, 6 tensors)

_model.0._model.0.weight f4 [64, 266]
0	0xbda7ba8d	-0.081898786
1	0x3dc756f2	0.097333804
2	0xbd73a4fe	-0.05948352
3	0x3e49e4a1	0.19716121
4	0x3d10544c	0.03523664
5	0x3e8e364b	0.27775797
6	0xbdd5dbf1	-0.10442341
7	0xbcef2a63	-0.029195016
8	0x3cf7d8b7	0.030254705
9	0xbd2ad211	-0.04170424
10	0xbc70a669	-0.014688113
11	0x3dda906c	0.106720775
12	0x3d4b5f79	0.049651597
13	0x3dc32938	0.09529346
14	0xbca74116	-0.020416778
15	0x3c5efb08	0.013609655
16	0xbc6d22fd	-0.014473674
17	0xbd018763	-0.031623255
18	0x3e7540b0	0.23950458
19	0xbd2a87ff	-0.041633602
20	0x3d90d5f9	0.07072062
21	0xbcb1aa6e	-0.021687713
22	0xbce13402	-0.02749062
23	0xbddc573a	-0.10758825
24	0xbd0754fc	-0.03304003
25	0x3ddc9e90	0.10772431
26	0x3e24b741	0.16085531
27	0x3e0ede99	0.13952102
28	0xbd41eb99	-0.047343824
29	0x3c68466e	0.014176948
30	0xbc093610	-0.008374706
31	0x3e771f2e	0.24132988
32	0x3d5c5c32	0.05379886
33	0x3e0550d2	0.13019112
34	0xbd919a6a	-0.0710953
35	0xbd85ba0d	-0.06529627
36	0x3ba0fd75	0.004913027
37	0xbd86d979	-0.06584448
38	0xbcee2d4a	-0.02907433
39	0x3ea13a95	0.31490007
40	0x3dc36ade	0.09541868
41	0xbd5e5a20	-0.05428517
42	0x3debbf5c	0.11511108
43	0xba96e726	-0.0011512979
44	0x3e14c1cb	0.14527051
45	0x3caf8625	0.02142627
46	0xbd6fe286	-0.05856564
47	0x3dd08a37	0.101826124
48	0x3e05f1e8	0.13080561
49	0x3cc9cfed	0.02463528
50	0xbcf4d921	-0.029888691
51	0xbc805e09	-0.01566984
52	0x3d3b3a16	0.045709692
53	0x3dc8a937	0.097979
54	0xbe54bb57	-0.2077459
55	0x3e1504ae	0.14552566
56	0xbd39f5f4	-0.045400575
57	0xbc113c44	-0.008864466
58	0xbce3a64e	-0.027789261
59	0x3d4f4d72	0.050610967
60	0xbdd10b9e	-0.10207294
61	0xbe2f954c	-0.17146796
62	0x3d97ccc5	0.074121036
63	0x3ca0109c	0.01953917
64	0x3d362956	0.044473015
65	0x3da54e3f	0.08071565
66	0x3ca2c432	0.019868944
67	0xbe8620f4	-0.26197016
68	0x3e3b382c	0.18283147
69	0x3e170afd	0.14750285
70	0x3be64c55	0.0070281425
71	0xbe114195	-0.14185174
72	0x3d5ea55e	0.054356925
73	0xbdb72e7a	-0.089444116
74	0xbe02d013	-0.12774687
75	0xbd7e0682	-0.062017925
76	0xbd6cde32	-0.05782909
77	0xbc99bd53	-0.018767035
78	0x3de03cee	0.109491214
79	0x3e4497cd	0.19198532
80	0xbe5a3416	-0.21308932
81	0x3eaa2e8e	0.33238643
82	0x3e47af1e	0.19500396
83	0xbea8fd3b	-0.330057
84	0x3daa9683	0.08329489
85	0xbce8b6a1	-0.028407397
86	0x3c8abb1d	0.016934926
87	0xbdb2918a	-0.087191656
88	0xbd059979	-0.032617066
89	0x3d248f8c	0.04017596
90	0xbd8e1590	-0.069377065
91	0xbe2d37c9	-0.16915812
92	0x3e60be24	0.21947533
93	0x3dfaae1c	0.1224024
94	0x3da522f4	0.080633074
95	0xbe079e1f	-0.13243912
96	0x3e1c6572	0.15273073
97	0xbd80e636	-0.06293909
98	0xbda8a248	-0.08234078
99	0xbde681fa	-0.1125526
100	0x3cbd4bbf	0.023107408
101	0xbc64db98	-0.013968371
102	0x3d93747d	0.07199953
103	0x3da06675	0.07832042
104	0xbe7be415	-0.24598725
105	0x3bfd6d37	0.0077339667
106	0x3d3546ef	0.0442571
107	0x3d295178	0.04133746
108	0x3d99ed02	0.07515909
109	0x3d76a8b7	0.060219493
110	0x3d0ab713	0.033866
111	0x3b4472ce	0.0029975655
112	0xbd64b9b6	-0.05584117
113	0xbcf62789	-0.030048149
114	0xbd1be8d7	-0.03806385
115	0x3ca24a3a	0.019810785
116	0xbcd2bb9d	-0.025724227
117	0xbe2c9801	-0.1685486
118	0x3d8aed0d	0.06783495
119	0x3dc21cf3	0.09478178
120	0xbc4d9205	-0.012547021
121	0x3d4b8c64	0.049694434
122	0xbd4d049d	-0.050053228
123	0xbb111725	-0.002213904
124	0xbc9866a7	-0.018603636
125	0xbdf3fd88	-0.119135916
126	0xbdd5ed88	-0.10445696
127	0xbc9bf6d9	-0.019038605
128	0x3d613bfe	0.054988854
129	0x3cc915b6	0.024546485
130	0xbe946f7b	-0.28991303
131	0x3d767467	0.060169604
132	0x3c36c2d1	0.011154846
133	0x3cd18df2	0.02558038
134	0x3df4139b	0.11917802
135	0x3dda08f2	0.106462374
136	0x3b5a6197	0.0033322328
137	0x3d5d9b95	0.054103453
138	0xbd4598b9	-0.04824135
139	0xbcf7e677	-0.030261261
140	0xbd99796e	-0.07493864
141	0xbd34341d	-0.04399501
142	0xbc98dd95	-0.018660346
143	0xbe5a8dcf	-0.21343158
144	0x3dbe0e25	0.092800416
145	0x3c67b0d9	0.014141285
146	0x3d198426	0.037479542
147	0x3e2cb1b0	0.16864657
148	0xbd4dac1f	-0.050212976
149	0x3c44c9e4	0.012011025
150	0x3ae45a36	0.0017421904
151	0x3d5005c1	0.050786737
152	0xbdac96cc	-0.084272
153	0xbdf08994	-0.11744991
154	0xbc71195e	-0.014715521
155	0xbcf35698	-0.029704377
156	0x3d59a4e4	0.053135768
157	0x3e2b0ce5	0.16704138
158	0x3bf87788	0.0075826086
159	0x3c96227f	0.018326996
160	0x3e61e9b1	0.22061802
161	0x3e13b94d	0.14426155
162	0x3d262d24	0.040570393
163	0xbd152e5a	-0.036421157
164	0xbc9135f7	-0.017725928
165	0x3cbcf1ae	0.02306446
166	0xbd57f5ac	-0.052724525
167	0xbd1da6d7	-0.03848919
168	0xbc1758ee	-0.009237511
169	0xbc7f55b5	-0.015584399
170	0x3bc78734	0.0060891155
171	0xbd67048a	-0.056400813
172	0xbd4b3b20	-0.049616933
173	0xbda169a4	-0.078814775
174	0x3d1c389c	0.038139924
175	0x3cd3f233	0.025872326
176	0xbd9b19be	-0.07573269
177	0xbc9f7e96	-0.01946954
178	0xbd9f6334	-0.07782593
179	0xbd84dd9c	-0.06487581
180	0x3b8966f8	0.004193183
181	0x3da10567	0.078623585
182	0x3dab898f	0.083758466
183	0x3e3a2445	0.18177898
184	0xbdb4da6d	-0.08830724
185	0x3cd642e9	0.026154952
186	0xbc5e656f	-0.013573988
187	0x3dead1ef	0.11465823
188	0x3ccc6fec	0.024955712
189	0xbd81516e	-0.063143596
190	0xbdca8c5c	-0.09890053
191	0xbdd0154d	-0.10160313
192	0xba5ff2bf	-0.0008542947
193	0xbcf3c41a	-0.029756594
194	0x3c5e0bc9	0.0135526145
195	0xbce63985	-0.0281036
196	0x3d066e9b	0.032820325
197	0x3d8ec2c8	0.06970745
198	0x3d223a12	0.03960616
199	0x3d9025f1	0.07038487
200	0x3e551ca7	0.20811711
201	0x3d009d5f	0.03140008
202	0x3d748414	0.059696272
203	0x3b4fd2b6	0.0031711287
204	0xbd89312f	-0.06698834
205	0xbd8fa7bf	-0.07014417
206	0x3d20f606	0.039297126
207	0x3c6bb161	0.014385552
208	0xbe17d8c8	-0.14828789
209	0xbd5525f1	-0.052038137
210	0x3d8e15b2	0.06937732
211	0xbe162f57	-0.14666496
212	0xbd833387	-0.064063124
213	0xbc028e12	-0.0079684425
214	0xbc796778	-0.015222423
215	0xbdd13661	-0.1021545
216	0x3ce3d7a3	0.027812785
217	0xbdf3165e	-0.118695006
218	0x3d050192	0.0324722
219	0x3d6027a6	0.05472531
220	0xbcb82e23	-0.022482937
221	0xbe39fb25	-0.1816221
222	0xbcfc3884	-0.030788668
223	0xbca4a03d	-0.020095939
224	0xbdf7674e	-0.12080251
225	0x3debe36c	0.11517987
226	0x3d3dcbc5	0.046336908
227	0xbc056070	-0.008140668
228	0x3c196f66	0.009364938
229	0x3d5e9f3d	0.05435108
230	0xbcf4dfa9	-0.029891806
231	0xbc83d645	-0.016093383
232	0xb86fba83	-5.7155743e-05
233	0xbd60c396	-0.054874025
234	0x3b98e724	0.004666226
235	0x3e15f64d	0.14644738
236	0xbcbbce64	-0.022925563
237	0x3c6879ad	0.014189166
238	0xbdb0eff4	-0.086395174
239	0x3caee928	0.021351412
240	0xbd8b1f4e	-0.0679308
241	0xbd27b2ab	-0.040941875
242	0xbdc875f8	-0.09788126
243	0xbdce97b6	-0.1008753
244	0x3cca1710	0.0246692
245	0xbcf72b24	-0.030171938
246	0x3d381262	0.044939406
247	0x3d8404cf	0.0644623
248	0x3e0f6ec9	0.14007105
249	0xbc9c8b8e	-0.019109514
250	0x3e08199d	0.1329102
251	0x3aca411a	0.0015430779
252	0x3c2007dc	0.009767499
253	0xbd6d760e	-0.057973914
254	0xbd939e8e	-0.07207976
255	0x3dd3036a	0.103033856

_model.0._model.0.bias f4 [64]
0	0x3d0299d8	0.031884998
1	0x3cab92e9	0.020944076
2	0x3cbc14e6	0.022959184
3	0x3cd89c7f	0.02644181
4	0x3c876910	0.01652959
5	0xbb80db7d	-0.003932415
6	0x3d1feca2	0.03904403
7	0x3c72b0ed	0.01481269
8	0xbb22a3a7	-0.0024816783
9	0x3d004ceb	0.031323355
10	0x3d02eb9a	0.03196297
11	0x3cc782a9	0.024354296
12	0x3ce372d7	0.02776472
13	0x3d31832d	0.04333799
14	0x3c28cb7c	0.010302421
15	0x3b854054	0.0040665064
16	0x3cb87f62	0.022521678
17	0xbb78de0f	-0.0037974154
18	0x3c18ec80	0.00933373
19	0x3cedf3d7	0.029046936
20	0x3cab0762	0.020877544
21	0x3d1c19a7	0.0381104
22	0x3bf27bd3	0.007400015
23	0x3ce9422a	0.028473932
24	0xbaee9572	-0.0018202497
25	0x3cacb351	0.021081598
26	0x3ce6245f	0.028093515
27	0x3cd6ebdc	0.026235513
28	0x3a14048c	0.00056464295
29	0x3d460cc4	0.048352018
30	0x3ca4a6ba	0.020099033
31	0xbb08c761	-0.0020870792
32	0x3cb3a9dd	0.021931583
33	0xbc69c0af	-0.014267131
34	0x3ceade17	0.028670354
35	0x3c86623b	0.016404262
36	0x3c4964cf	0.012292101
37	0x3c81c333	0.015840149
38	0x3ca00878	0.019535288
39	0x3ce80d39	0.028326618
40	0x3c7db404	0.015484814
41	0x3ca47721	0.020076336
42	0x3c9a3cae	0.018827762
43	0x3c8643c3	0.016389733
44	0xbd0d8649	-0.034551892
45	0x3c9071e7	0.017632438
46	0x3c62e7b2	0.013849186
47	0x3d14b0d4	0.03630145
48	0x3bf23af1	0.0073922803
49	0x3c63e826	0.013910329
50	0x3c87edc5	0.01659287
51	0x3c96cbec	0.018407784
52	0x3cae86a9	0.021304445
53	0x3c52d41d	0.012867955
54	0x3c91e73d	0.017810458
55	0x3d6ada29	0.05733696
56	0x3c473630	0.012158915
57	0x3b7e1a8f	0.0038773154
58	0x3c964830	0.018344969
59	0x3bba3959	0.005683106
60	0x3cf4c986	0.02988125
61	0x3cff42fe	0.031159874
62	0x3c5237cc	0.012830686
63	0x3cacf02f	0.021110622

_model.1._model.0.weight f4 [64, 64]
0	0xbe06223d	-0.13098998
1	0xbd9c1164	-0.076205045
2	0xbe083c65	-0.13304289
3	0x3dbca346	0.092108294
4	0xbd8ad9bf	-0.06779813
5	0xbe3a6b09	-0.18204893
6	0x3dbc3974	0.09190646
7	0xbde6e2ac	-0.11273703
8	0xbd73fdac	-0.059568092
9	0x3e090a1a	0.1338276
10	0x3d00b178	0.031419247
11	0xbe4aecb2	-0.19816855
12	0xbd0f595b	-0.034997325
13	0x3d215f40	0.039397478
14	0x3dd53666	0.10410766
15	0x3e05143f	0.12996005
16	0x3e47cb17	0.19511066
17	0x3e8873a4	0.26650727
18	0xbe1cd1d4	-0.15314418
19	0xbcd47ffb	-0.025939932
20	0x3e452549	0.19252504
21	0xbe4ccc4f	-0.19999813
22	0x3e1a0160	0.15039587
23	0xbd13fc31	-0.03612918
24	0xbca25ee2	-0.019820634
25	0xbe2c8333	-0.16846924
26	0x3e802204	0.25025952
27	0xbd84dc63	-0.06487348
28	0xbd0aca00	-0.03388405
29	0x3b70642f	0.0036680808
30	0xbe11bd8d	-0.14232464
31	0x3df890f3	0.12137022
32	0x3d74f68e	0.059805445
33	0xbbd59195	-0.006517599
34	0x3e2bade3	0.16765551
35	0xbbad0268	-0.005279828
36	0xbce07da7	-0.027403666
37	0x3daf925b	0.08572837
38	0xbe0e6332	-0.13905028
39	0x3df2ce84	0.11855796
40	0x3df6be87	0.12048059
41	0xbd474026	-0.04864516
42	0xbd8f8fee	-0.07009874
43	0xbd4f0450	-0.050541222
44	0x3ef9b92d	0.4877409
45	0xbe7c0ce2	-0.2461429
46	0x3d74e871	0.059791986
47	0x3e1941f2	0.14966562
48	0xbe8447c8	-0.25836015
49	0xbdaee968	-0.085406125
50	0xbdf9b990	-0.12193596
51	0x3d4c9427	0.049945977
52	0xbd3bdfb6	-0.045867644
53	0x3daeed53	0.0854136
54	0x3dca5a51	0.09880508
55	0x3dd5ce99	0.10439796
56	0xbe707a3f	-0.23484133
57	0xbd0d1e25	-0.034452576
58	0xbdb87ad7	-0.09007805
59	0xbcac3aba	-0.021024097
60	0x3df9c01c	0.12194845
61	0xbbc93a3b	-0.006140975
62	0xbc8f7403	-0.017511373
63	0xbd8b489b	-0.06800958
64	0x3e1df032	0.15423658
65	0xbbce6680	-0.00629884
66	0x3d6cf030	0.05784625
67	0xbd6960e2	-0.05697716
68	0x3dc2346c	0.09482655
69	0xbe05877c	-0.13039964
70	0x3e8ba692	0.2727552
71	0xbe3045d2	-0.17214134
72	0xbdbe0879	-0.0927896
73	0xbdaa6201	-0.08319474
74	0x3da9ef06	0.08297543
75	0xbe49ad4d	-0.19695015
76	0x3d7508c9	0.05982283
77	0x3ced05d3	0.028933441
78	0x3d64ba39	0.05584166
79	0xbe7e9de6	-0.24864921
80	0xbe6c4f3a	-0.23077098
81	0xbd07c8ef	-0.03315061
82	0xbe80a130	-0.25122976
83	0x3e9f6c03	0.31137094
84	0x3d991ffa	0.07476802
85	0x3cea0577	0.028567059
86	0x3d7645dc	0.060125217
87	0x3e0fb0f3	0.14032345
88	0xbd38b76f	-0.04509681
89	0xbd0f9047	-0.035049703
90	0x3cc97c75	0.024595479
91	0xbcc80488	-0.024416223
92	0x3e376021	0.17907764
93	0xbd3c324e	-0.04594641
94	0xbc36741b	-0.01113608
95	0x3e28ecb6	0.16496548
96	0x3dae7faa	0.08520444
97	0xbe76039e	-0.24024817
98	0x3dc7c12a	0.0975364
99	0x3d9adf6b	0.07562145
100	0xbee573f4	-0.44815028
101	0xbccd8b70	-0.025090903
102	0x3bd5bb1e	0.0065225502
103	0x3dbad840	0.09123278
104	0xbd75feb5	-0.06005736
105	0xbd7610ef	-0.060074743
106	0x3dfe3821	0.124130495
107	0x3e1bc63e	0.15212342
108	0x3df3bbb3	0.11901035
109	0xbe65fddb	-0.2246012
110	0x3e426959	0.189855
111	0xbcebd310	-0.028787166
112	0xbdf4107e	-0.11917208
113	0x3e3ceff8	0.18450916
114	0x3d26befe	0.040709488
115	0x3c5b312d	0.013378424
116	0x3dd520b1	0.10406626
117	0x3d8644df	0.06556105
118	0x3cf74048	0.030182019
119	0x3d722458	0.05911669
120	0xbd85a5d1	-0.065257676
121	0x3cbcffde	0.023071226
122	0x3d7cc041	0.061706785
123	0x3d690896	0.056892954
124	0x3d6d4f2d	0.057936836
125	0xbe4d139a	-0.20027009
126	0xbd3d7301	-0.046252254
127	0xbe6c9d56	-0.23106894
128	0xbcb0408e	-0.021515157
129	0xbdbd6aa2	-0.09248854
130	0xbd70035a	-0.058596946
131	0xbe42cc7c	-0.19023317
132	0x3e8b4124	0.27198136
133	0x3d847b60	0.064688444
134	0xbd22d952	-0.039758034
135	0xbc9e67a4	-0.01933653
136	0xbc63a0fe	-0.013893364
137	0xbdbe89f3	-0.093036555
138	0xbdf454b4	-0.11930218
139	0x3d55f9b0	0.052240074
140	0x3df5bbc4	0.11998704
141	0xbbc9850e	-0.0061498946
142	0xbdd82604	-0.10554126
143	0x3d588482	0.052860744
144	0x3dc1874a	0.094496325
145	0xbe1020ec	-0.14075059
146	0xbe03491f	-0.12820862
147	0xbe7137a5	-0.23556383
148	0x3d606cfc	0.054791436
149	0xbda44a8f	-0.080220334
150	0xbe44ecd1	-0.19230963
151	0x3e0c7b9a	0.13719025
152	0xbe35fc3e	-0.17772004
153	0xbe2d990d	-0.16952915
154	0xbe1c0389	-0.15235724
155	0xbe2a63c3	-0.16639619
156	0xbd631154	-0.055436447
157	0xbd06cdbf	-0.03291106
158	0x3e055579	0.13020886
159	0xbe3b0324	-0.18262917
160	0xbc7d6360	-0.015465587
161	0x3de10ed0	0.109891534
162	0xbe384fa6	-0.17999133
163	0xbe81cbc5	-0.25350776
164	0x3ba5895a	0.005051774
165	0x3dcd236b	0.10016521
166	0x3dbdc1e0	0.09265494
167	0x3ec872c8	0.3915007
168	0x3e0b7196	0.13617548
169	0xbd932cd2	-0.07186283
170	0xbd86eb09	-0.06587798
171	0x3e5d9412	0.21638516
172	0x3c7686fc	0.015046831
173	0xbe9829ee	-0.2971949
174	0x3e4174d9	0.1889223
175	0x3dc5218c	0.09625539
176	0xbdb4ea60	-0.08833766
177	0xbe01e6ce	-0.12685701
178	0x3e033166	0.12811813
179	0xbb943ba5	-0.0045237117
180	0x3e3988fe	0.18118665
181	0xbe383029	-0.17987122
182	0xbe4cf368	-0.20014727
183	0x3dfc789d	0.12327693
184	0xbe730a60	-0.23734426
185	0xbc1b643a	-0.009484345
186	0x3deaf2f5	0.114721216
187	0x3de0935b	0.10965606
188	0x3dba7abe	0.091054425
189	0x3dbcfb36	0.09227602
190	0xbe05211e	-0.13000914
191	0xbd2dea67	-0.04245987
192	0xbdc70d0f	-0.097192876
193	0x3e736921	0.23770572
194	0x3c32451c	0.010880735
195	0x3df167d1	0.117873795
196	0xbd52a2cd	-0.05142479
197	0x3d3a193b	0.045434218
198	0x3dd8ec11	0.10591901
199	0x3e7e9e97	0.24865185
200	0x3bffd826	0.0078077493
201	0xbc1e7e9b	-0.00967374
202	0x3e29f157	0.1659597
203	0x3e0c002a	0.13671938
204	0xbd2635f5	-0.0405788
205	0xbd8e4b24	-0.06947926
206	0x3dabdd4c	0.083918184
207	0x3ceca584	0.028887518
208	0x3cb04b03	0.021520143
209	0xbd9fa856	-0.077957794
210	0xbde1c641	-0.11024142
211	0xba8cc1f6	-0.0010738957
212	0x3e2f0404	0.17091376
213	0x3dc359ea	0.09538634
214	0x3e73ca5d	0.23807664
215	0x3d81f175	0.063448824
216	0x3dcc587e	0.09977816
217	0x3c69fc5e	0.01428136
218	0xbcbfe5fb	-0.023425093
219	0xbd87705c	-0.06613228
220	0xbdd4c52f	-0.10389172
221	0xbe22e02a	-0.15905824
222	0x3dce6982	0.10078718
223	0xbe5a826d	-0.21338816
224	0xbe77d4cf	-0.24202274
225	0x3d4e2800	0.050331116
226	0x3cf2f405	0.029657373
227	0xbedc3f0f	-0.4301686
228	0xbdbbc23a	-0.09167905
229	0x3e0a3c21	0.134995
230	0xbe4fa061	-0.20276023
231	0xbe1027b4	-0.14077646
232	0x3e56d60b	0.20980088
233	0x3df613c5	0.120154895
234	0x3d307709	0.04308227
235	0xbccf5cd9	-0.025312828
236	0x3d37b0b7	0.044846263
237	0xbe25f837	-0.16207968
238	0xbe44395a	-0.19162503
239	0x3e3eec4a	0.18644825
240	0xba55da5a	-0.0008157842
241	0x3d874978	0.0660581
242	0xbe02e4e2	-0.12782624
243	0x3d2d4fa0	0.042312264
244	0xbd17128e	-0.03688293
245	0x3d8a32be	0.067479596
246	0x3c703725	0.014661585
247	0x3e2c4d9c	0.1682648
248	0x3d31db6f	0.04342216
249	0x3e34a0fd	0.17639537
250	0xbd788f19	-0.060683344
251	0x3e3cff59	0.18456782
252	0xbe070008	-0.13183606
253	0xbe41c6b3	-0.18923454
254	0xbdc8acea	-0.09798606
255	0x3ea78060	0.3271513

_model.1._model.0.bias f4 [64]
0	0x3c649dc6	0.013953632
1	0xbb7e8791	-0.0038838128
2	0x3c539c59	0.012915694
3	0xbb91a3dd	-0.004444583
4	0x3d3f835e	0.04675614
5	0x3c21c3d7	0.009873352
6	0x3c418196	0.011810681
7	0x3c41c7ac	0.011827391
8	0xbc5c67a3	-0.013452443
9	0x39ce8c99	0.00039396135
10	0x3bc37c15	0.0059657195
11	0x3bb0812d	0.0053864927
12	0x3b800ac2	0.0039075324
13	0x3cce6d3b	0.02519857
14	0xbaa20bbf	-0.001236312
15	0x3d127cf6	0.035763703
16	0xbc9bf13e	-0.019035932
17	0x3d818e43	0.063259624
18	0x3cd6dee6	0.026229333
19	0x3c529c94	0.012854714
20	0x3dbcec4a	0.09224756
21	0x3d0aec66	0.033916853
22	0x3c88a2a7	0.016679121
23	0x3d370f71	0.04469246
24	0x3b964c25	0.004586714
25	0x3cb32d76	0.021872263
26	0x3d26ca3a	0.040720202
27	0xbca0d3b3	-0.019632196
28	0xbbb5e7eb	-0.0055513284
29	0x3d5954d5	0.053059418
30	0xbc9144ad	-0.017732942
31	0x3d019b0b	0.031642
32	0x3cd4794c	0.025936745
33	0x3d893812	0.06700148
34	0x3b669d1d	0.0035188862
35	0x3d4319ab	0.0476319
36	0x3d563727	0.05229869
37	0xbd1f5f7d	-0.038909424
38	0x3d81b461	0.06333233
39	0x3bec5ed4	0.007213453
40	0x3c9b82bf	0.018983243
41	0x3c59a065	0.01328287
42	0xbcb68e7a	-0.022284735
43	0x3b9a704e	0.004713095
44	0x3c25169e	0.010076193
45	0x3c584e4a	0.013202259
46	0x3c028e1f	0.007968455
47	0x3d53e7b1	0.05173463
48	0xbcbb56d2	-0.022868548
49	0xbc348aaf	-0.011019393
50	0x3cd5e8b7	0.026111944
51	0x3c8bf28c	0.017083429
52	0x3d07c710	0.033148825
53	0x3d386851	0.04502136
54	0x3c6c345e	0.014416782
55	0x3d10a286	0.035311244
56	0x3c8612a2	0.016366307
57	0x3d008087	0.031372573
58	0x3bfb818b	0.007675355
59	0x3c3d1f61	0.011543126
60	0x3b9c4708	0.00476921
61	0x3c5a08bf	0.013307749
62	0xbb183099	-0.0023222326
63	0x3bdb1858	0.0066862516

_model.2._model.0.weight f4 [51, 64]
0	0x3c9a8ac5	0.018864999
1	0x395fea97	0.00021354329
2	0xbcb6d46d	-0.02231809
3	0xbd3bb750	-0.045829117
4	0xbd1425a1	-0.0361687
5	0xbcc00317	-0.023438973
6	0xbb319e5d	-0.0027102449
7	0xbbd5496e	-0.0065089976
8	0xbd465013	-0.04841621
9	0x3c31e00f	0.010856642
10	0xbd2c79d0	-0.042108357
11	0x397723f0	0.00023569143
12	0xbcc0de16	-0.023543399
13	0xbd203f32	-0.039122768
14	0xbc87032e	-0.016481008
15	0x3ad2ab10	0.0016072709
16	0xbabb512b	-0.0014291158
17	0x3c0af375	0.008480896
18	0xbdae349a	-0.08506127
19	0xbceb8f44	-0.028754838
20	0xbddc7031	-0.10763586
21	0xbd4251eb	-0.047441404
22	0xbb74830f	-0.0037309562
23	0xbca1c92a	-0.019749243
24	0xbdbbd997	-0.09172361
25	0x3abbcde0	0.0014328323
26	0xbdefa011	-0.11700452
27	0x3d39d32f	0.045367416
28	0xbc54cfbd	-0.012988982
29	0xbcb0eb67	-0.021596624
30	0x3c5e238c	0.01355828
31	0x3c7533ea	0.014965991
32	0x3cc65532	0.024210546
33	0xbd3e455b	-0.04645286
34	0x3920fd77	0.00015353212
35	0x3d0934f1	0.033497754
36	0x3cd6e0e1	0.026230277
37	0x3d649876	0.05580946
38	0xbd2421fe	-0.04007148
39	0xbc32bdf6	-0.010909548
40	0xbdbcdd26	-0.09221868
41	0xbdbf53dc	-0.09342167
42	0xbdd39c42	-0.10332538
43	0xbd2f14d6	-0.04274448
44	0x3d1f567c	0.038900837
45	0x3cd4120d	0.025887514
46	0x3c4c0c85	0.012454157
47	0x3c97e698	0.018542573
48	0x3d1d46f3	0.03839774
49	0xbcc9cada	-0.02463286
50	0xbb5624a2	-0.0032675643
51	0xbcb0fd3f	-0.021605132
52	0x3d5cc8e5	0.053902525
53	0x3b3dab44	0.0028941194
54	0xbd9e0965	-0.077166356
55	0xbdc15b7c	-0.094412774
56	0x3cde5270	0.027138919
57	0xbd36efb4	-0.044662192
58	0x3cb98c09	0.022649782
59	0xbd3daa3a	-0.04630492
60	0xbd7c162f	-0.061544593
61	0x3cb1dc64	0.021711536
62	0xbda6148a	-0.08109386
63	0x3bfc5cbc	0.0077014845
64	0x3ceca201	0.028885843
65	0xbd14c668	-0.036322027
66	0x3d127c10	0.035762846
67	0x3c030668	0.007997133
68	0xbcfdaa7e	-0.030965086
69	0x3c9ec940	0.019383073
70	0xbc3da032	-0.011573838
71	0x3c42f123	0.011898312
72	0xbd213299	-0.039354894
73	0xbb2ff1b7	-0.0026846954
74	0xbcefa511	-0.029253514
75	0xbc8e74d6	-0.017389696
76	0x3cb9023e	0.022584077
77	0x3ba923ee	0.005161754
78	0xbd06e531	-0.032933418
79	0x3c46c390	0.012131587
80	0x3c340f85	0.010990028
81	0x3c72582c	0.01479153
82	0xbd1ed520	-0.03877747
83	0xbbbb3c50	-0.005713977
84	0x3c62ee43	0.013850751
85	0x3c54955a	0.012975061
86	0xbce5823e	-0.028016206
87	0xbc93453d	-0.017977351
88	0x3c9b04f6	0.018923264
89	0xbb6c6cc6	-0.0036075576
90	0x3d68bf0d	0.056822825
91	0x3c7d9218	0.015476726
92	0x3d3b83fe	0.045780174
93	0xbcc6b49b	-0.024256041
94	0x3b72756a	0.0036996254
95	0xbd8cc7b2	-0.06874026
96	0x3d1be603	0.038061153
97	0x3cc1fb69	0.023679452
98	0xbcfcdeee	-0.03086802
99	0xbc77f6e8	-0.015134551
100	0x3d0e1f15	0.03469761
101	0x3bbd4aa3	0.0057767197
102	0x3cf4c4b2	0.029878948
103	0xbaafd64d	-0.0013415307
104	0x3c8fe1b1	0.017563673
105	0x3c4a1b36	0.012335589
106	0xbc9ec671	-0.019381734
107	0x3c90368f	0.01760414
108	0xbbea0471	-0.0071416427
109	0xbca63101	-0.020287039
110	0x3bdd2d74	0.006749803
111	0xbac2e3c1	-0.0014868901
112	0x3c0f0cbd	0.008731064
113	0xbcf72151	-0.030167254
114	0x3cb4e7f0	0.022083253
115	0x3d0af2b3	0.033922862
116	0x3cf9c273	0.030488228
117	0xbcea63f1	-0.028612109
118	0xbd0532f4	-0.032519296
119	0x3c77d61b	0.01512673
120	0x3d3957c3	0.04524971
121	0xbba30bd8	-0.004975777
122	0xbd8c75d8	-0.068584144
123	0x3c22adbc	0.009929117
124	0x3cbf92d2	0.023385439
125	0x3cc0ba2e	0.023526277
126	0xbca0d4fb	-0.019632807
127	0xbc30f5c5	-0.0108007835
128	0x3cb2b7d1	0.021816166
129	0xbd1d4c0e	-0.03840261
130	0xbcbf340d	-0.02334025
131	0x3d0e2cc0	0.034710646
132	0xbc2f4597	-0.010697744
133	0xbcd6d367	-0.026223851
134	0xbb7d6788	-0.0038666446
135	0xbd025c5e	-0.03182637
136	0x3cb6b4ae	0.022302952
137	0xbd05578c	-0.032554194
138	0x3d5eaff2	0.054367013
139	0xbc5c83b8	-0.013459139
140	0xbcc2f885	-0.023800144
141	0xbcc20052	-0.023681793
142	0xbb6188e8	-0.0034413878
143	0xbce7ae8d	-0.028281474
144	0x3c8f2d7e	0.017477747
145	0xbdd54cb7	-0.10415023
146	0xbc8b2173	-0.016983723
147	0xbcd33ad3	-0.025784886
148	0x380caa71	3.3537337e-05
149	0xbce2bc22	-0.0276776
150	0xbcbd36f3	-0.02309749
151	0x3bbb6217	0.0057184803
152	0x3c4fea81	0.012690187
153	0xbc531ce3	-0.012885305
154	0xbd5a5ae8	-0.05330935
155	0xbd2df12e	-0.042466335
156	0xbc911498	-0.017710015
157	0xbcafc0b9	-0.021454202
158	0xbc83984d	-0.016063834
159	0x3cace00b	0.021102926
160	0xbd14992b	-0.036278885
161	0xbd09cdf8	-0.033643693
162	0x3c9e8321	0.019349637
163	0x3c0c2d97	0.008555791
164	0xbac04383	-0.0014668558
165	0xbcc3ad84	-0.02388645
166	0xbcc89ab3	-0.024487829
167	0x3ae0d795	0.0017154092
168	0x3cdec53c	0.027193658
169	0xbad2679a	-0.0016052604
170	0x3ca6a805	0.02034379
171	0x3ca39fd7	0.019973679
172	0x3bcc8cc8	0.0062423684
173	0xbaf9331a	-0.0019012422
174	0xbcbcc441	-0.0230428
175	0xbb875b27	-0.0041307393
176	0xbd232acc	-0.039835736
177	0xbc6d060a	-0.014466772
178	0xbcc92377	-0.024553044
179	0x3c1a5ff2	0.009422289
180	0xbcd680e9	-0.026184516
181	0xbcf0c50a	-0.02939083
182	0xbb12ebe3	-0.0022418431
183	0xbc7af17a	-0.015316362
184	0xbd678cee	-0.056530885
185	0xbcddacf7	-0.027060015
186	0x3d65ad6d	0.056073595
187	0x3cb7a3e6	0.02241702
188	0x3cb54af0	0.02213046
189	0x3d1cfb99	0.03832588
190	0x3a25460d	0.0006304689
191	0x3d0051c6	0.031327985
192	0x3d2eae75	0.042646844
193	0x3c625301	0.013813735
194	0xbc0eca01	-0.008715154
195	0xbc9c9868	-0.019115642
196	0x3d04d165	0.032426257
197	0xbd63e763	-0.05564059
198	0x3d29d98e	0.041467242
199	0xbd50a58d	-0.05093913
200	0x3d49abab	0.04923598
201	0xbd35566e	-0.04427188
202	0x3c8bdc38	0.017072782
203	0x3cb6adb1	0.02229962
204	0xbc5c78e7	-0.01345656
205	0x3c4a73ae	0.012356682
206	0x3910bbb9	0.00013802842
207	0x3c7783e6	0.015107131
208	0x3c4a3dcb	0.012343834
209	0x3d15ebc8	0.03660181
210	0x3db3f850	0.08787596
211	0xbd16d37d	-0.036822785
212	0x3bddf63f	0.0067737396
213	0xbdba91e3	-0.09109857
214	0xbd86ee58	-0.06588429
215	0x3d9c7264	0.07639006
216	0xbcf1dbd4	-0.029523768
217	0x3d3eb202	0.04655648
218	0xbd9d247d	-0.07672975
219	0x3ce58ebb	0.02802216
220	0xbc6eb276	-0.014568916
221	0x3cb65013	0.02225498
222	0xbcbed74c	-0.02329602
223	0x3d8f4d3c	0.06997153
224	0xbc9c6963	-0.019093221
225	0xbd4365e9	-0.04770461
226	0xbc034373	-0.008011687
227	0xbd46f9bc	-0.04857801
228	0xbd7dce3b	-0.061964255
229	0xbc972e25	-0.01845462
230	0xbd340eca	-0.043959416
231	0xbbdd8f22	-0.0067614475
232	0xbcaf262f	-0.021380512
233	0x3ca91bf8	0.02064322
234	0xbd366df0	-0.04453844
235	0x3d172ea8	0.03690973
236	0x3ac91eaf	0.0015344227
237	0x3cedab2e	0.029012289
238	0xbbbd49b0	-0.0057766065
239	0xb9e3e6df	-0.00043468826
240	0xbd13bc04	-0.036067978
241	0x3c59e79a	0.013299847
242	0xbc7e5f13	-0.015525597
243	0xbced74e5	-0.028986404
244	0xbc6fac33	-0.014628458
245	0xbd1369c7	-0.03598955
246	0xbbf1e2e1	-0.0073817824
247	0xbd5dd572	-0.054158635
248	0x3bb8597d	0.005625902
249	0xbd7c4eac	-0.061598465
250	0x3dc9b028	0.09848052
251	0x3db37c65	0.08763961
252	0x3cb6b5dc	0.022303514
253	0x3d11acff	0.035565373
254	0x3d25c030	0.040466487
255	0x3ca614ae	0.020273533

_model.2._model.0.bias f4 [51]
0	0x3a0fd8d7	0.0005487329
1	0x3c18d4e3	0.0093281
2	0xbce0aa6b	-0.027425012
3	0xbcd4f3bd	-0.02599513
4	0xbc3bd8e0	-0.011465281
5	0xba9cec65	-0.0011972307
6	0x3c2c1b32	0.010504531
7	0xbc292f37	-0.010326198
8	0xbb8f6a17	-0.0043766606
9	0xbd243793	-0.040092062
10	0xbc3a12fd	-0.011357066
11	0x3c3e927f	0.011631607
12	0xbd140bad	-0.036143947
13	0xbbcf95d7	-0.006335001
14	0x3c09e20a	0.008415708
15	0x3cd3e69c	0.025866799
16	0xbc518ede	-0.01279041
17	0x3ba06363	0.0048946603
18	0x3c73b5f6	0.014874926
19	0x3afbc761	0.00192092
20	0x3c46de0b	0.0121379
21	0x3c1c4ffa	0.009540552
22	0x3c21cd15	0.0098755555
23	0x3c85276e	0.016254153
24	0x3a997340	0.0011707321
25	0xbbabf495	-0.0052476623
26	0x3c9bf747	0.01903881
27	0xbc046b95	-0.00808229
28	0x3bd86c3f	0.006604701
29	0x3ac13a0e	0.0014742033
30	0xbc0324de	-0.008004395
31	0x3b5bfb1f	0.0033566428
32	0xbbd51940	-0.006503254
33	0x3afa749e	0.0019108241
34	0xbc26c751	-0.010179357
35	0xbc96d197	-0.018410487
36	0x3c90e1ff	0.017685888
37	0x3c0ce56c	0.00859962
38	0xbbca9471	-0.0061822464
39	0xbc3be2d9	-0.011467659
40	0xb9bba427	-0.00035789722
41	0xbc95e011	-0.01829532
42	0xb9946176	-0.00028301374
43	0xbc84a683	-0.01619268
44	0x3c8238c8	0.015896216
45	0xbb0040a1	-0.0019569772
46	0xbc8d7c84	-0.017271288
47	0xb9e84c6c	-0.00044307427
48	0xbc247de2	-0.010039778
49	0x3ab907ca	0.0014116701
50	0x3bda2669	0.006657411
