data/etc/pretrained_model/boxing/imitation_policy_expert_07_boxing_exp3_1200.pt (torch_old, 99591 bytes, 6 tensors)

_model.0._model.0.weight f4 [64, 266]
00000000: 14f1 fa3a 9aac 9a3d 6877 8e3d 0be7 9d3d
00000010: d60c 2f3e 70b0 dc3d d8b5 253d b1ad 543d
00000020: 16f7 31bd 3245 a7bc 55dc 0fbe 2cb9 9c3c
00000030: 32b3 083e d9fa fb3d 513d 843d 3685 f9ba
00000040: 6109 4f3c 58e7 ae3a d42a 89bc 7c4b 2d3e
00000050: 7a36 313e 31e2 02bd d13a 173d 46ce dc3d
00000060: 2fe1 be3d f971 053e c678 653c 73dd 0b3e
00000070: 43fa 13bd 770c 373e e18a 1a3e c5de 30bd
00000080: db08 f23c ddaf 173b b491 2b3d 2533 fe3c
00000090: 9f5c 57bd 30f6 71bd 500a ab3c 5432 0e3d
000000a0: 2ad4 a73d 54b9 3bbe d861 00bd 6ef8 af3d
000000b0: 6296 5bbd 1413 b33d bd72 6f3e 5a78 d8bb
000000c0: bd80 863d 984b 843d e895 afbd fa58 1cbd
000000d0: 01d4 2a3e be33 463b 124b 883e 0033 06be
000000e0: fc62 723d e353 db3d 1400 ab3c 2565 913d
000000f0: f35d 453c 9119 efbb 3138 bf3d 73b8 92bd
00000100: 8b3a e13c 6af1 963d 590a 933d 7d8e 883e
00000110: 2ce2 c7bd 58d0 543d cce7 eb3d 7848 003c
00000120: efef 193d 539e d2bd 438e 93bc 7a64 9e3d
00000130: ed9a a3bd 8d4d 03bd 2a36 a33d 18ff 35be
00000140: c224 493e d9fb 71be 73e3 d3bd 3036 3f3e
00000150: 507d d8bc 2816 05be bb0f 0cbd e089 503d
00000160: 7422 543d 0b57 ebbc 88c1 153d b86b 3ebe
00000170: 4f6b 903d 37bb 01bd 6d44 84bc 7372 acbc
00000180: c0e8 85bc e98a f13c 2e8f c23d f1c7 61bb
00000190: f1ea dc3d 53e6 53bd 6826 6b3c f992 f03c
000001a0: ef95 edbd fec1 a73d 891e f4bb ed68 de3d
000001b0: 9f59 afbd ac8c 333e 8545 cf3c 5e51 7f3d
000001c0: a840 84bc 8471 853d 11e5 97bd 65aa 3cbd
000001d0: edb7 3fbd 24ae 79bd 6cdf d2bc 7a44 0abe
000001e0: b37c 72bd 096d 60bd 669a 163e f2d6 d53c
000001f0: 45fc 703d 30ce 0e3d 54fa 803c 70ba 99bd
00000200: 7682 dc3d e31d 47bd c1e5 03be 11d2 fb3d
00000210: 4b3d 39bd 6aac a23d 3064 c83a cf6c 823d
00000220: d593 84bd 3600 5d3d 2cb3 aa3d f8c2 1abc
00000230: adf8 5b3d 7d9b ae3d 051c 8cbd 7bc2 adbd
00000240: 9efc 5f3d 9dcd 4c3e 3d2d 0c3e 9263 a0bc
00000250: 16e3 81bc 4c69 e73d 8af9 a23c b796 b03d
00000260: 6e79 1ebd 4412 e73c 248b 523c 3593 c73d
00000270: 4858 a03b c2a7 493d 8917 df3d e6d3 1a3e
00000280: a755 eebd 4a1c 09bd 4530 97bd 4a84 8bbb
00000290: 1c23 7abd 8728 a03d 0bad 22bd ed6e 6ebb
000002a0: b8ba e03d 66f8 c73b e861 9d3c 3ca8 043d
000002b0: ec4e 1e3d 7f74 953c 00c4 04bd 65fe 323b
000002c0: d3dd 2e3d 6f51 9c3d c240 d0bc 68fd f5bc
000002d0: 3cd6 38bd 0170 65bd d12e 81bd ca8f cabc
000002e0: 717d 813d 6987 f83c 885d 183c ca36 91bd
000002f0: f7bd d6bc 0e8e d63d bc48 5fbd 2ae7 52bd
00000300: cf54 a33c b33f 81bc 2886 72bd 0647 b8b8
00000310: 815b 713d bb72 b13a 4373 d13c ad7e 13bd
00000320: 6bc5 ef3b 84a4 1d3c 1a11 f43d 2c2c 3dbc
00000330: 550e 3a3d 6ec7 c83d 1b51 d8bb 3a79 183d
00000340: cec8 05be fdf0 b0bb cacb 03bd fb65 003d
00000350: eeff 9bbd 054f 783d b336 7c3d 0f3a f73b
00000360: 8031 593d ec97 ef3c f702 8bbd 5b93 c8bb
00000370: 7ed8 8e3d a076 1cbd a0da 763c 4f5c bfbd
00000380: 5148 0b3e c679 c2bd 5b62 aa3d 343c 823d
00000390: d38f b8bb 05b0 033e 083c 733d 71f2 95bc
000003a0: 313b 113e 5225 163e b584 3abe e3d2 093e
000003b0: 4971 31be 6e89 513d 80be 103c cadb 023e
000003c0: 4bd5 463c e683 d53d f5eb d3bd 7f89 d43d
000003d0: 6b76 fc3c 2cba a3bd 8d96 263c 482f 22be
000003e0: ee44 9f3c 5d26 bdbc 9c2e 57bd 474c a6bd
000003f0: 78c4 533e ae1a 1b3e 7b20 053d ad49 88bc
0.0019145333 0.075524524 0.06956369 0.077100836 0.1709474 0.1077584 0.040456623 0.051923458
-0.04344853 -0.020418737 -0.14048894 0.019131266 0.13349608 0.12303705 0.06457008 -0.0019036892
0.012636513 0.0013344092 -0.016744055 0.16923326 0.17305937 -0.031953994 0.036921326 0.10781531
0.09320294 0.13031758 0.014005845 0.13658695 -0.03612734 0.17875849 0.1509204 -0.0431812
0.029545238 0.0023145594 0.041887 0.031030247 -0.052578565 -0.059072673 0.02087894 0.034715965
0.08194764 -0.18332416 -0.03134331 0.08592306 -0.053610213 0.08743873 0.23383613 -0.006606144
0.06567524 0.06459731 -0.08573514 -0.038170792 0.16682436 0.0030243243 0.26619774 -0.13105392
0.05917643 0.107093595 0.02087406 0.0709937 0.012046325 -0.007296749 0.093368895 -0.07164087
0.027493736 0.07370265 0.07179708 0.2667121 -0.09759936 0.051956505 0.11518821 0.007829778
0.037582334 -0.10284104 -0.018012172 0.07734008 -0.07988534 -0.03205638 0.07969315 -0.17773092
0.19642928 -0.23631229 -0.10346117 0.18673015 -0.026426941 -0.12996733 -0.03419469 0.050912738
0.05179067 -0.028728029 0.03656152 -0.18595779 0.070517175 -0.031672683 -0.01614591 -0.021050667
-0.016346335 0.029485183 0.094999656 -0.003445145 0.10786999 -0.051733326 0.0143524185 0.029366957
-0.11600863 0.08191298 -0.007449929 0.10859857 -0.08562016 0.17534131 0.025301704 0.062333457
-0.016144112 0.06515792 -0.07416738 -0.04606094 -0.046806265 -0.06095709 -0.025741301 -0.13502684
-0.059200954 -0.054791484 0.14707336 0.02610347 0.058834333 0.034864604 0.015744366 -0.07506263
0.10767071 -0.048612487 -0.12880613 0.12295926 -0.04522447 0.079430416 0.0015288647 0.0636841
-0.06473509 0.05395528 0.083349556 -0.009445898 0.053703953 0.08525751 -0.06841282 -0.0848436
0.054684274 0.2000031 0.13689132 -0.019578729 -0.015855353 0.11299381 0.01989438 0.086224966
-0.038690023 0.028206952 0.0128505565 0.097448744 0.0048933364 0.049232252 0.10893161 0.15119895
-0.11637431 -0.033474244 -0.073822536 -0.0042577134 -0.06106864 0.0782023 -0.039715808 -0.0036382035
0.10973114 0.0061026094 0.019211724 0.032387003 0.038649485 0.018244026 -0.032413483 0.0027312275
0.042692017 0.0763272 -0.025421504 -0.03002806 -0.045126185 -0.05601502 -0.06307758 -0.024726767
0.06322754 0.030338006 0.009299643 -0.07090528 -0.02621363 0.104763135 -0.054512724 -0.051489986
0.0199379 -0.015777444 -0.059209973 -8.787033e-05 0.058925156 0.0013538221 0.025567656 -0.03600948
0.007317235 0.009621743 0.11917324 -0.011546176 0.045423824 0.09803663 -0.0066014654 0.037224986
-0.13064882 -0.005399822 -0.03217677 0.031347256 -0.07617174 0.060622234 0.061575603 0.007544763
0.053025723 0.029247247 -0.06787675 -0.0061210818 0.06974886 -0.038199067 0.015066773 -0.09343778
0.13601805 -0.09495883 0.08319541 0.06359139 -0.0056323796 0.12860115 0.059383422 -0.018304082
0.14182736 0.14662674 -0.18214686 0.13459353 -0.17328371 0.051156454 0.008834481 0.12779155
0.012135814 0.10425548 -0.103477396 0.10377788 0.030818185 -0.07994494 0.01016773 -0.15838349
0.019442048 -0.023089582 -0.052534685 -0.081200175 0.20680416 0.15146896 0.03250168 -0.016636694

_model.0._model.0.bias f4 [64]
00000000: 0257 8b3c 27fa 003a bf39 e43c fb14 fe3c
00000010: d462 1c3d 6a49 f03c db44 b23c 8109 8d3c
00000020: 3b97 3a3c 2360 993c 07f3 83bc e80a e93c
00000030: 4e21 ee3c 0641 803c 75b4 703c b069 fcba
00000040: 67bf c93c 43bf 483c 8b3d 563c a16e 783c
00000050: fcae 853b 56e4 623c 0452 1f3c 189b e03c
00000060: ff19 4d3c 561a a93c 7644 443c 020e 13bc
00000070: c9a5 15bb f43b 043d 4149 393d 93b6 0a3d
00000080: b5a8 003d b727 d33c 0c64 653c bcd6 093d
00000090: a13f 2d3d ce83 fe3c 6adb 8a3c 4cf1 a2bc
000000a0: 8312 e63c 89aa 343c f57c e93c 54d0 c33c
000000b0: b089 9a3c 5cbf 1d3d 3c82 0a3c 737a ad3c
000000c0: 43af 9c3c f681 9b3c 1199 92bb 6f9e 893b
000000d0: 38b4 033d af7f de3c 734e c23c e2b7 ed3c
000000e0: d3c6 0e3c 9349 183d 6ac3 873c 12a0 373d
000000f0: 086f e53c 7b87 c73c c753 9e3c a847 163d
0.017009262 0.0004920088 0.027859567 0.031015864 0.038180187 0.029331882 0.021761348 0.017216446
0.011388595 0.0187226 -0.016107095 0.028447583 0.029068615 0.015656006 0.014691462 -0.0019257572
0.0246274 0.012252632 0.013076196 0.015163095 0.0040796977 0.013848385 0.009724144 0.027417704
0.012518405 0.02064244 0.011979213 -0.008975508 -0.0022834411 0.03228374 0.045235876 0.033865523
0.03141089 0.025775773 0.014000904 0.033652052 0.04229701 0.031068709 0.016950328 -0.01989045
0.028084999 0.011026987 0.028501967 0.02390305 0.018864483 0.038512573 0.008453902 0.021176552
0.01912654 0.018982869 -0.0044738133 0.004199795 0.032154292 0.027160494 0.023719048 0.029018346
0.008714396 0.03717954 0.016572673 0.04483039 0.028007045 0.024356594 0.019327058 0.03668943

_model.1._model.0.weight f4 [64, 64]
00000000: 78b8 2c3e 6479 c4be f082 843d 0a8b 26bd
00000010: 6a7d 88bd 1cc7 79be 4fcc 1fbe afff d3bd
00000020: f9ad c4bd 7fc9 7abe 9c70 913b 3211 0cbe
00000030: 54ba e13d 7282 03be af03 893c f284 b4bd
00000040: fcc6 9e3e 0e71 62bd f61e cebe d869 5cbe
00000050: dbb0 5dbb f007 47bd f077 fb3c a56b 2e3e
00000060: ccb2 aabd 2191 05bc 7ccf 95bc 7560 5f3d
00000070: ce4c ac3d db64 933e 891d 373e 142e 2d3e
00000080: 73f1 ac3c a58b 01be 7c49 503d f9bd 0ebe
00000090: f5aa 59be af3d 053e 11a8 083e dc7d b9bd
000000a0: f6d8 3cbe 4b32 6bbd 49a0 c93b 9db2 2f3d
000000b0: 84ad 983b c806 03be 64c6 223d 6c4a 3fbb
000000c0: 25f9 e1bd f914 14be b128 d43c 7425 a53e
000000d0: 1951 05be b954 4cbd 7e03 87bd 77d8 8bbd
000000e0: 0b4c fd3c ee5b e43d a7cb 403e 4836 133d
000000f0: 935b b6bb 9c24 5abe fae9 fa3d a367 6b3e
00000100: 74bc e13d d94a c9be 3e19 1d3a a16a 4d3e
00000110: 63c2 093b 7c7f 833c 9c05 ceba 18af b93d
00000120: da84 8f3d 5c1d 033d 38ca 2d3e 255e f1bd
00000130: 8149 2f3e 2395 673c 5620 47be cad9 1ebd
00000140: 765e e93b df4f ad3d 12e1 0d3e d017 003d
00000150: 03dc f13d 2e5e 3ebe 4fe1 473d 1a41 eebd
00000160: b625 2e3d d42d 5dbe a9d6 b3bd fab1 bc3c
00000170: 6b63 c23d 90cd f03d 72d7 59bd 7ec4 0bbe
00000180: 25c8 133e b55a 51bc ed73 2a3e 9edd abbe
00000190: 5729 7cbc 7343 343d 10b0 cb3d e440 9c3d
000001a0: 81cc f7bd 42a1 ae3d 7490 8fbe a176 a43a
000001b0: b640 79be 1a45 e43d 2383 28bd 20f6 db3d
000001c0: ee80 c1bd 4a95 b6bd fb1b 193c 7ce2 873c
000001d0: 0411 a8bd c30a 3d3d 0399 2abd cdac 91be
000001e0: ac70 39be e8af fc3d ff0c 2e3e 1832 66bd
000001f0: 89e6 fcbd 3c15 0abd c3c3 b8bc 28a1 10be
00000200: cdb9 993c f633 93bd 7c90 a03d 8d53 3abd
00000210: 5974 3fbe bf09 87be 9129 083c 8db2 333e
00000220: 96c3 32be a49a 40be 88ff 9bbd e3b6 6cbd
00000230: d0ba 43bc b76b 01be 2cff 403e 7bb9 9e3d
00000240: cd6a 83be f7df 923e 1ef6 1b3e fe49 323e
00000250: 1a7b 853e 30d8 54bd 78f8 a5be 7d65 043e
00000260: 44c5 033e 22a9 b73d 0d79 483e 6c49 d83c
00000270: 902e 463d 18d4 aa3d d5c1 ebbd 99c7 fabd
00000280: 6673 413e 3a7c 3e3e cc39 25bc 7f1c 003e
00000290: 8ccc 003d 847f 0a3d d7ef a0bd 7b33 2cbe
000002a0: 9ae4 5c3d a8cb 123e 166a cabd 435a 0dbe
000002b0: 7f3a 223e 27cf 1ebe 9f0b 34be bdf1 14be
000002c0: 5636 823e 14c8 d93d 5374 82be d30e 283c
000002d0: cae9 89bb de20 a1bb f69e a1bc 29f3 4dbc
000002e0: a843 c6bd 928e 22bd 8d82 693e 6ec3 1b3d
000002f0: c12e aa3d 34af bbbd 1e79 fe3d fa73 c2bd
00000300: db94 a63d b765 493d 1d4e 3fbc 5103 bfbc
00000310: 2500 44be 5d02 c53d 44c2 c6bb afc2 c93d
00000320: 3433 833e dc25 a0bd b094 923b c7f2 55be
00000330: 58b9 203d 68d7 34be 822d f1bb 9cbe ec3c
00000340: 7f3b 21be 04bb a9bd efd6 9abd 3356 703e
00000350: dfb3 b33d f437 60be b5e8 ed3d 23be 41bd
00000360: 81b4 c6be f82d 62be 6139 17bd f504 d1bc
00000370: ed12 3f3d cefa 4b3e 2688 14be ab29 a3be
00000380: dbb7 013d 553d 213e 3045 943e e8b2 a3bd
00000390: 8a0f 08be 1b6b dc39 7951 2bbd 2a92 833c
000003a0: 8f5c d43c e2f5 f43d 89b9 bd3d 5daa b8bd
000003b0: 63d8 533c 110e 553e 8829 11be 08a6 5bbd
000003c0: 60af ed3c f7ef 3ebc 9c19 fdbd 4d6c 13be
000003d0: 764b 013e c634 11bb c377 213e 19ce 6d3b
000003e0: 18ce c03d 8e91 5b3e 7c73 603e 4e50 023c
000003f0: ba28 9a3d 22fe 8a3d 2ca1 5bbe 8cb2 95bd
0.16867244 -0.38373864 0.06470287 -0.04065994 -0.06664546 -0.2439236 -0.15605281 -0.10351502
-0.09603495 -0.24490927 0.004438473 -0.13678434 0.110218674 -0.1284273 0.01672539 -0.0881442
0.31011188 -0.0552836 -0.40257996 -0.21524751 -0.0033827338 -0.048591554 0.03069684 0.1703325
-0.08334884 -0.008152277 -0.018287413 0.054535348 0.08413087 0.28787884 0.1788236 0.16912109
0.021111226 -0.12650926 0.05085133 -0.13939656 -0.21256621 0.13011812 0.13345362 -0.09057209
-0.18442139 -0.05742101 0.0061531407 0.04289495 0.0046593565 -0.12795556 0.03973998 -0.0029188646
-0.11033849 -0.14461125 0.02589831 0.32255137 -0.13019218 -0.049885485 -0.06592463 -0.06828397
0.03092005 0.11150347 0.18827687 0.03594044 -0.0055651157 -0.21303028 0.12251659 0.22988753
0.11022273 -0.39314917 0.0005992836 0.20060207 0.0021020405 0.016052 -0.0015718224 0.090665996
0.07007761 0.03201042 0.16971672 -0.11785535 0.17117883 0.014134678 -0.19445929 -0.03878192
0.0071218563 0.084625 0.13855389 0.03127271 0.11809542 -0.18590614 0.048798855 -0.11633511
0.042516433 -0.21599513 -0.087811776 0.023034085 0.09491619 0.11757958 -0.05318398 -0.13649175
0.14431818 -0.012777974 0.16645785 -0.33567518 -0.015390716 0.044009637 0.09945691 0.076295644
-0.12099553 0.08526851 -0.28039896 0.0012547561 -0.24341092 0.111459926 -0.041140687 0.10740304
-0.094484195 -0.089151934 0.00934505 0.016587488 -0.082063705 0.04615284 -0.04164983 -0.2845215
-0.18109387 0.12338239 0.16997145 -0.056200117 -0.123486586 -0.033711657 -0.022554284 -0.14123976
0.018765355 -0.07187645 0.07840058 -0.045489836 -0.18696727 -0.26374623 0.008310691 0.1754858
-0.17457423 -0.1880899 -0.07617098 -0.057791602 -0.011946395 -0.12638746 0.1884734 0.07750221
-0.2566742 0.28686497 0.15230605 0.17411038 0.26070482 -0.051963985 -0.3241613 0.1292934
0.1286822 0.089678064 0.19577427 0.026402198 0.04838425 0.08341235 -0.1151158 -0.122451015
0.18891677 0.18602076 -0.010084581 0.1251087 0.03144507 0.033813015 -0.07858246 -0.16816513
0.05392895 0.14335501 -0.098835155 -0.13803963 0.15842627 -0.1550871 -0.17582558 -0.14545341
0.2543208 0.10633865 -0.25479373 0.010257441 -0.004208778 -0.004917248 -0.019729119 -0.012570181
-0.09680873 -0.039686747 0.22803707 0.038028173 0.08309699 -0.09164277 0.12425445 -0.09494777
0.08133861 0.04916927 -0.0116763385 -0.023317011 -0.1914068 0.096195914 -0.0060656387 0.09851586
0.25625002 -0.07819721 0.0044732913 -0.20893393 0.039239258 -0.17660296 -0.0073601613 0.028899483
-0.15745352 -0.082876235 -0.075605266 0.23470382 0.08774542 -0.21896344 0.11616651 -0.04730047
-0.3880959 -0.22087848 -0.036919955 -0.025515059 0.04664891 0.19919893 -0.14505062 -0.31867728
0.03166948 0.15746053 0.28959036 -0.07993108 -0.13287178 0.0004204147 -0.041825745 0.016060907
0.025923042 0.11960961 0.09263904 -0.09016869 0.012930009 0.20806147 -0.14175999 -0.053625137
0.02901429 -0.011653892 -0.123584 -0.14396782 0.12626442 -0.00221567 0.15768342 0.0036286174
0.09414309 0.21442243 0.21919054 0.007953716 0.07527299 0.06786753 -0.21448201 -0.07309446

_model.1._model.0.bias f4 [64]
00000000: aa30 913c b604 543d cfde 9d3c 59e1 993c
00000010: 27cc 05bc 2f90 ca3c 24cc b23c 711c 5c3b
00000020: 0bb0 0ebc b8f2 e63b 4e2e 253d 6aee 31bc
00000030: 2518 d8bc 00e4 ddbb e197 b7bb 9445 163d
00000040: 2ecd 3abc 7f21 133c 76a4 0539 b6b2 a43c
00000050: 968b e73c 3b28 6c3d fd2a c03c b3e3 2b3d
00000060: 8a5f 843c 08cc 78bc 0b01 c73c 18c8 043d
00000070: 78db 893d b5c6 183d 451b 233c 2d89 a03c
00000080: 51f8 eb3c 294b c6bc 51f0 0b3c 175c 193d
00000090: 96a2 123d 6455 bf3b b90a 453b 4651 c33c
000000a0: 8b23 3a3c 657e fe3c b7a3 df3c 2a82 823c
000000b0: 65b0 783d 835a ed3c 56c9 ab3c 96af a0bc
000000c0: bcbc 3c3d c71f d63c f7ea b0bc 3ea2 8d3c
000000d0: b7b8 053c 9d1f 9b3c 9fd7 623d 5b67 fd3c
000000e0: 4fbc 373d e70c 143c 0200 753c 1168 b33a
000000f0: 4d16 e23c 9472 5d3d 80a4 413c 8cae ca3c
0.0177234 0.051762305 0.019271282 0.018784212 -0.0081663495 0.024726955 0.021825857 0.0033586288
-0.008708964 0.0070479773 0.040327363 -0.010860065 -0.0263787 -0.0067715645 -0.005602822 0.03668745
-0.011401458 0.008980154 0.00012745135 0.020104747 0.028264802 0.057655554 0.023457998 0.041965198
0.016158838 -0.015185364 0.02429249 0.032417387 0.067313135 0.037298877 0.009955232 0.01959666
0.02880493 -0.024205761 0.008541183 0.03744134 0.035799585 0.005839037 0.0030066206 0.023842465
0.011361013 0.031066129 0.027299745 0.015931208 0.060715098 0.028973823 0.020970028 -0.019614976
0.04607843 0.0261382 -0.021596415 0.017289277 0.008161715 0.018935973 0.055381414 0.030933073
0.04485732 0.009036279 0.014953615 0.001368763 0.027598524 0.05406435 0.011819005 0.024741434

_model.2._model.0.weight f4 [51, 64]
00000000: c055 833c cf39 e53c a2e1 d5bd e048 2e3c
00000010: 0b72 54bd 46f2 6abd 2adf 7fbd 161b 2a3c
00000020: 5e59 b0bd 3297 8f3d 2dff cbbc d85c b0bc
00000030: 4954 07bd c8c2 a4b9 e0e2 2abd 63e6 4dbc
00000040: dcf8 4d3c 7532 833c 639c d0bc 915e 663c
00000050: ce46 23bd 2378 12bd b061 dfbc 6f63 1cbe
00000060: cf27 973d 10ea e83b 0488 10bc 987c b9bb
00000070: d9f6 94bc aed3 df3c 624c 60bb 4d7b 4dbd
00000080: 1e2c 94bd 90c4 bcbc 64ab fcbc 8e71 51bc
00000090: 720f f0bc e10f c53c b960 fbbc e146 c33b
000000a0: 406f 18bd b868 f9bc 7380 b3bc 115e c3bc
000000b0: 93bc 1dbc 2216 133d a86f eaba 5748 69bc
000000c0: 83c5 7abd 92d2 5a3c e6f5 adbb 30fd 233d
000000d0: d66f 2bbd 8034 5ebd 8c44 cbbc f989 f2bb
000000e0: a9d3 febc dca9 c7bb d74b 1f3c 8524 093d
000000f0: d95b e4bc abd1 87bd 11d5 25bd 1df6 21bd
00000100: 2ad7 31bb ca5c e4bb 7ab6 cc3c 6013 55bc
00000110: 0f07 b13c ebed 613c af01 a5bb 6297 6f3b
00000120: 79c8 093c 1c72 ed3b 9e72 22bc 3553 883b
00000130: b105 12bc 2a48 64b9 5ebb a5bb 5aba c33b
00000140: 8a4a afba 8c03 52ba 1f9c b33c 181c 30bb
00000150: 20a2 8dbc d2c0 79bd bc91 efbc 6fda 4c3d
00000160: 488b 04bd d736 093d 4f05 233c 5e85 f73c
00000170: 5721 2dbc 33bd 12bd 6017 b6bb f466 1e3c
00000180: 9041 fa3c 2db2 38bc 59a0 643b 792c dfbb
00000190: 11af f2bc f564 dcbc 0ad8 48bc 5bd3 943c
000001a0: 2b4a 8d3b 3214 eebc b08d f13c 08b5 71bb
000001b0: b46c 01bd 3ffa 50bd 0a50 29bd 9b5e e13c
000001c0: b47d debb 8db5 613c dcdc 4d3c e1ab f8bc
000001d0: 348e d4bb 6caa c23b 1c05 babc 9f57 0bbd
000001e0: e0d7 1abd 2f5e 5cbc e302 923c 5490 62bd
000001f0: a757 07bc 52f3 d63c 4536 e73c 77c7 633c
00000200: 8f8a 61bd 6a80 97bc 72c0 c7ba e4cd d73c
00000210: 1711 1f3c 6ebf de3c 74d3 c6bb 9679 25bd
00000220: 3410 de3c d7e0 6ebc f8e1 9d3c 890f 8c3d
00000230: f040 c3bc aca5 debc 95db 933c 1c98 333b
00000240: 0cc1 a8bc 1b41 61bb ad6c 82bc efc1 343c
00000250: 56df 093d 80b5 f43c 75f6 923c e778 0ebd
00000260: 38a4 093d a71f 96bc 3e3f 2c3d eaac 8bbc
00000270: c21f d23c 399b e13c 681f 1ebc fcb1 543d
00000280: 8a44 263d 57dc 97bc 181a e33c 6683 f93c
00000290: 9b64 483d be31 b13b 8d9f 2f3d 1104 4fbd
000002a0: c164 793c 4529 a63c 7318 15ba 80e5 4ebc
000002b0: 1631 eb3a a680 7f3d 61ed 373c 8022 f3bc
000002c0: f0a3 303d 1e73 60bc 3791 12bd 390c d5bb
000002d0: ea33 a9bb 5dc8 ac3c f5ba ea3c 90c9 35bc
000002e0: 7c5f a93d 4c45 463c 75b7 07bd aaec 323c
000002f0: 1b37 383c dd33 0c3d d8d3 01bd 712c 743c
00000300: ecee 623d 099b 853d e37b 3fbd 7032 88bd
00000310: 1099 c7bc d06b 453d f0dd d83c 1cf6 bbba
00000320: a032 33bd 30f4 87bd ce5d 9e3d e12d 5ebd
00000330: c153 47bc d43e 423c 34b2 39bd 2962 593d
00000340: 1f4f 9ebd b89c 05bd 5ad3 5f3d 32d3 17bd
00000350: f7a2 8d38 0aad 393c 4538 303d b5cc 59bd
00000360: 3408 073c 341b 0fbc d63e 39bc 7a1a 9abc
00000370: 1e86 823a cf25 2e3d d905 d1bc d2bf 96bd
00000380: cce7 9a3c e633 92bc 6d6b 09bd 58e8 1bbc
00000390: b12d 313d 3d2c 333c ee85 01bd b1c3 313c
000003a0: 3ea0 f3bc b609 f53c cce3 723c 8cd6 e63c
000003b0: 5fa7 9f3d 8ef9 643d fcf3 f43c e3cc f63c
000003c0: c42d b13b bbd5 fdbb fc1e e53a 927d 34bb
000003d0: 3278 30bc 1b32 0bbd 18ae 10b9 a540 5d3d
000003e0: 7653 6d3c 2dfc 863a 7dd3 9c3d 19c1 4b3d
000003f0: 19a5 133c 0238 56bd ae76 ae3c 7d33 21bd
0.0160321 0.027981667 -0.10443427 0.010637492 -0.051866572 -0.057359956 -0.062468685 0.010382434
-0.086107954 0.0701126 -0.02490195 -0.021528646 -0.033039365 -0.0003142564 -0.04172027 -0.0125671355
0.01257154 0.01601527 -0.025465196 0.014060632 -0.039862446 -0.035759103 -0.02726826 -0.15272306
0.0738064 0.0071079805 -0.008821491 -0.0056606047 -0.018184112 0.027322616 -0.0034225215 -0.050166417
-0.07234977 -0.023042947 -0.030843444 -0.012783421 -0.02930424 0.024055423 -0.03068577 0.005959377
-0.03721547 -0.030445442 -0.021911835 -0.023848565 -0.009627479 0.03590978 -0.0017886059 -0.014238439
-0.061223518 0.013355868 -0.0053088544 0.04003638 -0.041854702 -0.054249287 -0.02481296 -0.0074017015
-0.031106787 -0.006093247 0.0097226715 0.033482093 -0.027875828 -0.06631788 -0.0404864 -0.039541353
-0.0027136304 -0.006969069 0.024989355 -0.013005108 0.021609811 0.013789634 -0.005035601 0.0036558737
0.008409613 0.007246269 -0.009915022 0.0041603097 -0.00891249 -0.00021770658 -0.0050577363 0.0059731426
-0.0013373655 -0.0008011393 0.02192503 -0.0026872214 -0.017289221 -0.060974903 -0.029244296 0.050013002
-0.03235939 0.033499565 0.009949996 0.030214962 -0.010567031 -0.035824966 -0.0055569857 0.009668101
0.03054884 -0.011272949 0.0034885614 -0.0068107215 -0.029624494 -0.026903609 -0.012258539 0.018167188
0.00431182 -0.029062364 0.029486507 -0.0036881585 -0.031597808 -0.051019903 -0.041336097 0.027510932
-0.0067898873 0.013776195 0.012564864 -0.030355396 -0.0064866785 0.005940726 -0.022707514 -0.03401911
-0.03780353 -0.0134501895 0.017823642 -0.055313423 -0.008260644 0.026239071 0.02822412 0.013902537
-0.05506378 -0.01849385 -0.0015239848 0.026343293 0.009708664 0.02719089 -0.0060676876 -0.040399157
0.027107336 -0.014579973 0.01927279 0.068389006 -0.023834676 -0.027178608 0.01804904 0.0027403897
-0.020599864 -0.0034371081 -0.015920961 0.0110325655 0.033660255 0.029871702 0.017939785 -0.03478327
0.033603877 -0.01832564 0.0420525 -0.017050225 0.025649909 0.027539836 -0.0096510425 0.05192755
0.040592708 -0.018537683 0.027722403 0.030458163 0.04892407 0.005407541 0.04287677 -0.050540987
0.0152217755 0.02028335 -0.0005687542 -0.012627959 0.0017943706 0.062378548 0.011226029 -0.029679537
0.043125093 -0.013699321 -0.03578302 -0.006501701 -0.0051636593 0.021091634 0.028653601 -0.0110954195
0.08270165 0.012101483 -0.033133943 0.010920683 0.011243607 0.03422915 -0.03169617 0.014903174
0.055403635 0.06523711 -0.046749007 -0.06650245 -0.024364978 0.04819852 0.026473016 -0.0014340314
-0.04374945 -0.06638372 0.077327356 -0.054242972 -0.012165965 0.0118558 -0.045335963 0.05307213
-0.07729935 -0.03262016 0.05464492 -0.037066646 6.7537585e-05 0.01133276 0.043022413 -0.05317374
0.008241702 -0.008734513 -0.011306485 -0.018811453 0.0009958183 0.042516526 -0.025515484 -0.073608056
0.018909357 -0.017847013 -0.033549715 -0.009515844 0.043256465 0.01093584 -0.031621866 0.010849879
-0.029739495 0.029911857 0.014824819 0.028178476 0.077955954 0.055902056 0.029901497 0.030126994
0.005407067 -0.007746426 0.0017480548 -0.0027540666 -0.010770844 -0.03398333 -0.00013797765 0.054016728
0.014485231 0.0010298543 0.07657526 0.0497447 0.00901153 -0.052299507 0.021296825 -0.039355744

_model.2._model.0.bias f4 [51]
00000000: 8922 d7bc 987d e6bc a486 533d c002 523c
00000010: 2987 6f3b 14be 1d3c 690d 62bc 9dcb 2a3b
00000020: f7e0 94bb 0d98 2f3c 9883 edbc bbd3 23bd
00000030: 6968 28bd 83d1 093b a26c 5cbc d4b4 10bb
00000040: 4baa 433b 2b16 413b 84c2 b5bb 18ff 8d39
00000050: e00b afbc c4f6 e3ba 52a3 8cbb 502b 6dbc
00000060: 80fd 52bc 9806 25bc 3a94 27bc cfff c0bb
00000070: 58b4 e73b 9645 19bb 1b91 9abb 4a9a 52bc
00000080: b0b2 79bb 6298 253b 5983 66bb b102 d2bb
00000090: 0125 683b b18e 3e3b a4d7 33b9 71d8 453c
000000a0: 5d90 03bc 464a 09bc f2b0 dc3b dd46 773b
000000b0: b5b3 6a3c cc99 8cba 7ad7 a0bb afd5 04bc
000000c0: 079f 2abc a578 d3bb 43db b93c
-0.026261585 -0.02813606 0.051642075 0.012818038 0.0036549068 0.009627838 -0.013797143 0.0026061304
-0.0045434195 0.010717404 -0.028993413 -0.039996844 -0.0411152 0.002102942 -0.013453634 -0.0022080438
0.0029856141 0.0029462676 -0.0055468697 0.00027083675 -0.021367967 -0.0017392267 -0.0042919302 -0.014475659
-0.012877822 -0.010072373 -0.010228211 -0.0058898698 0.007071059 -0.0023387424 -0.004717005 -0.012854168
-0.003810089 0.002526783 -0.0035173504 -0.0064090122 0.0035422447 0.002907675 -0.00017151103 0.012075529
-0.008030024 -0.008379525 0.0067349607 0.0037731447 0.014325072 -0.0010726987 -0.0049084993 -0.008107587
-0.010413892 -0.006453591 0.02268756
