data/etc/pretrained_model/boxing/policy_weights_boxing_expert2_1200.pt (torch_old, 99870 bytes, 6 tensors)

_model.0._model.0.weight f4 [64, 267]
0.00771307 0.005132179 -0.06579784 -0.20695688 -0.13703717 -0.39730623 -0.06272191 -0.0029196048
0.13917553 -0.057836358 0.08824899 -0.01859537 -0.03725196 0.059702348 0.07322917 0.017056879
-0.029191233 0.055496275 -0.101414874 -0.06047465 -0.052340817 0.1291247 -0.12715472 0.002366875
-0.044694684 0.048681743 -0.11366756 -0.07201921 0.19279717 -0.4631566 0.17223004 -0.34380832
-0.044968404 -0.15956418 0.11160238 0.0058973315 -0.054130044 0.08874327 0.035325382 -0.14465682
-0.05696662 0.17976746 0.48735815 0.12777291 -0.20368353 0.045831047 -0.27363327 0.011466093
0.13389754 0.01021386 0.06568348 -0.092571676 -0.11959662 0.010724704 0.24578404 0.00012483007
0.09187048 -0.035314687 -0.03691789 0.1298464 0.13626973 -0.14770946 -0.054016463 -0.008656536
0.010898417 -0.029612556 0.005951469 0.013806411 -0.034748405 0.038579766 -0.0883425 0.0026838449
0.0029884249 0.015768152 -0.07429233 -0.16591653 0.04894514 0.044456623 -0.028520921 -0.07034488
0.015504114 -0.27970463 -0.0410573 0.05450656 -0.047621977 -0.21593313 -0.081951715 -0.042473927
-0.040757302 -0.13936852 -0.11954292 0.37602013 0.12567097 -0.24607761 0.06317142 0.052628573
-0.24300876 -0.0047515356 0.09023764 0.0022654075 -0.13324666 0.0807644 0.030098753 -0.15325718
0.2528263 -0.0076760477 -0.18781383 -0.1989161 -0.017862517 -0.13876472 0.0008150681 0.15409735
-0.05560384 -0.2727231 -0.04045663 -0.012892969 -0.1589154 0.2653009 0.07046312 -0.1637312
0.005405487 0.026016226 -0.23052186 -0.028145557 0.023725012 0.076560006 -0.18979737 -0.12234704
0.02908055 -0.029218473 0.23826773 -0.048234634 -0.058793217 0.08511435 0.05031825 -0.05335493
-0.058671914 0.07864312 0.13846931 -0.056353558 0.08647176 -0.05460893 -0.04613368 0.2394004
-0.05845787 -0.15272576 0.017418375 -0.0038973477 -0.09000184 0.024102673 0.10247348 0.17330992
-0.19664855 -0.027761564 -0.010457965 -0.0071739415 0.07089319 -0.0035465998 -0.29124796 -0.14466825
-0.020872882 -0.08718015 -0.01601751 0.060260564 0.18089902 -0.14627215 -0.07324261 -0.113349594
0.06633342 0.07078411 -0.061336752 -0.06883305 0.025399437 -0.08114277 -0.070185475 0.12490129
-0.019505596 0.043042086 -0.1559882 0.09335715 -0.08667843 0.008046585 0.15620954 -0.031901576
0.015130335 -0.017643308 0.040734433 0.005546789 0.084200494 0.03775245 0.038203936 -0.13213463
0.027689142 -0.041106228 0.10668489 -0.10974249 0.011552717 -0.09963363 -0.07091136 0.030595267
-0.14136876 0.019652462 -0.013799631 -0.088269986 -0.11680051 0.04822365 0.02958015 0.008495409
0.048122954 0.04633235 -0.023171343 0.026570713 -0.0070579625 0.028139671 -0.0007477774 -0.0026787673
0.22520393 -0.17378144 0.0444633 -0.04058797 -0.025090637 0.18328309 0.078494966 -0.05588688
-0.018391091 -0.05952355 -0.11096535 -0.021390574 0.102326564 0.08336445 -0.06936579 -0.062299512
-0.0053761844 -0.06981364 0.10778771 -0.09042355 -0.032051772 -0.18716566 0.07088756 0.060833044
0.08477806 -0.07803732 0.05663021 -9.502013e-05 0.011773249 -0.017326305 0.02408545 0.14163488
0.1314682 -0.08618102 -0.03540325 0.013011965 -0.04263761 0.01643182 0.07867501 0.09714963
00000000: ecbd fc3b d62b a83b 05c1 86bd 81ec 53be
00000010: 7953 0cbe b96b cbbe 5874 80bd d756 3fbb
00000020: 0884 0e3e d1e5 6cbd e3bb b43d 5155 98bc
00000030: 8395 18bd 738a 743d 2df9 953d deba 8b3c
00000040: 7422 efbc 1050 633d 9ab2 cfbd 44b4 77bd
00000050: 5363 56bd 4439 043e d934 02be 931d 1b3b
00000060: c611 37bd 8266 473d 8aca e8bd cf7e 93bd
00000070: 9f6c 453e dd22 edbe 125d 303e a507 b0be
00000080: ca30 38bd cb64 23be ca8f e43d 673e c13b
00000090: 77b7 5dbd 08bf b53d 59b1 103d eb20 14be
000000a0: d555 69bd f614 383e 0287 f93e e7d6 023e
000000b0: 6a92 50be 56b9 3b3d a919 8cbe 48dc 3b3c
000000c0: 701c 093e 0958 273c 0f85 863d 3896 bdbd
000000d0: 13ef f4bd abb6 2f3c d0ae 7b3e d1e4 0239
000000e0: 9726 bc3d 22a6 10bd 3737 17bd 74f6 043e
000000f0: 4b8a 0b3e 2641 17be 5e40 5dbd 25d4 0dbc
00000100: 468f 323c 0896 f2bc 8a04 c33b 4934 623c
00000110: 5854 0ebd d105 1e3d eaec b4bd 72e3 2f3b
00000120: 73d9 433b 362c 813c 9426 98bd 06e6 29be
00000130: b37a 483d 2618 363d b5a4 e9bc fa10 90bd
00000140: f804 7e3c 7235 8fbe b32b 28bd 4542 5f3d
00000150: 430f 43bd 931d 5dbe 4dd6 a7bd 24f9 2dbd
00000160: 21f1 26bd 9fb6 0ebe ebd2 f4bd b685 c03e
00000170: e4af 003e c5fb 7bbe 0460 813d 0f91 573d
00000180: 4ad7 78be c5b2 9bbb 83ce b83d 3b77 143b
00000190: d071 08be ce67 a53d a991 f63c 73ef 1cbe
000001a0: 7372 813e 5b87 fbbb 4552 40be aab0 4bbe
000001b0: 6a54 92bc 5718 0ebe 4baa 553a b2cb 1d3e
000001c0: dac0 63bd 5da2 8bbe dab5 25bd 083d 53bc
000001d0: b8ba 22be 85d5 873e f84e 903d 27a9 27be
000001e0: 8320 b13b fb1f d53c ec0d 6cbe 8391 e6bc
000001f0: f55a c23c 7ecb 9c3d 3e5a 42be 1691 fabd
00000200: 553a ee3c 945b efbc 75fc 733e ae91 45bd
00000210: 28d1 70bd 6f50 ae3d 821a 4e3d b38a 5abd
00000220: f651 70bd a50f a13d e6ca 0d3e fdd2 66bd
00000230: 1b18 b13d 9dad 5fbd abf6 3cbd 6125 753e
00000240: 8571 6fbd 2464 1cbe fbb0 8e3c a56a 7fbb
00000250: e252 b8bd f872 c53c 9edd d13d 2878 313e
00000260: 3d5e 49be 386c e3bc e257 2bbc 6213 ebbb
00000270: 7330 913d 126e 68bb 741e 95be ea23 14be
00000280: 9bfd aabc 828b b2bd 2737 83bc c8d3 763d
00000290: 983d 393e 5ec8 15be 3900 96bd d523 e8bd
000002a0: d1d9 873d 42f7 903d 3f3c 7bbd 58f8 8cbd
000002b0: 7b12 d03c 2e2e a6bd 67bd 8fbd 3fcc ff3d
000002c0: 33ca 9fbc e64c 303d 5fbb 1fbe 0932 bf3d
000002d0: 7684 b1bd d3d5 033c 65f5 1f3e 3aab 02bd
000002e0: 3ae5 773c b388 90bc 26d9 263d d7c1 b53b
000002f0: 4f71 ac3d 50a2 1a3d bb7b 1c3d 4d4e 07be
00000300: 57d4 e23c 015f 28bd 9c7d da3d acc0 e0bd
00000310: 9b47 3d3c b70c ccbd fa39 91bd eda2 fa3c
00000320: f9c2 10be 33fe a03c d917 62bc e5c6 b4bd
00000330: 1b35 efbd 2986 453d 1252 f23c 5430 0b3c
00000340: 931c 453d fdc6 3d3d d4d1 bdbc d3aa d93c
00000350: 7b46 e7bb 2b85 e63c 7e06 44ba 428e 2fbb
00000360: dc9b 663e c3f3 31be 261f 363d 923f 26bd
00000370: e18a cdbc 90ae 3b3e f8c1 a03d a4e9 64bd
00000380: eaa8 96bc f7ce 73bd cd41 e3bd 493b afbc
00000390: 9790 d13d fbba aa3d a70f 8ebd c62d 7fbd
000003a0: b42a b0bb 74fa 8ebd cebf dc3d fb2f b9bd
000003b0: b848 03bd 5ba8 3fbe 7f2d 913d 122c 793d
000003c0: 1fa0 ad3d 08d2 9fbd 14f5 673d 8b45 c7b8
000003d0: 96e4 403c e5ef 8dbc da4e c53c bc08 113e
000003e0: 9a9f 063e ad7f b0bd 0003 11bd 2330 553c
000003f0: c6a4 2ebd 069c 863c 5d20 a13d 63f6 c63d

_model.0._model.0.bias f4 [64]
0.007102907 0.006055511 0.014358198 0.012912831 0.0015467305 0.0021436298 0.0074103135 0.01746916
0.004256181 0.014529679 -0.007398164 0.018523334 -2.25648e-05 -0.0054041795 0.023684977 -0.0053298967
0.012137291 0.01265243 0.009596816 0.009886431 0.027947055 0.015258733 0.010516006 0.018757138
0.016252799 0.0034066532 0.014119629 0.0042005647 0.0086419815 0.020440884 -0.0013386537 0.012972962
0.01242487 -0.0098485155 0.005770153 -0.0050018285 0.0011607445 0.011715347 0.0055907154 0.0132899415
0.0072975443 0.0040001706 0.00010958669 0.020457702 0.023744175 0.009182483 -0.002063316 0.00985125
0.015808664 0.006483607 0.0032964414 0.00025913134 -0.0042107007 -0.0013560988 0.005733736 0.0015667079
0.0059557627 0.004877981 0.023777429 0.0011573363 0.011582145 0.009796343 0.0047035236 0.004052119
00000000: 81bf e83b 4f6d c63b a63e 6b3c 5790 533c
00000010: aabb ca3a 247c 0c3b 37d2 f23b 7c1b 8f3c
00000020: 6f77 8b3b e40d 6e3c 4c6c f2bb 3fbe 973c
00000030: 8a49 bdb7 8b15 b1bb ff06 c23c 6aa6 aebb
00000040: 7ddb 463c 234c 4f3c f73b 1d3c b2fa 213c
00000050: 39f1 e43c c4ff 793c 534b 2c3c 92a8 993c
00000060: 9724 853c 2842 5f3b 0456 673c e4a4 893b
00000070: 1997 0d3c a473 a73c c475 afba 8c8c 543c
00000080: af91 4b3c ab5b 21bc 8d13 bd3b 61e6 a3bb
00000090: 1f24 983a baf1 3f3c 5232 b73b 0ebe 593c
000000a0: 3d20 ef3b dd13 833b e8d1 e538 e996 a73c
000000b0: 2583 c23c 2072 163c b338 07bb 2367 213c
000000c0: 2c81 813c 7074 d43b 1c09 583b 05dc 8739
000000d0: ebf9 89bb 20bf b1ba 10e2 bb3b fe59 cd3a
000000e0: 8f28 c33b 78d7 9f3b e2c8 c23c c3b1 973a
000000f0: 09c3 3d3c d780 203c 0420 9a3b a3c7 843b

_model.1._model.0.weight f4 [64, 64]
0.26480794 0.10289508 -0.0122695705 0.013264588 0.09439549 0.03240889 -0.25309747 -0.11865679
0.16210656 -0.17976564 -0.15821807 0.07994271 0.17627087 -0.16678803 -0.18272878 -0.36178234
-0.05633925 -0.1216181 -0.06989335 -0.1936579 -0.021649355 0.10785471 -0.09835853 0.022725262
0.05935159 -0.01910469 0.0037727398 -0.1335272 0.13791797 0.09585794 -0.05894263 0.0867799
-0.2287942 -0.018650992 0.022419477 0.040718183 -0.069010206 0.059398774 -0.31928506 -0.19852708
0.09344589 0.13174486 0.059655156 0.22013788 0.22511803 0.015106946 -0.13921005 0.024498535
0.13390891 -0.18456373 0.000928449 0.18259887 -0.032420944 0.15136851 -0.10563063 -0.15935127
-0.06502707 -0.006211675 -0.010377364 0.13621691 -0.04847522 -0.105746254 0.032690067 0.29380444
-0.17351517 -0.34708568 -0.005692763 -0.23573025 0.1533166 -0.039754767 0.123624705 -0.00920416
-0.15373316 0.094911925 0.22240883 -0.018113712 0.042828184 -0.0019333735 -0.012081483 -0.1874881
-0.0064099925 0.105077766 -0.033874314 -0.028905299 0.03652331 -0.13289274 0.0033324126 -0.059337456
0.14404425 -0.21597782 -0.24378341 0.0026581308 -0.12600543 0.18820767 0.117100395 -0.17047785
0.118495554 -0.040667385 -0.25466827 -0.029262166 0.26426062 -0.056748867 0.04454223 -0.02075065
-0.1241791 -0.040796157 0.004537413 -0.011622382 0.1691224 0.015145933 0.09684912 -0.07824142
0.09540733 0.12942186 -0.09874345 0.25561336 -0.07441587 0.10211598 -0.12630543 -0.00042424406
-0.08205858 0.010931191 0.039461896 0.15826511 -0.1431335 0.03726491 -0.29891995 -0.051274292
0.17478737 -0.031351555 -0.008033345 0.022484729 -0.14305426 0.0018756787 0.021888876 0.13347462
-0.07095974 -0.1611158 0.030409032 -0.09085408 -0.13690187 0.17317705 0.19252634 -0.069181085
-0.20136102 -0.01276995 -0.042478807 -0.32030052 0.210106 -0.1383932 -0.22878298 0.19117774
-0.26933482 -0.034793884 -0.056407586 -0.027355608 -0.13363592 -0.018421013 0.03650018 -0.07799686
0.010662453 0.06374042 -0.013997952 -0.0979803 0.0050017023 -0.23465967 -0.02688507 -0.077475205
0.038900185 0.049503192 0.009162178 0.067941524 0.13410436 -0.029596267 0.1631725 -0.20894556
0.257148 -0.0871768 0.02279586 0.01902591 -0.037306644 -0.2023429 -0.034740757 0.0754894
-0.09216205 -0.08544298 0.397755 0.13317296 -0.14138629 0.028050294 0.013396033 0.14873247
-0.12337104 -0.06034261 -0.06939087 0.004611251 -0.073863864 -0.17292409 0.14148596 -0.01943732
-0.0803678 0.07537322 -0.109378144 0.030633276 0.08033399 -0.2488348 -0.07154471 -0.05699835
-0.22431412 0.08674775 -0.0044619273 -0.029337352 -0.14161688 0.13145839 0.037668765 -0.13365155
0.18375538 0.18267691 -0.05958953 -0.12348011 0.19904143 0.019855397 0.21094593 -0.1638374
0.021455247 -0.034694284 -0.047966406 0.05770551 0.10239861 0.21112092 -0.05352619 -0.08529035
-0.08514187 -0.13246675 0.14553085 -0.4144195 0.27317858 -0.06600002 0.07569533 -0.08171922
-0.1293382 0.0055550155 -0.056474183 0.14167859 0.09994431 0.20504104 -0.2390312 0.3527437
-0.058852065 0.19938475 0.26158288 -0.070100546 -0.17412987 -0.1683881 0.08274555 0.020906772
00000000: e894 873e a8ba d23d 4f06 49bc b753 593c
00000010: 6c52 c13d 2fbf 043d fe95 81be 5502 f3bd
00000020: 43ff 253e 7c14 38be eb03 22be 01b9 a33d
00000030: 5a80 343e 7bca 2abe 411d 3bbe 893b b9be
00000040: fcc3 66bd e912 f9bd 3f24 8fbd 424e 46be
00000050: fd59 b1bc eee2 dc3d 3270 c9bd 542a ba3c
00000060: a71a 733d 7081 9cbc 1240 773b 5bbb 08be
00000070: 5e3a 0d3e 2b51 c43d d46d 71bd a9b9 b13d
00000080: 0749 6abe f7c9 98bc 0da9 b73c 1cc8 263d
00000090: 3955 8dbd 214c 733d 5579 a3be af4a 4bbe
000000a0: 8f60 bf3d 20e8 063e f758 743d d36b 613e
000000b0: 5785 663e 2083 773c 148d 0ebe 27b1 c83c
000000c0: 6b1f 093e 46fe 3cbe 2863 733a 33fb 3a3e
000000d0: d3cb 04bd 5900 1b3e df54 d8bd fb2c 23be
000000e0: ea2c 85bd 4e8b cbbb d205 2abc 727c 0b3e
000000f0: f48d 46bd 7e91 d8bd 05e6 053d 896d 963e
00000100: f6ad 31be 37b5 b1be 5b8a babb 4563 71be
00000110: 07ff 1c3e e5d5 22bd f32e fd3d 0ccd 16bc
00000120: 3a6c 1dbe 2f61 c23d 24bf 633e 3563 94bc
00000130: 9b6c 2f3d 4069 fdba 6af1 45bc e1fc 3fbe
00000140: ea0a d2bb 0333 d73d cbbf 0abd ceca ecbc
00000150: 7799 153d 0915 08be 9b64 5a3b d50b 73bd
00000160: 5680 133e 4a29 5dbe 5ca2 79be 0934 2e3b
00000170: 9107 01be 83b9 403e 55d2 ef3d bf91 2ebe
00000180: ccad f23d d892 26bd e163 82be 36b7 efbc
00000190: 2b4d 873e 8071 68bd ea71 363d 44fd a9bc
000001a0: 9d51 febd df19 27bd 94ae 943b ce6b 3ebc
000001b0: 6c2e 2d3e a626 783c d558 c63d 0a3d a0bd
000001c0: eb64 c33d 2a87 043e 023a cabd c1df 823e
000001d0: 5967 98bd 2f22 d13d 3656 01be 136d deb9
000001e0: 540e a8bd bd18 333c cca2 213d 4010 223e
000001f0: 9791 12be 17a3 183d 090c 99be fe04 52bd
00000200: 76fb 323e 7d6a 00bd 4b9e 03bc e531 b83c
00000210: d17c 12be 55d9 f53a 4d50 b33c 92ad 083e
00000220: 5753 91bd 8afb 24be 5d1c f93c b411 babd
00000230: 0130 0cbe 5355 313e a025 453e d0ae 8dbd
00000240: 9531 4ebe 0d39 51bc 42fe 2dbd 6efe a3be
00000250: 0726 573e f2b6 0dbe 1646 6abe 19c4 433e
00000260: 41e6 89be 0884 0ebd a40b 67bd de18 e0bc
00000270: dbd7 08be aae7 96bc 3681 153d d1bc 9fbd
00000280: 92b1 2e3c 568a 823d ab57 65bc e5a9 c8bd
00000290: 52e5 a33b a04a 70be 143e dcbc 52ab 9ebd
000002a0: cd55 1f3d dcc3 4a3d f61c 163c ed24 8b3d
000002b0: a752 093e df73 f2bc b116 273e d3f5 55be
000002c0: e7a8 833e c089 b2bd 62be ba3c 3adc 9b3c
000002d0: dace 18bd fa32 4fbe 534c 0ebd 309a 9a3d
000002e0: 75bf bcbd bbfc aebd 8ba6 cb3e 7e5e 083e
000002f0: 91c7 10be bbc9 e53c 097b 5b3c 534d 183e
00000300: f5a9 fcbd d029 77bd cd1c 8ebd fa19 973b
00000310: f045 97bd 0313 31be b2e1 103e 043b 9fbc
00000320: e097 a4bd 465d 9a3d a601 e0bd a3f2 fa3c
00000330: 2686 a43d 8dce 7ebe 0886 92bd 1a77 69bd
00000340: 9ab2 65be cea8 b13d 5c35 92bb e354 f0bc
00000350: 0404 11be 079d 063e 904a 1a3d f4db 08be
00000360: 5f2a 3c3e a80f 3b3e 2714 74bd 24e3 fcbd
00000370: 84d1 4b3e c9a7 a23c 3602 583e fec4 27be
00000380: eac2 af3c 981b 0ebd 6c78 44bd 9d5c 6c3d
00000390: 5db6 d13d 1530 583e 473e 5bbd b5ac aebd
000003a0: dc5e aebd 5da5 07be 0a06 153e cb2e d4be
000003b0: 10de 8b3e 052b 87bd 2706 9b3d 685c a7bd
000003c0: 3c71 04be d906 b63b 7951 67bd 3114 113e
000003d0: 9aaf cc3d 47f6 513e 98c4 74be d29a b43e
000003e0: dd0e 71bd 842b 4c3e 31ee 853e e090 8fbd
000003f0: 1a4f 32be ee6d 2cbe 8076 a93d ae44 ab3c

_model.1._model.0.bias f4 [64]
-0.051587444 -0.04763899 -0.04274832 -0.02248892 0.037579224 0.014308299 -0.0007943906 -0.009493101
0.035821583 0.009945351 -0.00837528 0.0050819777 -0.005950847 0.02708366 -0.014687924 0.04084495
0.029534506 -0.0028705655 -0.024190506 0.008480909 0.026445631 0.021241575 -0.022500431 0.043902252
-0.0071587483 -0.0094206305 -0.006145126 0.038931184 0.03592397 0.016861524 -0.04454493 -0.0042860946
-0.0036186057 0.010912721 0.025755314 -0.017944006 -0.023419121 0.022847982 0.034638394 0.014286644
0.040859256 -0.020241741 -0.008714306 0.007558004 0.010996192 -0.020335484 0.007033731 0.0032443854
0.017999925 -0.013426608 0.003599825 -0.010899019 0.033775244 0.021701848 0.0026501333 -0.010105674
0.029419642 0.025039645 -0.024397178 0.0065146405 0.015248612 -0.030133093 0.017690064 0.032995526
00000000: 5b4d 53bd 1a21 43bd dd18 2fbd af3a b8bc
00000010: acec 193d 5b6d 6a3c a73e 50ba f488 1bbc
00000020: a7b9 123d d3f1 223c 7838 09bc b886 a63b
00000030: 53ff c2bb 8dde dd3c 9ea5 70bc 094d 273d
00000040: 59f2 f13c 1920 3cbb 2b2b c6bc 83f3 0a3c
00000050: 82a4 d83c d002 ae3c d352 b8bc d9d2 333d
00000060: ef93 eabb fd58 1abc 0e5d c9bb 4e76 1f3d
00000070: 0325 133d 2e21 8a3c bf74 36bd 5e72 8cbb
00000080: 2126 6dbb 45cb 323c cffc d23c 4fff 92bc
00000090: 75d9 bfbc b12b bb3c fde0 0d3d 8712 6a3c
000000a0: 095c 273d 02d2 a5bc 73c6 0ebc 22a9 f73b
000000b0: 5f29 343c 9a96 a6bc 367b e63b c19f 543b
000000c0: 9474 933c 47fb 5bbc 0beb 6b3b cd91 32bc
000000d0: e957 0a3d 13c8 b13c dcad 2d3b 4592 25bc
000000e0: 7601 f13c f11f cd3c 97dc c7bc c478 d53b
000000f0: 50d5 793c add9 f6bc c1ea 903c 5126 073d

_model.2._model.0.weight f4 [51, 64]
0.017121093 -0.037134264 -0.0036153777 0.029168125 -0.01999855 0.010873344 0.07835038 0.0035006194
-0.0052890615 -0.024847286 0.026618741 0.015753526 -0.045958348 0.0045482633 -0.022268815 0.013163746
0.07332127 0.032883607 -0.028544534 0.026001297 -0.008846173 0.045571465 0.046870463 -0.01809407
-0.04161733 0.024695806 -0.01972356 -0.053220395 -0.06245663 0.004983484 0.0022017318 0.0010530865
-0.0336421 -0.031874314 0.012416119 0.11551818 0.023854027 -0.28507656 -0.011156092 0.022143876
-0.0044855373 0.007961838 0.022944547 0.011955166 -0.038895257 0.014536027 -0.019969987 0.032804675
0.04268139 0.025543183 0.013261393 0.028072434 -0.032530203 -0.008607947 -0.008511626 0.025989965
0.067466766 0.08587116 -0.00040581633 -0.043521967 0.0068267663 -0.013939288 0.012858834 0.006243673
-0.029042188 -0.046272658 -0.004982125 -0.015012583 0.008707974 0.03290723 0.0069127516 0.044328414
0.008325446 -0.007887012 -0.012249562 0.00017552343 -0.045991346 0.0011156307 0.0038215143 0.0008550304
-0.0037220258 0.028906077 -0.009033923 -0.022190789 -0.04366614 0.006440417 0.022371715 0.011677712
-0.043446384 -0.027338011 0.024469437 0.017174756 0.0034903642 0.017690143 0.067822605 0.020652732
0.038962085 0.00042391816 -0.0022832023 -0.013951247 -0.014240802 -0.035320938 -0.042610228 -0.016059283
-0.0034912291 0.0003330195 -0.009521974 -0.0119929975 -0.010511142 -0.026872963 -0.00624186 -0.016072264
-0.009888326 0.04172684 -0.0019579392 0.008148341 -0.0063847997 -0.021485398 0.0050940574 -0.015132906
0.05296603 0.015199363 0.021925315 -0.030666327 -0.009524301 0.02065718 -0.009001186 0.0055981437
0.023079576 0.008690647 0.042118687 -0.033707652 -0.02533935 -0.008106225 -0.010385698 -0.041230973
-0.015481929 -0.00054658885 -0.009305239 -9.0021285e-06 -0.02536551 0.038127888 -0.0078018857 -0.018089993
0.05146022 -0.00039409645 0.009575463 0.021662327 -0.0073977895 0.06604056 -0.0035560504 -0.010403846
0.014362771 0.019779054 -0.02021612 -0.03081832 -0.0023411291 -0.016364744 -0.0044606025 -0.0058638286
0.0017898619 -0.01698967 0.014085833 0.0044757333 0.007442944 -0.0095107155 0.030518338 0.012586829
-0.0005358686 0.023304079 -0.023846954 0.0087495865 -0.008233811 0.031544182 0.019705974 0.029182078
-0.028182073 0.016780503 0.028927308 0.01612618 -0.024203021 -0.033994183 -0.01281138 0.031730708
-0.010207137 -0.035721682 -0.006068167 -0.00025616252 -0.00092026405 -0.0018582275 -0.03011837 0.010418496
0.031935506 0.007825985 -0.018773012 0.0074313814 -0.0028458657 0.0023808551 -0.036888827 0.0030046776
0.00446378 -0.03793426 0.029966287 -0.015134621 0.0040214728 0.006304062 -0.010573238 0.015006732
-0.026743673 -0.009554983 -0.0437357 0.05173551 0.06538971 -0.001133072 0.007885823 -0.030035907
-0.051986348 -0.005567568 -0.07100416 -0.0013914932 -0.08164473 0.0028999334 0.0006153067 -0.0030298831
-0.037070423 -0.039491184 -0.030279694 0.04634213 -0.006988353 0.02957825 0.053388122 0.0026795212
-0.0180469 0.028538808 0.009847573 -0.059729025 0.032256402 0.046477176 -0.032964528 0.050718512
0.013107385 0.03160898 0.038934674 0.00012285302 -0.046189114 -0.015677033 0.0271745 0.001388705
-0.057707254 -0.0032812452 -0.017418846 -0.018606279 -0.003293595 -0.00019262412 0.0070463796 -0.01921912
00000000: 8941 8c3c 191a 18bd f9ef 6cbb fef1 ee3c
00000010: 00d4 a3bc 1c26 323c 2a76 a03d a66a 653b
00000020: dd4f adbb 898c cbbc 8c0f da3c 8a0d 813c
00000030: d23e 3cbd 9909 953b 176d b6bc c1ac 573c
00000040: 7629 963d f6b0 063d 3ad6 e9bc ac00 d53c
00000050: 8aef 10bc 25a9 3a3d 3efb 3f3d 043a 94bc
00000060: ef76 2abd dc4e ca3c 4e93 a1bc a1fd 59bd
00000070: 86d2 7fbd 7e4c a33b ee4a 103b b807 8a3a
00000080: 4ccc 09bd a48e 02bd fa6c 4b3c cc94 ec3d
00000090: 8569 c33c 8ef5 91be 0bc8 36bc 1367 b53c
000000a0: 6afb 92bb 5e72 023c 34f6 bb3c 9adf 433c
000000b0: a250 1fbd 8428 6e3c 1998 a3bc 325e 063d
000000c0: aed2 2e3d f03f d13c 5046 593c 29f8 e53c
000000d0: 643e 05bd 5908 0dbc 5974 0bbc e8e8 d43c
000000e0: 042c 8a3d 38dd af3d bfc3 d4b9 1744 32bd
000000f0: 11b3 df3b 9d61 64bc dcad 523c ba97 cc3b
00000100: e2e9 edbc 6688 3dbd 1841 a3bb 56f7 75bc
00000110: e4ab 0e3c bbc9 063d 5d84 e23b b691 353d
00000120: 7467 083c 8738 01bc 63b2 48bc b60c 3839
00000130: 6c61 3cbd 5b3a 923a 5f72 7a3b 1e24 603a
00000140: 3bed 73bb 70cc ec3c 0503 14bc 75c9 b5bc
00000150: 44db 32bd 220a d33b e344 b73c e053 3f3c
00000160: d6f4 31bd f7f3 dfbc 2174 c83c 13b2 8c3c
00000170: 98be 643b ebea 903c 94e6 8a3d eb2f a93c
00000180: b596 1f3d 5541 de39 c7a1 15bb c593 64bc
00000190: 4152 69bc b0ac 10bd 1088 2ebd c28e 83bc
000001a0: 1bcd 64bb 1f99 ae39 0e02 1cbc 477e 44bc
000001b0: ed36 2cbc b024 dcbc 8488 ccbb fba9 83bc
000001c0: a502 22bc c3e9 2a3d c550 00bb 9f80 053c
000001d0: 9537 d1bb 2502 b0bc 0dec a63b 02f0 77bc
000001e0: e8f2 583d c006 793c b89c b33c f337 fbbc
000001f0: d00b 1cbc 3f39 a93c b679 13bc a270 b73b
00000200: 6111 bd3c 3763 0e3c a584 2c3d 0911 0abd
00000210: 7894 cfbc f9cf 04bc c628 2abc cfe1 28bd
00000220: eba7 7dbc f548 0fba 0075 18bc d907 17b7
00000230: 54cb cfbc fd2b 1c3d f6a6 ffbb 7731 94bc
00000240: f4c7 523d bb9e ceb9 67e2 1c3c 3175 b13c
00000250: 2869 f2bb 4640 873d a00c 69bb e574 2abc
00000260: d451 6b3c af07 a23c 479c a5bc b476 fcbc
00000270: a16d 19bb 5b0f 86bc 3f2a 92bb 5c25 c0bb
00000280: cd99 ea3a ec2d 8bbc 44c8 663c 2ca9 923b
00000290: f1e3 f33b d5d2 1bbc 9801 fa3c fd38 4e3c
000002a0: 8879 0cba 32e8 be3c b05a c3bc 6d5a 0f3c
000002b0: 1be7 06bc 7934 013d 6c6e a13c 410f ef3c
000002c0: 17de e6bc 4477 893c f6f8 ec3c 0d1b 843c
000002d0: 6a45 c6bc 7c3d 0bbd d3e6 51bc 0ff8 013d
000002e0: d63b 27bc e650 12bd 79d7 c6bb 8d4d 86b9
000002f0: e03d 71ba c58f f3ba cdba f6bc 57b2 2a3c
00000300: cece 023d 8f38 003c dcc9 99bc f282 f33b
00000310: b481 3abb 1f08 1c3b bd18 17bd 20ea 443b
00000320: e744 923b f460 1bbd dc7b f53c 34f7 77bc
00000330: 8fc6 833b 4e92 ce3b 603b 2dbc ccde 753c
00000340: 8c15 dbbc 818c 1cbc 3524 33bd 9de8 533d
00000350: 0aeb 853d 9683 94ba 8a33 013c dd0d f6bc
00000360: a3ef 54bd 2570 b6bb a16a 91bd c462 b6ba
00000370: 5a35 a7bd cf0c 3e3b 894c 213a 0191 46bb
00000380: 28d7 17bd 82c1 21bd 1f0d f8bc 3fd1 3d3d
00000390: 8efe e4bb 164e f23c 81ad 5a3d e89a 2f3b
000003a0: 18d7 93bc 38ca e93c b757 213c 6ca6 74bd
000003b0: 4a1f 043d da5e 3e3d d005 07bd 37be 4f3d
000003c0: 5bc0 563c 6b78 013d f779 1f3d 1bd2 0039
000003d0: cc30 3dbd 1f6d 80bc 0f9d de3c 3505 b63a
000003e0: 715e 6cbd 290a 57bb f8b1 8ebc 326c 98bc
000003f0: 5bd9 57bb 25fb 49b9 51e5 e63b 6a71 9dbc

_model.2._model.0.bias f4 [51]
0.011664664 0.00015598055 0.044198476 -0.028798385 -0.016574241 0.032613527 0.037283912 0.0047533833
-0.0062761954 -0.022945108 0.029720142 -0.01310078 -0.004737277 -0.0012369356 0.02554776 0.02870669
0.005640188 0.028401794 0.019935686 0.0035803888 -0.017830446 -0.011898669 -0.0012034212 -0.007952446
-0.012914264 -0.016688935 0.009935139 -0.0044771656 0.01732665 -0.0024627661 -0.015080019 0.0051853014
-0.018807866 -0.004127409 0.0058947303 -0.004446834 -0.011133461 0.012412184 -0.006942391 -0.00091935083
-0.018946255 0.007296553 0.00071917096 -0.0012327238 -0.0037059784 0.016019316 -0.0021980936 0.03173789
0.00031093467 0.014657398 0.002618336
00000000: 261d 3f3c b68e 2339 7609 353d 97ea ebbc
00000010: b4c6 87bc c395 053d 04b7 183d 45c2 9b3b
00000020: 8ba8 cdbb 61f7 bbbc a877 f33c a7a4 56bc
00000030: 293b 9bbb ac20 a2ba 8949 d13c 4b2a eb3c
00000040: 54d1 b83b e1aa e83c 2a50 a33c f5a4 6a3b
00000050: 2811 92bc a3f2 42bc 1dbc 9dba fa4a 02bc
00000060: 5996 53bc 3cb7 88bc fec6 223c 30b5 92bb
00000070: 9ef0 8d3c 5c66 21bb 2f12 77bc 76e9 a93b
00000080: f412 9abc 373f 87bb 9528 c13b bfb6 91bb
00000090: 1f69 36bc 795c 4b3c ff7c e3bb 9700 71ba
000000a0: 2d35 9bbc ec17 ef3b bf86 3c3a 5993 a1ba
000000b0: 00e0 72bb f13a 833c e40d 10bb 97ff 013d
000000c0: f204 a339 9525 703c 6398 2b3b
