data/etc/pretrained_model/boxing/policy_weights_boxing_expert1_1200.pt (torch_old, 99870 bytes, 6 tensors)

_model.0._model.0.weight f4 [64, 267]
000000 1b 1d 8c 3d 16 67 04 bd d3 d3 7f 3b 5a c3 39 bc
       0.06841489 -0.032324873 0.003903617 -0.011338079
000010 cf 41 d3 bc e9 a5 c9 3d 7d 0d 91 3d c4 c8 8b bd
       -0.025788216 0.09846098 0.07082651 -0.068254024
000020 9b 44 64 3d b4 a8 5c 3d 75 67 6f be 5b b8 53 3d
       0.05572949 0.053871825 -0.2337931 0.051689487
000030 4d fd 42 bb 55 b0 9b 3d c2 ee 06 3c 07 1d cb 3d
       -0.002975303 0.07601992 0.008235635 0.09917646
000040 72 b9 95 bd 91 ee c7 bd 85 35 32 3e da 83 05 be
       -0.073107615 -0.097623 0.17403229 -0.13038579
000050 1b 05 1a ba 10 4a ec 3d b9 c4 e9 3c b1 16 9d bc
       -0.00058753946 0.11537564 0.028536187 -0.01917586
000060 d6 2c a0 3c 7b 82 a0 3d 6e a7 0b 3d f9 36 a0 bd
       0.01955263 0.07837387 0.03409522 -0.07822985
000070 ef 67 c4 3d 4c 79 53 be 35 a9 ca 3e ff 6f df 3d
       0.09590136 -0.2065174 0.3958222 0.109100334
000080 c5 64 f4 3c 6a 34 0b 3c a8 8e 31 3e cd 0d cd bd
       0.029833207 0.008496383 0.17339575 -0.10012398
000090 ce 94 12 bd 06 c1 4a bd c4 36 20 3d 09 59 c7 3d
       -0.035786442 -0.049500488 0.03911473 0.09733779
0000a0 71 c8 21 be 14 0b 45 3e 4a 70 96 3e 90 dd 09 3e
       -0.15799119 0.19242507 0.29382545 0.13463426
0000b0 3e 0f 5a be 7b 82 01 3d 54 cc f5 3d 46 da c9 3d
       -0.21294877 0.031618576 0.12001863 0.098560855
0000c0 3f 1c 9b bd a0 02 83 3d a0 13 b5 bd 9d ea e0 bd
       -0.07573747 0.06396985 -0.08841634 -0.10982249
0000d0 bb 95 f2 3c db 91 bd bd 86 59 43 be 37 65 a2 3d
       0.029612413 -0.09256335 -0.19077119 0.079294614
0000e0 6d ff 2a bd a9 c8 82 3d d3 4c 5f bd c3 2c 40 bd
       -0.0417475 0.06385929 -0.054516625 -0.046917688
0000f0 1e 2d 77 bc 25 84 71 3d 4b d0 dd bd 9b 7d 3c 3c
       -0.01508644 0.058963913 -0.10830744 0.011504556
000100 0c 2d a2 bc 1e a3 96 3d 53 0e fd bd 05 38 ef bd
       -0.01979687 0.07355331 -0.12356248 -0.11680607
000110 13 5e 1b 3d 1e 38 95 3d 09 41 50 3b 79 2b c3 3c
       0.037931513 0.07286094 0.0031777045 0.02382444
000120 d7 67 be bd e4 c2 14 bd a6 e1 f6 3d e3 99 2b bd
       -0.0929715 -0.036318675 0.12054758 -0.041894805
000130 0c ca 91 bd 0c bb b3 3c 28 8a 4a 3e 8b ec 5b be
       -0.071186155 0.021939777 0.19779265 -0.21476953
000140 ee e2 9d bd 4c b2 81 3e d3 ed 51 bc 1e 14 f6 3d
       -0.07709299 0.25331342 -0.012813049 0.12015556
000150 9e b4 9b 3c a4 7a 8f bc 36 8b 34 be f7 c6 54 3d
       0.019007023 -0.017514534 -0.1763123 0.05194756
000160 9f 7d 2d 3c a6 a3 8d bd e6 78 bc 3d ff 19 03 be
       0.010589032 -0.06915979 0.09202747 -0.12802885
000170 27 c3 55 3d e3 68 a8 3d 0c 57 2c 3e 1e 5b af 3d
       0.052188065 0.082231306 0.16830081 0.08562301
000180 c9 4a 33 3e 1c af 3f 3b d9 b9 a8 bd 5c 19 9e 3d
       0.17508997 0.002924866 -0.082385726 0.07719681
000190 f4 63 33 3d e5 58 48 bd 39 4d 88 3b d3 2f 24 3d
       0.043796495 -0.0489129 0.0041595963 0.04008467
0001a0 7c 84 48 bd 45 a3 a8 bc 7a df 40 3c ca 52 f2 3c
       -0.048954472 -0.020585665 0.011772031 0.029580493
0001b0 c6 48 16 bb eb 04 00 be 2e 36 8c bd 67 46 a5 3c
       -0.002293156 -0.12501876 -0.068462715 0.020175172
0001c0 75 0c 10 3e ea 88 07 3e a0 95 4c 3d f9 fd 18 3d
       0.14067252 0.13235822 0.04994738 0.037351582
0001d0 22 1a 1c 3d 7a 41 9e bc 90 8c 3f bd 5a 9e ca 3d
       0.03811086 -0.019318331 -0.04676491 0.098934844
0001e0 12 44 5d 3e 43 53 60 3d 0b 8e 94 bd be ea 1f 3e
       0.21607998 0.054766905 -0.07253655 0.15616891
0001f0 14 69 4f 3d d2 20 05 3e 49 17 5f bd 69 28 a1 3b
       0.05063732 0.13000801 -0.054465566 0.0049181473
000200 29 04 bd bd f8 8f 52 3e ea 50 d8 3c 9d e7 21 ba
       -0.09229309 0.20562732 0.02640577 -0.00061761757
000210 07 a2 50 3e dd 4b eb 3d 23 24 95 3c 22 59 e0 3c
       0.20374309 0.11489079 0.018205708 0.027386252
000220 7b 17 ca bd 65 ec 90 bb 63 04 29 3e 1b d1 39 bd
       -0.0986776 -0.0044227117 0.1650558 -0.045365434
000230 e2 af b1 bc 70 c2 f8 bd 12 33 42 3d 6d 87 45 bc
       -0.021690313 -0.12146461 0.047411986 -0.012056214
000240 fc 8a 21 3b 48 90 07 3e fe 66 78 3d 39 c2 97 3d
       0.0024649492 0.13238633 0.060645096 0.07410092
000250 09 ad 72 3d 29 d4 a4 3c 52 a6 05 be a3 40 2d 3e
       0.05924705 0.020120697 -0.13051727 0.16919188
000260 18 36 d1 3d 87 c9 05 bd 07 6b dc 3b e6 96 7f 3d
       0.10215396 -0.032662895 0.006726626 0.062399767
000270 8f 00 c8 3c 6e ab a3 3d 82 dd 3f 3e 36 f6 00 3e
       0.024414329 0.07991682 0.18736842 0.12593922
000280 73 b9 99 3d 4d c7 16 be a8 92 b5 3d 56 3b 68 bc
       0.07506075 -0.14724465 0.08865863 -0.014174303
000290 6b 18 7b 3c db c3 0d be 4b 00 21 bd 54 c9 96 3d
       0.015325646 -0.13844244 -0.03930692 0.07362619
0002a0 b9 ab ca 3d 21 19 05 3e 48 c9 ab 3d 36 10 bd 3d
       0.09896035 0.12997867 0.08388001 0.092316076
0002b0 be 26 9f 3d 92 5c 18 bc d2 2b 34 bd 50 cc f0 3d
       0.07771061 -0.009299414 -0.043987103 0.117577195
0002c0 6d 13 3b bd ab 74 23 3e 97 e9 5b ba e3 c6 5f 3c
       -0.045672823 0.15962474 -0.00083889946 0.013658258
0002d0 47 51 1b 3c ba df bf 3d 7d 5d 41 bd 4f 30 92 bb
       0.009479827 0.09368844 -0.047208298 -0.0044613252
0002e0 b9 aa 55 3d a0 e6 4c bd d8 03 a7 bd ba 21 4c 3d
       0.052164767 -0.05002463 -0.0815503 0.04983685
0002f0 8a 11 d9 3c 0d ce b6 bd 01 97 04 bd a3 3b 02 3d
       0.026497621 -0.0892602 -0.03237057 0.031795155
000300 5e c8 1f 3c 97 e8 16 3d df 77 ac bd 8a bc 63 bd
       0.009752361 0.03684291 -0.08421301 -0.055599727
000310 42 58 7e bc 76 47 3f 3d 48 a8 3a bc fc a6 6e 3b
       -0.015523972 0.04669901 -0.01139266 0.0036415448
000320 69 67 22 3c 47 2c 86 bd e4 cc ac ba 58 0a a4 3d
       0.00991235 -0.06551414 -0.0013183621 0.080097854
000330 9c c0 1d 3d 9e 3e 5d bd 3d 91 ad 3c ed cd 9d bd
       0.038513765 -0.054014795 0.02118742 -0.07705293
000340 32 fa 3f 3d 48 1f 7a bc 25 e3 90 3d 7c df 38 3d
       0.046869464 -0.015266247 0.070745744 0.045135006
000350 0b fb d8 3d b1 43 13 3d 0f 10 72 bb 50 0a a0 bd
       0.10594758 0.035953227 -0.0036935841 -0.07814467
000360 c7 30 39 3e 75 2f 81 3c 0c be e6 bc bf 3a d9 bc
       0.18085013 0.0157697 -0.028166793 -0.02651727
000370 7b 9f 02 bb 01 3c df 3c 5d c0 23 bd bc 84 6e bc
       -0.0019931484 0.027250292 -0.039978374 -0.0145580135
000380 a7 62 fc 3d ce 3a 78 bd 54 74 73 3d 14 07 7a bd
       0.12323504 -0.060602956 0.05943711 -0.061041906
000390 b8 fd 99 3c d8 5d 15 3e a0 7c 06 bc 1b ac 71 bc
       0.01879774 0.1458658 -0.008208424 -0.014750506
0003a0 d5 d3 5a bd cb d7 b5 bb 14 ac d4 3d 93 84 e6 3d
       -0.053424675 -0.005549406 0.10384384 0.11255755
0003b0 2c 79 df 3c a5 b5 a3 3d ce 15 7e 3d 4c b4 35 3d
       0.027279459 0.0799363 0.062032513 0.044361398
0003c0 f5 ba 2a bc 0b 57 f3 3d 42 10 e3 3d 8e c2 ce 3d
       -0.010420551 0.118818365 0.11087085 0.10095702
0003d0 bb aa 23 3d 6c 9a d6 bc 7a 9c 1d bc 5f 62 95 3d
       0.039957743 -0.026196681 -0.009619826 0.072941534
0003e0 c3 f0 a0 bd 2d 4c 88 3d 29 77 94 3b 8a 9c f5 bc
       -0.07858422 0.066551544 0.0045308066 -0.02998187
0003f0 5d 3a 9b 3d 5d 40 96 3d f3 f1 21 bb d8 46 2e bd
       0.07579491 0.07336495 -0.0024710863 -0.04254803

_model.0._model.0.bias f4 [64]
000000 b9 57 d2 3b 5f 72 c0 b9 0f e6 aa 3b 7a b9 43 3c
       0.0064191488 -0.00036706307 0.0052154134 0.0119460765
000010 65 fb 15 bc 47 12 be b9 66 68 1a 3c 88 88 4f bb
       -0.009154175 -0.00036253242 0.009424305 -0.0031667072
000020 45 f6 06 3c 89 8a 80 3c b5 ef 3f 3c 7b 53 b7 3b
       0.008237426 0.015691059 0.011714865 0.0055946684
000030 16 be 14 3c 03 89 7c ba 49 18 2b 3c bc 3d 82 3b
       0.009078523 -0.00096334534 0.010442802 0.0039746445
000040 d9 bb 89 3c b6 84 a5 3c e7 ee 01 3c c8 32 b2 b9
       0.016813206 0.020204883 0.007930494 -0.0003398864
000050 76 d8 29 3b 07 c2 15 3c 36 bb 37 3c ed 40 85 3c
       0.0025916374 0.009140498 0.011214068 0.01626631
000060 fe de c7 3c cc b6 42 bc 22 0d d6 3a 9e 81 c5 3c
       0.024398323 -0.0118844025 0.0016330818 0.024109658
000070 7f 3d 8b 3c 2e 48 b7 ba 53 bf bc 3c b5 56 ab 3c
       0.016997097 -0.0013983303 0.02304045 0.020915369
000080 33 2c 15 3c b4 13 14 3c 76 2e 9f 3b b3 09 f5 3c
       0.009104776 0.009037901 0.0048578335 0.029911852
000090 e0 57 cd 3c 96 0e ec 3b 5b c4 02 bc 24 f1 84 bb
       0.025066316 0.007203887 -0.007981385 -0.0040570665
0000a0 47 07 10 3c 1f 89 be 3c 87 69 d9 3c 5d 3c 0e bb
       0.008790798 0.023258744 0.026539577 -0.002170346
0000b0 76 6a 4a 3b be f8 b7 3c cb f9 fc 3b 9a 8b 1b 3c
       0.003088621 0.022457477 0.0077202073 0.009493733
0000c0 48 b7 e7 3b b9 ee b0 3c 32 de 75 3c 6e 77 f9 3b
       0.0070714094 0.021598207 0.015006589 0.007613114
0000d0 25 a2 80 bc ca 32 42 3c f8 00 8a 3c 4f ca b0 3a
       -0.015702317 0.011852929 0.016846165 0.0013488027
0000e0 91 43 4a 3a 9f 91 6f b9 ed aa 50 3a 12 3b 4a bb
       0.00077157567 -0.00022847064 0.000796004 -0.0030857963
0000f0 e0 6d c2 3c cc 67 8c 38 72 f4 b8 3c 1c 99 02 3c
       0.023734033 6.695054e-05 0.022577498 0.007971074

_model.1._model.0.weight f4 [64, 64]
000000 b4 da 9a 3d 18 e4 6c 3d df 16 7d bd c0 c3 b7 be
       0.075612456 0.057834715 -0.06178939 -0.35891533
000010 18 4f ec 3d 3a ec 80 3e 73 37 b9 bd 9d e2 13 be
       0.115385234 0.25180227 -0.09043779 -0.14441915
000020 55 73 08 bd d0 ba ec bc 0f f9 96 bd cf f1 2a 3e
       -0.033313114 -0.028897673 -0.07371723 0.16693805
000030 f1 cc 73 be bd 09 32 bd 87 13 5a bc f3 4d d9 3d
       -0.23808648 -0.04346632 -0.01331032 0.10610571
000040 5f ab 87 3c fd 53 5b bc 96 3a 35 be d5 60 30 3e
       0.016561208 -0.013386724 -0.1769813 0.17224438
000050 b8 ff d3 3d 42 35 16 be 61 a2 63 3e da c6 37 be
       0.10351509 -0.14668754 0.22229911 -0.1794695
000060 c5 b4 fa bc ba bf 95 3d 84 3f 23 bc 23 0d 01 be
       -0.030603776 0.073119596 -0.009963874 -0.12602668
000070 85 c1 06 be d3 de 5c 3d f3 c7 26 3a 4e db 8a 3d
       -0.1315976 0.05392344 0.0006362192 0.0678011
000080 e9 f6 25 be 9d 89 fc bd 0b 13 60 3e db f1 99 3d
       -0.1620747 -0.12330935 0.21882264 0.075168334
000090 f6 2f be 3d 87 89 85 be 13 84 1f 3e 2a 38 95 bc
       0.092864916 -0.26081488 0.15577726 -0.018215258
0000a0 f3 f6 76 3d 0f 73 ee bc ba 4b 84 bd bc 68 e0 bd
       0.060294103 -0.029107599 -0.06459756 -0.109574765
0000b0 3b d5 47 3e 31 96 30 3d 00 ce 3a 3d 9d 8e 29 3d
       0.19514935 0.043111984 0.045606613 0.041395772
0000c0 ae 1f 15 3e bc 6f b5 bc ba 64 af bb 81 dc ee bc
       0.14562866 -0.022148006 -0.0053525837 -0.029157879
0000d0 1c 5c cb bc c5 13 99 3d e2 bc 83 3d 3a 26 ce be
       -0.024824195 0.07474474 0.06432511 -0.4026354
0000e0 22 c0 a0 3d f2 4f 2d 3e 10 42 c2 be e9 f5 32 be
       0.078491464 0.16925028 -0.37941027 -0.1747662
0000f0 fe 54 97 bd 86 95 7e bc 6a e8 63 be 1d e9 86 bd
       -0.07389258 -0.015538579 -0.22256628 -0.065874316
000100 4d b0 ac 3a 0c ba 20 bd a9 2a 86 3c 88 94 ad bd
       0.00131751 -0.039239928 0.016377764 -0.08475596
000110 6d 97 af 3c 06 78 43 bd 36 7d 94 bd 6f 89 03 bd
       0.02143451 -0.047721885 -0.072504446 -0.03211349
000120 4a 6e 2d be 81 18 2c be 5a 2c 93 bd 31 15 8f 3d
       -0.16936603 -0.16806222 -0.07186194 0.06986464
000130 b7 2c eb 3d 30 ed 23 bd 62 a1 e9 3d 70 9f 5e be
       0.11483138 -0.04002112 0.114077345 -0.21740508
000140 ec 1e a3 bd dc e4 d0 3b 95 70 e6 3d f2 17 7a be
       -0.07964882 0.0063749384 0.11251942 -0.24423197
000150 4d 3c 56 3e f1 6b 90 3e 52 c0 47 be a7 c2 9f bd
       0.2092144 0.28207353 -0.19506958 -0.07800799
000160 22 9a 87 bc 43 1e 42 3e 9c cf 67 ba d8 d1 25 3d
       -0.016552988 0.18956856 -0.0008842887 0.040483326
000170 aa dd 7d 3e c9 5b 63 3e 73 45 90 be 15 c0 d3 3d
       0.2479159 0.22202982 -0.28177986 0.10339371
000180 4b 75 3d be 33 21 0a be 4c 9b e2 bd 5f 32 b7 3c
       -0.18501775 -0.13489227 -0.11064777 0.022362886
000190 38 a5 2b bd 95 ac 9b bd 94 e2 84 3e 77 75 ad 3d
       -0.04190561 -0.07601277 0.25954115 0.0846967
0001a0 6e 8b 54 bd 83 f6 3d bd 65 a0 92 3d ef 55 03 be
       -0.051890783 -0.04637767 0.07159499 -0.1282575
0001b0 a7 31 95 bd 83 f2 39 be d7 df 2a bd 03 45 0b 3d
       -0.07284861 -0.18158917 -0.041717377 0.03400136
0001c0 9b 65 05 3c 39 f2 2c 3e e3 d2 bb 3c 8a 54 22 bd
       0.0081419 0.16889276 0.022927707 -0.039631404
0001d0 37 14 84 be 8b 92 21 be 1f 04 38 3e df 69 90 3e
       -0.25796673 -0.15778558 0.17970322 0.28205773
0001e0 82 02 1e 3e f6 c3 fc 3d 27 52 0c 3e 11 e2 bb bd
       0.15430644 0.12342064 0.13703214 -0.09173978
0001f0 82 27 df 3d 2d 7e 86 bd c7 43 64 3d 91 98 65 bd
       0.108962074 -0.06567035 0.0557287 -0.0560537
000200 a2 81 03 3d 38 82 cf 3d 10 9b a2 bd 26 49 8a 3d
       0.03210605 0.10132259 -0.07939732 0.06752233
000210 ef dc 7a 3e 4f 52 e5 bd a9 a8 14 be 3b 50 2c be
       0.24498342 -0.1119734 -0.14517464 -0.1682748
000220 c7 10 e6 3d 91 8d 6f bd 3f b4 97 3d 83 1c 0d be
       0.11233669 -0.058484618 0.07407426 -0.13780408
000230 6c 53 6d 3c 72 b5 cf 3c 54 49 0f bd 3d 41 72 3b
       0.014485221 0.025355075 -0.03498204 0.0036965155
000240 72 cc 43 3d 01 a4 51 be 5e eb 01 3e 7d 0a 2f 3e
       0.047802396 -0.20472719 0.12687442 0.17093845
000250 6a 50 7b 3d ae 41 44 be 17 d2 bb 3c 3e 12 0b 3d
       0.061355986 -0.1916568 0.022927327 0.033952944
000260 c5 c6 9b bd 9e 10 d6 bd b0 97 cf be b2 42 83 bc
       -0.07606272 -0.10452388 -0.40545416 -0.016023014
000270 9f e3 91 be 97 dc c8 bc ef 6a 03 3e a9 13 ce 3c
       -0.28493974 -0.024519248 0.1283376 0.025155859
000280 ef 17 bb bd bb 7a 60 bc 99 29 57 3d 7d 01 18 3e
       -0.09135424 -0.013701136 0.052529905 0.14844318
000290 52 be 21 be 92 56 a6 3c 69 54 f9 bd c8 64 51 3c
       -0.15795258 0.020304952 -0.12174303 0.012780376
0002a0 28 9f 00 bc 3c e6 83 be 3b ab ce ba 5e 01 1d bd
       -0.007850446 -0.25761592 -0.0015767583 -0.038331382
0002b0 46 8e bf bd f3 73 25 3e 2a a4 18 be e6 96 39 3e
       -0.093533084 0.16157512 -0.14906374 0.1812397
0002c0 17 0a fc 3d 46 be da 3d da f1 ea bc 52 ba 4f 3e
       0.12306612 0.10680823 -0.028679777 0.2028592
0002d0 5d 9a 40 be 31 74 26 be 36 f6 95 bd 78 e5 34 be
       -0.18808885 -0.16255261 -0.07322352 -0.1766566
0002e0 de 5d 15 bd 61 72 20 3e 08 63 6e 3d 80 b4 36 3e
       -0.03646647 0.15668632 0.058199912 0.17842293
0002f0 e6 08 c1 bd 42 ca e7 bd 69 b8 71 3e f5 f3 29 3e
       -0.09425525 -0.113178745 0.23605503 0.16596968
000300 96 0e 84 be 55 18 8f 3d 3f 53 2e be fe 7c 57 bd
       -0.25792378 0.06987063 -0.17023943 -0.052609436
000310 80 85 51 be 31 f8 a5 bb c3 50 80 3b 8d d2 41 3e
       -0.20461082 -0.005064987 0.0039158775 0.18927975
000320 d4 83 19 3d 3a 13 58 bd ab 09 a5 be 1f fe e7 3d
       0.037479237 -0.05275271 -0.3223394 0.113277666
000330 c6 70 81 3e 43 6c 09 3e d6 48 4e 3d e9 d8 6a bd
       0.25281352 0.13420205 0.05036243 -0.057335768
000340 05 cb d9 3d 9e d8 29 bc c8 c6 9b be ea fe 04 be
       0.10634426 -0.010366587 -0.30425096 -0.12987867
000350 04 1f 53 3d 99 7a 8c be 85 3b da bd 33 b3 bc bc
       0.05154325 -0.27437285 -0.10655884 -0.023034668
000360 8f e9 3c be a4 49 31 bd 5a 47 17 be 58 34 dc bd
       -0.1844847 -0.04328312 -0.14773312 -0.10752171
000370 b2 ac 72 3d ba 4b 43 bd c1 c1 3d 3e c1 9b d9 bd
       0.059246726 -0.04767964 0.18530942 -0.10625411
000380 64 11 80 bd ab 66 c8 bd ed c9 69 bc 5f 1b 34 be
       -0.06253317 -0.09785207 -0.014269334 -0.17588566
000390 ad 25 3c be bf 47 55 bd ae c8 52 3e e0 90 ae 3d
       -0.18373747 -0.052070376 0.20584366 0.085237265
0003a0 1d a0 3d bd 16 cf 36 be b8 ae db bd 0e 3f e3 3a
       -0.046295274 -0.17852435 -0.10726684 0.0017337517
0003b0 68 e3 52 3e 37 c9 e0 3c b3 b6 4b 3e 7a 3a cf bb
       0.20594561 0.027439697 0.19893913 -0.0063241096
0003c0 37 6b df 3d 83 6c d6 3d 23 58 5e 3e 3b bc 36 3e
       0.109091215 0.10469916 0.21713309 0.17845242
0003d0 5a 77 00 be 3d f1 64 3e 4f 75 e5 bd 82 7c 1b 3e
       -0.12545529 0.2235765 -0.112040155 0.15184215
0003e0 c6 6c 99 be 75 b4 87 3a 93 5a 86 3e 79 81 4c be
       -0.299658 0.0010353463 0.26240978 -0.19971265
0003f0 4e af 57 bd 68 c4 02 3e 0d 36 ba 3d 82 e7 c0 3d
       -0.052657418 0.12770236 0.090923406 0.094191566

_model.1._model.0.bias f4 [64]
000000 16 2b 1e 3c 34 ce 0a 3c dd 11 b9 bb 7c 14 47 bb
       0.009653827 0.008472014 -0.0056478814 -0.00303772
000010 0e 0d f6 bc 0a 65 09 3c b7 28 83 bb 2a 70 c7 3b
       -0.030035522 0.008385906 -0.0040026563 0.006086369
000020 d7 bc 19 3d af bf 15 3d a5 01 85 3c d9 c0 d7 3c
       0.037533607 0.036559757 0.016236136 0.026337074
000030 1c 18 a3 3c bc 66 29 3d 39 10 dd 3c 4c 93 9e 3c
       0.019908957 0.04135774 0.026985275 0.019357346
000040 d5 2f 19 bc 15 1b d7 3c 7a 46 dc 3b e4 00 57 3d
       -0.009349783 0.02625803 0.0067222686 0.052491084
000050 4d 63 af 3c 6e 8c 3f 3c 80 ba be 3c 98 54 f0 bc
       0.021409655 0.011691196 0.02328229 -0.029337212
000060 45 b0 aa 3c b2 5d 8a 3c 8f f9 8b 3c 45 cc 25 3c
       0.020836005 0.01689038 0.017086772 0.010119502
000070 bd d8 bd bc c0 94 c7 3a 83 84 2b bc 19 9b ce 3c
       -0.023174638 0.0015226826 -0.010468605 0.02522044
000080 63 6e d0 3c 7f 82 c0 3c 4c b7 9b 3c 6e 48 51 3c
       0.025443261 0.023499725 0.019008301 0.012773616
000090 68 74 de 3b 5e 78 52 bc 16 4e 34 ba 2b c9 3a 3c
       0.006788779 -0.012846081 -0.0006878091 0.011400501
0000a0 cd 9b a9 3c a2 0a 76 3c f5 95 bf ba 28 93 14 3c
       0.020704174 0.0150171835 -0.0014616834 0.009068288
0000b0 1f fc 03 3d c2 ed 91 3c 10 c8 cb 3c f8 b3 00 b9
       0.032222863 0.017813567 0.02487567 -0.00012274075
0000c0 b1 c5 9b 3c 88 82 c4 3c 1e 03 8a 3c 87 ec 5f bc
       0.019015165 0.023988023 0.01684719 -0.013667232
0000d0 a2 52 d4 bc 28 ce 8c bc d4 d2 7b ba 96 d0 85 bc
       -0.025918309 -0.017188147 -0.0009606306 -0.016334813
0000e0 bd c9 d7 3c 43 f6 9f 3b b3 94 8a 3c 41 b4 d2 bc
       0.026341313 0.0048816516 0.016916608 -0.025720717
0000f0 43 ba 30 3c 9a 13 c4 ba 83 5d 51 3c 31 0c 1d bc
       0.010786596 -0.0014959455 0.012778643 -0.009585426

_model.2._model.0.weight f4 [51, 64]
000000 95 e5 e1 bc e9 81 67 3d 90 72 83 3c 25 88 b1 bd
       -0.027575294 0.056520376 0.016045839 -0.08668546
000010 74 7e 07 3d 8d 23 b4 bc 9b 68 94 3c 0b 90 0c ba
       0.03307958 -0.021989608 0.018116286 -0.000536204
000020 9d 1c bc bc d8 3f b6 3c 31 0f 68 bd 6e 1a 4d bc
       -0.022962863 0.02224724 -0.056655113 -0.012518508
000030 ba 67 72 3d 58 b8 a9 bc 29 e6 c2 3b c8 7f aa 3c
       0.059180953 -0.020717785 0.0059478474 0.020812884
000040 cf 34 2b bd 8d b4 7c 3d 4f 60 10 3d f0 c9 54 3d
       -0.04179841 0.061695624 0.035248097 0.051950395
000050 cc f0 c7 ba ad 6a f8 3c b8 68 5d 3d 71 3e f0 bc
       -0.0015254258 0.030324304 0.054054946 -0.02932665
000060 f4 b3 50 bc ce 26 74 bc 5b ed 4d bd 2a 21 cb bd
       -0.012738217 -0.01490183 -0.050275188 -0.09918435
000070 79 12 2a bd 30 dc 0e 3d ee b9 bb 3d 8b 71 44 bd
       -0.041521523 0.034877956 0.09166323 -0.047959846
000080 1b 45 a6 3c 9c 16 93 bd 40 8e 9a 3c c1 fb 3e bd
       0.020296624 -0.07182047 0.018866658 -0.04662681
000090 4c 01 3f 3d 22 e4 49 3d a5 3a 43 3d 1e 97 01 bc
       0.046632096 0.04928983 0.04766335 -0.007909564
0000a0 82 90 23 3d 39 b6 70 39 f0 61 13 3d 00 ba 44 3d
       0.039932735 0.00022956067 0.035982072 0.048028946
0000b0 7e 2e 5f 3c 2e f2 79 bd 9b 0c 94 bc 7d 97 2d 3d
       0.013621924 -0.061021976 -0.018072417 0.0423808
0000c0 54 95 14 3e cc 7c 9b 3d fa 14 e9 3c f5 d7 2a bd
       0.14510089 0.075921625 0.028452385 -0.04170986
0000d0 7a 03 7e 3d c1 07 d4 bc a3 8e e0 3c 83 67 cb bc
       0.062015034 -0.025882604 0.027411764 -0.024829632
0000e0 a6 ca c4 3d ab 81 e4 bc c5 2d 1f bd 79 db 26 3a
       0.096089646 -0.027893862 -0.03886201 0.00063651014
0000f0 07 ff 9d 3b 01 c5 b5 3c c9 2a 0e 3d 29 bc 93 bc
       0.0048216614 0.022188665 0.03470877 -0.018034058
000100 d2 c3 07 3d 4b 43 72 bc 8f 69 21 3c 39 49 81 3b
       0.033145733 -0.014786552 0.009851827 0.0039454964
000110 ec b7 1e 3d b8 c2 1f bc ed 30 1a bb 1f f6 03 3d
       0.03874962 -0.009751014 -0.0023527697 0.03221714
000120 d9 49 12 bb 95 80 45 bc 5f 47 f7 3c df d1 ad 3c
       -0.0022321849 -0.012054582 0.0301854 0.021218238
000130 68 82 23 3c 75 72 07 3c 7a 0e 5c 3a b4 fb 67 3c
       0.009979822 0.008267035 0.0008394491 0.014159132
000140 66 fc 9d bc 30 19 2a bb ef b4 e5 3c 87 5d 30 bd
       -0.019285392 -0.0025954954 0.028040377 -0.043057945
000150 82 50 bb bc d1 79 d5 bc 60 3d 1f 3d 53 ec ab 3b
       -0.022865538 -0.026059063 0.03887689 0.005246678
000160 ba 2e d2 3c d6 13 67 3c f4 28 40 bc 8f d3 6c bc
       0.025657047 0.01410385 -0.011728514 -0.014454736
000170 21 db ba bb d6 4a 89 3c b0 ab 27 3d c8 bd 37 3d
       -0.0057023917 0.016759317 0.04093522 0.044858724
000180 9a 03 2f 3d 37 09 29 bc 1e f0 04 bd 74 57 0b bc
       0.042728044 -0.010317138 -0.032455556 -0.008504737
000190 d8 d2 60 3b aa 39 08 bb 96 9c 2b 3d 5a 2f 5f 3b
       0.003430536 -0.0020786324 0.04189738 0.0034055323
0001a0 18 81 a4 bc c3 69 02 3d da 7b f0 3c 7e 78 9f bc
       -0.020081088 0.031839143 0.029355932 -0.019466635
0001b0 b0 33 7b bc 31 b0 f0 bc ce 55 94 bb d8 ca 04 bd
       -0.0153321475 -0.02938089 -0.0045268303 -0.03242001
0001c0 b6 f5 4b 3c 94 c3 eb bb ba 56 c8 3c b3 a0 41 3c
       0.012448719 -0.0071949456 0.024455417 0.011818099
0001d0 19 b2 a3 3c cd 0f 8c bc 91 ac 9a 3c 0e d1 b8 bc
       0.019982385 -0.017097378 0.018881114 -0.022560623
0001e0 41 c6 86 bc 35 e9 a1 bc 48 53 98 3c 04 b9 bc 3c
       -0.016451957 -0.019764522 0.0185944 0.023037441
0001f0 c2 93 ac bb a4 76 19 3c 0f c1 4c bc 1b 6d 71 bb
       -0.0052666375 0.009366665 -0.012497201 -0.0036838714
000200 d0 b4 89 bd d4 a9 30 3d 40 9a a8 3c ad 3e b0 bd
       -0.0672394 0.04313071 0.020581365 -0.086057045
000210 84 7c e5 b9 c3 88 64 3b 28 08 5b 3c 6e d9 99 bb
       -0.00043771055 0.0034871555 0.013368644 -0.004695109
000220 f7 08 2d bc 5b aa 8c bb 1f 14 42 bc d3 36 d7 3c
       -0.010561219 -0.004292769 -0.011845618 0.02627126
000230 f0 38 3c 3d bc b6 50 3c 6d f7 0f 3d da 24 61 bd
       0.045952737 0.01273888 0.035148073 -0.054966785
000240 79 c5 62 3b ce e1 65 3d 55 0f df 3c 1d 85 46 bc
       0.0034602566 0.056123547 0.02722899 -0.012116698
000250 d6 3e 63 bb 63 ef 35 3d 07 ed 78 bd 87 6a 21 bd
       -0.0034674904 0.04441775 -0.060772922 -0.039408233
000260 82 f1 14 bd 69 7b 54 3c 78 fd 78 3d 83 07 aa 3a
       -0.036363132 0.012968876 0.0607886 0.0012972209
000270 c5 9b 19 3d 70 0c b6 bc eb 98 01 bd d5 a1 61 bd
       0.03750207 -0.022222728 -0.031639975 -0.055085976
000280 79 fa 76 3c bd 48 6b 3d 31 10 c6 3d fe a1 d6 bc
       0.015074366 0.057442416 0.09671057 -0.02620029
000290 95 98 fe bb ca 93 5d 3c de 47 93 bc 45 be cc 3b
       -0.007769654 0.013524005 -0.017978605 0.006248268
0002a0 a7 cc 42 3c 61 73 4a bd 65 01 80 bd 75 31 49 bc
       0.011889613 -0.04942644 -0.06250266 -0.012279858
0002b0 ff 4c 2d bb 6c f2 ac 3b 6d bb 73 3c 85 87 9a 3b
       -0.0026443598 0.0052779224 0.014876229 0.004715862
0002c0 fc 9f 27 bd 5c 64 c9 bc 2b ca a5 bc 0f 16 2a 3c
       -0.040924057 -0.024583988 -0.020238003 0.010381236
0002d0 e1 3c 2a bd 3c f7 aa 3c 22 09 94 bc 7a a4 1a 3d
       -0.041561965 0.020869844 -0.018070761 0.037754513
0002e0 5e 1b 20 3d 1f ff 04 3d 55 3a ff bc eb 59 9e bd
       0.0390886 0.032469865 -0.031155745 -0.07731994
0002f0 a0 2a d2 bb 20 eb 08 3d a5 ff e1 bc 4c f5 60 3d
       -0.0064137727 0.033427358 -0.027587721 0.054921433
000300 0a c7 ad 3d 12 0a 52 bc 46 e8 10 3d 68 2f fe bd
       0.08485229 -0.012819784 0.035377763 -0.12411386
000310 49 ea 2a bc 1f 69 0b bc 13 9c c0 ba 31 1b 89 3c
       -0.0104318345 -0.00850895 -0.0014694951 0.016736599
000320 35 00 05 bb b7 b1 86 bd 53 56 d4 3c 46 f1 38 bd
       -0.0020294313 -0.06576865 0.025920069 -0.04515197
000330 46 2e 64 bc d7 ab a7 bc 34 2b 82 bd 99 fb 69 3c
       -0.013927048 -0.020467682 -0.063558966 0.014281177
000340 73 0c 91 3b 13 2d 7c bd e1 ae 62 bc b3 04 56 3d
       0.004426533 -0.061566424 -0.01383564 0.052250575
000350 5a 1b 54 bc bb e0 71 3d f7 47 05 bd 3e 05 e0 bc
       -0.012945974 0.05905221 -0.032539334 -0.02734625
000360 7f 8e ec 3d 4b 17 56 bc 09 0d 0c bd a9 64 71 3c
       0.115506165 -0.013067077 -0.03419212 0.014733472
000370 2f 48 0c 3b 0f 8b e1 3c 3d 49 40 bc 9c 96 01 be
       0.002140533 0.027532129 -0.011736211 -0.12655109
000380 1a 76 83 bc 8d 39 8d bc 69 9c f8 3a ae 3a 5e bb
       -0.016047526 -0.017239356 0.0018967512 -0.0033909488
000390 f9 c4 d7 bc ca 78 84 bc 25 f0 28 bd 1b 47 e1 3c
       -0.026339041 -0.016170878 -0.041244645 0.027499726
0003a0 2f f0 2d 3c 89 7b bd bd f9 39 57 bb db f0 85 3d
       0.010616346 -0.09252078 -0.003284095 0.0654008
0003b0 13 43 93 3b db 46 8a bd 1f 3d 5d bd 0f db f7 3d
       0.00449408 -0.06751796 -0.054013368 0.12102329
0003c0 af 61 c1 bb ab 8d 8b 3c 54 84 27 3b 27 93 8f 3b
       -0.0059015374 0.017035326 0.0025561051 0.0043815556
0003d0 a6 e6 3f 3d 7b 67 61 bc 4d 7f 83 bd 55 c8 1d bb
       0.046850823 -0.013757582 -0.06420765 -0.0024075706
0003e0 72 62 a3 bc 1f 64 4c bd 00 f6 91 bb 7a aa 2d bd
       -0.019944403 -0.04990017 -0.0044543743 -0.042398907
0003f0 88 ec 72 bd 87 0c bb bc f4 bb c1 3c 04 79 6a 3d
       -0.059307605 -0.022833122 0.023649193 0.057244316

_model.2._model.0.bias f4 [51]
000000 1b 63 af 3c d4 e9 c9 3c a7 b6 ed 3c 2f fe e8 bc
       0.021409562 0.02464763 0.02901776 -0.028441517
000010 e9 78 03 3b 09 43 19 3c 20 85 08 3d 92 21 26 3c
       0.0020061082 0.009354361 0.033330083 0.01013984
000020 17 a5 8e 3a ee b6 d9 bc 69 1d 2c 3d 3e 15 25 bd
       0.0010882941 -0.026576485 0.042020235 -0.04030346
000030 17 e4 24 bc 92 b2 4c bc 14 3d b1 bc d3 50 93 3d
       -0.0100641465 -0.012493746 -0.02163557 0.0719315
000040 29 35 be 3c 53 7a c2 3c ef 30 04 bc ab bc a2 bb
       0.023218708 0.02373997 -0.008068307 -0.0049663386
000050 92 21 06 bc d1 05 9f 3c cf 40 ec 3c 98 15 32 bc
       -0.008186715 0.019411953 0.028839497 -0.010869406
000060 d7 5d e8 ba 7b 24 e4 bb a2 7f ef 3b 78 a3 3e 3c
       -0.0017728162 -0.0069623566 0.007308916 0.011635654
000070 19 60 08 3d 53 a3 a7 bc a4 44 c8 bc d5 57 00 3d
       0.03329477 -0.020463621 -0.024446793 0.031333763
000080 4c a6 14 bd 97 7d 27 bb 36 46 52 3d 33 a0 36 3c
       -0.036291406 -0.0025557035 0.05133649 0.011146593
000090 98 0e 89 3c 70 f0 de 3c ce 4e 9d bc 56 c0 a1 3c
       0.016730592 0.027214259 -0.019202616 0.019745033
0000a0 6e 3a 3b 3c 63 61 76 3c 60 2e 53 bc c3 ad 3b bd
       0.011427505 0.015037867 -0.012889475 -0.04582001
0000b0 65 29 17 3c 97 1a 23 bb 0d b6 f2 bb 7d 79 60 bb
       0.009226178 -0.0024887675 -0.007406956 -0.00342521
0000c0 2e 6f 17 3a 18 c2 a3 bb 34 56 62 bb
       0.000577676 -0.004997503 -0.0034536244
