data/etc/pretrained_model/boxing/policy_weights_boxing_expert3_1800.pt (torch_old, 99870 bytes, 6 tensors)

_model.0._model.0.weight f4 [64, 267]
0.11455865 -0.0121084 -0.09831631 0.13261405 0.32145572 0.22229967 0.010453164 -0.13419077
0.0049760556 0.038544063 0.031352907 -0.09065777 0.033027504 -0.052738704 -0.076503746 -0.04287843
0.014806971 -0.064089276 0.119681776 0.042856455 -0.01773938 -0.16260453 -0.05015672 0.01588521
-0.07300702 -0.017332407 0.00021765297 -0.04505452 0.06621799 0.06802312 0.23147184 0.002642915
-0.0316194 -0.011142277 -0.093282215 -0.003948841 0.015728453 -0.08731052 -0.11046052 0.07224358
-0.23741257 -0.010342117 0.27104145 0.2299891 -0.0154059995 0.01977612 0.006266263 -0.15439954
0.10166102 -0.16350734 0.055621617 -0.149568 -0.019204194 0.0561073 -0.16320474 0.14502682
0.006556072 0.04049965 0.009599557 -0.047512736 0.026029842 0.022272922 0.026049243 -0.016657783
-0.045479845 0.094839364 -0.05630613 -0.2172372 0.17127262 0.22929141 0.09964846 -0.026406128
0.0031345233 -0.0450392 -0.12185935 0.09164493 0.024134481 0.06150069 0.06330701 -0.08545854
-0.25941092 0.19642061 0.23876487 0.15600385 -0.02604557 0.10491885 0.02739056 -0.11640397
-0.03892797 0.068298034 0.007495378 -0.29518518 -0.040231064 0.06752661 0.036442608 0.17822428
0.15301529 -0.038689416 -0.17440806 0.07962236 -0.056483455 0.045651235 0.043951277 0.042108156
-0.07051616 -0.056277167 -0.016088512 0.012868436 -0.033516325 0.10757744 0.09746742 -0.045578424
0.01592354 -0.004872621 0.06816952 -0.04290625 -0.07853471 -0.23678891 0.067490876 0.20934375
0.07319696 -0.14602429 0.07002618 -0.12194146 -0.13646159 0.065233506 0.06640946 0.057728253
-0.07258619 -0.03274705 -0.13306749 0.0072078104 -0.016531222 0.04014885 0.054782048 0.09008202
0.03486441 -0.07000099 0.027493717 0.07933338 -0.07513412 -0.0409595 0.0156042585 -0.10614613
0.078247994 -0.009603246 0.09032373 -0.054344323 0.12581354 0.05904307 -0.14325313 0.052861158
0.12251256 0.053171407 0.1359314 -0.07458345 -0.008018008 0.018615177 0.079591766 0.12010243
-0.14581974 -0.052789114 -0.016423661 -0.13022691 0.030140208 -0.014672355 0.0035173635 -0.021967042
-0.042861927 -0.17279102 0.057154216 0.042458877 0.06472746 -0.030845106 -0.06906038 0.10062542
-0.081568174 0.00011763519 0.08512247 -0.09128742 -0.03818049 0.035902888 -0.018287407 -0.0172451
0.01377562 0.08384986 -0.045941234 0.019976737 -0.040189277 -0.03337829 -0.05910442 0.17615455
-0.07300541 -0.0060432167 -0.04753077 0.025354015 -0.046409413 0.090564415 -0.0895319 -0.007531376
0.06502974 -0.021608738 -0.0647071 -0.06825077 0.02001947 0.0019540563 -0.02692003 0.032093816
0.048310645 0.012067875 0.083799444 -0.07127017 -0.021506265 0.091428325 -0.039001722 0.004354284
0.013027371 0.00886827 0.017929932 -0.07344482 -0.05699263 -0.035116732 -0.093093276 0.014369812
0.06824969 0.057872586 0.07311597 -0.01894195 0.0052854824 -0.103049055 -0.038765255 0.10531911
-0.0026236558 0.023001723 0.038111664 0.056362037 0.1268178 -0.03525243 -0.019886201 0.1415994
-0.031228056 -0.100543715 0.0069207526 0.032074805 -0.06000328 0.04797072 -0.008288193 -0.07789231
-0.026281781 0.08920962 -0.017291222 0.034275558 0.1532027 -0.028191704 0.0482064 -0.03373222
00000000: ba9d ea3d 5062 46bc 105a c9bd facb 073e
00000010: d895 a43e 86a2 633e bf43 2b3c 4e69 09be
00000020: 2e0e a33b 61e0 1d3d e86b 003d c8aa b9bd
00000030: d947 073d 8a04 58bd ffad 9cbd 4ba1 2fbd
00000040: f098 723c 3d41 83bd b81b f53d 408a 2f3d
00000050: 2d52 91bc cd81 26be 2271 4dbd b321 823c
00000060: b484 95bd b1fc 8dbc c639 6439 178b 38bd
00000070: 4c9d 873d b54f 8b3d f406 6d3e c134 2d3b
00000080: 5883 01bd 198e 36bc bf0a bfbd 4765 81bb
00000090: f5d8 803c dccf b2bd 2039 e2bd 71f4 933d
000000a0: 481c 73be fc71 29bc f2c5 8a3e 4382 6b3e
000000b0: 7269 7cbc 8801 a23c 3955 cd3b ea1a 1ebe
000000c0: a733 d03d 786e 27be 7ed3 633d 5b28 19be
000000d0: 1d52 9dbc c5d0 653d 251f 27be e981 143e
000000e0: 51d4 d63b f6e2 253d 7647 1d3c b79c 42bd
000000f0: 893c d53c b475 b63c 3965 d53c e775 88bc
00000100: 1349 3abd 243b c23d 42a1 66bd 6e73 5ebe
00000110: 1762 2f3e 5ecb 6a3e 7e14 cc3d aa51 d8bc
00000120: 936c 4d3b 067b 38bd 6591 f9bd 56b0 bb3d
00000130: adb5 c53c 26e8 7b3d 1ba7 813d e304 afbd
00000140: 82d1 84be 7c22 493e c77e 743e 79bf 1f3e
00000150: 855d d5bc b2df d63d 2b62 e03c 3465 eebd
00000160: ef72 1fbd d7df 8b3d ca9b f53b 8322 97be
00000170: 54c9 24bd 644b 8a3d d844 153d 6d80 363e
00000180: 0ab0 1c3e cb78 1ebd 0798 32be 0c11 a33d
00000190: 325b 67bd cafc 3a3d 4106 343d 9a79 2c3d
000001a0: c76a 90bd e382 66bd 0ecc 83bc 22d6 523c
000001b0: 6a48 09bd 9051 dc3d 009d c73d 71b0 3abd
000001c0: 1572 823c 82aa 9fbb 769c 8b3d 77be 2fbd
000001d0: ced6 a0bd cb78 72be a838 8a3d 355e 563e
000001e0: 4ae8 953d 6487 15be e369 8f3d 72bc f9bd
000001f0: 96bc 0bbe 2599 853d af01 883d 7674 6c3d
00000200: 12a8 94bd c521 06bd d842 08be 7f2f ec3b
00000210: 7c6c 87bc 1f73 243d 2463 603d ec7c b83d
00000220: fccd 0e3d ae5c 8fbd 813a e13c 8a79 a23d
00000230: ebdf 99bd 26c5 27bd 01a9 7f3c 2463 d9bd
00000240: 7c40 a03d ef56 1dbc a6fb b83d 2798 5ebd
00000250: 44d5 003e 25d7 713d f3b0 12be f184 583d
00000260: dde7 fa3d 43ca 593d 9a31 0b3e 35bf 98bd
00000270: f75d 03bc db7e 983c 0201 a33d 43f8 f53d
00000280: c551 15be 6639 58bd ea8a 86bc 345a 05be
00000290: 99e8 f63c 5164 70bc 9183 663b 3af4 b3bc
000002a0: fd8f 2fbd 21f0 30be 8a1a 6a3d 5ce9 2d3d
000002b0: d58f 843d e0ae fcbc 876f 8dbd b314 ce3d
000002c0: 370d a7bd e9b2 f638 b154 ae3d e6f4 babd
000002d0: 2563 1cbd e80e 133d 79cf 95bc 9945 8dbc
000002e0: 23b3 613c 7ab9 ab3d e02c 3cbd 41a6 a33c
000002f0: 839d 24bd acb7 08bd 7a17 72bd dc61 343e
00000300: dc83 95bd 2d06 c6bb a0af 42bd 39b3 cf3c
00000310: cc17 3ebd d679 b93d 805c b7bd c3c9 f6bb
00000320: 502e 853d cf04 b1bc 2885 84bd 0fc7 8bbd
00000330: dfff a33c a00f 003b 6587 dcbc ce74 033d
00000340: 62e1 453d 56b8 453c 0b9f ab3d 18f6 91bd
00000350: e82d b0bc c63e bb3d 45c0 1fbd 62ae 8e3b
00000360: c170 553c 384c 113c cbe1 923c 3d6a 96bd
00000370: 1b71 69bd 90d6 0fbd b0a7 bebd 5c6f 6b3c
00000380: 7ec6 8b3d ce0b 6d3d d3bd 953d 262c 9bbc
00000390: d731 ad3b 620b d3bd 51c8 1ebd 8cb1 d73d
000003a0: a4f1 2bbb 1c6e bc3c fa1a 1c3d e1db 663d
000003b0: 86dc 013e da64 10bd 63e8 a2bc 6fff 103e
000003c0: fbd1 ffbc dde9 cdbd 7bc7 e23b df60 033d
000003d0: 00c6 75bd f27c 443d 33cb 07bc 0186 9fbd
000003e0: e44c d7bc 89b3 b63d 52a6 8dbc 8764 0c3d
000003f0: 2be1 1c3e 4af2 e6bc 1374 453d cc2a 0abd

_model.0._model.0.bias f4 [64]
0.010674379 0.0012521063 0.0040324987 0.016345637 0.022057848 -0.007841206 0.03276012 -0.005952423
-0.0035555249 0.03984581 0.0372345 0.02485738 0.011192054 0.008276611 0.0052737454 0.00093112915
0.0012057554 0.010199468 0.011701637 0.0057576117 -0.006255697 -0.002282813 -0.001347384 0.006966277
0.016190251 0.019010024 0.02785043 0.018283688 0.013520869 -0.0067327823 0.016090982 0.020997938
0.021624228 0.001856466 0.010510965 0.0067840945 0.0408137 -0.0038446675 0.0075773313 0.0023716802
-0.00068611867 -0.013973881 0.010292982 0.017948098 -0.0026641458 0.0034244559 0.017767433 0.0056150276
0.006866043 0.000958438 0.022847546 0.007118307 0.005542572 0.0018694713 0.0021893168 0.0103137
0.0064558946 0.028539121 -0.0027409222 -0.0018725073 0.0025095735 0.0063181184 0.008465103 0.016804688
00000000: 97e3 2e3c b71d a43a 0d23 843b 49e7 853c
00000010: a9b2 b43c 6778 00bc 7a2f 063d 8b0c c3bb
00000020: cf03 69bb 5c35 233d 3483 183d b4a1 cb3c
00000030: e05e 373c 9f9a 073c 62cf ac3b 0517 743a
00000040: 700a 9e3a ab1b 273c 39b8 3f3c 59aa bc3b
00000050: 97fc ccbb 3f9b 15bb b49a b0ba 5e45 e43b
00000060: 6ba1 843c e9ba 9b3c 9626 e43c acc7 953c
00000070: a386 5d3c ac9e dcbb 3cd1 833c de03 ac3c
00000080: 4b25 b13c aa54 f33a 2f36 2c3c 1c4d de3b
00000090: 442c 273d d1f6 7bbb 434b f83b 316e 1b3b
000000a0: a5dc 33ba b4f2 64bc e5a3 283c e407 933c
000000b0: f398 2ebb d66c 603b 028d 913c 44fe b73b
000000c0: 8bfc e03b af3f 7b3a c72a bb3c b040 e93b
000000d0: 779e b53b 0c09 f53a a47a 0f3b cbfa 283c
000000e0: f88b d33b e0ca e93c 0ba1 33bb eb6e f5ba
000000f0: a877 243b 3808 cf3b 37b1 0a3c fca9 893c

_model.1._model.0.weight f4 [64, 64]
-0.10934014 0.069645405 -0.115122914 0.26324403 -0.023047505 0.01048798 0.078902 0.102186605
0.19293346 0.1646295 -0.00863403 -0.07800638 -0.07690409 -0.26915893 -0.18671918 -0.05146897
-0.21422964 0.04151061 -0.15737367 -0.41536987 0.12282273 -0.026024122 -0.05246576 -0.10842151
0.12180057 0.099848114 0.051853396 0.27282217 0.13401565 -0.018116202 -0.07291078 0.13261405
0.12513658 0.050958935 -0.19225956 0.0107205035 0.19294925 0.066583484 -0.05897963 0.029956687
-0.05580761 0.18432811 0.31197503 -0.038258232 0.01281877 -0.19177622 0.035639573 0.043292936
0.037385028 0.0043661525 -0.11394404 -0.12954348 0.004459897 -0.039194595 0.050953537 -0.013409445
0.11576921 -0.2236686 -0.08900767 0.12259968 -0.052420143 -0.17443764 -0.0739377 -0.13399233
0.15090378 0.19189993 -0.34399292 0.23812073 0.1307365 -0.015242547 -0.03202527 0.055814784
0.16680714 0.01406975 -0.15440193 0.1334469 -0.25590128 -0.12008251 -0.045547754 -0.21008171
-0.17005847 0.015877863 0.21623975 -0.20487738 -0.0379028 -0.29747912 0.16894722 -0.08183646
-0.02517432 0.0021358097 0.21527563 0.034729186 -0.09666962 0.06667179 0.1320025 -0.055128887
0.17843908 -0.043027706 0.044839107 -0.23186246 0.004227484 -0.108554855 -0.007064495 -0.06619669
-0.1062887 -0.06522034 -0.09772091 0.042889435 -0.24119788 -0.07355231 -0.21262743 -0.15819803
-0.16919923 0.014177258 0.13419385 0.12677528 0.11115187 -0.05431049 0.113929614 -0.030262724
0.079879135 0.04220204 0.18971054 0.12208531 -0.124356255 0.05042549 -0.14683765 -0.094822034
-0.08141236 -0.10663175 -0.21859775 0.07772477 -0.11934873 0.029511984 0.22523598 -0.07507812
0.06592671 -0.281254 -0.18476214 -0.1062126 -0.120451026 -0.056216363 0.27678585 0.048419483
0.051426265 0.21654281 -0.095447116 -0.049215805 0.26813018 0.03700079 -0.13029182 0.09448705
0.17400923 0.040998273 -0.079076216 -0.13609199 0.011479762 0.023897016 0.14562047 0.11640879
-0.29450423 -0.18827808 0.056232426 -0.04948635 0.08896849 -0.04087148 -0.051320218 -0.025841387
0.040353574 0.022792157 0.057238918 -1.5403723e-05 0.034795318 -0.28989047 -0.02968264 -0.098111495
-0.20478556 0.17456661 0.00062923884 0.08475495 -0.12433196 0.180503 0.051698443 0.07942345
-0.1437765 -0.2332153 0.00014296902 0.14614642 0.049613506 -0.017224794 0.31733257 -0.19645324
-0.031188695 0.17677727 0.056914616 -0.0033850137 0.08246594 0.029719234 0.21082158 0.033642787
0.1920866 0.03759205 0.07973146 0.15562439 -0.21975178 -0.2858138 -0.050382793 -0.017377697
0.08382686 0.20039955 -0.12387075 0.0106467465 0.17379385 0.0141090825 0.07634515 -0.20947525
-0.016486095 0.03225662 -0.046682063 0.03360406 0.122928575 0.3504428 -0.21992125 -0.051610883
-0.18070538 -0.038980983 0.13894309 -0.0014974001 -0.16067597 -0.124711365 -0.019695567 0.012010759
0.067183204 0.25650534 -0.045474984 0.09158693 -0.14425975 -0.015961718 -0.09424321 -0.036168315
0.06798768 0.1198341 0.041450717 0.06447636 0.008174265 -0.020632612 -0.054234218 -0.06974446
-0.09536025 0.024078166 0.21072324 0.021522354 -0.3358092 -0.06142577 0.024569506 -0.23337679
00000000: b9ed dfbd 40a2 8e3d 90c5 ebbd ecc7 863e
00000010: 1fce bcbc c7d5 2b3c 5f97 a13d 3647 d13d
00000020: 5990 453e a394 283e bf75 0dbc cfc1 9fbd
00000030: e47f 9dbd 33cf 89be 5033 3fbe 20d1 52bd
00000040: 045f 5bbe 0807 2a3d 9026 21be 5cab d4be
00000050: 7c8a fb3d 8a30 d5bc 56e6 56bd 190c debd
00000060: 9472 f93d 2b7d cc3d 3a64 543d 59af 8b3e
00000070: 663b 093e 6e68 94bc 3f52 95bd facb 073e
00000080: ce23 003e 51ba 503d b1df 44be 0da5 2f3c
00000090: 7d94 453e ec5c 883d a094 71bd ba67 f53c
000000a0: 8596 64bd 82c0 3c3e 31bb 9f3e aab4 1cbd
000000b0: d105 523c fc60 44be cdfa 113d ef53 313d
000000c0: 0b21 193d f111 8f3b 7e5b e9bd 0ca7 04be
000000d0: 5424 923b 838a 20bd a8b4 503d 4ab3 5bbc
000000e0: 6818 ed3d 6209 65be a749 b6bd 8b15 fb3d
000000f0: 81b6 56bd c89f 32be a66c 97bd 4935 09be
00000100: 8586 1a3e 6a81 443e d71f b0be ecd5 733e
00000110: cadf 053e e0bb 79bc ee2c 03bd 0b9e 643d
00000120: 7ecf 2a3e cf84 663c 8a1b 1ebe 4ea6 083e
00000130: 7e05 83be d2ed f5bd 4890 3abd a91f 57be
00000140: cf23 2ebe 4b12 823c f46d 5d3e 60cb 51be
00000150: f73f 1bbd 2f4f 98be 8000 2d3e e099 a7bd
00000160: 603a cebc f1f8 0b3b 3771 5c3e 3140 0e3d
00000170: b9fa c5bd 388b 883d aa2b 073e d4ce 61bd
00000180: bcb8 363e d23d 30bd 36a9 373d 5a6d 6dbe
00000190: b586 8a3b 0252 debd 477d e7bb 2192 87bd
000001a0: e4ad d9bd 3e92 85bd e721 c8bd d5ac 2f3d
000001b0: 94fc 76be 98a2 96bd 01bb 59be aafe 21be
000001c0: 9042 2dbe bb47 683c 1d6a 093e 61d1 013e
000001d0: 97a3 e33d ad74 5ebd ee53 e93d 88e9 f7bc
000001e0: ac97 a33d 0cdc 2c3d 7b43 423e dd07 fa3d
000001f0: 7eae febd f58a 4e3d 9c5c 16be 0e32 c2bd
00000200: 86bb a6bd bf61 dabd 17d8 5fbe 2a2e 9f3d
00000210: 1b6d f4bd 1ec3 f13c 43a4 663e 8fc2 99bd
00000220: 9504 873d 8600 90be 4932 3dbe fe85 d9bd
00000230: 07af f6bd 2143 66bd e0b6 8d3e 8253 463d
00000240: 59a4 523d 66bd 5d3e c779 c3bd 8396 49bd
00000250: 5c48 893e 248e 173d 386b 05be 6d82 c13d
00000260: 7a2f 323e ceed 273d b6f2 a1bd b35b 0bbe
00000270: 9d15 3c3c adc3 c33c 881d 153e bb67 ee3d
00000280: 42c9 96be f8cb 40be f953 663d 33b2 4abd
00000290: 1d35 b63d da68 27bd 2635 52bd 51b1 d3bc
000002a0: ca49 253d 9eb6 ba3c 5b73 6a3d 3e37 81b7
000002b0: 8985 0e3d 866c 94be 0229 f3bc aeee c8bd
000002c0: 4eb3 51be 97c1 323e 81f3 243a 0194 ad3d
000002d0: c1a1 febd c7d5 383e bfc1 533d c3a8 a23d
000002e0: 263a 13be fecf 6ebe f4e9 1539 68a7 153e
000002f0: 8837 4b3d 031b 8dbc 6a79 a23e 0a2b 49be
00000300: 6f7f ffbc 1a05 353e 4d1f 693d 1bd7 5dbb
00000310: e7e3 a83d c075 f33c 9de1 573e 05cd 093d
00000320: 5ab2 443e 1ffa 193d 3f4a a33d 005c 1f3e
00000330: 9c06 61be 3056 92be 305e 4ebd ac5b 8ebc
00000340: 6bad ab3d 8a35 4d3e f3af fdbd b16f 2e3c
00000350: 04f7 313e c829 673c d95a 9c3d ae80 56be
00000360: d90d 87bc 841f 043d b135 3fbd 69a4 093d
00000370: fac1 fb3d 3d6d b33e 0933 61be ef65 53bd
00000380: d50a 39be 86aa 1fbd 1947 0e3e 6944 c4ba
00000390: 3e88 24be ac68 ffbd 9958 a1bc c6c8 443c
000003a0: 5997 893d ab54 833e fa43 3abd ee91 bb3d
000003b0: d4b8 13be 26c2 82bc 9602 c1bd 3a25 14bd
000003c0: 203d 8b3d 956b f53d 3ac8 293d 2f0c 843d
000003d0: 5aed 053c b905 a9bc b324 5ebd 2fd6 8ebd
000003e0: 3c4c c3bd 933f c53c d5c7 573e a64f b03c
000003f0: 2fef abbe 9799 7bbd fd45 c93c 53fa 6ebe

_model.1._model.0.bias f4 [64]
0.009677867 0.011578337 -0.03639249 0.001378108 -0.013555017 -0.026126273 -0.045282096 0.0038878003
-0.009816284 0.02342987 -0.016942894 -0.026738975 0.010283198 0.03390104 -0.009526308 0.02917732
0.026587263 -0.003166905 -0.015961254 0.034036443 0.016405756 0.050626144 0.0168951 0.013111528
0.028157016 0.030679759 0.02624874 0.019049177 -0.025737537 0.0047841584 -0.026304109 -0.006154071
0.0059834053 -0.0017635806 -0.03391984 0.007303623 -0.027402528 0.012667062 0.05009221 -0.018311586
-0.010067001 0.004823586 -0.03456474 0.04393273 0.011347837 0.01484786 0.029680965 -0.014495609
0.02848836 0.049761213 0.030532425 0.047875136 -0.040968385 -0.0137913795 -0.04519951 -0.004236493
-0.015575123 0.033077605 0.0024121995 -0.00029328422 0.004506588 -0.024135051 -0.038055614 0.0039322833
00000000: eb8f 1e3c 11b3 3d3c 4b10 15bd a2a1 b43a
00000010: dd15 5ebc c406 d6bc b879 39bd 77ca 7e3b
00000020: 7bd4 20bc 00f0 bf3c d3cb 8abc b20b dbbc
00000030: dc7a 283c d1db 0a3d 3b14 1cbc 4605 ef3c
00000040: 88cd d93c d98b 4fbb 2dc1 82bc cc69 0b3d
00000050: 5d65 863c 5c5d 4f3d 9867 8a3c bcd1 563c
00000060: 8ba9 e63c 1e54 fb3c 9907 d73c 050d 9c3c
00000070: 87d7 d2bc 6ec4 9c3b b77b d7bc 17a8 c9bb
00000080: 7110 c43b f227 e7ba 88ef 0abd 3b53 ef3b
00000090: 447b e0bc 8289 4f3c 7d2d 4d3d 2e02 96bc
000000a0: 10f0 24bc 2c0f 9e3b c293 0dbd cef2 333d
000000b0: 47ec 393c 7044 733c 7f25 f33c fe7e 6dbc
000000c0: 6c60 e93c 6ad2 4b3d 231f fa3c b818 443d
000000d0: 77ce 27bd 3df5 61bc 1f23 39bd 47d2 8abb
000000e0: cd2e 7fbc 627c 073d fe15 1e3b f1c3 99b9
000000f0: 00ac 933b dfb6 c5bc 34e0 1bbd 62da 803b

_model.2._model.0.weight f4 [51, 64]
0.020141993 0.004678564 0.045369785 0.026009563 -0.029551612 -0.048599295 0.04524756 0.018253224
-0.0570694 -0.08330496 -0.0062000332 -0.04552042 0.014964204 0.022813339 0.036918018 0.045163512
-0.013472986 -0.04989044 0.059573215 0.222996 -0.012603994 -0.058453083 0.016448569 0.03935745
0.013675358 0.02169337 0.009356194 -0.07401136 0.009036436 -0.013953833 0.014851961 0.0025855072
-0.015957657 0.0273883 -0.038362585 0.08050764 0.002118891 0.031798787 -0.08151863 0.11277903
-0.20451592 0.07801307 0.0254742 -0.03719624 -0.046718247 0.016655065 -0.029078458 0.08754664
-0.071783416 0.071963884 0.034329195 -0.06272595 0.03129653 -0.009345272 -0.019141262 0.01766982
-0.010934888 -0.06442158 0.0015869759 -0.04065523 -0.013738317 0.03293487 0.08123963 0.047760975
0.052267622 -0.0051803933 0.036435116 0.023897942 0.012400129 -0.034402262 0.036167435 0.022651974
-0.0316336 -0.011081168 0.013874749 0.016631307 -0.0009244407 0.013445941 0.017720615 0.009569053
-0.03717959 -0.04581934 -0.01055894 0.047009777 -0.016585773 -0.024247358 0.013285943 0.037596505
0.0015072902 -0.025174143 -0.058380008 -0.004099849 0.01862522 0.00480961 -0.01744813 -0.0043273806
0.009079431 -0.0016324844 -0.023262277 0.037866153 -0.019352285 -0.0364871 0.035856415 0.033947486
0.061116025 -0.0013748751 0.024814392 0.047518153 -0.021700349 0.04773048 -0.04431768 0.038267028
0.008653391 -0.007507907 -0.07896868 -0.027220022 0.010602503 0.018604146 -0.007967134 0.04795652
-0.006467112 0.050282195 0.02831527 0.031894572 0.0115515925 0.019892272 0.00915442 0.02518154
-0.032038495 -0.0093171755 -0.028560903 -0.007248005 -0.06189983 0.047688812 0.009165089 -0.0027609381
0.0010137428 -0.010863826 0.02738466 -0.0058846385 0.012374077 0.039974183 0.0076939007 0.0181183
0.05165777 0.0544668 0.0028238858 0.021216976 0.055572297 0.013609582 -0.004218103 -0.020409409
-0.020869875 -0.0052235187 0.017104939 0.037740584 -0.0028852092 0.015409013 0.0060433676 -0.025172342
-0.010295428 0.021203669 0.0025818353 -0.0049075023 0.037780963 0.010750672 0.026903288 0.036402185
-0.01762549 0.0055946345 -0.017317858 0.001599065 0.033046823 0.0050142114 0.02931042 0.026249688
-0.06528707 0.025516054 0.02959893 0.0533413 -0.044107627 -0.0029170155 -0.008748371 -0.019164791
0.025448475 -0.051823437 -0.0056873066 -0.020421157 0.025200097 0.009292128 -0.024054164 -0.07112961
-0.03777556 -0.024014171 0.032153275 -0.053387295 -0.013709251 0.044520196 -0.027931936 -0.014526421
0.014479487 0.07907011 -0.04723673 -0.06101498 0.011368854 0.06772058 -0.03286144 -0.0048042894
-0.04019214 0.0013511922 -0.036876258 -0.015989767 -0.010061694 0.0073763356 0.07046915 0.04568682
-0.023193665 0.0034075647 -0.045621466 -0.05340306 -0.04619485 -0.012807254 -0.046191685 0.039769907
-0.09183915 0.026858488 0.08190328 -0.039634537 -0.0003560671 0.105281964 0.0445551 0.040976476
-0.11160005 0.007770515 0.05677889 -0.16841674 -0.07156778 -0.016492851 0.071847335 0.017260259
-0.039039828 0.033288307 0.10942219 0.117879055 0.029292433 -0.048710372 0.056192365 -0.06873649
-0.036725014 -0.06031741 0.0052505755 -0.023028614 -0.034177598 -0.03366764 0.0014514913 -0.0033771347
00000000: d200 a53c a44e 993b abd5 393d 0212 d53c
00000010: 3916 f2bc 0e10 47bd 8155 393d c987 953c
00000020: 9ac1 69bd ca9b aabd a629 cbbb 9f73 3abd
00000030: 6c2c 753c 0ae3 ba3c 5937 173d 60fd 383d
00000040: cdbd 5cbc eb59 4cbd 0b03 743d 1059 643e
00000050: fc80 4ebc 806c 6fbd 26bf 863c 4735 213d
00000060: 9c0e 603c 4bb6 b13c b94a 193c 4593 97bd
00000070: 8f0d 143c 9e9e 64bc a455 733c 9d71 293b
00000080: a2b9 82bc 6e5d e03c 1622 1dbd 31e1 a43d
00000090: 18dd 0a3b 723f 023d 3df3 a6bd b1f8 e63d
000000a0: 9f6c 51be 51c5 9f3d 45af d03c 165b 18bd
000000b0: a25b 3fbd 3470 883c f235 eebc a74b b33d
000000c0: 2f03 93bd cd61 933d c59c 0c3d 7676 80bd
000000d0: ca30 003d e91c 19bc 23ce 9cbc 4cc0 903c
000000e0: 3f28 33bc 76ef 83bd 1302 d03a 1986 26bd
000000f0: ae16 61bc b7e6 063d f760 a63d 03a1 433d
00000100: 9316 563d 4ac0 a9bb fd3c 153d 9ec5 c33c
00000110: e929 4b3c 63e9 0cbd 4e24 143d a290 b93c
00000120: 3c92 01bd ca8d 35bc ea52 633c 613e 883c
00000130: 2a56 72ba 5d4c 5c3c d32a 913c 84c7 1c3c
00000140: a049 18bd 0fad 3bbd 67ff 2cbc 538d 403d
00000150: e3de 87bc 65a2 c6bc 49ad 593c cbfe 193d
00000160: 4490 c53a 013a cebc e01f 6fbd 0758 86bb
00000170: eb93 983c ef99 9d3b 61ef 8ebc b3cc 8dbb
00000180: e5c1 143c 16f9 d5ba 8890 bebc 8a19 1b3d
00000190: af88 9ebc 7f73 15bd 2dde 123d 850c 0b3d
000001a0: cc54 7a3d 2735 b4ba 8d47 cb3c 65a2 423d
000001b0: eec4 b1bc 0981 433d 7586 35bd e3bd 1c3d
000001c0: f4c6 0d3c e404 f6bb 55ba a1bd 86fc debc
000001d0: 1fb6 2d3c b967 983c 9588 02bc 0e6e 443d
000001e0: 11ea d3bb b4f4 4d3d 6df5 e73c e2a3 023d
000001f0: e442 3d3c 1ef5 a23c 6cfc 153c 8449 ce3c
00000200: cc3a 03bd 11a7 18bc 8ef8 e9bc ac80 edbb
00000210: ad8a 7dbd 5855 433d 2b29 163c dbf0 34bb
00000220: 90df 843a 30fe 31bc cb55 e03c edd3 c0bb
00000230: a4bc 4a3c f8bb 233d 1e1d fc3b d46c 943c
00000240: 1997 533d 9418 5f3d f110 393b 39cf ad3c
00000250: c79f 633d b9fa 5e3c 0338 8abb a231 a7bc
00000260: 4df7 aabc 0d2a abbb a81f 8c3c df95 1a3d
00000270: c715 3dbb 1676 7c3c 7107 c63b 3a36 cebc
00000280: 28ae 28bc 51b3 ad3c 0234 293b 1dcf a0bb
00000290: 36c0 1a3d 9623 303c 4964 dc3c 751a 153d
000002a0: 5563 90bc 3253 b73b 2ede 8dbc b897 d13a
000002b0: 1b5c 073d 414e a43b 681c f03c 9609 d73c
000002c0: 3ab5 85bd 0b07 d13c 7579 f23c 687c 5a3d
000002d0: 33aa 34bd 662b 3fbb 5455 0fbc 7bff 9cbc
000002e0: 5279 d03c d044 54bd 965c babb 454a a7bc
000002f0: 6f70 ce3c 023e 183c 3d0d c5bc 67ac 91bd
00000300: 8cba 1abd 5eb9 c4bc 27b3 033d a3ac 5abd
00000310: c49c 60bc cf5a 363d 84d1 e4bc 3a00 6ebc
00000320: 5f3b 6d3c 83ef a13d 4d7b 41bd d8ea 79bd
00000330: 6e44 3a3c 16b1 8a3d b899 06bd 4d6d 9dbb
00000340: 83a0 24bd 7d1a b13a 8f0b 17bd f9fc 82bc
00000350: ced9 24bc 30b5 f13b 2152 903d 1a22 3b3d
00000360: a400 bebc 7351 5f3b 93dd 3abd 2bbd 5abd
00000370: d036 3dbd 84d5 51bc 7e33 3dbd c5e5 223d
00000380: 2a16 bcbd 5506 dc3c e8bc a73d d357 22bd
00000390: 84ae bab9 129e d73d 697f 363d f3d6 273d
000003a0: 918e e4bd ce9f fe3b fb90 683d 7075 2cbe
000003b0: 2192 92bd 041c 87bc b224 933d 6365 8d3c
000003c0: 3ae8 1fbd 5259 083d be18 e03d 936a f13d
000003d0: aff6 ef3c 8784 47bd f729 663d b8c5 8cbd
000003e0: f86c 16bd 630f 77bd 050d ac3b 81a6 bcbc
000003f0: cffd 0bbd 14e7 09bd f73f be3a eb52 5dbb

_model.2._model.0.bias f4 [51]
0.052766945 -0.012693091 0.050604332 -0.014346985 0.004023775 0.013975522 0.039160706 -0.013982316
0.0079689035 -0.02600364 -0.006271668 -0.0644121 -0.011154277 0.014765266 -0.0013835536 0.047245674
0.018883977 0.021472955 -0.0067159226 0.0069037313 0.019067992 -0.026172372 0.023646936 0.009454332
-0.010916639 -0.0023788537 0.017669762 -0.023235803 0.031782214 -0.009237311 -0.0031658215 0.045429524
-0.020830058 0.022040997 0.023249961 0.0135739045 0.0059892302 0.03478336 -0.023810958 0.00097536674
-0.0023162866 -0.019450337 -0.011103524 -0.04083839 0.005798713 0.002832105 -0.03795136 0.014737859
0.0052323537 0.004545857 0.013910474
00000000: 2722 583d aff6 4fbc 7d46 4f3d 9e0f 6bbc
00000010: dfd9 833b 96f9 643c fa66 203d 1516 65bc
00000020: 0190 023c 9605 d5bc 9082 cdbb 7eea 83bd
00000030: 6ec0 36bc 04ea 713c 5b58 b5ba ae84 413d
00000040: 92b2 9a3c 0de8 af3c 3e11 dcbb b238 e23b
00000050: 7a34 9c3c 7167 d6bc 38b7 c13c 58e6 1a3c
00000060: b4db 32bc 8be6 1bbb 2dc0 903c 0359 bebc
00000070: 112e 023d 1758 17bc ac79 4fbb 4f14 3a3d
00000080: cca3 aabc 528f b43c b476 be3c 1565 5e3c
00000090: 4e41 c43b ff78 0e3d 330f c3bc c1af 7f3a
000000a0: d7cc 17bb 5056 9fbc 8eeb 35bc 2846 27bd
000000b0: 2103 be3b d69a 393b e372 1bbd 1077 713c
000000c0: 2a74 ab3b 6af5 943b c2e8 633c
