data/etc/pretrained_model/boxing/policy_weights_boxing_expert9_1800.pt (torch_old, 99870 bytes, 6 tensors)

_model.0._model.0.weight f4 [64, 267]
000000 6f 91 81 3c 9e 3b 8c 3a 81 b0 0a 3d 88 53 8d bd
       0.015816418 0.001069892 0.033859733 -0.06900698
000010 4b 60 ac bd dc a9 c7 3d 13 73 e0 3d b0 e2 db bd
       -0.08416804 0.09749195 0.10959449 -0.107365966
000020 3e 37 c0 3d 55 40 ab bd d1 22 d8 bc 9c 83 3e 3e
       0.093855366 -0.0836188 -0.02638379 0.18604892
000030 43 1b 27 3e 7b b4 ad 3d 79 e8 7f bd 55 20 cc bb
       0.16318993 0.084816895 -0.062477563 -0.00622944
000040 5d 1e 88 3d a1 e5 09 be a5 c1 4a bd c2 0a 23 3b
       0.06646416 -0.13466503 -0.04950108 0.0024878238
000050 d4 97 08 be a1 1f 69 3e 81 cb 0e be 94 6b f2 3c
       -0.13339168 0.22765972 -0.13944818 0.029592313
000060 3f 14 cd 3c a3 9c ba 3b 5d 61 5e 3d b4 fe 0a bd
       0.025034068 0.005694942 0.05429207 -0.03393431
000070 de f1 18 bd 27 b7 36 bd 94 1d a8 bd 94 6e f4 3d
       -0.037340038 -0.04460826 -0.082087666 0.119351536
000080 a7 85 8d bc 59 a4 1f be 0c b2 9a 3c a6 dd 9d bd
       -0.017275644 -0.15590037 0.018883727 -0.07708292
000090 be a9 17 3e 9b 5a b2 3c 54 1e 16 bd 25 44 aa bd
       0.14810845 0.02177172 -0.036650017 -0.08313779
0000a0 d2 67 f4 3d da ff c3 bc b9 d8 89 be 45 ef b1 3e
       0.11933865 -0.02392571 -0.2692316 0.3475286
0000b0 12 9a 83 3e 0a 8a a8 bd bc 12 17 be 4e 54 a5 bd
       0.25703484 -0.08229454 -0.1475324 -0.080727205
0000c0 1f 75 62 be fe 4f 10 bc 9f 11 8e bd ca 9a b4 3d
       -0.2211499 -0.008808134 -0.06936955 0.08818586
0000d0 65 bf c8 3d 10 8d 1b bd 50 7f a8 bd 30 cf 3b 3e
       0.098021306 -0.037976325 -0.08227408 0.18340755
0000e0 8f ce 1a be 60 c0 b5 3e 49 7a 5c bd 72 2c 9b bc
       -0.15117858 0.35498333 -0.053827558 -0.018942092
0000f0 62 c9 51 3e d6 4b fd bc 41 86 d6 bd e7 76 c9 3c
       0.20486978 -0.03091995 -0.10474826 0.02459283
000100 ef 6d 97 3d 07 aa 76 3e 9a d7 bf 3c a0 01 6b bd
       0.07394015 0.24088298 0.023418237 -0.057374597
000110 04 a2 31 bc 55 65 bc 3c 2c 79 51 3f 8e 90 b2 3b
       -0.01084185 0.022997538 0.8182552 0.005449361
000120 40 11 bd 3d b7 8c 74 3e 34 c9 2c 3c e1 6e bb bd
       0.09231806 0.23881803 0.010546017 -0.09152008
000130 9f 88 31 3d 35 83 aa 3c 68 3d dc 3e 96 33 1e 3e
       0.043343183 0.020814518 0.430156 0.15449366
000140 9c 54 92 bd 85 ea 0d bd 2e 13 67 3d 47 3b f0 3e
       -0.07145044 -0.034647483 0.056414776 0.46920225
000150 e9 8c f0 bd fd 78 57 3e 62 01 7b 3e 9a 36 cc 3d
       -0.117456265 0.21042247 0.24512246 0.09971352
000160 0f b9 52 3c 42 62 9e 3b 26 88 44 bc 81 1c bc be
       0.012861504 0.0048334906 -0.011995351 -0.36740497
000170 ae 10 3a bb 81 1d 19 be f0 8d 90 be 7f 83 50 3d
       -0.002839129 -0.14952661 -0.2823329 0.050906654
000180 6f 2a 05 3e 0f ef 16 3d 37 1d 34 be d8 54 00 3e
       0.13004468 0.036849078 -0.1758927 0.12532365
000190 29 f2 96 bd 44 3e b9 3c 65 b1 23 bd c2 20 c4 3d
       -0.07370407 0.022612698 -0.0399641 0.095765606
0001a0 3d 3f 4a be 83 a5 56 bc 58 7e 96 be 6e 7f be be
       -0.19750686 -0.0131009845 -0.29393268 -0.37206596
0001b0 48 8d e1 bd de 19 b2 3d cb c8 0d 3d 7a 6d 2c be
       -0.110132754 0.0869634 0.03461532 -0.16838637
0001c0 5c 13 6f 3e 1d 00 de bd 79 44 09 bd 7a 24 21 3c
       0.23347229 -0.10839865 -0.033512566 0.009835357
0001d0 0f 61 57 3d 84 d2 5d be dd 53 9d bd 49 0b d7 be
       0.052582797 -0.21662337 -0.07682011 -0.42000797
0001e0 8a 7d 66 be 63 c5 84 bd 83 87 91 3d 97 40 12 3e
       -0.22508827 -0.06482961 0.07105925 0.14282452
0001f0 a0 af 46 be b1 9a 25 3e e7 a5 5d bd a5 81 ed bb
       -0.19402933 0.16172291 -0.054113295 -0.007248121
000200 ed dc 60 3d 8c 0d 69 bc 6f 31 17 bc 44 2c 3e 3d
       0.05489819 -0.014224421 -0.0092280945 0.046428934
000210 a0 a5 b5 be 83 69 b3 be 0a 0e 5c 3d 8e 04 37 3c
       -0.35477924 -0.35041437 0.053724326 0.0111705195
000220 2e ed ab 3a ff 03 d8 bd 0f 9d f6 bc fa 99 7a bd
       0.001311695 -0.10547637 -0.030104188 -0.061182
000230 a3 49 3a 3d 25 ae 7f bb bd 28 37 3d 21 a1 12 be
       0.04548038 -0.003901371 0.044716585 -0.14319278
000240 13 0d 92 3d fe 76 d9 be bf 8d 92 be 84 68 20 bd
       0.071314 -0.42473596 -0.2862377 -0.039162174
000250 4e 00 21 ba 71 36 07 3d fa 46 52 be 6f 3d d6 bc
       -0.0006141708 0.033010904 -0.20534888 -0.02615234
000260 e7 3c aa bd d2 f7 a9 bb e4 26 7d 3c a7 91 43 3d
       -0.083123975 -0.005187013 0.015451167 0.047746327
000270 c9 0a 1a be 29 6f aa bd d2 85 9d be 99 71 b7 be
       -0.15043177 -0.08321983 -0.3076616 -0.35828856
000280 b4 b5 48 be 29 d8 4c 3d 2b 6f 4e 3d ff d3 0c be
       -0.19600564 0.050010834 0.050398987 -0.13752745
000290 e7 a6 ba 3d 57 f5 ae bd 21 1d 86 3b 13 e1 9e 3d
       0.09113865 -0.085428886 0.004092828 0.07757773
0002a0 76 80 bc 3d 6d 8b 16 be f4 4d 48 3c ac e9 c1 be
       0.092041895 -0.14701624 0.012225617 -0.3787359
0002b0 c7 ee 2f be 9d 15 a1 bd 1e 0a 74 bc b2 a9 2a 3b
       -0.1718093 -0.078654505 -0.01489499 0.0026041088
0002c0 f1 ed 52 be 7e ec 1c be 3f d4 93 bd a0 fa 23 bd
       -0.2059858 -0.1532459 -0.07218217 -0.040033937
0002d0 a0 4b f6 bc 73 2e 6a 3d 16 56 01 be ef 01 86 3c
       -0.030065358 0.057173204 -0.12630495 0.016358344
0002e0 7b 2a af bd 42 a6 80 3d f0 9a 5b bb ba 7f 22 3e
       -0.085530244 0.06281711 -0.0033509098 0.15869036
0002f0 07 87 57 3d d5 40 b6 bd 47 d0 f9 3c 5b fa c8 bd
       0.052619006 -0.088990845 0.030494822 -0.098133765
000300 86 36 07 3d 13 ee 22 3d 5d 18 a1 3b 2c 2d aa 3d
       0.033010982 0.039777827 0.0049162344 0.08309397
000310 5c 09 db 3d d3 bd e1 bd 75 93 94 3c 07 86 7e 3d
       0.106951445 -0.11022534 0.01813672 0.062139537
000320 a4 c2 3d 3e 47 b3 ac bd ab 9c b9 bd 90 d5 88 bd
       0.18531281 -0.08432632 -0.09063085 -0.06681359
000330 63 cc 11 bd 98 21 82 bd 77 0e 4f bd 41 13 98 3d
       -0.03559531 -0.06354064 -0.050550904 0.074255474
000340 fc 8f 3f be 88 91 69 3d 3c 13 9b be 90 44 5d be
       -0.1870727 0.057023555 -0.30288112 -0.21608186
000350 ec cd c6 bc 32 77 39 3c 31 a3 30 bd 9d 72 62 be
       -0.024268113 0.011319922 -0.04312438 -0.22114034
000360 8a 04 12 3e dc 91 58 3d 35 cc 96 bc b5 d3 99 3c
       0.14259544 0.052873477 -0.01840792 0.018777708
000370 8c 83 be 3c b9 80 26 be 7e 4f d4 3c f2 2c 6d 3c
       0.023256086 -0.16260041 0.025916811 0.014476048
000380 ad 52 3f be fd 56 c4 3d c8 de 7c bd 6d 09 6e 3b
       -0.18683882 0.09586904 -0.0617359 0.0036321536
000390 7d c8 02 be 4e ec 50 3d 85 36 b6 bd ad 56 65 bd
       -0.12771793 0.051006608 -0.088971175 -0.055990864
0003a0 25 94 a8 3d 3a 5d ee 3c c1 ba 3a be b1 65 b2 bb
       0.08231381 0.029097188 -0.18235303 -0.0054442515
0003b0 ce 46 8a bd ce 07 23 ba 15 42 a4 3b 5d fd 35 be
       -0.06751786 -0.00062191195 0.0050127604 -0.17772432
0003c0 04 67 9d bd dc 2e a6 bd 9b ae 77 3b 6d 7c cf bd
       -0.07685664 -0.081144065 0.0037793282 -0.10131154
0003d0 19 a3 29 3d 1a 00 06 3d 71 32 94 bc a5 14 66 bd
       0.041415308 0.03271494 -0.018090459 -0.056172032
0003e0 c7 bd cc 3d e8 bf 2a bd 9f 64 a2 3d 57 1c d5 bd
       0.09997135 -0.041686922 0.07929348 -0.10405796
0003f0 a5 4c 10 be 28 d5 8c 3d 98 6a b5 bd 61 4f 94 3c
       -0.14091738 0.06876594 -0.08858222 0.018104257

_model.0._model.0.bias f4 [64]
000000 52 12 4e 3c 2e af f2 39 55 20 2b 3c f2 1b 8b 3c
       0.01257761 0.00046288356 0.01044472 0.016981099
000010 e7 27 4f 3c b9 95 bd bb dc 1a cb bb d4 4a 66 3b
       0.012643791 -0.0057856706 -0.0061982702 0.0035139816
000020 0e ee bb 3c 5d cb 32 3c 1d 42 dd 3c 41 f5 d9 bb
       0.022940662 0.010912743 0.027009064 -0.006651551
000030 83 79 84 3c 47 22 8e 3c 1a ae 26 3d 95 e7 08 bc
       0.016171223 0.01735033 0.04069338 -0.008355995
000040 12 cd 44 3b 0c 8f 44 3c 9a cb c7 bb fb c4 c4 3b
       0.0030029458 0.011996996 -0.0060972692 0.006004927
000050 a8 b9 2a 3c 5f 5f c6 3c 39 85 ae 3c 28 ca 84 bb
       0.01042024 0.024215398 0.02130376 -0.004052419
000060 a2 ab 46 3a 86 23 09 3c 16 c6 f8 bb 55 d8 5b 3c
       0.0007578676 0.008370286 -0.007591973 0.013418277
000070 7e d6 1b 3c 9b c1 1c ba f9 48 f9 3b 53 34 e2 3b
       0.009511588 -0.0005979777 0.007607576 0.00690321
000080 b7 7e 30 3c 97 cd 1d 3b db 93 29 3b 86 e6 17 3c
       0.010772399 0.002407884 0.0025875482 0.00927127
000090 bc 67 42 3c 00 41 60 3c 13 14 df 3c 17 5b 96 3c
       0.0118655525 0.013687372 0.027231252 0.018353982
0000a0 0d f9 3e 3c 6f f0 59 3c 50 f6 b4 3c b7 12 b1 bc
       0.011656058 0.013301953 0.022090107 -0.02161537
0000b0 af cd ba 3c 65 03 6e 3c 70 6a a0 3c 6b 26 bd 3b
       0.022803156 0.0145271765 0.019582003 0.005772402
0000c0 54 03 c4 3c a9 3d 08 3d 93 bd 08 3d 5a d4 cc ba
       0.023927368 0.03326193 0.033383917 -0.001562725
0000d0 ae 83 71 bb ed 7d 52 bb 2f 32 0e 3c 93 c6 68 3c
       -0.003685217 -0.0032118515 0.008678957 0.0142075
0000e0 9a 06 a4 3b da 83 0f 3c 53 7a ff 3c 64 e6 f1 3b
       0.00500567 0.008759463 0.031186258 0.007382201
0000f0 f6 a0 96 3c 1e 04 7c 3c bb 40 10 bc 8b 8d 11 bc
       0.018387299 0.015381841 -0.008804495 -0.008883844

_model.1._model.0.weight f4 [64, 64]
000000 8b 63 23 be 0c 95 36 bd 37 24 64 be 54 20 3e be
       -0.15955941 -0.044575736 -0.2227944 -0.1856702
000010 37 64 e7 bd 36 f0 1a 3d 6b c2 81 be c9 cd 7c be
       -0.11298411 0.03782674 -0.25343642 -0.24687876
000020 41 60 0a 3e 5d a3 94 bd 80 32 84 bd c5 62 ea bd
       0.1351328 -0.072577216 -0.064549446 -0.1144462
000030 65 a7 6e 3e 79 2e 14 3e 14 8d 39 3d 99 ef 07 3e
       0.23306043 0.14470853 0.04530056 0.13274993
000040 1d 64 b4 bd b9 f1 36 3e 67 d0 6f be 44 76 12 3e
       -0.088081576 0.17865647 -0.23419343 0.14302927
000050 1c f2 64 be aa 7a 32 be 7e 00 f1 bb 23 4d 40 be
       -0.22357982 -0.17429605 -0.007354795 -0.18779425
000060 21 9b 9c 3d 9e 0f 22 be 22 96 00 be 3a 6b 49 3e
       0.07646776 -0.1582627 -0.12557271 0.1966981
000070 a7 93 5f 3e b0 a3 64 bc 48 22 f1 bd 7a 55 f9 3c
       0.21833669 -0.013955042 -0.11774117 0.030436266
000080 35 72 6d bd c6 01 f1 3d b3 2c c1 3c 45 df 09 3e
       -0.057970244 0.117679164 0.023580885 0.13464077
000090 14 83 aa bd e8 5d c1 bd 21 70 1d 3e 98 19 2e be
       -0.083257824 -0.09441739 0.15374805 -0.1700195
0000a0 a8 20 4d bd 95 b9 9f 3c 8b a8 28 bd be 18 a7 bc
       -0.05007997 0.019497672 -0.04117636 -0.02039754
0000b0 c3 28 80 3d 33 11 66 3d 56 69 0d 3e 2f 68 d4 bd
       0.06257775 0.056168746 0.13809714 -0.10371434
0000c0 04 dc 60 3e c2 4d 11 3e 0a 42 44 3d 07 c2 4f 3e
       0.2195893 0.14189819 0.047914542 0.2028886
0000d0 ce 17 7b bb d3 ab 8e bd 3f 61 32 be 70 3b a3 bd
       -0.003831375 -0.069663666 -0.17419909 -0.07970321
0000e0 4d 0d b4 bb 2f 2a 49 3e 98 ba 23 be 4b d8 d8 bc
       -0.0054947496 0.19644998 -0.15989149 -0.026470324
0000f0 a7 07 9f bd 0d ea 52 be e2 02 ae 3c 6e 4b 04 bc
       -0.077651314 -0.20597096 0.021241609 -0.008074624
000100 60 a8 a4 3d 7d 19 11 3e a1 d6 eb bd 24 79 ce bd
       0.080399275 0.1416988 -0.115155466 -0.100816995
000110 8e 1f 50 bd d6 28 21 3e a0 be f4 bb 22 e4 31 bd
       -0.050811343 0.15738234 -0.0074690133 -0.043430455
000120 d0 71 65 3d c1 60 9d bd 5d 37 ad bd be ad 5e be
       0.056016743 -0.0768447 -0.08457825 -0.21745965
000130 bd 5e 01 be d4 90 7c bd 54 14 16 bd 98 1f c6 3b
       -0.12633796 -0.061661556 -0.03664048 0.0060462467
000140 43 03 bd bd 5b 57 4e 3c 1f ef 6e bd 29 45 b9 bc
       -0.09229138 0.012594069 -0.058333512 -0.022615986
000150 38 7d 10 be 71 96 b7 bd d7 11 ea 3a b2 9b 6c bd
       -0.14110267 -0.08964241 0.00178581 -0.05776567
000160 67 bc 9c 3e c4 ff 6b bd 9b c5 94 be da 42 94 3c
       0.3061249 -0.057616964 -0.2905701 0.018098284
000170 02 15 af 3d 7d 68 a3 3d 2d ea 2c be 6a 99 ed bd
       0.08548929 0.07978914 -0.16886206 -0.11601527
000180 87 0a 89 be fe 37 e7 3d 15 8f 41 3e 36 80 e1 bd
       -0.26765844 0.112899765 0.18902238 -0.110107824
000190 5d a3 8c 3e 3b 1e 74 3d 90 81 c3 3d bc e0 04 3e
       0.27468386 0.059599143 0.095461965 0.12976354
0001a0 10 48 25 be 5e 33 48 3e ec 58 6b 3d 35 f4 26 be
       -0.16140771 0.19550845 0.05745785 -0.16304095
0001b0 89 c2 24 be fa c9 8b bd d3 40 d0 3d 4f 35 9a bd
       -0.16089834 -0.06825633 0.10168614 -0.07529699
0001c0 40 28 36 3e 0a 7c a6 3e b7 fe 30 3e f2 10 92 3d
       0.17788792 0.3251651 0.17284666 0.07132138
0001d0 10 13 9b 3d 0f 60 e6 3d f2 b5 23 3d 2c 17 15 3e
       0.07571995 0.112487905 0.03996844 0.1455962
0001e0 55 e5 83 be 7c be ca bd 64 30 08 be c3 78 9b bd
       -0.25760904 -0.09899613 -0.1329971 -0.07591393
0001f0 c9 a4 4e be 77 19 6e bd 0b e9 95 be 7a 42 f6 bc
       -0.20180048 -0.058129754 -0.2927936 -0.030060995
000200 d4 da 08 be 09 aa 21 bd 84 ca 07 be ec 90 92 3d
       -0.13364726 -0.0394688 -0.13260847 0.07156548
000210 01 bc 0b bd 79 bb 87 be 66 d5 27 be 06 82 68 3e
       -0.03411484 -0.26510218 -0.16389999 0.2270585
000220 b7 f9 2d 3e 7e 78 8d 3d c1 7a c6 be cd cf fd 3c
       0.1698979 0.06907748 -0.3876553 0.030982876
000230 5e 75 c2 3d 75 bd 54 be 8e 38 0a 3e 4e 86 2d be
       0.09495042 -0.20775397 0.13498136 -0.16945764
000240 7a 9f 37 bd f5 2c 97 3e 31 57 a7 bd 6e 44 f9 3c
       -0.044829823 0.29526487 -0.08170927 0.030428138
000250 55 e6 e9 3d 35 f7 50 3d e7 6d ff bd 8e 1e 72 be
       0.114208855 0.051017005 -0.12472134 -0.23644468
000260 20 4d 08 3d 50 a2 0a bd bd 25 89 3c 10 07 49 be
       0.033276677 -0.0338462 0.016741628 -0.196316
000270 38 b5 cb bd 09 01 36 3d ea c8 f6 3d 4e 26 44 bd
       -0.09946674 0.04443458 0.1205004 -0.047888093
000280 a0 8e 14 3e ee 79 8e 3e 20 60 6a bc 55 3b 00 3e
       0.14507532 0.278274 -0.014305145 0.12522633
000290 6a c6 8e bc 4f 6d 89 bd d7 0d 41 be 21 31 66 bd
       -0.017428596 -0.06710302 -0.18852936 -0.056199197
0002a0 3d 74 42 be ed 31 60 3d 40 2d 6a 3d 26 44 9e bd
       -0.18989654 0.054735113 0.05717206 -0.07727842
0002b0 25 13 70 3d ef 3e d6 3d 88 a4 77 3d 97 a7 49 3e
       0.058612008 0.104612224 0.060459644 0.19692837
0002c0 95 3a 27 be 9e d7 33 bd ca 94 bc 3d 8b 18 34 3d
       -0.16330941 -0.0439068 0.09208067 0.04396872
0002d0 07 02 88 bd d6 b7 61 bd a3 6e 21 3d 37 08 41 3d
       -0.06641012 -0.05510696 0.039412152 0.047126975
0002e0 7c 0a 84 3c db b2 8a be 23 70 9f 3d bb 0c 4b 3e
       0.01611828 -0.2708958 0.0778506 0.19829075
0002f0 13 31 1c 3e 1a 68 c4 3c 6a 5d 0b bd 12 52 3c be
       0.15253095 0.02397542 -0.034024633 -0.18390682
000300 fa ff 4f 3e e5 ff 75 3e 35 55 0c 3e c5 e7 8e 3c
       0.20312491 0.24023397 0.13704379 0.0174445
000310 2e aa 29 be 1b 73 6c 3d 75 9c 0d be 97 90 11 be
       -0.16568825 0.05772696 -0.13829215 -0.14215313
000320 fc 21 06 3e c8 90 60 3e 50 db fa bd 58 7b 8c 3d
       0.13098902 0.2193023 -0.12248862 0.068594635
000330 83 e0 5f 3e 91 49 c3 3d 59 1f a9 3d 25 fe 1b be
       0.21862988 0.09535516 0.08257932 -0.15233667
000340 7e 1a ca 3d 02 46 c8 3d ea 31 31 bd 88 1b ff bd
       0.09868334 0.09778978 -0.043260492 -0.12456423
000350 3e 43 e5 bd 2a aa 35 be 67 83 b3 3d 1a 7e bc 3d
       -0.11194466 -0.17740694 0.087652974 0.092037395
000360 f5 d7 28 be ba 22 ff bd 3c af 2d be f1 f3 30 bd
       -0.16488631 -0.124577954 -0.16961378 -0.04320139
000370 2d a8 d3 bd df ae fb bc ed 6b d3 3d d6 62 8f bd
       -0.10334811 -0.030723033 0.103233196 -0.07001273
000380 05 ae 19 3e bc ef 85 bd 62 69 8f be 0b 92 53 be
       0.1500779 -0.06539866 -0.28010088 -0.2066118
000390 db 16 eb 3c ca c4 40 3e 41 ed 11 3e e7 9a 4a 3b
       0.028697422 0.18825069 0.14250661 0.0030915083
0003a0 58 af 07 3d 36 b7 0c 3e 67 3b db 3d 4c 5e bb bd
       0.033126205 0.13741764 0.107046895 -0.09148845
0003b0 bc 60 28 ba 04 f0 1b bd 4a 1e cd bc ee 27 9e 3e
       -0.0006423106 -0.038070694 -0.025038857 0.3088984
0003c0 05 2d 8f 3e a8 f8 e1 bd 74 6a fe bd 29 4f ef bd
       0.27964035 -0.110337555 -0.12422648 -0.116850205
0003d0 f0 4e 2b be b5 09 ec 3d d5 33 ff bd bd 2f aa bd
       -0.16729331 0.11525289 -0.12461058 -0.083098866
0003e0 36 ee 52 be e6 fe bd bb 98 8a a8 bc 83 5e 9b bc
       -0.20598683 -0.0057982085 -0.0205739 -0.018965965
0003f0 7c 0d 0c 3d f3 6e 05 3e 1b 85 05 3e ef 52 e1 bd
       0.034192547 0.13030605 0.13039057 -0.110021465

_model.1._model.0.bias f4 [64]
000000 77 de 66 3c e4 c1 b1 b9 f4 77 b5 3c f4 6e 89 ba
       0.014091126 -0.0003390453 0.022151925 -0.0010485337
000010 7b b8 23 3d b1 ab 4f 3d 46 54 b5 3c 17 44 d7 bc
       0.039970856 0.050700847 0.022134911 -0.026277585
000020 9c ac 9b 3c 67 59 9e 3c ae 20 b7 bc 69 e6 bb 3c
       0.019003205 0.01932974 -0.02235445 0.022937017
000030 f7 a6 ac 3c bd 3a 0b bc be 8e 2f 3b e3 c8 40 bb
       0.021075709 -0.008497891 0.0026787962 -0.0029416613
000040 ed dc 47 3d d3 78 97 3c 87 62 8f 3c 97 88 53 bc
       0.048794676 0.01849023 0.017503036 -0.0129109835
000050 f4 26 a8 3c ec a1 46 3c 75 78 29 3d 0f 03 9f 3a
       0.020526387 0.012123566 0.041374642 0.0012131649
000060 63 6b ab 3c 70 df f3 3c 07 e5 a4 3c be 13 cf 3b
       0.02092523 0.02976963 0.02012874 0.006319492
000070 35 d3 78 3d ce 25 1f 3d 08 53 ff 3a 63 d2 ff 3c
       0.060748298 0.038854413 0.0019479701 0.03122825
000080 ae 1e c0 bc 0e 50 a5 3c 38 2a 55 bb 82 cd 6a bb
       -0.02345213 0.020179775 -0.0032526385 -0.0035828059
000090 34 a1 95 bc b8 8f 51 3c a9 37 45 3b c2 76 c3 3c
       -0.018265344 0.012790613 0.003009299 0.02386034
0000a0 b5 7b 3a 3d f5 1d fa 3b 5c 5e 41 3d 41 69 c8 bc
       0.045528132 0.0076329657 0.04720913 -0.024464251
0000b0 31 f3 8b 3c af ae c4 3b b4 70 db bc f4 45 ad bb
       0.017083736 0.006002269 -0.02678714 -0.00528788
0000c0 3a 06 89 3c e6 3b c5 3c 0b 9e 6e 3d 87 ba c9 3b
       0.016726602 0.024076413 0.05825619 0.006156269
0000d0 4c cf 35 3c 87 d8 88 3b 9b a4 d0 3b 73 00 37 bc
       0.011096787 0.0041762027 0.0063672788 -0.011169541
0000e0 d2 36 47 bc 09 f1 90 3c ac c3 fb b9 b6 9d 1b 3c
       -0.012159066 0.01769306 -0.00048020238 0.00949805
0000f0 23 f9 2c 3c b5 a0 3e bd 1d a9 84 bb f2 a6 28 3c
       0.010557446 -0.04653998 -0.00404848 0.010293709

_model.2._model.0.weight f4 [51, 64]
000000 69 9e 5d 3d 16 09 78 bc 42 a5 e1 3c 44 90 85 3c
       0.05410615 -0.015138885 0.027544621 0.016304143
000010 ab 32 1c 3d ae da 5d bc 45 2a 15 bc 85 24 80 3d
       0.03813426 -0.013540907 -0.009104316 0.062569655
000020 ca bd d4 3c f0 c3 74 3c bf 29 a2 3c a2 04 6b 3b
       0.025969405 0.014939293 0.019795297 0.0035860916
000030 29 5b dd bb aa d0 58 bd 69 e0 26 3d fc 04 42 3d
       -0.006755252 -0.052933373 0.040741358 0.047368035
000040 2e 31 81 3d 78 ab a2 3c 2a 2a 03 be 65 6f 26 3d
       0.063082084 0.019857153 -0.12809053 0.040633578
000050 d2 54 bf bd 39 15 46 3c bd 0a 96 3c 8d 5c 61 3c
       -0.0934235 0.012090021 0.018315667 0.013754976
000060 0d ee 69 3d 86 85 e0 bd 88 b0 e0 bd c8 b0 50 bc
       0.05711179 -0.109629676 -0.10971171 -0.01273746
000070 4c 48 02 bc 86 9c 8b bd 76 31 98 bc 52 1d 5f 3c
       -0.007951807 -0.06816964 -0.018578272 0.01361783
000080 c3 f6 18 bb 92 87 ef 3c 73 f6 7d 3c 01 f7 4d bd
       -0.002334044 0.02923945 0.015500653 -0.05028439
000090 72 bf 73 3c 3f 93 b6 3c 89 03 a3 3c c1 60 22 bd
       0.014877187 0.02228701 0.019899147 -0.039643053
0000a0 ec 81 37 bd ff e9 22 bd 9c 9a db 3c ff a6 52 bd
       -0.044801638 -0.039773937 0.026807122 -0.05142879
0000b0 aa 15 1f 3d bc da 85 bb e5 f8 92 bc 42 92 51 3d
       0.03883902 -0.004084913 -0.017940948 0.051164873
0000c0 10 c8 aa 3c f2 35 c5 3b 31 ff f7 3d f9 de 2b 3d
       0.02084735 0.0060183937 0.12109221 0.04196069
0000d0 43 e5 4b 3d 18 1f 82 3d 1f f2 0f 3e 2b e5 b5 3c
       0.049779188 0.06353587 0.14057206 0.022204002
0000e0 90 57 31 bd 2c 11 54 3b ef 84 c9 bd 1d d5 8a bd
       -0.043296397 0.0032358868 -0.09839808 -0.067789294
0000f0 40 cd b4 bc 62 1b 67 bd 7a 25 94 bc 07 ed c9 bc
       -0.022070527 -0.0564226 -0.018084276 -0.024649156
000100 fa 26 cf 3c 32 d4 84 3b 63 96 a4 bc 30 ed bf bc
       0.02528714 0.004053616 -0.020091241 -0.02342853
000110 30 9b 02 3c f1 e6 02 bd f7 39 9f bc 60 05 04 3c
       0.00797157 -0.031958524 -0.01943682 0.008057922
000120 08 6c cd 3c a0 8e a9 b8 33 26 a2 bb 6d 46 e0 bc
       0.025075927 -8.085114e-05 -0.0049484014 -0.027377332
000130 1a f1 84 bc 1d 41 c0 3c d9 f3 9e 3c 80 e4 1c 3d
       -0.016228247 0.023468548 0.019403385 0.038303852
000140 76 80 7a 3b 90 c4 38 3d a7 f5 88 bc 9b a2 8e bc
       0.0038223541 0.04510933 -0.016718699 -0.01741152
000150 d8 05 f7 ba 6d 61 9c 3c 3d 3b fd 3b 6c 2f 61 3c
       -0.0018846346 0.019089425 0.007728009 0.013744216
000160 78 19 f7 bc bc 51 f0 bc 31 a6 ef bb ba 16 70 bb
       -0.030163512 -0.029335849 -0.0073135127 -0.003663464
000170 81 03 b3 bc 7e 51 aa bc 63 4e 59 bb 62 70 6c bc
       -0.021852257 -0.020790812 -0.0033158294 -0.014431091
000180 bc e1 b5 b8 d8 ad 32 3c b2 cb 56 3d 22 c9 b9 bc
       -8.672799e-05 0.010905705 0.052440353 -0.022678915
000190 96 ec 54 bc 98 46 1c 3c 00 c9 e4 3b 41 1d 1f bd
       -0.01299586 0.009538315 0.006981969 -0.038846258
0001a0 5c 72 22 3c 67 d0 f2 bc 2e 32 0d ba 81 c1 07 bd
       0.009914961 -0.02964039 -0.00053862005 -0.033143524
0001b0 5c 3e 53 3c 4b 7f 08 3c a5 04 b6 bc 16 6b c4 3c
       0.012893286 0.00833113 -0.022219012 0.023976844
0001c0 cd 2e 8d bb be 91 89 3b 8d 9f 00 3d 07 5f 97 bc
       -0.0043085576 0.004198282 0.03140216 -0.01847793
0001d0 75 5e 4b 3d 6e 6a 77 3c 4f be f2 3c 95 62 6c 3d
       0.049650628 0.015101058 0.029631762 0.057711203
0001e0 92 10 a0 bc 71 37 27 bc 91 52 3a bc 01 6d a9 b9
       -0.019539151 -0.010206089 -0.011372224 -0.00032315406
0001f0 17 b3 b3 3b a3 9c b2 bc 9d e4 d4 3b 6d f8 fa 3b
       0.0054839957 -0.021803206 0.0064969794 0.007659009
000200 af a0 0a 3c 94 a0 6b bb 30 14 11 bb ba 3d 4c 3d
       0.0084611615 -0.0035953866 -0.0022137277 0.049863555
000210 53 97 6a bc 2a 17 31 bd 8f 09 4f 3d 4c 77 ab 3c
       -0.014318305 -0.04323498 0.050546225 0.020930909
000220 e2 27 e0 bc df e6 ba bc 38 bf 32 bd 00 d5 6a 3d
       -0.027362768 -0.022815166 -0.04363939 0.05733204
000230 85 27 cf bc 04 a7 ad bc a1 ea 8f bb aa 7f a7 3c
       -0.025287399 -0.021197803 -0.0043919836 0.020446617
000240 c4 08 ae 3c 32 e4 fe 3c 8c 07 46 3c 04 68 62 bd
       0.021244414 0.031114671 0.01208676 -0.05527498
000250 f4 d2 85 bc 62 bf c4 bc b4 c4 3d 3c 54 ad 29 bd
       -0.016335942 -0.02401704 0.011582542 -0.041425064
000260 c8 05 12 3d 52 a5 31 3c cb 5d fd 3c 49 eb 4d bc
       0.035650045 0.010842638 0.030928513 -0.012568303
000270 1b 74 94 bc b6 eb ae 3d 7b 91 ea 3a 80 d2 9e ba
       -0.01812177 0.08541052 0.001789614 -0.0012117177
000280 94 36 80 bb f8 c8 55 bb cc 4d 2a bd 5c ce 84 3d
       -0.003912756 -0.0032621007 -0.0415781 0.064846724
000290 c9 69 3d 3d 3c 5e 29 bc 04 10 8a bc 6d a8 dc 39
       0.046243463 -0.010337409 -0.01685334 0.00042087157
0002a0 9c 7a c7 3b 3d cb 8a bb 04 da 43 3c 39 f7 fa 3a
       0.006087614 -0.0042356537 0.011953834 0.0019147164
0002b0 63 70 18 bc 83 92 61 3c 41 25 e9 bb c4 f0 4e 3c
       -0.009304139 0.013767841 -0.0071150367 0.012630645
0002c0 48 72 1d bd 1c 0a a1 bc e6 5e db bc 6d 17 39 bd
       -0.038439065 -0.01965814 -0.02677865 -0.045188356
0002d0 3e 74 c1 3b 2e 83 1b 3d 40 a7 20 bd 9b 54 08 bd
       0.0059037497 0.0379669 -0.039222002 -0.03328381
0002e0 38 df 0b 3d bd 20 88 bd ba c3 5a 3d d4 f4 26 3d
       0.034148425 -0.06646869 0.053409316 0.04076083
0002f0 15 17 55 bc b2 97 4d 3c 12 fa 58 bc 4e 2e fa bb
       -0.0130059915 0.012548374 -0.013243215 -0.0076349145
000300 20 38 30 3d d5 ef 9b 3d 90 d3 09 3d a9 e0 75 3d
       0.043022275 0.07614104 0.033649027 0.060028706
000310 82 cb c3 bd 9a 53 0b 3d 1b ac 86 bb 76 86 a7 bc
       -0.095603004 0.034015276 -0.004109872 -0.020449858
000320 cb 22 2d 3d 57 73 d4 3b 1a 2f 7a bd a5 f9 83 3d
       0.04226951 0.006483476 -0.061080076 0.064441
000330 41 c4 65 bd 4c ca 15 3d 03 53 7c bd a3 de 4e bd
       -0.056095365 0.03656988 -0.061602604 -0.05050529
000340 a3 e6 8d 3d c0 3a 0b be 33 c6 41 3c d3 03 30 bc
       0.06928756 -0.1359663 0.0118270395 -0.010743099
000350 db c6 13 bd c8 af 2c bd 2a 68 7f bd 35 1c c2 bd
       -0.036078315 -0.042159826 -0.062355198 -0.09478036
000360 c9 38 d7 3b be 12 39 bd 46 46 79 bc b3 e7 08 3d
       0.0065680486 -0.04518389 -0.015214508 0.03342409
000370 b4 43 97 3d 4c 0a b2 3d 47 f0 6d 3d 16 3c 0c bd
       0.0738596 0.0869337 0.058090474 -0.03423699
000380 3b f7 2a bd 4f e9 8e 3c 6f b4 77 3c 94 22 51 bc
       -0.041739684 0.017445235 0.015118702 -0.012764592
000390 e7 4c da 3c e6 0c b1 3d 3f c4 fc 3c 71 98 15 3c
       0.026647998 0.08645038 0.030855296 0.009130583
0003a0 2c ee fd bd 60 59 97 bc 70 e9 78 bd 4b 7e 34 3d
       -0.12398943 -0.018475235 -0.0607695 0.044065755
0003b0 3e f6 01 bb a9 38 c7 bc 78 e8 3b 3d ae 0b 45 bd
       -0.001983061 -0.02431901 0.045875996 -0.04810684
0003c0 ca 8b 0f 3d d1 fe 10 3d 24 bc 02 3d 74 8e d3 3c
       0.035045423 0.03539926 0.031917706 0.025824763
0003d0 7a 03 bb bc 49 13 a7 3c 6a 99 04 bd 6a d2 72 3c
       -0.022828806 0.020394938 -0.03237287 0.014820674
0003e0 c2 98 b9 3d ff ae 6c bd 73 a3 25 bc 7c 0d ab bd
       0.09062339 -0.057784077 -0.01010977 -0.08352181
0003f0 32 a3 1d bd 50 5a 0e 3e 89 06 8a bd 05 b7 58 bd
       -0.038485713 0.13901639 -0.06739528 -0.052908916

_model.2._model.0.bias f4 [51]
000000 dd de 1b 3d 3d 18 ea 3b 78 c4 55 bb d1 2a 12 bd
       0.038054336 0.0071440027 -0.0032618325 -0.035685364
000010 a1 3e c7 bc f4 f9 ba 3c fd 3c 92 3c bd 4c 12 3b
       -0.024321856 0.022824265 0.017851347 0.0022323572
000020 99 5f 98 bb 74 c4 1e bb 30 f9 07 bc 2d e2 70 bd
       -0.004650068 -0.0024225982 -0.008299157 -0.058809448
000030 12 5c b5 bc a9 9c bc bb 55 fc ea bc 7b 1a cd 3c
       -0.02213863 -0.00575598 -0.028684774 0.025037041
000040 40 e9 c1 3c 7e cd c5 3c f2 2b 39 bc 97 f3 92 3c
       0.023670793 0.024145838 -0.011301981 0.017938418
000050 22 ec 32 3c d7 a7 a5 bc d5 b3 54 3c f6 4c 55 ba
       0.010920556 -0.020221634 0.012982328 -0.0008136773
000060 e6 06 a5 bb 06 db 0a 3d 7f fe 1b bc cc 95 b3 bc
       -0.0050362227 0.033900283 -0.009521126 -0.021922015
000070 60 b8 0e 3d fd b1 33 bc 62 7e d9 bc b1 98 5e 3d
       0.034843802 -0.010967729 -0.026549522 0.054344837
000080 9b b9 cb bc 3b cd 23 bc 72 26 32 3d 6a e1 e6 bc
       -0.024868777 -0.009997661 0.043493696 -0.028183658
000090 20 93 37 3c 48 5a 3a 3d 61 c8 a5 bb 56 6e 60 bb
       0.011204511 0.045496255 -0.0050592874 -0.0034245453
0000a0 e5 59 37 bc 00 76 a2 3b b4 bc 93 3c 81 65 52 bd
       -0.011190866 0.0049579144 0.018034317 -0.051366333
0000b0 45 72 59 3d 2a c1 d4 3c 2c 1b 8b bd 85 8a 91 3b
       0.05308749 0.025971014 -0.06792292 0.0044415616
0000c0 24 d2 c3 bc 4b 9c d1 bb cb c5 92 3c
       -0.023903914 -0.0063968054 0.01791658
