data/etc/pretrained_model/boxing/task_agnostic_policy_motor_decoder_exp6_1000.pt (torch_old, 232478 bytes, 6 tensors)

_model.0._model.0.weight f4 [128, 270]
00000000: f330 8cbc eba7 113d f43d 973d f7c6 0bbd
00000010: c33e 113e 7a6d 1ebf 953d fb3d 3a99 cd3d
00000020: d5c6 48be 165c febd 735a e1bc acea 5fbd
00000030: a185 18bd a3e4 1fbe f5a8 d6bd e319 293c
00000040: 7694 a7bd eee2 063e e58d 12bf da5a 713d
00000050: 16c1 953d e43d 2abd 73a5 e03c bec1 783d
00000060: 0c22 0cbd a838 3fbd 4600 f4be 3f9b 59bd
00000070: 83c2 3d3d 8d50 8ebd ae47 393e ef77 85bf
00000080: 1686 68bb 0859 60bd cea6 b73d f186 d73a
00000090: 045b 1a3d 934a 5b3c 7ee8 9fbd 33f7 48bf
000000a0: 74ca 0d3e deaa 1fbc 2ca5 5dbd 1a15 af3e
000000b0: b957 9cbe 3a3b 163c bf4a 19be 68a1 823e
000000c0: e4ce b03d 1a83 6bbc afda cb3c 0b91 b1bc
000000d0: 3210 90bd 2370 2b3d 9e24 7f3e 1a99 fabb
000000e0: 3d4f 773d f8ac 12be 2ac4 dcbd bb90 923d
000000f0: 7bde 21bd 6e43 97bc 0e12 a5bd 593e 933c
00000100: 865f a53b 4fdc efbd e3e7 133c fc88 8b3e
00000110: 3788 24bd 4cca 88bd a5af 34be 98cb 88bc
00000120: daf8 d6bd 375a eebd c631 20bd b41a 1dbc
00000130: 7a39 b9ba 7618 b83b 0e85 f9bd 4013 02bd
00000140: 737a 813e 4799 a93c 17e9 e63d 38ce c5be
00000150: cfdb 033e 8010 1c3d 8ac3 08be 25ab c3bd
00000160: 067a 4c3c 927d bdbc 40ac 5dbd 90d0 0f3f
00000170: 170f 213d 8f13 09bd a246 aebc d748 cd3d
00000180: a302 2dbe 2b97 e93d 44a6 453e 5a20 223c
00000190: e4a4 a4bd 54e4 973b b392 173d 6a40 04bd
000001a0: 4ae6 d03e ca6f 21bd 3427 58be c469 6c3d
000001b0: 3dd3 9e3d 098c 29be 88ef 3fbd f649 813e
000001c0: c335 90bd f0ce a03d deea 8d3c 0e8c 98bc
000001d0: 84df 10bc 674c 933e 30d6 6bbc ca13 f93c
000001e0: f353 9c3d 264c bdbd 18aa a1bc 7b62 02bd
000001f0: 3c16 6e3e f2e1 d83d f018 bc3c 439b a73c
00000200: 8786 863d 682c 81bc 4e17 8e3e 01ce 093d
00000210: 2dd0 04bc f1d4 d83d d700 323d f48b 8fbd
00000220: 403f 66bb 469a 6b3e d169 31bd 5d0f 72bb
00000230: 692d a03b c300 1c3d 6851 1abc 5e07 993e
00000240: 3c8e adbd 25d6 8e3b c6bc 4cbd 3fcc 4d3d
00000250: 9a1d 88bd 6c08 c63c 70b4 063d 1d4f 123d
00000260: e3aa c33d 43ff 083d 35b8 dabc 99c4 3f3d
00000270: 2287 273e 61e6 3b3c 3739 3ebe b30d 013d
00000280: fa0b 05be 896e 9bbd 58c3 033c 8cc8 d83d
00000290: cd1b bd3d 9bbd 83bd 754b 4c3c 1abe 46bc
000002a0: 7197 b8bc eed5 5e3d fd8f 07bd 0d89 1f3c
000002b0: 1aa7 c23c a47f 5ebd f4e8 4e3d 8a10 d73d
000002c0: 434b ca3d c8fa 10be 530a a4bd e90a aebb
000002d0: afd0 fd3b d02f 6a3c 2a2b 823c 1f1e 9a3d
000002e0: f9f6 413d ae0f 1c3d 2b8c d7bd 1ab2 d5bd
000002f0: c510 e6bd fe9e 8a3d 1cec 4cbd 689e e43c
00000300: e722 05bc 0610 e7bc 43f6 383d b42c 3a3d
00000310: a647 cfbc ac91 cd3c 01ae 093c 57fa e73d
00000320: 5023 e3bd 56d5 bdbc a6b9 af3d c1ad ca3c
00000330: cf29 70bc 2ad7 a13c a2b9 ecba 5056 91bc
00000340: a34e ae3d 240f ad3d 56dd dc3c 1fa5 c03d
00000350: d2de 88bd ce89 983d 44ba 41bd a2ef 433e
00000360: 365a 82bc b80a cdbd cc86 90bc 33cc f9bc
00000370: 4984 60bc af79 1b3e 9058 013d 6fbc c7bd
00000380: e0a3 173e 117a 81bd 2475 453d 7b60 febb
00000390: 6eef 8d3d 0914 5ebd 3a6d afbd 9def b8bc
000003a0: af9e 1cbc af0d 043d cb15 c73d 99fc 8c3d
000003b0: 5048 e13c f3aa b93d c1ae 153d 5bfb 78bc
000003c0: 179b 5d3d 7027 6abd e025 8a3d 540f 90bc
000003d0: 63d1 ea3c 5400 30bd b3d3 4f3d 9eb3 8a3d
000003e0: 528b 55bd ac87 97bc 1da0 cdba 1b1b 113d
000003f0: 76e6 33bd ca14 903d e862 e63d 576a d2bb
-0.017113185 0.03556053 0.073848635 -0.034125295 0.14184098 -0.618858 0.12267605 0.10038991
-0.19607098 -0.12419908 -0.02750895 -0.05466716 -0.037236813 -0.15614562 -0.10481445 0.010321113
-0.081826136 0.13172504 -0.57247764 0.058924533 0.07312219 -0.04156293 0.027422642 0.060731642
-0.034212157 -0.04668489 -0.4765646 -0.05312657 0.04632808 -0.069489576 0.1809375 -1.0427226
-0.0035480312 -0.054772407 0.08967362 0.0016443414 0.037684456 0.013384479 -0.07808016 -0.78502196
0.13846761 -0.009745328 -0.0541126 0.34195787 -0.30535677 0.009169394 -0.1496992 0.25513768
0.08633211 -0.014374519 0.02488455 -0.021675607 -0.07034339 0.04185499 0.24916312 -0.0076476457
0.060378302 -0.14323795 -0.10779603 0.071565114 -0.039518815 -0.01846477 -0.08060084 0.017974066
0.0050467877 -0.117119424 0.009027454 0.27252948 -0.040168967 -0.0667921 -0.17645128 -0.016698644
-0.104966834 -0.11638301 -0.039109968 -0.009588886 -0.0014131509 0.0056181503 -0.12183581 -0.03175664
0.25288734 0.020702971 0.11274927 -0.38633895 0.12876819 0.038101673 -0.13355842 -0.095541276
0.0124802645 -0.023131166 -0.05411935 0.56177616 0.03932103 -0.03346592 -0.021273915 0.10023659
-0.16895537 0.11405786 0.19301707 0.0098954085 -0.08039263 0.004635373 0.037005138 -0.032287993
0.40800697 -0.03941325 -0.21108705 0.057718053 0.07755134 -0.16557325 -0.046859294 0.2525174
-0.07041504 0.0785197 0.017323907 -0.01862147 -0.008842353 0.28769228 -0.014394328 0.030404944
0.076331995 -0.0924304 -0.019734427 -0.0318322 0.23250669 0.10589971 0.02296111 0.020459777
0.06568628 -0.015768245 0.27752155 0.033643726 -0.008106274 0.1058749 0.043457832 -0.07009116
-0.0035132915 0.2300807 -0.043313805 -0.0036935427 0.004888226 0.038086664 -0.009418823 0.29888433
-0.08474395 0.004359024 -0.049984716 0.050243612 -0.06646271 0.024173938 0.032886922 0.03571998
0.095540784 0.03344656 -0.026699165 0.04681835 0.16360143 0.011468501 -0.18576513 0.031507205
-0.1299285 -0.07589442 0.008042179 0.10585126 0.09233818 -0.06432649 0.012469162 -0.012130285
-0.02253315 0.054403238 -0.033096302 0.009737265 0.02376132 -0.054320946 0.05051513 0.105012015
0.09877636 -0.14158165 -0.08009782 -0.005311359 0.0077458243 0.014293626 0.015889723 0.075252764
0.047354672 0.03810089 -0.10524782 -0.10434361 -0.11233667 0.067686066 -0.05002986 0.027907565
-0.008125997 -0.028205883 0.04515673 0.04545279 -0.02530272 0.025093876 0.008403302 0.113270454
-0.1109072 -0.023173016 0.085803315 0.024741055 -0.014658405 0.019755919 -0.0018060694 -0.017741352
0.085110925 0.084501535 0.02696101 0.09406494 -0.066831246 0.07448159 -0.047296777 0.19134381
-0.015912157 -0.1001181 -0.017642401 -0.030492878 -0.013703414 0.15183137 0.0315786 -0.09752738
0.14808607 -0.063221104 0.048207417 -0.007762966 0.06930433 -0.054218326 -0.08565755 -0.022575194
-0.0095593175 0.032239612 0.097209536 0.06884117 0.027500302 0.09065809 0.03654361 -0.015196647
0.054102983 -0.057166517 0.06745505 -0.017585434 0.028664296 -0.042969063 0.050739 0.067725405
-0.05213482 -0.01849731 -0.0015687976 0.03542624 -0.043920957 0.07035215 0.112493336 -0.006421368

_model.0._model.0.bias f4 [128]
00000000: 177c 15bc b95e 0bbb ce19 693c 8c40 8ebb
00000010: 2255 b2ba aedb b3bb 880d 5c3c 14c1 c53c
00000020: 8197 7a3a d316 ef3b ecfe 92bc a530 e6ba
00000030: 7572 dcbc d99a f63b c9ac 48bb 752c 74ba
00000040: 4d0c 79ba e33e c0bb 19fa 5bbc fd60 ea3b
00000050: 708e 673c cebd b6bc 4dc8 9f3b 9ff9 b33b
00000060: 7711 8a3b fb8d 963b 33c9 a53c b119 f73b
00000070: 0ac8 3dbb e3b8 503b 8888 05ba 6b7b 20bb
00000080: e176 303b 0836 0e3c 754d bf3b 12da a7bb
00000090: 01d4 a6bb 21bc c1bb 665b 613b 4bc9 123b
000000a0: 1f1f 3cbc 1d36 cf3b 8f1e 17bc 7c61 343c
000000b0: d4d9 273c 0588 3c3c 5247 483a 3615 bb3c
000000c0: 9f86 4c3a 8b6a d13b 7032 8dbc 50be 593b
000000d0: 2d35 183c 5282 95ba debc 213c c970 5f3c
000000e0: 2aa5 083c 3405 0f3b 7a37 74bc c0d3 2c3c
000000f0: 5697 1e3b c004 893c 28be baba f95e 2b3c
00000100: 587f f2bb cfbc 00bc 2a6c 98bc 15b2 9bbc
00000110: 1f51 223c f5c2 843c 4cea 1bbc a380 273c
00000120: 1973 f53b 4257 fbbb cb8a c0ba 9f09 983c
00000130: e4f3 a9bb af84 a33c 6074 9a3b 9991 aab9
00000140: a994 833b 8d50 743c 21f0 143b d4ca 7e3c
00000150: 2643 9bbb 461a fd3b e114 a8ba 45d2 b9ba
00000160: 032b 033c eb5e dd3c 3c3d a9bc b27a a3ba
00000170: 4817 b6bb 4b36 63ba 3e5c dfba 5d34 d7bb
00000180: bb28 683c 98a7 4a3b d15a 72bb f9df 283b
00000190: 26a2 a53b 3d05 353b d136 bf3c b08d d1ba
000001a0: b982 943c 26ad e83a a99e b2bb d60b 643c
000001b0: 4a41 0f3a 2722 873a 593b 97bb 424d 89ba
000001c0: b314 383b 57f2 66bc 85f7 853c 5303 2d3c
000001d0: 85ac a3bc e6f0 cc3b aca8 b8bc 1a89 64bc
000001e0: 01e6 1a3c c6fe 56bc 10bb 1e3c ee3d 47bc
000001f0: 36ce 683c e82c 73bb 08ac aabb 9f81 233d
-0.009123824 -0.0021266176 0.014227344 -0.0043411907 -0.0013605694 -0.0054888343 0.0134309605 0.024139918
0.0009559319 0.007296422 -0.017943822 -0.0017562105 -0.026910046 0.0075257835 -0.0030620566 -0.0009314486
-0.0009500429 -0.0058668717 -0.013426327 0.007152675 0.014133081 -0.022307303 0.0048761726 0.0054924036
0.0042135078 0.004594562 0.02023754 0.0075409045 -0.0028958344 0.0031848482 -0.0005093892 -0.0024487625
0.0026926326 0.008679874 0.005838091 -0.0051224316 -0.005091191 -0.0059123193 0.0034386753 0.0022397812
-0.011482029 0.0063235895 -0.009223594 0.01100957 0.010244805 0.011507039 0.0007640022 0.022837263
0.00078020425 0.0063908747 -0.017235965 0.0033225007 0.009290022 -0.0011406636 0.00987169 0.01363773
0.008340159 0.002182317 -0.014905805 0.010548532 0.002419909 0.016725898 -0.0014247345 0.010459655
-0.0074004345 -0.0078575155 -0.018606264 -0.019005815 0.009907036 0.016206244 -0.00951631 0.0102235405
0.0074905274 -0.007670314 -0.0014689801 0.018559275 -0.0051865447 0.01996073 0.00471358 -0.00032533405
0.0040155244 0.014911783 0.0022726136 0.015551288 -0.0047382293 0.0077240793 -0.0012823605 -0.0014177045
0.00800586 0.0270228 -0.020659082 -0.0012472479 -0.0055569746 -0.0008667453 -0.001704104 -0.0065675215
0.014169867 0.0030922648 -0.00369804 0.0025768264 0.00505473 0.002762153 0.023341568 -0.0015987661
0.01812874 0.0017751798 -0.0054510427 0.0139188375 0.0005464746 0.0010309861 -0.004615229 -0.0010475295
0.002808851 -0.014095864 0.016353378 0.010559875 -0.019979725 0.0062543033 -0.022541367 -0.013948703
0.009454251 -0.013122266 0.009688154 -0.012160761 0.014209321 -0.0037105624 -0.005208496 0.03991854

_model.1._model.0.weight f4 [128, 128]
00000000: 0193 d63d 0d65 1dbd 45e8 db3c 577e 543e
00000010: 1226 cb3d 8726 f2bd f3e4 7abd 4bf3 3f3e
00000020: f024 14bd 01cd 773c 87f9 00be e741 133d
00000030: 7ea1 443c f4de cf3d 2c91 16bb bcc0 c8bd
00000040: d050 f53c fb60 9b3d 094d c83d 28b8 28be
00000050: 2133 173c c532 e3bd aa6f 303d ee2d 2a3e
00000060: 3113 e7bd 1eb3 aa3d 6335 8abc a2ad 9ebd
00000070: 7f56 5e3d dd6b 3abe 20c7 02be 8d7f e23d
00000080: bac3 b1bc 5aad be3c 78f0 25bd 794a c23d
00000090: edf0 923a 48ea 95bd 1391 44bd 7eb3 f0bc
000000a0: 2e11 d7bd 4a89 16be 9a28 ea3c d3fc 88bd
000000b0: fdf7 2fbe 11e2 94bc 3163 413e 8a12 ac3d
000000c0: b2d8 be3b e97d 41be 8e90 233d e4f8 a93c
000000d0: 1bb4 d63d 0f60 04bb b62c b0bb 55f4 523d
000000e0: c1d7 4bbe 4e3f cabd e456 2f3c 467c 993d
000000f0: 92d0 87bc 86b9 babc 6681 3b3e b061 00bc
00000100: 6812 c23d 315f 6e3c cd03 4e3d c8ca 60be
00000110: 9383 463c b794 f73c 4a5e d23d 7b26 bf39
00000120: 992e 03be 45f4 10bd 09ed 213d bdf5 51bd
00000130: 9c80 d93d f13a 103e 9ca8 aebb 1b02 c9bc
00000140: b881 e2bd bb78 e8bc c04f 873d e593 8038
00000150: 5795 823b eb9f 683d 7ead 4b3d b94a 76bd
00000160: 2bc7 c6bc 55ae 0f3e 73fd 4fbc 7cb1 d83d
00000170: 7115 073e c0a6 22be 824a b3bd a157 303d
00000180: fa3a 7d3d 685d e0bc f98a a7bd 4ab7 73be
00000190: 6f51 d93d 5f0b e8bd 373a 3ebe 4fe3 cebd
000001a0: aa7d 1f3e e06e 273b 6b8f 8ebc 7eb6 c9bb
000001b0: 6f73 23be e464 2ebd fa5e 463e b5fa 1ebc
000001c0: eba5 04be 42c4 3ebd 896c 95be 273d 7abe
000001d0: 57d6 89bd d64d 683d 4281 dc3d 97a6 bbbd
000001e0: 8bdc 713c dab9 c23d 25e0 10bd 4803 67bc
000001f0: 3261 9bbd b7f6 cebb 7c01 263d 64a5 17be
00000200: 1f5c a53d edd7 f1ba 4660 15bb 15cc d2bc
00000210: dd61 de3d 784e 04bd 1ed2 a4bc 1dea e73b
00000220: 95f0 7bbd 7c5e 5a3d ddd1 ae3d 2e43 df3c
00000230: 185b 1abe 56f3 073e bf60 cd3c 3a4d d3bc
00000240: 58a8 4dbd 56a1 673d 76cf 383d b471 1d3d
00000250: e8c2 3939 6cb1 133d aec5 553d 2761 bcbd
00000260: e727 09be 42e7 79bd 26db 0bbe 1675 aebd
00000270: 4379 663d 1d47 173e 02af 17bd fbb3 383e
00000280: 95a8 acbc 6606 5cbd 5dd1 b7bd 5e80 a43d
00000290: a6e4 b53d 8984 9d3d e901 6d3a 89eb c8bc
000002a0: 1ce3 54be c454 d73d db3a ab3d f724 57bd
000002b0: a090 f03c b123 f7bc b4a0 6c3c 13e7 8ebd
000002c0: 64d3 93bd cb5f 5dbd 2997 9f3d 95b0 08be
000002d0: bb31 30bc 9f0b 8fbd 9592 723c 6a8d 453d
000002e0: c78a bb3d 1550 893d 1fb9 63ba b2b7 a1bd
000002f0: 5df3 a33d aa98 1dbd cf5e 0e3d 82f7 f1bd
00000300: 6213 a63d 4f4d fc3d 78d1 c1bd 1aeb 963a
00000310: 5e99 d1bd 1dd5 04bc a4a0 563e f436 6d3e
00000320: 59d7 203e 34bf c7bd bd0f 81bd 911f 4bbe
00000330: 156a 9e3c 4ba2 01be 4254 e93d cf62 64be
00000340: 7611 a03d 27de 4c3d ea43 823d 36a7 4dbd
00000350: 5a92 70bd 8e70 8fbd 841b 8cbc c4b4 1dbd
00000360: e0ea 2b3d c73b 34be 3fd7 813d d399 dfba
00000370: de40 6c3d f4e2 77bd be3c 953d b2ef a5bd
00000380: edc2 a93d 1a1e f6bb 47e8 a83d a049 d6be
00000390: b920 0539 9922 e9bd 849c 02bc dd07 d3bd
000003a0: b339 63be 647a c5bd a741 b0bd 68a4 8abd
000003b0: 6374 4c3d f6f9 bd3c dc08 953d 26ba d3bc
000003c0: d49d a6bc c5aa 2a3e 479a eabd f492 1e3d
000003d0: 7c47 933d 606a c1bd f53d 1f3d d47b e03d
000003e0: 08d7 353d 4733 b23d bb4b 7d3d db6d 233e
000003f0: 697c 183d f3cd e33c 12ee 6a3b 5eba 7abe
0.104772575 -0.038426448 0.026844153 0.2075132 0.09919371 -0.11823755 -0.0612535 0.18745153
-0.03616804 0.01512456 -0.12595187 0.03595152 0.012001393 0.10149947 -0.0022974713 -0.09802386
0.029945761 0.07586857 0.09780318 -0.164765 0.009228499 -0.11093668 0.04307524 0.16619083
-0.11282957 0.08334945 -0.01687116 -0.077479616 0.054281708 -0.18205209 -0.12771273 0.11059485
-0.021699775 0.02327602 -0.040512532 0.09486861 0.0011210717 -0.07320076 -0.047989916 -0.029382464
-0.10501324 -0.14700809 0.028583813 -0.066888474 -0.17184444 -0.018174203 0.18885495 0.084019735
0.005824172 -0.18895687 0.03993278 0.020748563 0.10483571 -0.0020198857 -0.0053764237 0.051502544
-0.19906522 -0.09875356 0.010701869 0.074944064 -0.016578946 -0.022793543 0.1831108 -0.0078357905
0.09476167 0.014549063 0.050296593 -0.21952355 0.012116331 0.03022228 0.102718905 0.0003645903
-0.12810744 -0.035389204 0.039532695 -0.051259745 0.106202334 0.14084984 -0.0053301584 -0.024537137
-0.11059898 -0.028377881 0.06607008 6.131063e-05 0.003985088 0.056793135 0.049726002 -0.060129855
-0.024264893 0.14031346 -0.012694704 0.105807275 0.13191773 -0.15883923 -0.087544456 0.04305232
0.061823823 -0.02738829 -0.08180804 -0.23800388 0.10611235 -0.11330294 -0.18576895 -0.101019494
0.15575281 0.0025548264 -0.017402371 -0.006155788 -0.15962003 -0.042576686 0.19372168 -0.009703328
-0.12953918 -0.046573885 -0.29184368 -0.2443739 -0.06730335 0.056714855 0.107668415 -0.09162634
0.014762054 0.095081046 -0.03537001 -0.014099903 -0.07586898 -0.006316032 0.04052876 -0.14809185
0.08074211 -0.0018451192 -0.002279298 -0.02573208 0.1085851 -0.032301396 -0.020119723 0.007077469
-0.061508734 0.053312764 0.08536122 0.027253713 -0.15073812 0.13276419 0.025070546 -0.02579366
-0.050209373 0.056550346 0.045119725 0.038438514 0.00017715583 0.036057875 0.052190475 -0.09198218
-0.13394128 -0.06101156 -0.13657817 -0.08518426 0.056267988 0.14773221 -0.037032135 0.18037407
-0.02107648 -0.05371704 -0.0897548 0.080322966 0.08881502 0.07691295 0.0009041117 -0.024526374
-0.2078976 0.10514215 0.08360835 -0.052525487 0.029365838 -0.030168386 0.0144426115 -0.06977668
-0.07218054 -0.054046433 0.077925034 -0.1334861 -0.010754044 -0.069846384 0.014805456 0.048230566
0.09157329 0.067047276 -0.0008686948 -0.07896365 0.08005402 -0.03847567 0.034758385 -0.118147865
0.08109166 0.12319433 -0.09463781 0.0011514158 -0.102343306 -0.008107451 0.20959717 0.23165494
0.15707149 -0.09753266 -0.0630183 -0.1983626 0.019337693 -0.12659566 0.11393024 -0.22303317
0.078158304 0.05001655 0.0636061 -0.050208293 -0.05873332 -0.0700389 -0.017102964 -0.03850247
0.04197204 -0.17600928 0.06339883 -0.0017059393 0.05767905 -0.060519174 0.07286976 -0.08102359
0.08289132 -0.0075109126 0.082474284 -0.41853046 0.00012696059 -0.11383552 -0.007971887 -0.10304234
-0.2218998 -0.09642485 -0.08606272 -0.06769639 0.049915683 0.02319048 0.072770804 -0.025845598
-0.02033893 0.16666706 -0.11455207 0.038714364 0.07191369 -0.094441175 0.038877446 0.10961118
0.044394523 0.087011866 0.0618398 0.15959875 0.03722802 0.027808165 0.0035847467 -0.24485156

_model.1._model.0.bias f4 [128]
00000000: e956 813b 65ef 51bb 1d9e 6c3b cb2a 9f3c
00000010: 7152 d2bc 0766 9e3c b50e fabc 18a6 86bc
00000020: cdd0 41bc 1f55 e5bc cffb 99bb 4b26 6cba
00000030: 29e5 10bc 46e3 983c 1d80 983c e16b 853b
00000040: dead 67bc ace2 d43c b95d 23bb c4e6 ab3c
00000050: df73 7ebc a56d 233d 5f0b b83c cbba 0abc
00000060: f14d 39bd 4dda c13b f889 043d 9fac 1f3d
00000070: f028 2cbc 7fe7 853c 80e5 d33c 5d8e 42bc
00000080: 9559 19bc 0f65 033c a830 7fbb c703 31bc
00000090: 9588 2a3c b35a 52bb 39d3 8e3c 3b3f 57bc
000000a0: 3e78 36bc ab63 b73c 79dd 383b 5829 113b
000000b0: 53ab 1ebc 8b1e 993c dcfb b6bc 8a9f 11b9
000000c0: d7ff 903c ce84 a03c 7de6 e43c e359 0639
000000d0: 74ec e03b d50e 45bb da5e 273d 06d5 cd3b
000000e0: 86b4 06bd d072 ca3c 312e 08bc 37c3 823c
000000f0: e204 25bc 0202 b3bc 59f0 88bc 8333 7dbc
00000100: 3b61 08bc 7237 7b3b e070 253c 8d0e 1ebb
00000110: b597 163c 7735 44bc ef1e 30bd 2417 67bc
00000120: 6a51 4ebc 2650 723c 184f dcbc 0b2e 3b3d
00000130: 5dbe a63c 20f2 223d 425b a13b dc60 8a3c
00000140: 4435 b73b 5aac 3a3d 8c82 b8bc 1d67 d73b
00000150: b0be ad3c 28b6 5abc e863 2a3b 1a06 533c
00000160: 9912 9d3c ccd1 febb b84f a53c 927d b63c
00000170: f0c9 d43c 6ad1 793c a8d6 abba 3610 a93b
00000180: 361f ccb8 bc7a 58ba 9a6d 2d3c 315d d43c
00000190: f0cf 0a3c 6801 ad3c d546 423c 31ee 38bc
000001a0: e933 753c 14af bc3b ab6b 943b f610 a33b
000001b0: f356 8f3c e011 193c 9a1c 8bbb 8511 0e3d
000001c0: 9fe5 973b 5f12 a53a 0087 123c 65a8 4f3b
000001d0: 7b8d 58bc 9867 f53b 2b1e 063d dbd4 5fbb
000001e0: e7fa 253d 6e12 23bc 7015 1cbb 369a 853b
000001f0: 8142 803c 58db c4bb 48b7 723c 9c2d b6bb
0.003947128 -0.003203356 0.0036104985 0.019429585 -0.025674077 0.01933576 -0.030524591 -0.016436622
-0.011829567 -0.02799469 -0.0046992074 -0.00090083916 -0.008843699 0.01866306 0.018615777 0.004071698
-0.014140574 0.025986992 -0.002492769 0.020984061 -0.0155305555 0.039899487 0.02246636 -0.0084673865
-0.045240346 0.005915916 0.03235814 0.038982984 -0.010507807 0.016345738 0.02586627 -0.011874762
-0.009359737 0.0080197 -0.0038938913 -0.010804123 0.01040854 -0.0032097518 0.017434703 -0.013137634
-0.011137066 0.022386393 0.002820818 0.0022149887 -0.009684402 0.018691322 -0.022336893 -0.0001388771
0.017700119 0.019594576 0.027941937 0.00012812721 0.006864125 -0.0030068655 0.040861942 0.006281498
-0.032887004 0.02471295 -0.008311794 0.015962226 -0.010071965 -0.021851543 -0.01671617 -0.015454176
-0.008323963 0.0038332609 0.010097712 -0.002411756 0.009191443 -0.011975638 -0.04299825 -0.014104638
-0.012592653 0.014789617 -0.026893184 0.045698207 0.020354444 0.03978169 0.004924209 0.01689189
0.0055910666 0.045574524 -0.022523187 0.0065735714 0.021209091 -0.0133490935 0.002599949 0.012879873
0.019173907 -0.0077764746 0.020179614 0.022276673 0.025975198 0.015247682 -0.0013110237 0.005159403
-9.7332915e-05 -0.0008258035 0.010585213 0.025923343 0.008472428 0.021118835 0.011857708 -0.011287258
0.01496599 0.0057581756 0.0045294366 0.004976387 0.017497515 0.009342641 -0.004245353 0.034684677
0.0046355273 0.0012593976 0.008943319 0.0031686064 -0.013217325 0.007489156 0.032743614 -0.0034153971
0.040522482 -0.009953124 -0.0023816489 0.0040772213 0.015656712 -0.006007593 0.0148142055 -0.0055596363

_model.2._model.0.weight f4 [51, 128]
00000000: 8ccd abbd 1a62 383d fb22 8ebd afbd 423c
00000010: 5986 92bc 01f5 2b3a c06f aabb 01f9 e83c
00000020: f339 56bb 3e47 54bd 24ea 393c fbf9 013d
00000030: 52ef 013d c79d 7ebd 457d b2bc 7874 6cbd
00000040: aef8 68bc cc7c 3a3d 28b1 94bd 6123 48bd
00000050: d22e 11bd 0408 0cbe 3c95 0d3d eda1 91bc
00000060: d89b 083d 7004 8abb a07b cfba e999 dabd
00000070: 813c 933c ce09 9abb 8e18 9d3c 2811 61bd
00000080: 0926 bb3b 5438 97bc a84b 18bd e77d 953d
00000090: a9f2 533d de29 4cbd 740c 08bd 4f96 553c
000000a0: bced 333d ee59 c23c b62e 953d 2d45 c33c
000000b0: 5178 59bc 242f c93d 6253 cf3d a699 bd3a
000000c0: d442 3f3e da03 3dbc dd99 8abe de8f 08bd
000000d0: 4c58 fc3c 8fcb 8bbd d8e0 83bd 246b 293d
000000e0: 53cf da3c d8a6 7dbc 309c 563d 3467 d33c
000000f0: 1d31 8e3d 0dc1 98bd 0e0b 903d faa1 b9bc
00000100: ba25 363c d8dd 2abc 5b7a 8ebd 04a5 4f3b
00000110: e070 08bd 220a 233d 729e 973c edc3 05be
00000120: 3e4a ac3c 9f83 59bd 4de1 0d3d 5164 17bd
00000130: f383 d9bb fb66 53bd 5035 9a3b 40b0 2c3c
00000140: 6bea 1bbd 757d 9a3d 9c47 f5bb f0b9 0cbd
00000150: 042c c83c 00f4 a1bd bda3 483d f5d0 02ba
00000160: 1acb a13b 784c f7bc 5b8f 823d a248 123d
00000170: e8a0 3fbd c878 103d d99e bf3d 4586 1b3c
00000180: f73d 44bd f7a8 a53b 5f7b 8a3d 2a5d 50bd
00000190: 1a69 74bc 0b56 993d 182c 68bd 0731 2f3d
000001a0: 0485 613c 15e2 313d 4d41 abbb 01ee adbd
000001b0: b2db 333d 58ea 0c3d 0b55 6e3d a4d5 91bb
000001c0: 0c94 ddba 4d60 39bd 7de3 da3c 2f50 653d
000001d0: 01a8 acbd 16e7 85bc 0bd5 773c efa8 723d
000001e0: 3a35 c43c 44e2 143d f7df 13bd 27d2 3fbd
000001f0: 4672 14bd 94ed 263d bd37 8b3d 3aa4 b6bb
00000200: 615d ddbc 22aa 063d afbb b3bd 8364 43bc
00000210: 83b3 3d39 cb84 e73c a5b6 aebc ba67 963b
00000220: 02ba 743c 45e9 2c3d 508d 1f3b 2715 a63a
00000230: 5048 9abc fce0 cfbc 0dd1 fe3a 0751 023c
00000240: 0bff 9fbc 414a ccbc 9646 0a3d 5f01 88bb
00000250: a482 e1bc 094c 86bc 1188 1a3d 31d0 173d
00000260: c131 afba 64ce 903c edd2 abbc da7f 4a3d
00000270: 3eba 10bb c89b 17bc 2acf 0a3d 21bf 09bc
00000280: fa46 10bd 12f0 61bc 4bc2 7c3d 9c6f 863c
00000290: f2b2 b73d c831 273c 48ec 123c 7c0a 96bb
000002a0: e5b1 06bd 4ca2 77bb 9115 2fbb 3cd5 94bc
000002b0: 4d33 f8bc 1e1c a8bb 31dd 11bd c2fc 4e3c
000002c0: 4a12 6fbd 501c 4f3c 260c 5b3d 4257 50bc
000002d0: 55fb 323c 5940 ad3c 9160 65bd fcc5 0d3d
000002e0: 77bb 503d 9ba3 dfbc b254 e3bc d04a edbb
000002f0: 03e6 9f3a 9fdf 433b 1c65 08bc 0972 843c
00000300: bc1d 09bc 0fa8 6cbd a689 083c 045a 56bc
00000310: cda9 34bc 7f5e 68ba 40d1 bc3c b040 f63c
00000320: 6c91 0e3d 00b9 f3bc 405a cc3c 4762 ecbb
00000330: 07d6 a53c 14b9 8bbb f5fd 8dbc 6e81 22bd
00000340: c839 353d e41d 8fbc c1f6 9aba ec45 dabb
00000350: 27db 5e3d 8fde dabc 2406 4abc 7ec3 fabc
00000360: ca0f 203d 796a 2b3c d19e 613d c219 87bb
00000370: 7f25 16bd 1a99 4bbd d9d6 863d 4051 62bd
00000380: 8df5 a13c 3208 4f3c 9d2e 233b 5e42 dcbc
00000390: bf51 dd3c c25b 8cbb f071 d3bc ac03 0b3c
000003a0: 39e0 a6bd fe5c cd3c d58d 89bd 306e febc
000003b0: 3c2c bb3b 7052 333d efb1 193d bbe0 9abd
000003c0: fbc4 b6bb 8426 89bc 06f0 3dbd 41ed e93b
000003d0: 8973 fe3c cf80 193d af24 50bb d0e3 bcba
000003e0: b615 aabb 58ac 783c 5445 393d bf71 c13c
000003f0: d0b8 1fbc b898 933c ddda e3bc 7cd4 8e3c
-0.08388814 0.045015432 -0.06940266 0.011886044 -0.017886328 0.0006559641 -0.00520131 0.028439047
-0.003268835 -0.051825754 0.011347327 0.03173254 0.031722374 -0.062162187 -0.021788249 -0.05772826
-0.014219446 0.04552917 -0.072603524 -0.048861865 -0.035445042 -0.13674933 0.03456615 -0.017777408
0.03335175 -0.004211955 -0.001582969 -0.10673887 0.017973186 -0.004700876 0.019176748 -0.054948002
0.0057113213 -0.018459477 -0.037181526 0.072994046 0.05174509 -0.049844615 -0.033215 0.013036325
0.043927893 0.023724522 0.072843 0.023836697 -0.013273315 0.098234445 0.10123326 0.0014465346
0.18677837 -0.011536563 -0.27070513 -0.033340327 0.030803822 -0.06825935 -0.0643937 0.041361943
0.026710188 -0.015481673 0.052395046 0.025806047 0.06942961 -0.074586965 0.070333585 -0.022660244
0.011117393 -0.010428868 -0.06956931 0.003168405 -0.03331077 0.039804585 0.01850817 -0.13063021
0.021031495 -0.05310404 0.03463869 -0.036960904 -0.006638044 -0.05161188 0.0047060624 0.010540068
-0.038065355 0.0754346 -0.007485343 -0.03435701 0.02443505 -0.079078674 0.048984278 -0.00049902435
0.0049375417 -0.03018783 0.06374999 0.0357138 -0.04678431 0.035271436 0.0935647 0.009492462
-0.047910657 0.0050555426 0.067618124 -0.0508701 -0.014917636 0.074871145 -0.056682676 0.042771365
0.013764624 0.0434285 -0.0052262903 -0.08492661 0.04391069 0.034403175 0.058186572 -0.004450517
-0.0016905083 -0.045257855 0.026719803 0.055984672 -0.08430482 -0.016345542 0.015126477 0.05924314
0.023951162 0.036348596 -0.03610226 -0.046831276 -0.036241792 0.040753916 0.067977406 -0.0055737766
-0.027022066 0.032877095 -0.08776032 -0.011925819 0.00018091318 0.028261563 -0.021327326 0.004590002
0.014936926 0.04221465 0.0024345703 0.0012671099 -0.01883331 -0.025375836 0.0019440964 0.007953889
-0.019530794 -0.02493775 0.033758722 -0.004150554 -0.027528115 -0.016393678 0.03772742 0.03706378
-0.0013366268 0.01767654 -0.0209746 0.049438335 -0.0022083665 -0.00925345 0.033888973 -0.008407385
-0.03522394 -0.013790147 0.06170873 0.016410641 0.08969678 0.01020474 0.008967467 -0.0045788866
-0.032884497 -0.0037785945 -0.0026715735 -0.018168084 -0.0302979 -0.005130305 -0.035611335 0.012633504
-0.05836705 0.012641028 0.053478383 -0.012716116 0.01092418 0.021148847 -0.056000296 0.03461264
0.05096003 -0.027299693 -0.027750347 -0.0072415844 0.0012199286 0.0029887927 -0.008324888 0.016167657
-0.008368906 -0.05777746 0.008333599 -0.013082985 -0.011026812 -0.00088641787 0.023048997 0.030060142
0.034806654 -0.0297513 0.024945378 -0.007213864 0.020243658 -0.0042640064 -0.01733301 -0.039674215
0.044244558 -0.017470308 -0.0011822806 -0.0066611674 0.05440822 -0.026717452 -0.012330566 -0.030610796
0.039077558 0.010462397 0.0550831 -0.0041229436 -0.036656853 -0.049706556 0.06583948 -0.055253267
0.019770408 0.012636231 0.002489961 -0.026887115 0.027016519 -0.0042833993 -0.025811166 0.008484762
-0.08148236 0.025068756 -0.067165054 -0.0310584 0.0057120603 0.04377979 0.037523206 -0.07562395
-0.005577681 -0.016741998 -0.046371482 0.0071388786 0.03106095 0.037476357 -0.0031760146 -0.0014411155
-0.0051905764 0.015177809 0.045232132 0.023613809 -0.009748653 0.018017158 -0.027814323 0.017435305

_model.2._model.0.bias f4 [51]
00000000: 6871 463d 802b 813b 6792 af3a 4182 cbbc
00000010: 56ab 893b cb7a 123d 691d 513c 083d 5c3c
00000020: e4a9 c0bc 98b3 cfbc 5b67 28bc 8da6 96bc
00000030: 4d82 91bc 5e28 733b ae8e 403c 4b2f c83b
00000040: a07f 823b 8c8a 183d 8bf7 edbc 3a93 343c
00000050: a18f 51bc c272 61ba 71de e53c 4eb0 84bc
00000060: 44ee 89bc dfe4 383c f9ea 01bc 196e 4bbc
00000070: fc41 b43c 91f4 013c 45da 7abc 5e4e 093d
00000080: 38f5 cabb cfbd a73c e50b 253d b697 02bd
00000090: 8ecf c03c a29e 3e3d c819 58bd d468 203b
000000a0: 2bc3 d2bc b904 08bd fa38 1e3d 9149 50bc
000000b0: 36bd 113d a845 753d bb84 68bd e0d3 a13c
000000c0: 113a 01bc 3036 323d f385 353c
0.048447996 0.003941953 0.0013395072 -0.024842383 0.004201333 0.035761636 0.01276336 0.013442285
-0.02351851 -0.025354192 -0.010278548 -0.018389964 -0.017762328 0.0037102918 0.0117527675 0.0061091534
0.0039824992 0.037241504 -0.029048702 0.01102143 -0.012790591 -0.0008600169 0.02806017 -0.01619735
-0.016837247 0.011285036 -0.007929557 -0.012416386 0.02200412 0.007931844 -0.015310829 0.033522002
-0.006193783 0.02047625 0.040294547 -0.031882964 0.02353647 0.046538003 -0.052758962 0.0024476545
-0.025727829 -0.03320763 0.038628556 -0.012712852 0.035580836 0.059880883 -0.056767207 0.01975435
-0.007887379 0.04350871 0.011079299
