data/etc/pretrained_model/boxing/task_agnostic_policy_motor_decoder_exp7_1000.pt (torch_old, 232478 bytes, 6 tensors)

_model.0._model.0.weight f4 [128, 270]
00000000: 2e77 ee3b 56bb 143d 58a0 7cbc b009 303e
00000010: 48a8 ddbd 2389 24bd c359 a9bd 1cde 54bd
00000020: abcd 6c3d 25a7 ad3d c7a1 b23d fb19 40bd
00000030: b5d0 823c 0f24 1e3e 591c 16be 14ed fb3c
00000040: f18f 4cbd 2e89 9d3e f680 0f3e 41b6 843b
00000050: 9fef b43d 8861 643d 9b29 653d bbbc 5f3c
00000060: cbe9 403d ea33 593d 000a 903e 20cc 73bd
00000070: 022f 2dbe 3b24 e43e ad4b af3d e83f 083f
00000080: 77b0 243d d10f aa3d 0426 25be cab4 ae3c
00000090: 543f cd3d 4e95 0c3d 79e5 03bd 80ab 903e
000000a0: 16d1 8bbe a7c4 86be df9e 26bc 24b3 ef3d
000000b0: 51c0 903e e9b1 a33d cbc5 1bbb 971c 20be
000000c0: b1e7 20bd 127d 883b 984d 3b3c 75b2 ce3a
000000d0: 4d46 1ebe f396 453c 1c58 283e a22a a7be
000000e0: ccc0 643e 70d7 30be 5ab7 1c3d d336 8ebd
000000f0: 63c6 4ebe 5a5a 463c c51d 7c3d 9396 a5bc
00000100: 3e4a 853c d7ac 763b 9f08 9bbd 1f3f 88bd
00000110: 8bed 2a3e c6b1 093e e8a7 f4bd b52c 743d
00000120: 6c14 94bd 5c04 00be 0176 6b3d b1dd 28bd
00000130: 2a41 2e3d f2db dabc 188c c4bd d5e4 28bd
00000140: 308c aebd 6872 8dbc 1def 0f3e 16a4 653d
00000150: c041 49bc c983 fabd 46bd 0d3d b5fe 163c
00000160: cab2 853c 7755 a53c 2784 033d 0026 84bd
00000170: 6233 943b 08f2 3a3e cb69 553e 6955 29be
00000180: d6c4 45be 07aa 413d 8517 c53d 39a0 1fbd
00000190: 9cb1 75bd 99ff b93c 638b ce3c 923a 9ebc
000001a0: 7045 93bd 0239 45bd 5fcf e93d 3f2d a2bd
000001b0: e7c3 6e3b 5572 2bbe 9435 c1bc 1444 083d
000001c0: 1da5 ca3c 6e17 8f3d 2136 9abb 28e9 0fbd
000001d0: 632d 873b c324 45bc 292b ae3d d145 213e
000001e0: 850e 393d cb4d d43c 3530 8abe 0aa9 bbbd
000001f0: 5326 263d 488a 83bd 2bac 27bc 156e 9c3d
00000200: 626c 953d 6f37 8c3c 2d5d babd ad55 00bd
00000210: e122 9d3d 4790 4bbe c83d 2f3c f5f1 47bd
00000220: 86c4 0d3d 3565 98bd d539 f3bd fba6 05bd
00000230: 1520 5b3d a2d8 80bc 8137 ffbc f8ed 763d
00000240: 1687 64bc fffb 1d3c 0d34 ddbd 1705 583d
00000250: 4fa2 e2bc bc7b d23d 9c47 193d 501a 1cbc
00000260: 8f7f 993d 4082 ffbc ef17 043c c63d 883c
00000270: 150b 1a3d d5b5 cf3d ca86 9d3d 01ef 78bc
00000280: 13c4 c2bd 6b72 88bc 1fa8 01bd a6ee 5e3c
00000290: 05e9 013d 3d2f 18bd 7958 a5bc 2a75 a73c
000002a0: 2e40 4e3c 5e12 363b 6534 c8bd 44d5 ee3d
000002b0: 5817 fcbd a0e4 033d 1e03 2e3d d898 f43b
000002c0: 698a b83d 28ad 81bd a4bc 103e 18b4 ea3b
000002d0: b484 373d 936c de3c 6b57 b5bd 908a 123b
000002e0: 0bcd 243e 28be dbbc e3f2 7a3d 7d60 88b9
000002f0: 8ed0 5a3d 3779 94bc 83a0 94bd f221 94bc
00000300: 7c0e 513c 5919 c8bc 626a f3bc 411a d13c
00000310: a7d9 753d 3a10 603d 7011 d9bb 118b 66bb
00000320: 54e7 75bd 6a72 d6bb acf9 babc 8626 debd
00000330: ef3c 2c3d 261a 1b3c f962 913d ae2b 83ba
00000340: 7542 6e3c f6b1 983d f283 143e ac7d 97bc
00000350: 871c b13c c7fe f83c 5844 a23d 7985 8dbc
00000360: 5d69 973d 483a a4bc 775c 0a3d 09f4 debc
00000370: 5596 613c 63ed f4bc b7a5 71bc 8987 333d
00000380: 69ff 183d 516e 34bc 4829 b9bc f756 cc3c
00000390: e3bd ff3d 0e9c 88bc 16a9 6cbc 98bc 173d
000003a0: b7c2 aa3b 71f3 67bd 3b52 cbbd 3cdc 5f3c
000003b0: 96f5 babd 4ed2 c6bc d920 cf37 1442 f7bb
000003c0: 6848 09bd 5bc7 303d 45b3 1f3e 1e03 61bc
000003d0: 0b15 a63d c231 57bd 7d7b 80bc 1920 2ebe
000003e0: 8051 8abd 0d2a f73d 03e5 05bd b92e 26bc
000003f0: c8c6 e13d 1e3d 223d 02e1 a5bc dbde 653d
0.007277391 0.03631147 -0.015419088 0.17191195 -0.10823113 -0.040169846 -0.08269074 -0.051969633
0.057813328 0.08479146 0.08722263 -0.046899777 0.01596866 0.15443443 -0.14659251 0.030752696
-0.04994196 0.30768722 0.14014038 0.0040500467 0.088347666 0.055757076 0.05594788 0.013655837
0.047097962 0.053028025 0.2813263 -0.05952084 -0.16912463 0.44558892 0.08559356 0.53222513
0.040207352 0.08303798 -0.16127783 0.021326441 0.100218445 0.034322076 -0.032201264 0.28255844
-0.27307957 -0.2632191 -0.010169714 0.1170409 0.28271726 0.07992918 -0.0023769017 -0.15635906
-0.03928346 0.0041653 0.011432074 0.0015769737 -0.15456505 0.012059915 0.16439861 -0.32649714
0.22339171 -0.17269683 0.038260795 -0.06944051 -0.20192866 0.012106502 0.061551828 -0.020213401
0.016270753 0.0037639642 -0.07570004 -0.066526644 0.16692178 0.13446721 -0.11946088 0.05961295
-0.07230458 -0.12501663 0.057485584 -0.041227046 0.042542614 -0.026716206 -0.09597033 -0.041233856
-0.085228324 -0.017266467 0.14056058 0.056064688 -0.012283742 -0.12232167 0.034604333 0.009216
0.016320605 0.020182354 0.032108452 -0.064525604 0.004522727 0.1825639 0.20841138 -0.16536488
-0.19313368 0.04728129 0.096236266 -0.03897116 -0.059983835 0.022704886 0.02521295 -0.019315038
-0.071909785 -0.04815007 0.11416506 -0.07918786 0.0036432685 -0.16742833 -0.023585118 0.03326805
0.024736935 0.06986891 -0.0047061597 -0.035134465 0.0041252836 -0.01203269 0.08504326 0.15749289
0.045179863 0.025916 -0.26989904 -0.09163101 0.040563893 -0.064228594 -0.010233919 0.07638184
0.07296063 0.017116277 -0.09099803 -0.031331707 0.07672668 -0.19879256 0.010695882 -0.048814733
0.034611247 -0.07441179 -0.11876265 -0.032629948 0.053497393 -0.015728299 -0.031154396 0.06028554
-0.013948223 0.0096426 -0.108009435 0.05273923 -0.027665285 0.10277507 0.037421808 -0.009527758
0.07495033 -0.031190038 0.008062347 0.016631018 0.037608225 0.101421036 0.076917246 -0.015193702
-0.095100544 -0.016656121 -0.031654473 0.013606703 0.031716365 -0.037154425 -0.020183789 0.02044161
0.012588544 0.0027781944 -0.097756185 0.11661771 -0.1230914 0.032200456 0.04248344 0.0074645095
0.09010775 -0.06331855 0.1413446 0.007162582 0.04480429 0.027151382 -0.08854564 0.0022360422
0.16093843 -0.026824072 0.06126679 -0.0002601183 0.05342155 -0.018124206 -0.07257178 -0.018082593
0.012759801 -0.02442615 -0.029713813 0.025525214 0.060022023 0.054702975 -0.006624393 -0.0035178105
-0.060035065 -0.006544401 -0.022824131 -0.108471915 0.0420503 0.0094666835 0.07098956 -0.0010007524
0.014542212 0.07455818 0.14503458 -0.018492542 0.021620048 0.030394925 0.07923192 -0.017275559
0.07393143 -0.020047322 0.033779588 -0.027215974 0.013768752 -0.029898351 -0.014748982 0.04383043
0.037352953 -0.01101263 -0.022602692 0.024943812 0.1248739 -0.016675975 -0.01444461 0.03704509
0.0052112 -0.05662865 -0.099277936 0.013663348 -0.09128873 -0.024270203 2.4691619e-05 -0.007545719
-0.033516318 0.04315887 0.1559573 -0.013733653 0.081094824 -0.052537687 -0.015683884 -0.17004432
-0.06753826 0.120685674 -0.032689106 -0.0101429755 0.11024243 0.039609067 -0.020248894 0.056120735

_model.0._model.0.bias f4 [128]
00000000: 6d3b ea3b 5a78 5b3c eaf8 913c f353 8f3b
00000010: 1938 06bc 9aff 323b 860d 563b 2e88 dcba
00000020: 59b8 863c 0efb ff3b 21e3 783b 4250 533b
00000030: 0b1c 06bc 7cb5 17bc b63d 6e3c bc59 ff3a
00000040: 3fda a13c f9ce 01bc 6d69 d7bb c776 27bc
00000050: 3c8b 3d3d aa15 e4ba 14fa 0c3c 85b1 043c
00000060: fc6e 763b 4050 38bc fa30 ec3b 7059 36bc
00000070: e9c1 48bc 21df 913b 04d9 ec3a 14c6 f4bb
00000080: 3403 a4bc c5b4 24bc 60f5 f63b 8567 15bc
00000090: 67a1 25bc 588d 9e3b ede8 1a3c e3fe eb3c
000000a0: b878 9cbb cd9b b03b ace8 9bbb eae8 11bb
000000b0: 770d 353c 4acf 3c3c 5be2 0bbc 9963 053c
000000c0: 9aaa 6f3b eb3d 083c 0652 27ba 87fa 02ba
000000d0: 3d4b 813a 15d0 65bc 575a 4dbc 53f2 f93b
000000e0: 2644 8e3b 7ed7 76ba 845f 88ba c3c5 b73c
000000f0: 3b43 ae3c 5087 4a3c 30fb a83b da42 4b3c
00000100: 8816 82ba 9742 90bb 1007 9c3b 178a 39bb
00000110: ea5f e9bb 9341 193c 1673 bbbb 9d10 1cbb
00000120: 2433 8a3c 3c93 ba3b d15e 483c 72c4 9c39
00000130: 3ddc 583b 7916 a6bc bff7 4f3c 961b 0f3c
00000140: e330 073c cc6d 253b ef23 f13b a38c 143b
00000150: cd9f 783b b142 663c 40b2 40bc f87d 653c
00000160: e5f9 a63c c272 4d3c 4539 3bba a760 0bbc
00000170: fb24 173c 934e a13c 12a7 7ebb 2109 72bb
00000180: 7a64 303c 33a8 233c c6f3 dcbc 5512 7c3b
00000190: 1ec9 8bbc 2d62 313b ad0a 963c f9d0 1e3c
000001a0: e857 77bb 7cba 6539 2e4b b43c 6052 23bb
000001b0: 5b1d 28ba d875 0f3b 0984 b03c d61a 993b
000001c0: bb29 653c a504 b0bb 38ad 9e3a 067e 8dbc
000001d0: 247f 223c 9edf 043d 3247 75bc d041 603b
000001e0: e4eb 87bb a62e 0dbc c46b 7abb 1650 5fbc
000001f0: 9ece 0dbb fb98 b13b 23d9 203c 846a 8b3b
0.0071481974 0.013395393 0.017818887 0.004374021 -0.008192086 0.0027312995 0.003266187 -0.0016825253
0.016445326 0.0078119105 0.0037977176 0.0032243882 -0.008185397 -0.009259578 0.01454108 0.0019481699
0.019757388 -0.007922881 -0.006573847 -0.01022119 0.046275362 -0.0017401476 0.008604545 0.008098965
0.0037602773 -0.011249602 0.007207987 -0.011129722 -0.012253263 0.004451648 0.0018070047 -0.007469902
-0.020021059 -0.010052864 0.007536575 -0.009118919 -0.010109282 0.004838627 0.009454948 0.028808063
-0.004775133 0.0053896667 -0.0047579613 -0.0022264072 0.011050574 0.011524031 -0.008537854 0.008141422
0.0036570192 0.008315544 -0.0006382767 -0.0004996438 0.0009864342 -0.014026661 -0.012533746 0.0076277643
0.00434162 -0.0009416266 -0.0010404442 0.022433167 0.021272292 0.012361363 0.005156897 0.012406075
-0.0009924928 -0.0044024694 0.004761584 -0.0028311068 -0.0071220296 0.009354013 -0.0057205064 -0.0023813613
0.016870089 0.0056938212 0.012229637 0.00029901002 0.0033090257 -0.020274388 0.012693345 0.008734604
0.008251402 0.0025242446 0.00735902 0.0022666834 0.0037937046 0.014053986 -0.011761248 0.014007084
0.02038283 0.012539567 -0.0007142018 -0.00850693 0.009225125 0.019690787 -0.0038856906 -0.003693171
0.010766143 0.009988832 -0.026971709 0.0038463075 -0.017063674 0.0027066574 0.018315637 0.009693378
-0.0037741605 0.00021908613 0.022008505 -0.0024920925 -0.0006413066 0.0021890309 0.021547334 0.0046723885
0.013987 -0.0053716474 0.0012106067 -0.017272007 0.009918008 0.03243982 -0.014970588 0.0034218915
-0.0041479934 -0.008617079 -0.0038211206 -0.013629934 -0.0021638046 0.005419848 0.009817394 0.004254641

_model.1._model.0.weight f4 [128, 128]
00000000: 13f6 b6bd 40d0 a0bd b3e9 333b 3f88 b5bb
00000010: b620 12be a0a7 89bb d3f3 9dbb d587 f73d
00000020: 79c8 ba3d 7689 2cbc bc86 403c 1a2f f8bc
00000030: a1ff 933d aeac 343c 2483 66bd 9636 d73d
00000040: cfc9 0bbe ad67 84be d70a b13c bc10 153e
00000050: 8135 dfbc 3985 e33d 1eec ff3d c5c6 e8bd
00000060: dce3 95bc 15cd 8b3d 0570 87bd 49b5 36be
00000070: c570 17bc 2fd6 573d cf47 db3c 12a3 abbd
00000080: c569 0c3d 8370 cd3c 86bc b9bd 331d 663d
00000090: 9bd4 cabd a985 6fbd b72e 00be e010 d5bd
000000a0: 59b2 afbd e8a7 e63c 97ed 86bd ca58 ddbd
000000b0: e9ca 06bc c00c 2e3e 4d3f cc3d dd01 aa3c
000000c0: d653 703c 0cec 7fbe e763 a2bd b792 323d
000000d0: cee7 1abe f945 d03d 8f68 a6bd 02b9 473d
000000e0: 39d7 d5bc 7fd9 9d3c 1c25 093d 16bf 59be
000000f0: a74e 173c 0615 ae3c 13b5 89bd 40a8 d7bd
00000100: 2a5e 383e 75e6 d9bc c432 0e3e ebce 7d3d
00000110: 7367 b0bd 4838 dd3d 9f13 8b3c 0057 6a3e
00000120: f9fa 463c 1d8c 963e 4b2f b4bb e9d9 9c3d
00000130: 1653 d4bc 8895 063c 158e 10be b01d 23bd
00000140: ccdc 723d bb84 4dbe 2de5 813d 49e8 c0bd
00000150: 8280 c63b 0fac 3dbd f4be b83d 8fda d4bc
00000160: 56d1 15be afa1 973c 79f5 4d3e 876f 203e
00000170: 5141 83bd 2f46 093e a6db 0b3c 9aea 2ebe
00000180: 3c81 31be f907 bebd fa2b 873d 068f 6c3c
00000190: c8d4 ba3c e6fd dfbc 13f7 973d 99a9 bb3d
000001a0: ce46 e3bd 81bb 313c cb75 4cbd 79a7 443d
000001b0: bb84 413e 31d1 e03c e526 8abd 558a 5fbd
000001c0: edf8 fabc a13e 943d 3a37 c9bd 2a87 c0bd
000001d0: 3b52 fdbd b2b0 42bd 123f c3bc 793b 093e
000001e0: ea73 c8bc 5be4 363d 1dc6 ecbb 4396 97bd
000001f0: cdc2 a3bd ce8c 0abd 04a1 2dbe 0b29 c63d
00000200: c01d 573e 5a6a 433c 67b9 803e cf3a 80bd
00000210: 887a 45bd 8946 f0bd 013c d33c d469 553c
00000220: d31b d33d 730b 233e 66ad 9abc 8314 b33d
00000230: 8b18 20bd b162 133b 9dda 9bbc 3d10 4cbe
00000240: 3717 803c f9c6 a0bd b9bc 05be 8fc5 cc3c
00000250: 303f ddbc 4f95 e4bc a635 83bd 2665 cd3a
00000260: 3e97 4cbd fbfc 4ebc af89 ce3d c16d a83e
00000270: 041e d23b e40e 85bd c5d3 893d 00fd aabc
00000280: eb57 ed3c f1d3 ef3c 093d 053e 73e3 0a3e
00000290: c3ad b6bc 370c 443b 1d93 b23d bdf0 b03c
000002a0: 7136 3fbd 2fd7 ac3c 7ee8 c63d bfd1 b4bb
000002b0: bd88 be3a 0d44 bfbd a43f 1abe 93e3 5e3d
000002c0: c824 7fbb 7451 6c3d dc5a eabd e453 d53c
000002d0: 9a12 523d e113 05be d947 2d3d 43a2 38bd
000002e0: 38fd 933d 80ef 1ebd 30cf da3d be8b 4abd
000002f0: ceae 84bd 95a8 cdbd 4c72 d13d f128 71bd
00000300: 1a58 0ebe 37e8 943d 15f3 923d eb80 84bd
00000310: b9fb 58be a298 a23d 3e0e 96bd 8d10 56bd
00000320: 2a7a 4ebe 8d1a 483e 1911 b03d 8674 43be
00000330: 27cd e6ba 7f35 3fbd 1014 2d3d 7abc 8dbc
00000340: d00e 5dbd 64b9 a43b b617 583e 7b58 a23d
00000350: ee17 7abd d813 8d3d 7bff 953c b05f 3f3d
00000360: 890a e63d a7aa 98bb 73f8 6bbc 2cc1 2fbc
00000370: ea5e 503d edf7 af3d 0416 33be 92a2 53bd
00000380: 4876 de3d 78d0 f23d fa8e 3f3d 7612 533d
00000390: 8684 88bd 2d95 e6bc 7f05 84bd f2c2 3abd
000003a0: 056a b1bd 8e3c 383d 243d a03d 3ab2 133d
000003b0: b6f1 ca3d 3e95 05be b5d9 c93d d41a 883d
000003c0: 7ac7 a0bc 5206 91bc c3b5 903d ded5 b33d
000003d0: 2828 36be 21db 8936 67c4 19bc 8c16 27bd
000003e0: 6260 10be 435c d7bd 9f50 6abd c14d 6cbd
000003f0: 45bd 22be 7b37 cabd 9073 fe3d 6ceb 69bd
-0.08933654 -0.078522205 0.0027452528 -0.0055399234 -0.1427029 -0.0042008907 -0.004820326 0.12086455
0.091202684 -0.01053082 0.011750873 -0.030295897 0.07226492 0.011027498 -0.05627741 0.10508458
-0.13651203 -0.25860348 0.021611614 0.14557165 -0.027247192 0.111093946 0.12496208 -0.11366037
-0.018297128 0.06826226 -0.06613163 -0.17842592 -0.009243195 0.052694496 0.02676764 -0.083807126
0.034280557 0.025078064 -0.09069161 0.05618019 -0.099038325 -0.058477078 -0.1251782 -0.10403609
-0.08578939 0.028156236 -0.065882854 -0.10807951 -0.0082270885 0.16997051 0.09973011 0.020752842
0.014668426 -0.24992388 -0.07929211 0.04359695 -0.15127489 0.10169596 -0.08125412 0.04876042
-0.026103603 0.01926875 0.033482656 -0.212643 0.009235061 0.02125026 -0.0672399 -0.10530138
0.1800467 -0.026599148 0.13886553 0.06196491 -0.086134814 0.108017504 0.01697713 0.2288475
0.0121447975 0.29403773 -0.005498802 0.076587506 -0.025918525 0.008214362 -0.141167 -0.039823234
0.0592926 -0.20070164 0.0634254 -0.09419305 0.0060578 -0.046306666 0.090207964 -0.025983123
-0.14630637 0.018509714 0.20113172 0.15667544 -0.064089425 0.13405679 0.008536255 -0.17081681
-0.17334455 -0.092788644 0.06600185 0.014438396 0.02280654 -0.027342748 0.074201725 0.091632076
-0.11097489 0.010847927 -0.049917024 0.048011277 0.18898289 0.0274435 -0.067457 -0.054575283
-0.030636275 0.07238508 -0.09824987 -0.094007805 -0.123692 -0.04753179 -0.023833785 0.13401593
-0.024469335 0.04465137 -0.0072257654 -0.07401707 -0.0799614 -0.033825688 -0.16955954 0.09675797
0.21007442 0.011927212 0.2514145 -0.06261217 -0.048212558 -0.117322035 0.025785448 0.01302572
0.103080414 0.15922336 -0.018881511 0.08744147 -0.039085906 0.0022489245 -0.019025141 -0.1992807
0.01563607 -0.07850451 -0.13060273 0.024996547 -0.02700767 -0.027903227 -0.06406717 0.0015670403
-0.049948923 -0.012633557 0.10084855 0.32896236 0.0064122695 -0.06496981 0.06729845 -0.020872593
0.028972587 0.029275866 0.13011564 0.13563327 -0.022299653 0.0029914507 0.08719466 0.021599168
-0.04668278 0.021098701 0.09712313 -0.0055181677 0.0014536601 -0.093391515 -0.1506334 0.05441625
-0.0038931835 0.057694867 -0.11443111 0.026040979 0.05128727 -0.12995864 0.042304847 -0.04507662
0.07226032 -0.038802624 0.10684049 -0.049449675 -0.06478654 -0.1004192 0.102268785 -0.058876935
-0.13900796 0.07270854 0.071752705 -0.06469902 -0.21189775 0.07939269 -0.07326935 -0.052261878
-0.2016379 0.19541378 0.08597011 -0.19087419 -0.0017608748 -0.046681877 0.04225546 -0.017301787
-0.053969204 0.005026983 0.21102795 0.079270326 -0.061057977 0.068885505 0.0183103 0.046722114
0.11232478 -0.004659015 -0.014402497 -0.010727208 0.050871767 0.0859221 -0.17488867 -0.05166871
0.10862404 0.118561685 0.046767212 0.051531278 -0.06665902 -0.028147304 -0.06446361 -0.04559607
-0.086628 0.044979624 0.07824162 0.036058642 0.09909384 -0.13045213 0.098559774 0.06645742
-0.019626368 -0.01770321 0.07065918 0.08781026 -0.17788756 4.108428e-06 -0.009385205 -0.040792987
-0.14099267 -0.105156444 -0.057205793 -0.05769134 -0.15892513 -0.09873863 0.124243855 -0.05710928

_model.1._model.0.bias f4 [128]
00000000: 961c 8c3c 9503 983c df90 a8bb 5d72 913b
00000010: 8a8e ac3c feb1 8bbc 56d3 de3b 7375 56bb
00000020: d761 943c a6e9 9f3c a000 983c aa88 29bc
00000030: 340a 42bc b3f6 70bb 5476 c1bb 2bf4 07bc
00000040: b7cc 503d 7001 703b 35ce 023b 9212 00bc
00000050: c64d 7d3b f682 3ebc d6bd 7b3c fcb8 ef3c
00000060: 055c 36bc 3b59 673d 78df 1ebd 342d a63c
00000070: 1d79 6e3b e0f8 4a3c ddce ca3c 355d 8e3c
00000080: ea70 e03c b36b 1c3d a77e acbc faa1 4cbc
00000090: 11d2 a53b 26ee bf3c 60d2 5f3d 08c6 0b3d
000000a0: 70ed 643c ae2f 33bc d61a 7b3b 4cf8 0a3c
000000b0: ca94 273d 3a48 ee3b fd54 85bb e2fc 953c
000000c0: 30e6 263c 6c96 d23c 419a e63c 8765 98bc
000000d0: 9791 95bc 8063 6a3c bd53 85bc d192 87bb
000000e0: e389 d13c ce2e f23a 6cd6 233c 80c3 59bb
000000f0: aa64 9fbc b6e6 d0bb 57a4 ca3b 1d37 86bc
00000100: 13b3 e83c 46b6 91bc d1cf a3bb 8b0b b339
00000110: 4ba7 a83c f383 27bc 9df3 4cbb 2bd7 e1bc
00000120: 80a5 523c a63d 10bd 6a18 3ebb dab7 a8bb
00000130: 7182 dd3c 1d6e 463c db00 583d f462 9e3c
00000140: 836e 26bb 917c 1e3d afc1 b0bc 2ce6 973c
00000150: 15a9 693c 697d 0f3c 419d aa3c 584a 00bd
00000160: 0ec2 543b 7364 f03c d25a f8bb fa3b 193d
00000170: e7b2 4abc 36fd 973c 88c9 423c 0b4f 5d3a
00000180: 59c1 c13c f427 473c c6fb e53b 1a89 53ba
00000190: 9a8a e8bc 3c00 cebc 9a73 b13a f8dc 2ebc
000001a0: 2332 913c 5967 603c b48d fdbb 173f fd3c
000001b0: b38a aebb 7a18 a53c 7558 f63b 152d 9ebc
000001c0: c086 32bc b534 d8bb 4063 013b 6a09 913a
000001d0: 9b79 0fbc b05e b83c 9de8 bf3b 12d7 b43c
000001e0: 2677 b53b c0d0 ad3c 0071 f0bb 8c94 9bba
000001f0: ae04 3b3d 8b27 1e3c 7f0d 023d fcba 403d
0.017103475 0.018556396 -0.005144223 0.004438682 0.021064062 -0.017052647 0.0068000956 -0.0032723814
0.01811306 0.019520592 0.018554986 -0.010347525 -0.011843253 -0.0036768138 -0.0059039984 -0.00829796
0.05097648 0.003662195 0.0019959335 -0.0078169275 0.0038651093 -0.011627903 0.015365085 0.029263012
-0.011130338 0.05648158 -0.038787335 0.020285226 0.0036388107 0.012388438 0.024756843 0.017378429
0.027397592 0.038188647 -0.021056486 -0.01248979 0.0050604423 0.023428988 0.05464399 0.034124404
0.013972625 -0.010936661 0.0038315556 0.00848205 0.04091338 0.0072717937 -0.0040689693 0.01830906
0.010186717 0.025706492 0.028149726 -0.0186031 -0.0182579 0.014305949 -0.016275281 -0.004137375
0.025578445 0.0018477084 0.009999853 -0.00332281 -0.01945718 -0.006375159 0.0061841416 -0.016383702
0.028405702 -0.01778711 -0.004999139 0.0003415014 0.020587584 -0.01022433 -0.0031273135 -0.02756842
0.012856841 -0.035215043 -0.002900625 -0.00514887 0.027039738 0.012111214 0.05273519 0.019334294
-0.002539546 0.038693015 -0.02157673 0.018542372 0.014261504 0.008757927 0.020826938 -0.0313209
0.0032464298 0.029344773 -0.007579186 0.037410714 -0.012371755 0.018553358 0.011888869 0.0008442259
0.023651766 0.012155522 0.007018539 -0.0008069441 -0.028386403 -0.025146596 0.001353848 -0.0106728
0.017724102 0.013696515 -0.0077378396 0.030913873 -0.005326593 0.020153273 0.007517869 -0.019308606
-0.010896385 -0.00659808 0.0019742996 0.0011065428 -0.00875702 0.022506088 0.005856587 0.02207521
0.0055378852 0.021217704 -0.0073376894 -0.0011869832 0.04565876 0.0096529825 0.031751152 0.047053322

_model.2._model.0.weight f4 [51, 128]
00000000: a774 9fbc 4cab bdbd c7ae 573c 4de7 d83b
00000010: bdcd 893d 9382 b83d de6e 973c 83f0 863d
00000020: 2fbc 293d 6b06 16bd 1205 6e3d ee0b af3c
00000030: 63fe ca3d bb37 8c3c a263 ab3c c0ff c83c
00000040: 0cfc 5f3e 6861 3a3c 3d47 47bc 7643 833c
00000050: 5a6f 723d c3af 2bbd 3dbe d93d 77f7 7839
00000060: 97ab 8cbc 17d2 193b 1cc6 af3c c59f 43bc
00000070: 7f69 29bc 5dde 053b e10f debd 20bf 4bbd
00000080: 6c90 27bb 82ce 823b 1874 7ebc 0e64 a63b
00000090: c5fa 293d 5703 86bd f5ed 3bbd 27f6 aebc
000000a0: ea57 853c f774 9c3c 5574 2e3d 2eb3 b8bd
000000b0: 9594 03bb 8e71 cebc fa1c 37bb 47cc c13c
000000c0: 5b54 ebbb b3db 7b3c b06c cb3c 45c7 08bd
000000d0: 8985 afbd fb0f e73c 2de5 dd3c 9520 9f3b
000000e0: 4bcd 87bd 2848 c23c bd60 bdbd af8c 803c
000000f0: c40f 863d f9a1 323c 4fac 97bc 9b47 a73b
00000100: 96ca 873c 6041 fcbc 5f43 3b3d 150c 433d
00000110: 3aea e8bd 8a69 0c3d 81c4 15bc 90f5 333d
00000120: a58a 133c dcd2 333d de7b 133d 5ff1 663c
00000130: 5f5c c73d a4e5 8fbd 79ce 06bd d9ef fdbc
00000140: faf1 42bd 9511 9abc 102f 893d 6bd6 bd3c
00000150: 36a2 ad3c 2fb9 873c e8ab 193d 90a5 bdbb
00000160: dfc9 0dbd 4c39 9f3b 080d 9fbc 801e 3cbc
00000170: 573e 1b3b c27d f3bb b0a6 97bd 3046 bcbc
00000180: bdeb 893d ef59 e2b9 d351 d1bc 7dd4 bfbb
00000190: 8893 39bd d0e4 bbbd bfb0 f53c 776e 7bbc
000001a0: dfb8 6abc 5091 e23c eac1 973d 5fea 32bc
000001b0: 3370 833d 2d25 b4bd 10c7 4f3c dd6e 253d
000001c0: c9eb 1a3c 0cf8 963c 26fe 9b3d 6d7f bd3c
000001d0: 2f35 d93c dbdf 87bd 03b2 babd b96d 95bd
000001e0: 9e4f 91bd dc78 fc3c 3c60 c1bc 9023 1dbe
000001f0: a4e4 a53c 1939 83bc 5a4c ab3d a9a8 d8bd
00000200: 7230 edbc 8948 15bc 6b54 72bb c231 3c3b
00000210: 309e e4bc 37a8 dcbc 8737 b4bc 2130 b3bd
00000220: 78c3 163d 75c6 2fbd 1403 313c 6928 0dbb
00000230: e5ed 37ba 0546 723d 87ae 9a3c 6497 03bd
00000240: 893e c5bc 712c 4ebc 0efd 06bc b767 a7bc
00000250: e7b3 46bc e9ba 7cbc bd7d 613d 2fe6 fbbc
00000260: 1464 433c 7a60 16bc 46f2 14bd 7292 ca3d
00000270: 4ad6 733c eece e1ba caaf 3c3d 4076 c4bc
00000280: 0d35 d13c 49d4 613c cfb2 2b3b 1189 8f3b
00000290: e963 ae3c dfb6 3e3c 29dc 333c 53a1 0ebd
000002a0: 15e1 b03c 8638 91bc 0021 7d3d 7f11 1cbd
000002b0: e9b3 7abc b47e 93bc edb1 873c a626 5abb
000002c0: b56a a93b e86c 093d 7a98 2cbd dcc4 4f3b
000002d0: eaab 19bd c445 ea3a 847b c3bc 413d 7fbc
000002e0: 5bb6 7ebc 0042 ca3c 660f b03c 30db d83c
000002f0: 30c1 283c b74f 123d 27f4 163b a94b b93c
00000300: a93d 36bc 17eb f13c b2b9 913c ab53 4dbc
00000310: f7fd 9abd 0e9d 423d f039 42bb a2ca 2eba
00000320: 420e a0bc 387e b9b9 0279 b53c b92e 823c
00000330: 2f3c 39bd 4ab2 203c 72ec cbbc af43 b5bc
00000340: 9035 53bb 0d72 a63c ed43 283d 4448 f83c
00000350: 787d ad3c 3874 cebb c267 893d 4801 3f3c
00000360: 5788 f9bc 4ab8 a3bc 21d2 93bc 6bb8 063c
00000370: f149 123d 2d53 0c3c 7018 77bc 19d6 25bc
00000380: 01d3 b03b 13a2 d73c 63a7 e4bc 0320 26bc
00000390: d599 2f3c e817 c3bb 9f1f 233c 5c4e abbd
000003a0: 778a 253c 5293 193c 42bd 963c 9757 803c
000003b0: d876 22bc 7fdf b1bb 9549 aebc 50e1 c43c
000003c0: 0945 703b 195f 10bd cd0e 17bc 558a 553c
000003d0: 72e6 cbbb a83e c73c a476 22bb 998c 0f3c
000003e0: 6903 83bc 5f01 733c 0d50 c3bc eb9c 373d
000003f0: 78cb a5bd 30b1 c0bc f653 18bd ffc0 8f3b
-0.019464804 -0.09261188 0.013164229 0.00661937 0.067286946 0.0900928 0.018485483 0.06588843
0.04143923 -0.036627214 0.058110304 0.021367993 0.09911802 0.017116418 0.020921532 0.024536014
0.21873492 0.0113757625 -0.012162981 0.016023379 0.059188224 -0.041915666 0.10631988 0.00023743311
-0.017171664 0.002347117 0.02145677 -0.0119399475 -0.010340094 0.0020426728 -0.108428724 -0.049742818
-0.002556826 0.003991903 -0.015530609 0.0050778454 0.041498918 -0.06543606 -0.04588123 -0.021357609
0.016277272 0.019098742 0.04259141 -0.09018551 -0.0020077575 -0.025200631 -0.0027940855 0.023656977
-0.007181687 0.015372205 0.0248321 -0.033393163 -0.08570392 0.028205862 0.027086819 0.004856179
-0.066309534 0.023716047 -0.09246967 0.015692083 0.06545976 0.010902875 -0.01851478 0.0051049716
0.016576093 -0.030792892 0.045718547 0.047618944 -0.113728 0.034280337 -0.009141088 0.04393536
0.009005223 0.043902263 0.0360068 0.014095633 0.09734415 -0.07026222 -0.03291175 -0.030998157
-0.047594048 -0.018807212 0.066984296 0.023173532 0.021195512 0.016567795 0.03751746 -0.005787559
-0.034616347 0.0048591252 -0.019415393 -0.011481881 0.002368828 -0.007430763 -0.0740484 -0.022982687
0.06734417 -0.00043173085 -0.025551712 -0.005854188 -0.045306712 -0.09174502 0.029991506 -0.015346161
-0.014326303 0.027657181 0.07410033 -0.010920136 0.06417885 -0.08796153 0.012681738 0.04038893
0.00945563 0.018428825 0.07616834 0.02313205 0.026514618 -0.06634494 -0.09115984 -0.072963186
-0.07095264 0.030819349 -0.023605458 -0.15345597 0.020250626 -0.016018437 0.08364172 -0.10579044
-0.028953765 -0.009111532 -0.0036976587 0.0028716181 -0.02790746 -0.02693568 -0.021999134 -0.08749414
0.036807507 -0.042913873 0.010803957 -0.002153898 -0.0007016345 0.059148807 0.01888205 -0.0321268
-0.02407767 -0.012583838 -0.008239044 -0.020435197 -0.012127853 -0.015425422 0.055051554 -0.030749409
0.011925716 -0.009178275 -0.036363862 0.098912135 0.014882633 -0.0017227808 0.046066083 -0.023982167
0.025537992 0.013783523 0.0026199108 0.0043803533 0.021287875 0.01164028 0.010977783 -0.03482182
0.021591702 -0.017727148 0.06179905 -0.038102623 -0.015301683 -0.018004753 0.016564334 -0.0033287196
0.005170191 0.033551127 -0.0421376 0.003170303 -0.037517466 0.0017873575 -0.023862608 -0.015578569
-0.015546407 0.024689674 0.021491718 0.026471704 0.010299966 0.035720553 0.002303371 0.022619085
-0.011123099 0.029531045 0.017788742 -0.012532155 -0.07567971 0.04751306 -0.0029636584 -0.0006667768
-0.019538049 -0.0003537999 0.022152428 0.01589142 -0.04522341 0.009808132 -0.02489302 -0.022127
-0.003222797 0.020318056 0.041080404 0.030307896 0.021177992 -0.0063004754 0.06709243 0.01165802
-0.03046052 -0.019985337 -0.018044533 0.00822268 0.035715047 0.0085647525 -0.01508151 -0.010121846
0.0053962474 0.0263224 -0.027911847 -0.010139468 0.010717829 -0.0059537776 0.0099562695 -0.08364555
0.010103813 0.009373503 0.018400792 0.015666766 -0.00991603 -0.005428254 -0.021275321 0.024033219
0.0036662242 -0.035246942 -0.009219837 0.013033469 -0.0062225396 0.024321869 -0.0024789954 0.008761548
-0.015992837 0.01483187 -0.023841882 0.044827383 -0.08095449 -0.02352199 -0.037189446 0.0043870206

_model.2._model.0.bias f4 [51]
00000000: 1f71 073a 3140 0a3c 7ec5 723b 1344 72bd
00000010: 135b f63b 7198 a43c 8c67 053d bbc2 823a
00000020: 78a1 383c b50c 13bd 5a24 d4bb 4c52 bfbc
00000030: d340 b9bb 4043 3c3b ea87 213d 4321 873c
00000040: 54ba 6cbc b2b8 633d a909 f23b 96f4 a23c
00000050: f5ca 873c c187 633c 0188 203c 8083 66ba
00000060: acac 563c a6ab 883b 4925 113c c434 bdbc
00000070: 6b87 e73c 8129 94bb 91b8 b0bc d865 1c3d
00000080: bda1 31bc 8a11 b43c 1b38 813d 9e10 2ebd
00000090: f46e 023d c7dd 633d cf0d fcbc 7320 b53a
000000a0: ac53 9fbc fa21 eebc dd89 eb3a bcfe 21bd
000000b0: 3204 423d de4a df3b 9f34 7cbd 62bf b63c
000000c0: bd48 a1bc 48e2 cc3c dee4 693c
0.00051666977 0.008438156 0.0037043984 -0.059146952 0.007518181 0.020092221 0.032569453 0.0009976247
0.011268966 -0.03590079 -0.00647406 -0.023354672 -0.0056534796 0.0028726608 0.03943626 0.016495353
-0.014448721 0.05559606 0.0073864055 0.019892018 0.01657627 0.013887347 0.009798051 -0.0008793399
0.013102692 0.0041708527 0.008858987 -0.02309645 0.028262815 -0.004521549 -0.021572383 0.038183063
-0.010841784 0.02198102 0.063095294 -0.042496316 0.031844094 0.055631425 -0.030768303 0.0013818875
-0.019449078 -0.029068936 0.0017970164 -0.039549574 0.047367282 0.006814345 -0.06157362 0.022308055
-0.019688005 0.025010243 0.014275758
