data/etc/pretrained_model/boxing/task_agnostic_policy_motor_decoder_exp5_1300.pt (torch_old, 232478 bytes, 6 tensors)

_model.0._model.0.weight f4 [128, 270]
0	0xbd99293f	-0.0747857
1	0xbcc24354	-0.023713745
2	0xbd3ebc67	-0.046566393
3	0xbed85168	-0.42249608
4	0x3c5571ea	0.0130276475
5	0xbe1de23e	-0.15418336
6	0x3d20452e	0.039128475
7	0x3d227fce	0.039672665
8	0xbe2ae1fb	-0.16687767
9	0xbd1d94f3	-0.038472127
10	0xbd7a5753	-0.061118435
11	0xbdc91b83	-0.098197006
12	0xbcc18c36	-0.023626428
13	0x3d6855cf	0.05672246
14	0xbb0125b1	-0.0019706304
15	0x3e16cb95	0.14726098
16	0xbda7d195	-0.081942715
17	0xbe6e1a36	-0.23252186
18	0x3cdd6e87	0.027030243
19	0xbe28f3d9	-0.1649927
20	0xbd518224	-0.051149502
21	0xbd5ecfcd	-0.054397393
22	0x3cc9e72a	0.02464636
23	0x3d75b641	0.059988264
24	0x3c43430f	0.0119178435
25	0xbe1902f0	-0.14942527
26	0xbd2325c2	-0.03983093
27	0x3de2db82	0.11077024
28	0x3e4acfde	0.19805858
29	0xbf4acfde	-0.7922343
30	0x3d37ee1a	0.044904806
31	0x3e1b1996	0.15146479
32	0xbd770d42	-0.060315378
33	0xbca84501	-0.020540716
34	0x3d4a096b	0.049325388
35	0x3daf669c	0.08564493
36	0xbe0b80fb	-0.13623421
37	0xbd4fddec	-0.05074875
38	0x3dea9a14	0.11455169
39	0x3e27cd62	0.16386941
40	0x3f0a6818	0.54065084
41	0x3eceefea	0.40417415
42	0xbf0754d3	-0.52863806
43	0x3eb1bdd6	0.34715146
44	0xbe8f85ca	-0.2803176
45	0x3d5ca9d9	0.053872917
46	0xbe2fb1d6	-0.17157683
47	0x3e894b6a	0.2681535
48	0x3cd0b6ba	0.025477756
49	0x3d336c53	0.043804478
50	0x3d4f5985	0.05062248
51	0xbd869fbd	-0.065734364
52	0x3b2fb421	0.0026810246
53	0x3d36677e	0.04453229
54	0x3e07e543	0.1327105
55	0xbdfce061	-0.123474844
56	0x3e484ab5	0.19559748
57	0xbde70fad	-0.11282287
58	0xbce15dd0	-0.027510554
59	0x3d4f1c6c	0.050564215
60	0x3cc184b6	0.023622852
61	0x3d0c05c1	0.034185175
62	0x3e1788e9	0.14798321
63	0xbdcca2a0	-0.09991956
64	0xbd411567	-0.04713955
65	0xbdfed150	-0.12442267
66	0xbd8f77e6	-0.07005291
67	0x3dc457d8	0.09587067
68	0xbdeceb24	-0.11568287
69	0x3d924bd0	0.07143366
70	0x3d1e47db	0.038642745
71	0xbb08cd64	-0.0020874375
72	0x3d429a70	0.047510564
73	0x3dd04c4b	0.10170802
74	0x3df83344	0.12119153
75	0x3dd1df87	0.102477126
76	0xbb023910	-0.0019870438
77	0xbc8dab37	-0.017293556
78	0xbdc71ded	-0.09722505
79	0xbd6e7ce1	-0.058224563
80	0x3cf7d17d	0.030251259
81	0xbe780102	-0.24219134
82	0x3e568ac9	0.2095138
83	0x3e7341a0	0.23755503
84	0xbc87ef9c	-0.016593747
85	0xbd0f349e	-0.03496229
86	0x3dcbcde8	0.09951383
87	0x3bbd8d73	0.0057846843
88	0xbd88c126	-0.06677465
89	0xbcc79e9f	-0.024367629
90	0x3ca14682	0.019686941
91	0x3e5145c7	0.20436774
92	0x3d06de69	0.03292695
93	0xbec80c86	-0.39072055
94	0xbd9445c2	-0.07239868
95	0xbbcae12b	-0.006191393
96	0xbe4d27df	-0.20034741
97	0x3d767742	0.060172327
98	0x3c94b1ea	0.018151242
99	0xbcd8c174	-0.026459433
100	0xbc63ae12	-0.013896482
101	0x3d758cf6	0.059948884
102	0xbcd0cd66	-0.025488567
103	0x3cbfa2fd	0.023393149
104	0x3d7ca9b9	0.061685298
105	0xbc2c4ade	-0.010515897
106	0xbe5f85fe	-0.21828458
107	0x3b623ce4	0.0034521157
108	0x3d104880	0.03522539
109	0xbe5a47b1	-0.2131641
110	0xbd7f572c	-0.062338993
111	0xbd0d7b2c	-0.034541294
112	0xbe0652a9	-0.1311747
113	0x3cdda4dc	0.02705615
114	0xbd228d21	-0.039685372
115	0xbc6099aa	-0.013708511
116	0x3cbf6b26	0.023366522
117	0x3e787c5d	0.24266191
118	0x3b20f34f	0.0024559086
119	0xbe4cda1e	-0.2000508
120	0xbdb306eb	-0.08741554
121	0xbd590457	-0.052982654
122	0xbdf3293e	-0.11873101
123	0xbd1ebfd9	-0.03875718
124	0x3dbdc330	0.09265745
125	0xbd4f333d	-0.050585974
126	0x3c60406e	0.013687236
127	0x3cb52a10	0.022114784
128	0xbceab13a	-0.028648961
129	0xbd36926e	-0.04457324
130	0x3e182cd1	0.14860846
131	0x3dc32743	0.09528973
132	0xbd5c4518	-0.05377683
133	0xbcb0204a	-0.021499772
134	0x3d58f95e	0.05297219
135	0xbe3c9607	-0.18416606
136	0xbdc41380	-0.09574032
137	0xbd03db3c	-0.0321915
138	0x3c3dea1a	0.011591459
139	0xbd09fff6	-0.03369137
140	0xbd08c689	-0.033392463
141	0x3d381221	0.044939164
142	0xbcc8b30a	-0.024499435
143	0x3e1b6550	0.15175366
144	0xbcf5f33a	-0.030023206
145	0xbd8cd594	-0.06876674
146	0xbd09027c	-0.033449635
147	0x3b974109	0.004615907
148	0xbe4cf834	-0.20016557
149	0xbcd33b8d	-0.025785232
150	0xbcfb151f	-0.03064972
151	0xbd9429e9	-0.07234556
152	0xbc525eff	-0.012840032
153	0xbd7cf8e1	-0.061760787
154	0xbd6b7ea2	-0.057493813
155	0x3ce2aca7	0.027670218
156	0xbd835628	-0.064129174
157	0x3dc9d35c	0.09854767
158	0xbe572c6f	-0.21013044
159	0xbd63f58c	-0.055654094
160	0xbd6c0e80	-0.057631016
161	0xbdd0fdb8	-0.10204643
162	0x3d7ec227	0.062196877
163	0xbbcf1b89	-0.006320421
164	0xbc8471af	-0.01616749
165	0x3d8245f5	0.063609995
166	0x3d8c048f	0.06836807
167	0x3a8c817c	0.0010719742
168	0x3da16037	0.0787968
169	0x3e014854	0.12625247
170	0xbd7c85ef	-0.061651167
171	0xbe887f6d	-0.26659718
172	0xbcdade55	-0.026717344
173	0x3d09fcd6	0.03368839
174	0xbdce884a	-0.10084589
175	0x3dc33186	0.0953093
176	0xbcd38e76	-0.025824767
177	0x3c26162a	0.01013712
178	0xbda5b87b	-0.080918275
179	0x3cec984a	0.02888121
180	0xbd1490de	-0.03627097
181	0x3d3f2fb6	0.04667636
182	0x3d354fb2	0.044265456
183	0xbc2aeeeb	-0.010432939
184	0xbd92e010	-0.07171643
185	0xbcf4d9d3	-0.029889023
186	0x3d4e6f60	0.050399184
187	0xbdd90173	-0.105959795
188	0xbd748469	-0.05969659
189	0xbda5a6f7	-0.08088487
190	0xbdd852b3	-0.105626486
191	0xbd35095c	-0.04419838
192	0x3c41d612	0.0118308235
193	0xbbf4ce64	-0.0074708927
194	0xbd4022e4	-0.046908274
195	0x3cef6d8f	0.029227046
196	0xbd92bff9	-0.07165522
197	0xbd9e218d	-0.07721243
198	0x3c903f33	0.01760826
199	0xbc997486	-0.01873232
200	0x3d8b177b	0.06791588
201	0x3b4f1bcd	0.0031602264
202	0x3bd3de30	0.006465696
203	0xbd95efd5	-0.07321135
204	0x3ad2deb6	0.0016088102
205	0xbda66af1	-0.08125866
206	0x3cadb091	0.021202357
207	0xbd34bb60	-0.044124007
208	0x3dd10247	0.102055125
209	0x3d143c3c	0.036190256
210	0xbe411cdd	-0.18858667
211	0x3da08919	0.07838649
212	0xbd56e242	-0.05246187
213	0xbda0d65c	-0.07853386
214	0x3d8437a9	0.06455929
215	0x3db89ccc	0.09014282
216	0xbdc0540c	-0.09391031
217	0x3d83f258	0.06442708
218	0x3d40b388	0.047046214
219	0x3cd57a63	0.026059335
220	0xbd437d03	-0.047726642
221	0xbd3b8736	-0.045783244
222	0x3c8c9b14	0.01716379
223	0xbd185612	-0.037191458
224	0x3cf79449	0.030222075
225	0x3aec6f82	0.0018038603
226	0x3c478aae	0.01217906
227	0x3dae275f	0.08503603
228	0xbe308efe	-0.17242047
229	0xbd5df498	-0.05418834
230	0xbd5fbc9e	-0.05462324
231	0xbcbd2b60	-0.023091972
232	0x3d4cf22a	0.050035633
233	0x3d2b39d7	0.041803207
234	0x3db3ddcb	0.08782538
235	0x3ce8e098	0.028427407
236	0xbd125ff9	-0.035736058
237	0xbc9d8f1b	-0.019233277
238	0xbdc52e05	-0.09627918
239	0x3d3469a0	0.044046044
240	0xbbbf1626	-0.0058314977
241	0xbdea4b35	-0.11440126
242	0xba76f37d	-0.0009420438
243	0x3d0670a0	0.03282225
244	0xbccf73b8	-0.025323734
245	0xbbf36aba	-0.0074284943
246	0x3cdeb5c1	0.027186276
247	0x3e21a660	0.15786123
248	0x3d5e7669	0.054312143
249	0x3bbea177	0.005817588
250	0x3d2b0cc4	0.04176022
251	0x3d412b26	0.04716029
252	0x3da57bc2	0.080802456
253	0x3c638fcf	0.013889267
254	0xbdf52535	-0.11969987
255	0xbdf9e578	-0.12201971

_model.0._model.0.bias f4 [128]
0	0x3b4aeb5e	0.0030963044
1	0x36f4f517	7.300299e-06
2	0xbc27dea2	-0.010245951
3	0x3c966ad1	0.01836148
4	0xbc1f7846	-0.009733265
5	0x3b6e9286	0.0036403253
6	0xbc83e748	-0.016101494
7	0x3b9c23b7	0.0047649997
8	0x3abaf6f9	0.0014264277
9	0xbc7203bc	-0.014771398
10	0x3c273615	0.010205765
11	0x3ae4734f	0.0017429384
12	0xbb9a6d23	-0.004712717
13	0x3bd7a98f	0.0065814923
14	0xbbd507ff	-0.0065011973
15	0x3bd0efcc	0.0063762423
16	0xbc3b5fb1	-0.011436389
17	0x3c265290	0.01015152
18	0x3d205c34	0.03915043
19	0x3c31688d	0.0108281495
20	0x3a791cb2	0.0009502872
21	0x3ce79e65	0.02827377
22	0x3c1e72e5	0.009670948
23	0xbbf5ad85	-0.007497492
24	0xba4bf71e	-0.0007780659
25	0xb92e76c9	-0.00016638184
26	0x3c66c11c	0.014084127
27	0xbb03b41c	-0.0020096367
28	0x3c973a0f	0.018460302
29	0x370a487e	8.242319e-06
30	0x3ba49ca5	0.0050235563
31	0x3af36c30	0.0018571671
32	0x3aabc446	0.0013104759
33	0xbaa95f68	-0.001292211
34	0xbbcfe7b7	-0.0063447612
35	0x3c65914a	0.01401169
36	0xbc597f5a	-0.013274992
37	0x3bbf1d6f	0.005832366
38	0x3b87659a	0.004131985
39	0x3c25e400	0.01012516
40	0x3bc20b2f	0.0059217433
41	0xbaf24704	-0.0018484299
42	0x3b3925bb	0.002825125
43	0xbbf09e93	-0.0073431223
44	0xba5fc9f8	-0.00085368706
45	0xbc4c60cd	-0.012474251
46	0x3c493df3	0.012282836
47	0xbc45a942	-0.01206428
48	0x3c0720a1	0.008247525
49	0x3c5cdfe5	0.013481115
50	0xbbbd0744	-0.0057686884
51	0xb9e4ec93	-0.0004366381
52	0x3b6f19b6	0.003648383
53	0xbb31f4b7	-0.0027153918
54	0x3d009268	0.031389624
55	0xbbc1abaf	-0.005910359
56	0x3c3265bb	0.010888512
57	0x3cafb903	0.021450525
58	0xbc6a2131	-0.01429014
59	0xbb7ca495	-0.0038550247
60	0x3c837231	0.016045662
61	0xbbcb10c3	-0.0061970665
62	0xbb505e4b	-0.0031794484
63	0xbc065935	-0.00819998
64	0xbb4a840a	-0.0030901455
65	0xbbcb5aa6	-0.0062058745
66	0xbc55f1d6	-0.013058146
67	0xbc5a19d2	-0.01331182
68	0x3bd7f63b	0.0065906323
69	0x3a880e7e	0.0010380296
70	0xba04cc29	-0.00050658226
71	0xbb7e9e28	-0.0038851593
72	0xbb47c72d	-0.0030483708
73	0xbc08fe3e	-0.008361397
74	0x3ba53a19	0.005042326
75	0xbc7206ed	-0.014772159
76	0x3b2199fc	0.0024658432
77	0x3ae414f4	0.0017401264
78	0x3a478000	0.0007610321
79	0xbb45e588	-0.0030196626
80	0x3b28f2bc	0.0025779447
81	0x3a2fd632	0.0006707638
82	0x3cd47dbc	0.025938861
83	0xbc095ce0	-0.0083839595
84	0x3be8e142	0.007106931
85	0xbbec9439	-0.007219818
86	0xbc321ba2	-0.010870846
87	0xbb22b930	-0.0024829619
88	0xbc958dc3	-0.018256074
89	0xbc3ee1e7	-0.011650539
90	0xbaf69d38	-0.0018815165
91	0x3c95f8c7	0.018307103
92	0x3b3520f0	0.002763804
93	0x3a2501b6	0.00062945054
94	0xbbe25292	-0.006906816
95	0x3bb0ab82	0.005391539
96	0x3bb6e617	0.005581628
97	0x3c18796f	0.009306296
98	0x3b4353a6	0.0029804497
99	0xbc8628b0	-0.016376823
100	0xb9926eec	-0.00027929933
101	0xbbd969ab	-0.006634911
102	0x3bd0613c	0.0063592475
103	0xbc3f470c	-0.011674654
104	0xbc3fdb55	-0.011710008
105	0x3bf8a538	0.007588055
106	0xb8b3af65	-8.568055e-05
107	0x37e53278	2.7322429e-05
108	0x3c01d0e2	0.007923337
109	0x3c4bef52	0.012447195
110	0xbc197750	-0.009366825
111	0xbc526cc9	-0.012843319
112	0x3b2f477e	0.0026745494
113	0x3bb210c8	0.0054341294
114	0x3d532f3f	0.05155873
115	0xbcde437a	-0.027131785
116	0xbc5e1b27	-0.013556278
117	0xbad9f981	-0.0016630144
118	0x3bd7fe9e	0.006591632
119	0xbc54ae46	-0.012981003
120	0xbab3bdbb	-0.001371316
121	0x3c28c2b1	0.010300324
122	0x3bd59fa1	0.0065192734
123	0xbc5274a8	-0.012845196
124	0xba96dad3	-0.0011509306
125	0x3be8f935	0.007109786
126	0x3c549b95	0.012976547
127	0x3bfc78f4	0.0077048484

_model.1._model.0.weight f4 [128, 128]
0	0xbd9f2419	-0.07770557
1	0x3e63d9ef	0.22251104
2	0x3e15f9d7	0.14646088
3	0xbd38503c	-0.044998392
4	0xbd2c9010	-0.042129576
5	0x3e6c1ada	0.23057118
6	0x3d0ca859	0.034340236
7	0x3c4d7fa7	0.012542642
8	0x3e7b4a12	0.24539974
9	0x3d15eb1e	0.03660118
10	0x3da2cdc9	0.07949407
11	0x3d10fd39	0.035397742
12	0xbde1fa07	-0.11034017
13	0x3e10706c	0.14105386
14	0x3db45869	0.088059254
15	0xbe2b360f	-0.1671984
16	0xbc939a6b	-0.018017968
17	0xbcfee952	-0.031117115
18	0xbdb47600	-0.08811569
19	0x3c72a8f4	0.014810789
20	0x3b194f8f	0.0023393368
21	0x3af266bd	0.0018493753
22	0xbd8a1d3c	-0.06743857
23	0x3e0034f1	0.12520196
24	0x3dd09183	0.10184004
25	0xbe55cfdd	-0.20880075
26	0x3dcfeb28	0.10152274
27	0xbd69e805	-0.057106037
28	0x3cfd4de0	0.030920923
29	0xbd55ab39	-0.052165244
30	0x3cabf0dc	0.020988874
31	0x3e053d6d	0.13011713
32	0xbc39ba36	-0.0113359
33	0xbd180991	-0.0371185
34	0x3c369d43	0.011145893
35	0xbd99f6dc	-0.07517788
36	0xbd879aaf	-0.066213004
37	0xbd227130	-0.039658725
38	0x3cd148ac	0.025547348
39	0x3db3e699	0.087842174
40	0x3e27e92b	0.1639754
41	0x3d243ed5	0.040098984
42	0xbd18612a	-0.037202038
43	0xbd82b315	-0.063818134
44	0x3dab73be	0.083716854
45	0xbe063a9b	-0.13108294
46	0x3dad0674	0.084484965
47	0x3ccd305c	0.025047474
48	0x3dd3a9b5	0.103351034
49	0xbd50112f	-0.050797638
50	0x3c5b5892	0.013387816
51	0x3dd718ed	0.10502801
52	0x3c21f8e0	0.009885997
53	0x3dee3a1f	0.116321795
54	0xbd3fe379	-0.046847794
55	0x3e02327b	0.1271457
56	0x3da50246	0.08057074
57	0xbd5040fc	-0.050843224
58	0xbdb21bfd	-0.086967446
59	0x3d5f1a13	0.054468226
60	0xbc16fc1e	-0.009215383
61	0x3ccf2436	0.025285821
62	0x3db71a98	0.08940619
63	0xbbd5aaca	-0.006520604
64	0xbe014fe1	-0.12628128
65	0xbb9b5e8b	-0.004741495
66	0xbd327566	-0.04356899
67	0xbe127d6c	-0.14305657
68	0x3dd2ab17	0.10286539
69	0x3c059120	0.008152276
70	0x3c83f9bf	0.0161103
71	0x3d93d0cc	0.07217559
72	0x3bd7e589	0.006588642
73	0xbd0c8b08	-0.034312278
74	0x3ddc502b	0.10757478
75	0xbd92b27b	-0.07162949
76	0xbdc26c47	-0.094933085
77	0xbda09426	-0.07840757
78	0xbdf288e9	-0.1184252
79	0x3c432371	0.011910305
80	0xbdfe83fa	-0.12427516
81	0x3dc74781	0.09730435
82	0xbc88ca27	-0.016697956
83	0x3d733919	0.059380624
84	0x3d819e0a	0.06328972
85	0x3ccee3c0	0.025255084
86	0x3b64ba2e	0.003490101
87	0x3ce5f729	0.028071957
88	0xbe0257aa	-0.12728754
89	0x3baf2597	0.005345057
90	0xbddffc49	-0.109367914
91	0x3dba258e	0.09089194
92	0xbdd63c5c	-0.104607314
93	0x3a9337cd	0.001123184
94	0xbbec73dd	-0.0072159604
95	0x3d54ff76	0.05200144
96	0xbdc260ac	-0.09491095
97	0xbd775d24	-0.06039156
98	0xbe4427d8	-0.19155824
99	0x3daaf32b	0.08347162
100	0x3d241929	0.040063057
101	0xbe164446	-0.14674482
102	0xbe113e3f	-0.14183901
103	0xbe1a152b	-0.15047137
104	0xbd97bbb8	-0.074088514
105	0x3d5fc4d8	0.054631084
106	0x3c55c1b9	0.013046675
107	0xbe3d7121	-0.18500187
108	0xbe5cf4a2	-0.21577695
109	0x3d21c6df	0.0394963
110	0xbe33cde7	-0.17559014
111	0x3df072fa	0.1174068
112	0x3d9fc28b	0.07800778
113	0x3de23fb4	0.11047307
114	0xbd83163e	-0.06400727
115	0x3d518307	0.051150348
116	0x3e03808f	0.1284201
117	0x3c9ee0f3	0.019394374
118	0x3da35406	0.079750106
119	0xbe34ffc5	-0.17675693
120	0x3c84d11c	0.016212992
121	0x3d940d6f	0.07229125
122	0xbd537449	-0.05162457
123	0xbd0c9366	-0.034320258
124	0xbe5802a8	-0.21094763
125	0xbda4f762	-0.08054997
126	0x3d8940c6	0.06701808
127	0xbc9d74e3	-0.019220775
128	0xba7cca33	-0.0009643167
129	0xbd3d5ef6	-0.04623314
130	0xbd320ff7	-0.043472257
131	0xbd52c8ea	-0.051461138
132	0xbb326eff	-0.0027226803
133	0xbe05ff7b	-0.1308574
134	0x3c8e14f7	0.017343981
135	0xbd5822ed	-0.052767683
136	0x3e48f865	0.19626005
137	0xbd4bbb4d	-0.04973917
138	0x3cd1dc1a	0.025617648
139	0x3ea06de7	0.3133385
140	0x3d09639d	0.033542264
141	0xbe0e1d94	-0.1387847
142	0x3e321ee0	0.1739459
143	0xbd092a0e	-0.033487372
144	0x3e3dd2f7	0.18537508
145	0xbda9d26b	-0.08292087
146	0xbe4537bf	-0.19259547
147	0x3dfd7ce9	0.1237734
148	0x3ca6570b	0.020305177
149	0xbe381450	-0.17976499
150	0xbd79a1f7	-0.060945477
151	0x3d3324b4	0.043736175
152	0xbd43a53f	-0.047765013
153	0xbdfdea76	-0.123982355
154	0x3d006c5a	0.031353332
155	0x3d8b8c7e	0.06813906
156	0x3d9e8900	0.077409744
157	0xbd9d4ca1	-0.076806314
158	0x3c779c93	0.015113014
159	0xbe6a4e6c	-0.22881478
160	0xbcd941c6	-0.026520621
161	0x3b3f13dc	0.0029156124
162	0x3da7aa80	0.08186817
163	0x3d89f905	0.0673695
164	0x3e1bdb4d	0.15220375
165	0xbd88ff79	-0.066893525
166	0xbd8844d1	-0.06653751
167	0x3db42da8	0.08797771
168	0x3d13b645	0.036062498
169	0xbd1bc236	-0.03802701
170	0x3e048435	0.12941058
171	0x3be93d31	0.0071178903
172	0xbdde0706	-0.10841183
173	0xbc058033	-0.008148241
174	0x3db0951d	0.08622191
175	0xbd682bcc	-0.056682393
176	0x3e071c17	0.13194309
177	0x3e2ebb22	0.17063573
178	0xbe11562a	-0.14193025
179	0xbd1f1383	-0.038836967
180	0xbcce95b0	-0.025217861
181	0x3d73826e	0.05945056
182	0x3d89d514	0.067300946
183	0x3de71ba1	0.11284567
184	0xbbdea2eb	-0.0067943237
185	0xbe0a439a	-0.1350235
186	0xbd79b5c4	-0.06096436
187	0x3c880107	0.016602052
188	0xbd9c834e	-0.07642232
189	0x3d4960b9	0.049164508
190	0xbdd7be98	-0.105344
191	0x3e425625	0.18978174
192	0x3b9c7bc1	0.004775495
193	0xbde3ba60	-0.111195326
194	0x3c96ab99	0.018392371
195	0x3b88a28c	0.0041697677
196	0xbde2385d	-0.11045907
197	0xbdcad6a9	-0.099042244
198	0xbd91be22	-0.07116343
199	0xbdd9e5f9	-0.10639567
200	0xbdbc92f3	-0.09207716
201	0x3d9667b6	0.07344
202	0x3d87a05a	0.066223815
203	0x3cc64258	0.024201557
204	0xbd25a548	-0.040440828
205	0xbdebd232	-0.11514701
206	0xbd48ca28	-0.049020916
207	0x3d53a3d1	0.0516699
208	0xbe190059	-0.14941539
209	0x3e0a8abb	0.13529484
210	0x3dd3e19a	0.103457645
211	0xbdbd8d6f	-0.09255492
212	0x3db4f9e8	0.08836728
213	0x3d960aa7	0.073262505
214	0xbdf75f60	-0.12078738
215	0xbd9389c6	-0.072040126
216	0x3d39fab3	0.0454051
217	0xbd91330e	-0.07089816
218	0x3e017892	0.1264365
219	0x3e2218f1	0.15829827
220	0x3d1b8b06	0.03797438
221	0xbe1a4aa7	-0.1506754
222	0x3e24ef8b	0.16107003
223	0xbdea9343	-0.11453869
224	0x3e2af021	0.16693164
225	0x3d4d783f	0.050163504
226	0xbd7b5105	-0.061356563
227	0xbc15cdaf	-0.009143277
228	0x3c9298f5	0.017895201
229	0x3d91fcc3	0.071282886
230	0xbe166ebe	-0.14690682
231	0x3d30a757	0.043128338
232	0x3d9ff046	0.078095004
233	0xbcca1fc9	-0.02467336
234	0xbd230ef6	-0.03980919
235	0x3c08ac2f	0.008341833
236	0xba08b6c7	-0.0005215224
237	0x3d7c06fa	0.06153009
238	0xbd8cfffa	-0.06884761
239	0x3cb91bf4	0.022596337
240	0x3d8f3554	0.069925934
241	0xbcfb95be	-0.030711051
242	0xbe19408e	-0.14966032
243	0x3e5f2ce6	0.21794471
244	0xbd66aea1	-0.056318883
245	0xbe0c4fca	-0.13702312
246	0xbd116c04	-0.035503402
247	0xbd85626c	-0.06512913
248	0xbd376dfd	-0.044782627
249	0xbd635276	-0.055498563
250	0xbd95dd44	-0.07317594
251	0xbc16981e	-0.009191541
252	0xbc9a5f29	-0.018844204
253	0x3d951a08	0.07280356
254	0x3d9d4360	0.076788664
255	0xbd886d16	-0.066614315

_model.1._model.0.bias f4 [128]
0	0x3b85d0c5	0.004083725
1	0x3c8d2ef7	0.017234309
2	0x3b8b18ca	0.0042448984
3	0x3cc6e9bf	0.02428138
4	0x3c9b3595	0.018946448
5	0x3c576a1e	0.013147859
6	0x3c73861b	0.014863516
7	0x3cea44ac	0.028597198
8	0xbb21ddf4	-0.0024698945
9	0x3d43c3ed	0.04779427
10	0xbcefd7d1	-0.029277714
11	0xbb811e45	-0.003940376
12	0x3c63075f	0.013856738
13	0x3c85a3b6	0.016313415
14	0xbc2a86f3	-0.010408151
15	0x3b3a4438	0.002842201
16	0x3c5a1548	0.013310738
17	0xbb1542de	-0.0022775452
18	0x3b079332	0.00206871
19	0xbd010d3c	-0.031506762
20	0x3ceec189	0.02914502
21	0x3c802a96	0.015645307
22	0x3cda8840	0.026676297
23	0xbc6135e9	-0.013745763
24	0x3ce5c767	0.028049184
25	0x3c81c79f	0.015842257
26	0x3ba5eafb	0.0050634122
27	0xbcb14147	-0.021637572
28	0xbc9bffd7	-0.019042892
29	0x3bf11b9b	0.007358027
30	0x3d0ecd06	0.034863494
31	0x3c24a0ff	0.01004815
32	0xbbb2b7da	-0.0054540457
33	0x3ce4ee35	0.027945617
34	0x3d1d38f4	0.038384393
35	0x3c65937f	0.014012217
36	0xbc1a9da3	-0.009436998
37	0x3cb7d6d1	0.0224413
38	0x3cab1aad	0.020886743
39	0xbc699a69	-0.014258006
40	0x3cc4fc65	0.024046132
41	0x3b9934ad	0.004675469
42	0x3d115e9a	0.03549061
43	0xbd5a976c	-0.053367063
44	0xbd28b75f	-0.0411905
45	0xbc2af583	-0.010434511
46	0x3cdf8a27	0.027287556
47	0x3c63e8a6	0.013910448
48	0x3b311228	0.0027018879
49	0xba2c3862	-0.0006569681
50	0x3a02b15a	0.0004985534
51	0xbc14a242	-0.009071888
52	0x3d0ada6e	0.033899717
53	0xbc2a5618	-0.010396503
54	0xb9f6425b	-0.00046970215
55	0x3d4c189f	0.049828168
56	0x3c2b34e8	0.010449626
57	0x3c4b9b5a	0.012427175
58	0x3bc3c530	0.0059744343
59	0x3c279a4e	0.01022966
60	0xbb788619	-0.0037921725
61	0xbce5b92f	-0.028042404
62	0xbcb00994	-0.021488942
63	0xbca34546	-0.019930493
64	0xbbb9db76	-0.0056719137
65	0x3d16b850	0.036796868
66	0xbbf9973f	-0.007616907
67	0xbb34f2cd	-0.002761054
68	0x3cb0f724	0.02160222
69	0x3cbe59e5	0.023236224
70	0xbd1d75a7	-0.03844228
71	0xbbf1b820	-0.0073766857
72	0xbd66aa7c	-0.05631493
73	0xbc5cb41b	-0.013470675
74	0x3abdc3e9	0.0014477941
75	0x3ccaa06e	0.024734702
76	0x3bca8ae0	0.006181106
77	0x3c245932	0.010031031
78	0xbc92862c	-0.017886244
79	0x3ca5680b	0.020191213
80	0xbc6527c7	-0.013986534
81	0xbc7419f1	-0.014898763
82	0x3c36bae3	0.011152956
83	0x3d425c9d	0.047451604
84	0xbd2f91ee	-0.04286378
85	0xbbf10f59	-0.007356566
86	0x3b61cb53	0.0034453466
87	0xbbac5e71	-0.0052602817
88	0xbbd0d69b	-0.006373239
89	0x3d380e2f	0.0449354
90	0x38c5ea8c	9.43738e-05
91	0x3c3219c5	0.010870402
92	0x3beffb09	0.007323627
93	0x3cad0c64	0.021124072
94	0x3c61c3ed	0.0137796225
95	0xbc5c3f3d	-0.013442812
96	0x3d42e892	0.047585078
97	0xbc3e7a2b	-0.011625807
98	0x3d012a9d	0.03153478
99	0x3c03723f	0.008022844
100	0x3cee10de	0.029060777
101	0x3c9c7dcb	0.019102952
102	0xbb7bded2	-0.0038432372
103	0xbc813c7c	-0.015775912
104	0x3d11d114	0.035599783
105	0x3c5cc80e	0.013475431
106	0xba09cbe1	-0.00052565156
107	0x3c439abb	0.011938746
108	0x3baa9ad9	0.0052064476
109	0x3d089a82	0.033350475
110	0x3c50b72c	0.012738984
111	0xbb360558	-0.0027774181
112	0x3c413755	0.011792977
113	0x3c98df03	0.018661028
114	0x3cb7bc50	0.022428662
115	0x3a6f0866	0.0009118378
116	0x3be69493	0.0070367544
117	0x3b6fc2f7	0.0036584714
118	0x3d0f1c42	0.034939058
119	0x3ca0c744	0.019626267
120	0xbafd6ba3	-0.0019334446
121	0xbd074c0e	-0.033031516
122	0x3c67416c	0.014114719
123	0x3c15eaf4	0.0091502555
124	0x3b1aca69	0.002361918
125	0x3c964d06	0.018347275
126	0x3b8f413c	0.00437179
127	0x3c8b7875	0.017025212

_model.2._model.0.weight f4 [51, 128]
0	0xbc568900	-0.013094187
1	0x3d45c783	0.048285972
2	0x3dbfd586	0.09366898
3	0xbd1b7bba	-0.03795979
4	0x3d7fc2d9	0.06244168
5	0x3d5b1350	0.053485215
6	0xbc35f9bb	-0.011106904
7	0xbdd525b6	-0.104075834
8	0xbc3e5d89	-0.01161898
9	0xbcfe932a	-0.031076033
10	0xbd358a3d	-0.044321287
11	0xbcd50939	-0.026005374
12	0xbc8a77f7	-0.016902907
13	0xbe5ce8b3	-0.21573143
14	0x3def6d83	0.116908096
15	0xbc7e5624	-0.015523467
16	0xbcac52d7	-0.021035595
17	0x3c66cc9c	0.014086869
18	0x3db708a7	0.08937197
19	0x3d6980bb	0.057007533
20	0x3d40b792	0.047050066
21	0xbc3b4414	-0.011429805
22	0x3ca8385d	0.020534689
23	0x3a94a26c	0.0011339909
24	0x3c50b354	0.012738068
25	0xbb5ad71c	-0.0033392375
26	0xbdb90cd1	-0.09035648
27	0x3d10328d	0.03520446
28	0xbc9b0833	-0.018924808
29	0x3cb1d175	0.021706322
30	0xbcc4e263	-0.02403373
31	0xbce5ecfa	-0.0280671
32	0xbcefaf28	-0.029258326
33	0x3d592976	0.053018056
34	0xbc71bd27	-0.01475457
35	0xbc04b040	-0.008098662
36	0x3af13bf5	0.0018404709
37	0x3d8a45af	0.06751572
38	0x3c6bfa71	0.014402972
39	0xbe02234c	-0.12708777
40	0x3dd3bdb1	0.10338915
41	0xbbae5c6b	-0.0053210757
42	0xbd20d3e1	-0.039264563
43	0x3a16be4f	0.0005750404
44	0xbdd2efd1	-0.102996476
45	0xb96ab7b2	-0.00022384411
46	0xbd0df446	-0.034656785
47	0xbd8f507f	-0.06997775
48	0x3c8aba88	0.016934648
49	0x3c19f809	0.009397515
50	0x3d1c72d6	0.038195454
51	0x3dcb19e8	0.099170506
52	0xbbb1436f	-0.00540965
53	0x3d98506a	0.07437213
54	0xbd23ba44	-0.03997256
55	0xbc0dc2ec	-0.00865243
56	0xbd091388	-0.033465892
57	0x3d24d830	0.040245235
58	0xbcacf048	-0.021110669
59	0xbc73bc35	-0.014876415
60	0xbdeeda37	-0.11662715
61	0xbd01a902	-0.03165532
62	0xbdb2ab3f	-0.08724069
63	0x3e6823e5	0.22669943
64	0xbd746186	-0.059663318
65	0xbd3ae5d1	-0.045629326
66	0xbc712353	-0.014717895
67	0xbcae8d12	-0.021307502
68	0xbcc0b518	-0.023523852
69	0x3d80fd33	0.06298294
70	0x3df68c42	0.12038471
71	0x3d307c30	0.043087184
72	0xbd6b68ae	-0.057472877
73	0xbcc01eab	-0.023452124
74	0x3dc9c803	0.09852602
75	0xbd1fbe48	-0.038999826
76	0xbd401274	-0.0468926
77	0x3b1f9a6e	0.0024353522
78	0xbda4c2cd	-0.08044968
79	0xbdad1397	-0.08451002
80	0x3c2eb51c	0.010663297
81	0xbc523c6d	-0.012831789
82	0x3d86efc9	0.06588704
83	0x3ce21a77	0.02760051
84	0xbd6375a2	-0.055532105
85	0x3bf55cf5	0.007487888
86	0xbd0415b1	-0.03224725
87	0x3c2ed1b8	0.010670118
88	0x3c9e6e8c	0.019339822
89	0x3af512e7	0.001869765
90	0xbbd10533	-0.0063787936
91	0x3e18e3b2	0.14930609
92	0xbd32974a	-0.04360131
93	0xbc571777	-0.013128153
94	0x3cba9fb6	0.022781234
95	0xbdaf10a0	-0.08548093
96	0x3dbe94d8	0.093057334
97	0xbc81702e	-0.015800562
98	0xbd9752f6	-0.073888704
99	0xbd814dd0	-0.0631367
100	0x3dc08e78	0.09402174
101	0x3ca6fa27	0.020382954
102	0xbd0adf85	-0.03390457
103	0x3d7fb837	0.06243154
104	0x3ce08a42	0.027409676
105	0x3d0a6749	0.033789907
106	0xbc8946e0	-0.016757429
107	0xbd6430fb	-0.055710774
108	0xbba15247	-0.0049231383
109	0x3d9eb266	0.077488706
110	0x3d3ce9c5	0.046121377
111	0x3b95f526	0.004576343
112	0xbcac21be	-0.021012183
113	0x3d01795e	0.031609885
114	0xbd07621f	-0.03305256
115	0x3c180033	0.009277391
116	0x3cf9bda2	0.030485932
117	0x3a92dd77	0.0011204918
118	0xbc967edd	-0.01837104
119	0x3b1ebf3e	0.0024222876
120	0xbdb988a1	-0.09059263
121	0x3dde3eff	0.10851859
122	0x3d4c778a	0.04991869
123	0x3bcb24f0	0.0061994717
124	0xbd838c21	-0.06423212
125	0xbc6ec017	-0.014572165
126	0x3c9c0c5b	0.01904886
127	0x3d1b9b8a	0.03799013
128	0x3cb4e14f	0.022080092
129	0x3d1cf9fe	0.03832435
130	0x3cd45d3b	0.025923362
131	0x3d21ea4b	0.03953008
132	0x3c53c913	0.012926358
133	0x3c6fadd8	0.01462885
134	0xbc8105ab	-0.015749773
135	0x3d0567a5	0.032569546
136	0xbbede5b3	-0.0072600483
137	0xbc106107	-0.008812196
138	0x3a299a2b	0.0006469811
139	0x3be04980	0.0068446994
140	0xbca0a356	-0.019609135
141	0x3ca2d551	0.019877108
142	0x3cdd0954	0.026981987
143	0xbbc4497d	-0.005990206
144	0xbd262972	-0.04056687
145	0xbcbba205	-0.022904405
146	0xbc67da90	-0.01415123
147	0x3d877af2	0.06615247
148	0x3c9cff5e	0.019164737
149	0x3cc5cb1f	0.024144707
150	0xbac24b18	-0.0014823405
151	0xbbe914b1	-0.0071130623
152	0x3a8ae5c9	0.0010597046
153	0x3b405b8e	0.0029351446
154	0xbd027108	-0.031846076
155	0x3d9b1f77	0.07574361
156	0xbb556e8a	-0.0032567107
157	0xbd9f037a	-0.07764335
158	0x3d69937a	0.05702541
159	0xbd550e50	-0.052015603
160	0x3bb18dac	0.0054185
161	0xbc1dc6c3	-0.009629908
162	0x3c8e4476	0.01736663
163	0xbbdbf44e	-0.006712473
164	0x3ce4b50e	0.027918365
165	0x3c8578be	0.016292926
166	0x3a8e8fc1	0.0010876582
167	0x3a2f9627	0.00066980947
168	0xbd59b2c2	-0.053148992
169	0x3be60d2d	0.0070206136
170	0xbc5ac972	-0.013353692
171	0x3d187b7f	0.03722715
172	0x3cb89d0f	0.022535829
173	0xbc3543cf	-0.01106353
174	0xbbe25ec4	-0.0069082696
175	0xbd2851a6	-0.04109349
176	0xbc46890d	-0.012117636
177	0xba5d9713	-0.0008452993
178	0x3c3ac4d3	0.011399466
179	0x3c81aad2	0.015828524
180	0x3ccccecb	0.02500095
181	0xbc567ec1	-0.013091744
182	0xbc5106da	-0.012757981
183	0x3cf0d959	0.029400514
184	0x38f8b814	0.00011859849
185	0x3dde4879	0.10853667
186	0xbc5c8668	-0.013459779
187	0x3c1c9743	0.009557548
188	0xbc66952e	-0.014073653
189	0xbcd05bbe	-0.025434371
190	0xbd56ea97	-0.052469816
191	0xbc282032	-0.010261582
192	0x3c2b7a05	0.010466103
193	0xbcd9d996	-0.02659301
194	0x3ad20de9	0.0016025874
195	0x3b9db4b5	0.0048128017
196	0xbc321d2a	-0.010871211
197	0x3cc49ba1	0.02399999
198	0x3d78af23	0.0607139
199	0x3d289d02	0.04116536
200	0x3c62dbb6	0.0138463285
201	0x3c27d3ba	0.010243351
202	0x3a15506e	0.0005695884
203	0x3b24b05f	0.002512954
204	0xb8c843bf	-9.549362e-05
205	0x3a647d6c	0.0008716199
206	0x3c830135	0.015991786
207	0x3c1704f6	0.009217491
208	0x3c3b31e8	0.011425473
209	0xbce95eca	-0.028487582
210	0xbb8803c1	-0.004150838
211	0x390f134d	0.00013644733
212	0xbd0ef263	-0.034899127
213	0xbd2a9127	-0.041642334
214	0x3c8f271a	0.0174747
215	0xbcfbdefd	-0.030745978
216	0x3d5ec528	0.05438724
217	0x3c59214a	0.013252566
218	0xbc998fe0	-0.018745363
219	0xbd487eea	-0.04894916
220	0xbd38b3b1	-0.045093242
221	0x3d3288e4	0.04358758
222	0xbad4173b	-0.001618124
223	0xbb01a664	-0.0019783014
224	0xba4c004f	-0.00077820284
225	0xbc353264	-0.011059377
226	0xbbf01903	-0.0073272004
227	0xbc39986c	-0.011327844
228	0xbd3ba32d	-0.045809913
229	0xbd200502	-0.039067276
230	0xbc61c80b	-0.013780604
231	0x3cf3901f	0.029731808
232	0x3b8c106e	0.0042744195
233	0xbcc2aee5	-0.023765037
234	0x3c079e0f	0.00827743
235	0xbdc6cce5	-0.09707049
236	0xbbc56622	-0.006024138
237	0x3d385900	0.045006752
238	0x3d2f1f0f	0.04275423
239	0xbc85c4db	-0.01632922
240	0xbb5c0f00	-0.0033578277
241	0x3bc064cb	0.0058713905
242	0x3c5e2802	0.013559343
243	0x3d47c52b	0.04877202
244	0x3c68c421	0.014206917
245	0x3bf4d710	0.0074719265
246	0x3bc0daa3	0.0058854385
247	0x3d18064d	0.037115384
248	0xbd212df3	-0.03935046
249	0x3d7b4a1d	0.061349977
250	0x3c5227ff	0.012826919
251	0xbcdfec42	-0.027334336
252	0xbcc0cdbd	-0.023535604
253	0xbd0ec349	-0.034854207
254	0xbd249399	-0.040179823
255	0x3cd67cfb	0.026182642

_model.2._model.0.bias f4 [51]
0	0x3d3945cf	0.04523259
1	0xbc9f9011	-0.019477876
2	0x3c811d57	0.01576106
3	0xbd9cfaee	-0.076650485
4	0xbcc5261a	-0.02406602
5	0x3d90935e	0.07059358
6	0x3d1b55a9	0.03792349
7	0x3caf8d79	0.021429764
8	0x3bafe9f8	0.0053684674
9	0xbd8fe141	-0.07025386
10	0xbc8419e4	-0.016125627
11	0xbcf7e046	-0.03025831
12	0xbd63163f	-0.055441137
13	0x3c30540f	0.010762229
14	0x3c0a10b7	0.008426837
15	0x3ce32287	0.027726425
16	0x3bf4fdd9	0.00747655
17	0x3d367a37	0.044550147
18	0xbc689c69	-0.014197447
19	0xbcd2e2a1	-0.02574283
20	0xbc946e5d	-0.018119032
21	0xbb22a30d	-0.0024816424
22	0x3c2a4059	0.010391318
23	0xbc9fef33	-0.019523239
24	0x3c4badb9	0.012431555
25	0x3b878306	0.0041354923
26	0x3b84edd2	0.0040566707
27	0x3c2ad1c6	0.01042599
28	0x3d790e17	0.060804453
29	0xbc91d0ed	-0.017799819
30	0xbd26c5cb	-0.040715974
31	0x3d0f08bc	0.03492044
32	0xbcd5df63	-0.026107496
33	0x3d18dc9b	0.03731976
34	0x3d944ed2	0.07241596
35	0xbd533abd	-0.05156969
36	0x3ca060ef	0.019577472
37	0x3d6ef17e	0.058335774
38	0xbd11e69d	-0.03562032
39	0x3b82a551	0.0039869924
40	0x3c265a02	0.0101532955
41	0xbd185c85	-0.03719761
42	0xbc24b383	-0.010052565
43	0xbd231ad4	-0.039820507
44	0x3d3c139c	0.04591714
45	0x3cf5b936	0.029995542
46	0xbd8a0523	-0.06739261
47	0x3d0841cc	0.033265874
48	0xbc8c2672	-0.017108176
49	0x3ccaff9a	0.024780083
50	0x3c2cc0e9	0.01054404
