data/etc/pretrained_model/boxing/task_agnostic_policy_motor_decoder_exp12_3300.pt (torch, 235877 bytes, 6 tensors)

_model.0._model.0.weight f4 [128, 274]
0.017831158 -0.09983979 0.10539785 -0.24282822 0.18674543 0.09603819 0.14790915 -0.011628241
0.09005004 -0.027467396 -0.06616725 0.04242722 -0.0098257 -0.04963152 0.0334669 0.027915003
-0.120967716 0.064796895 0.1340184 0.024941958 -0.0011634417 0.050651796 0.00988165 0.046875577
-0.057312187 -0.018527124 0.11830322 -0.008346352 0.28186193 -0.20583186 0.17164148 0.15738839
-0.067433916 -0.0074557527 -0.060015354 0.16707753 0.00063877995 0.019921958 -0.04622574 0.2439924
0.017307552 0.26058495 -0.0961071 0.17457291 0.070106305 0.0075189206 -0.040893037 -0.07280188
0.03759307 0.0119488025 -0.0039989236 -0.0073267724 0.20829326 0.06064634 0.11184041 -0.32622182
0.10162615 0.13100155 -0.10739629 -0.07795298 -0.091957465 0.012126925 -0.03467831 0.02439312
-0.06275047 0.062242083 -0.06971771 0.17567697 -0.095555015 0.27878392 0.2759612 -0.03642408
-0.17250529 -0.1257162 -0.019021403 -0.023382071 0.0007141732 -0.024536086 0.0654015 -0.17869103
0.23141344 -0.27629372 0.16203001 0.07462507 0.0019313976 -0.012068719 0.044300616 -0.05008124
0.00093470246 0.034779582 0.0021250185 -0.07784887 0.14373918 -0.14643554 -0.0039260313 0.0019125092
-0.14548357 -0.038332537 -0.032170974 0.0087915035 0.03483769 -0.05609156 -0.006139084 0.013030504
-0.1025839 -0.035274062 0.03017001 0.013482996 -0.113841124 0.0073287804 -0.037325993 0.00947995
-0.024051584 0.08267324 0.0037716834 0.004945835 0.011830992 -0.12765865 -0.017626183 0.019544143
0.11985787 0.023052068 -0.1917677 0.08055718 0.011997999 -0.09471632 -0.005756226 -0.004842621
-0.003436199 -0.033471882 -0.036040235 0.051463984 0.037275773 0.0109204715 0.071007185 -0.07394699
0.116762735 0.04997358 -0.018075345 0.1453689 -0.015669884 0.052906793 -0.028959084 0.004463137
0.093129426 -0.0064463466 0.1327026 -0.0049101394 -0.07653436 0.10340099 0.07908894 -0.097832255
0.11077406 -0.02351693 -0.011290984 0.027986169 -0.08666106 -0.012053751 0.14097498 0.06407661
0.012527974 -0.07521189 -0.09066721 0.05510091 0.006353122 -0.00036868663 -0.07408276 -0.06018938
0.0042325775 0.045022532 0.12122232 0.028125301 -0.04845084 -0.09716627 -0.11954992 0.073685765
0.0012109225 0.0032976344 0.061219994 0.06667964 0.001966509 -0.0026476423 0.082596995 -0.010088862
0.13903993 -0.046987213 -0.010745919 -0.002715938 0.01070411 0.026469635 0.07920145 -0.007856885
-0.035894774 0.030230423 0.000753551 -0.097975045 -0.012746404 0.051796556 -0.058034778 0.034392744
-0.09570282 -0.02031157 0.09105816 -0.04371303 0.039728504 0.022259953 -0.027072286 0.018775217
-0.10510272 -0.003486379 0.10414083 0.036366716 -0.16001223 -0.04362834 0.020649193 0.027448246
0.06595603 0.05604405 0.01129482 0.0073204166 0.037906382 0.023162706 0.009558842 0.13064857
-0.05178546 0.089407295 0.026883528 -0.014120837 0.050894823 0.058856312 -0.0467153 0.005243028
-0.019291231 0.031575073 -0.015214937 0.08513578 0.07088313 -0.009579746 -0.04609491 0.09496425
0.09797718 0.021075735 0.041296862 -0.04903121 0.0146721 0.045001745 -0.06676721 -0.048535455
-0.0020692798 -0.04939417 0.017280573 -0.036156148 -0.008113226 0.04731296 -0.02173159 0.05665376
00000000: a612 923c ce78 ccbd d4da d73d f6a7 78be
00000010: 323a 3f3e acaf c43d 7f75 173e 6184 3ebc
00000020: 286c b83d 4e03 e1bc b282 87bd 2ac8 2d3d
00000030: f9fb 20bc 6c4a 4bbd 9714 093d 01ae e43c
00000040: ecbd f7bd 3cb4 843d 1f3c 093e 1453 cc3c
00000050: a07e 98ba 4278 4f3d a5e6 213c 9b00 403d
00000060: 2fc0 6abd 32c6 97bc f548 f23d 23bf 08bc
00000070: 3550 903e 96c5 52be c9c2 2f3e 6c2a 213e
00000080: cb1a 8abd 634f f4bb a9d2 75bd 5f16 2b3e
00000090: cc73 273a 6033 a33c 3457 3dbd 25d9 793e
000000a0: 91c8 8d3c 646b 853e cdd3 c4bd 3ec3 323e
000000b0: e593 8f3d 4761 f63b 757f 27bd 2719 95bd
000000c0: 31fb 193d e9c4 433c 6709 83bb 6c15 f0bb
000000d0: d44a 553e 4c68 783d 960c e53d 8c06 a7be
000000e0: 5f21 d03d 4525 063e 96f2 dbbd d0a5 9fbd
000000f0: 3254 bcbd 03b0 463c d80a 0ebd 15d4 c73c
00000100: 5283 80bd 8ef1 7e3d 29c8 8ebd aae4 333e
00000110: 59b2 c3bd c4bc 8e3e c94a 8d3e 6b31 15bd
00000120: 3aa5 30be bfbb 00be c6d2 9bbc c28b bfbc
00000130: 5a37 3b3a e7ff c8bc 39f1 853d c8fa 36be
00000140: a5f7 6c3e 5f76 8dbe 32eb 253e 07d5 983d
00000150: f326 fd3a e0bb 45bc 9074 353d fc21 4dbd
00000160: d206 753a 0975 0e3d e543 0b3b 3a6f 9fbd
00000170: 5d30 133e 33f3 15be f0a5 80bb 29ad fa3a
00000180: a5f9 14be 9402 1dbd b6c5 03bd 3d0a 103c
00000190: f7b1 0e3d 43c0 65bd 5f2a c9bb e57d 553c
000001a0: 8217 d2bd 897b 10bd 1927 f73c c9e7 5c3c
000001b0: 8925 e9bd 4426 f03b 24e3 18bd cb51 1b3c
000001c0: d407 c5bc 9650 a93d 592e 773b ac10 a23b
000001d0: c7d6 413c f3b8 02be c964 90bc 0a1b a03c
000001e0: 0b78 f53d b1d7 bc3c c05e 44be 2afb a43d
000001f0: 4193 443c a1fa c1bd b99e bcbb d9ae 9ebb
00000200: da31 61bb d019 09bd ed9e 13bd e6cb 523d
00000210: 7bae 183d c7eb 323c 376c 913d 8571 97bd
00000220: 4d21 ef3d 19b1 4c3d bf12 94bc 96db 143e
00000230: 215e 80bc cbb4 583d 9a3b edbc 823f 923b
00000240: a4ba be3d e03b d3bb 31e3 073e 3ce5 a0bb
00000250: 0cbe 9cbd e6c3 d33d 62f9 a13d 475c c8bd
00000260: 83dd e23d 94a6 c0bc d2fd 38bc 4043 e53c
00000270: 5b7b b1bd 197d 45bc bf5b 103e 993a 833d
00000280: 2242 4d3c b108 9abd bbaf b9bd 7eb1 613d
00000290: da2d d03b 484c c1b9 b4b8 97bd 2489 76bd
000002a0: 6fb1 8a3b 8c69 383d 6843 f83d 0867 e63c
000002b0: 6374 46bd 1cff c6bd 97d6 f4bd 90e8 963d
000002c0: d1b7 9e3a 201d 583b d1c1 7a3d 568f 883d
000002d0: 8ce0 003b 1184 2dbb 9d28 a93d c14b 25bc
000002e0: 7c60 0e3e aa75 40bd a70f 30bc e1fd 31bb
000002f0: 4b60 2f3c d9d6 d83c 5f34 a23d 2aba 00bc
00000300: 6606 13bd cba5 f73c f489 453a 24a7 c8bd
00000310: 4bd6 50bc a028 543d e0b5 6dbd 68df 0c3d
00000320: d7ff c3bd 7364 a6bc b37c ba3d 6f0c 33bd
00000330: 5bba 223d 815a b63c b3c6 ddbc 7cce 993c
00000340: 1840 d7bd bc7b 64bb ca47 d53d 44f5 143d
00000350: 3fda 23be a1b3 32bd 7f28 a93c 25db e03c
00000360: f413 873d 728e 653d e90d 393c 1be0 ef3b
00000370: b943 1b3d b7bf bd3c b09c 1c3c bdc8 053e
00000380: fe1c 54bd 2c1b b73d d83a dc3c 155b 67bc
00000390: 1777 503d 5113 713d 8b58 3fbd b5cd ab3b
000003a0: a508 9ebc dd54 013d 1248 79bc ab5b ae3d
000003b0: 2d2b 913d 5ef4 1cbc 04ce 3cbd 9e7c c23d
000003c0: 42a8 c83d 05a7 ac3c e626 293d f3d4 48bd
000003d0: 3f63 703c c053 383d 3fbd 88bd 1dcd 46bd
000003e0: c19c 07bb 8b51 4abd fd8f 8d3c 7818 14bd
000003f0: 56ed 04bc 3ccb 413d 7306 b2bc c60d 683d

_model.0._model.0.bias f4 [128]
0.012352161 0.0028837873 0.023501875 0.0015390322 0.025877833 0.0017551841 0.0007918967 0.013380765
0.0036920838 0.010273667 0.0025783586 0.006297932 0.015074782 0.029277138 0.021055486 -0.008496662
0.017690042 -0.0023082492 0.020858247 0.0035732011 -0.0023695168 -0.0014210889 0.011598153 0.007861502
0.011048627 -0.005620472 -0.024973743 0.018448899 0.012142618 0.012678613 0.009008706 -0.006232586
0.010049313 0.0040231613 0.0019128328 0.02042321 0.016882375 0.021730054 0.003803656 0.026754629
-0.010861803 0.027744988 0.021220895 0.014384065 0.004983841 -0.0012735071 0.015196862 0.0014407561
0.008567054 0.009468376 0.0060540256 0.003620417 -0.008834852 0.0036899266 0.01174167 0.014355005
0.011852401 -0.001580727 0.0086941235 0.026715122 0.012135417 0.019222789 0.0019402456 0.01797007
0.035333686 0.012633005 0.021201918 0.004908593 0.0046621487 0.016091922 0.012931665 0.020943318
0.015259578 0.016894087 0.018142365 0.0042810035 0.0072907256 0.0077041653 0.010674092 0.01675502
0.020291049 0.027602887 0.0063585294 0.0027326348 0.0012712139 0.012738679 0.021060465 0.010104847
0.014120264 0.017918702 0.022675982 0.0056598587 -0.014535891 0.012958314 0.018657552 0.04314521
-0.008024893 0.0024744284 0.00046144915 -0.0050082463 0.01145805 0.011379003 -0.0026452201 0.0054430743
0.018041208 -0.00474557 0.005761914 -0.001148497 0.01517789 0.016228119 0.012936304 0.0003815886
0.034870334 0.028671803 -0.0003804222 -0.010473184 0.0034560491 0.012579941 0.0064743203 -0.013547323
0.009380109 0.0054627387 0.01444099 0.010012846 -0.009992239 0.021693135 -0.0012028695 0.0035072216
00000000: b860 4a3c ecfd 3c3b 0187 c03c 5ab9 c93a
00000010: c0fd d33c 350e e63a 4a97 4f3a ff3a 5b3c
00000020: e3f6 713b e252 283c aef9 283b e25e ce3b
00000030: 38fc 763c 9cd6 ef3c 8e7c ac3c 9535 0bbc
00000040: b5ea 903c ff45 17bb eade aa3c 5e2c 6a3b
00000050: e549 1bbb d543 baba 2e06 3e3c 87cd 003c
00000060: 4d05 353c f02b b8bb bc95 ccbc 2522 973c
00000070: d5f1 463c f5b9 4f3c 4099 133c b93a ccbb
00000080: e0a5 243c b9d4 833b 05b8 fa3a 934e a73c
00000090: e84c 8a3c 3a03 b23c c246 793b 862c db3c
000000a0: b4f5 31bc 7549 e33c 71d7 ad3c 24ab 6b3c
000000b0: 7d4f a33b cfeb a6ba 42fc 783c c1d7 bc3a
000000c0: d45c 0c3c 3f21 1b3c d960 c63b 8544 6d3b
000000d0: 0ec0 10bc b2d2 713b 2260 403c 4131 6b3c
000000e0: 9330 423c 6630 cfba cc71 0e3c acd9 da3c
000000f0: a1d3 463c 1c79 9d3c d74f fe3a f835 933c
00000100: 0eba 103d aafa 4e3c a5af ad3c 43d8 a03b
00000110: f0c4 983b 35d3 833c 56df 533c 5291 ab3c
00000120: 4f03 7a3c 7865 8a3c 4c9f 943c a947 8c3b
00000130: 0ae7 ee3b 3973 fc3b 63e2 2e3c d341 893c
00000140: 6a39 a63c 731f e23c 365b d03b 0116 333b
00000150: dc9e a63a e4b5 503c ff86 ac3c cd8e 253c
00000160: ae58 673c 3eca 923c fbc2 b93c 5676 b93b
00000170: f227 6ebc 1c4f 543c b9d7 983c 08b9 303d
00000180: d77a 03bc 052a 223b a8ee f139 371c a4bb
00000190: 8cba 3b3c ff6e 3a3c 6e5b 2dbb d15b b23b
000001a0: 28cb 933c ba80 9bbb 70ce bc3b 2a89 96ba
000001b0: afac 783c d5f0 843c cbf2 533c f40f c839
000001c0: 32d4 0e3d 21e1 ea3c 6773 c7b9 b897 2bbc
000001d0: e27e 623b 191c 4e3c 8926 d43b 97f5 5dbc
000001e0: 07af 193c c600 b33b e799 6c3c ec0c 243c
000001f0: 7db6 23bc cdb5 b13c 9aa9 9dba 6ad9 653b

_model.1._model.0.weight f4 [128, 128]
0.11526613 0.103348464 0.008587933 0.056781407 0.0041984934 0.012660555 -0.052572034 -0.039767515
0.07984012 -0.114370055 0.10286743 -0.12017772 0.054368712 0.06621378 0.031123573 -0.2775429
-0.007813693 0.09819166 -0.052866112 0.014077948 0.04153209 -0.025175933 0.0057141855 -0.19665414
-0.11076723 -0.0103660785 0.066382654 0.005218399 0.19427298 0.050151546 -0.16944939 -0.060388815
0.043300595 -0.016063964 0.031348336 0.10874587 -0.045125388 -0.12617299 -0.08491314 0.14188863
0.15073793 0.08227881 0.12623732 0.104899295 0.045943487 -0.17536595 -0.15394805 -0.068123475
-0.104680106 -0.027286941 -0.09708257 0.056652598 0.14632662 -0.06200659 0.16470067 -0.01775676
0.10510014 0.05836404 0.07405524 -0.06990675 -0.059368957 -0.039442815 -0.13523936 0.0080795055
0.12038129 0.10938113 0.10285298 0.05943047 0.033366922 -0.12856317 0.02958231 0.0035978002
-0.03274633 -0.08773884 -0.17004566 0.011942638 -0.004659735 0.07713039 0.0977719 -0.13397917
0.11663612 0.011448022 -0.18669076 -0.18621044 0.04568306 0.13345662 -0.06315378 -0.04571332
-0.119378924 0.080316365 -0.042912807 -0.19238782 0.09802444 -0.042113062 0.0024202121 -0.012447314
0.13562068 -0.09677414 0.074320674 0.074168295 -0.02660511 -0.014767937 -0.034454737 0.06063322
-0.13671482 0.015767073 -0.14168069 -0.075512886 -0.03974881 0.17337295 -0.029973721 -0.047527462
0.02693659 -0.14318398 0.10321477 -0.061717544 -0.14725742 -0.03344296 -0.1436972 -0.0017593944
0.039109644 -0.040063486 -0.08643099 0.0025160934 0.024865907 0.006911407 0.28571826 -0.11280409
-0.051562767 -0.08277291 0.05088524 -0.20215103 0.1880595 0.17730401 0.09520042 0.014674873
0.0711284 0.01030741 -0.016442938 0.046061624 -0.08338005 -0.007152556 -0.029670084 0.06416533
-0.036336094 -0.0830757 0.047453176 -0.12959628 -0.013941746 -0.01055631 0.09613843 0.16922535
0.040540863 0.11739375 -0.03613889 0.052756418 -0.15994792 -0.10139842 -0.035032056 -0.07476383
1.0711677e-05 -0.10651394 0.08177583 0.01826005 0.09461496 0.103062406 -0.004806521 0.04470212
-0.0047091246 -0.1383862 0.09828757 0.14449708 -0.12579949 0.04344985 0.09849972 0.0035010094
0.0904952 0.119814426 0.16173218 0.014329197 -0.12192983 0.10367216 -0.012912541 -0.061091363
0.045248043 -0.076628216 0.03028651 0.05473681 -0.08101415 -0.004314587 -0.0011510731 -0.022045353
-0.008478231 -0.014660097 -0.10848159 -0.046756458 0.10231152 0.14414084 -0.2017853 0.0628221
-0.09306931 -0.04798963 0.10627999 0.058011442 -0.16009556 -0.005766962 -0.18991843 0.0363873
0.005589137 -0.09499448 -0.061874498 0.049200818 -0.08058541 -0.03591453 -0.021019446 -0.036232192
-0.006809319 -0.045853555 0.21306966 0.048179574 -0.019314464 -0.052148208 0.009222258 0.08853479
-0.10182745 -0.056718875 -0.15072538 -0.14733392 0.018139543 -0.010738316 0.048385855 0.054213684
-0.008937748 0.21751428 0.095471 0.3303416 -0.019013546 -0.007605334 0.073704824 -0.023412729
-0.1017163 0.28336138 0.062086757 0.053652514 0.03333646 -0.0063102623 0.0004885359 -0.106025375
-0.012253474 -0.079599865 -0.1343123 0.048502155 -0.05658988 -0.013434178 -0.0046779686 0.11929572
00000000: a610 ec3d 5ca8 d33d 67b4 0c3c 9f93 683d
00000010: 8493 893b 376e 4f3c c655 57bd 43e3 22bd
00000020: 3883 a33d d93a eabd 29ac d23d bd1f f6bd
00000030: bab1 5e3d 179b 873d ddf6 fe3c 1a1a 8ebe
00000040: 0105 00bc b618 c93d 238a 58bd 32a7 663c
00000050: 8e1d 2a3d c23d cebc 103e bb3b b45f 49be
00000060: eed9 e2bd 7cd6 29bc a1f3 873d 1bff aa3b
00000070: 7fef 463e b56b 4d3d 2484 2dbe 435a 77bd
00000080: f75b 313d 9398 83bc 1d67 003d 28b6 de3d
00000090: 66d5 38bd 7e33 01be f1e6 adbd 414b 113e
000000a0: 0b5b 1a3e cb81 a83d 5b44 013e 71d5 d63d
000000b0: 3d2f 3c3d 2293 33be 8fa4 1dbe 5284 8bbd
000000c0: 8662 d6bd dd88 dfbc 3ad3 c6bd 8e0c 683d
000000d0: a5d6 153e 9ffa 7dbd 4ba7 283e a076 91bc
000000e0: be3e d73d 220f 6f3d 46aa 973d 452b 8fbd
000000f0: dd2c 73bd ca8e 21bd 307c 0abe e75f 043c
00000100: 778a f63d 3703 e03d 95a4 d23d 5d6d 733d
00000110: c1ab 083d 10a6 03be 9a56 f23c 12c9 6b3b
00000120: 0421 06bd 6cb0 b3bd 7320 2ebe 0eab 433c
00000130: b1b0 98bb 8af6 9d3d a23c c83d d631 09be
00000140: ebde ee3d 7c90 3b3c dd2b 3fbe f3ad 3ebe
00000150: 291e 3b3d daa8 083e c556 81bd e43d 3bbd
00000160: f07c f4bd e87c a43d 57c5 2fbd 5001 45be
00000170: 0ac1 c83d bf7e 2cbd 6c9c 1e3b d2ef 4bbc
00000180: 26e0 0a3e 8531 c6bd 7035 983d 8ce5 973d
00000190: f6f2 d9bc 38f5 71bc 6920 0dbd 8a5a 783d
000001a0: f8fe 0bbe f329 813c be14 11be 80a6 9abd
000001b0: a6cf 22bd ae88 313e 738b f5bc 28ac 42bd
000001c0: 20aa dc3c d29e 12be 4462 d33d 89cb 7cbd
000001d0: a6ca 16be 7cfb 08bd 5c25 13be 7b9b e6ba
000001e0: 6f31 203d 9c19 24bd bb02 b1bd 0be5 243b
000001f0: 96b3 cb3c 1679 e23b aa49 923e d505 e7bd
00000200: 7b33 53bd d884 a9bd 0b6d 503d ae00 4fbe
00000210: ab92 403e 2f8f 353e 70f8 c23d e16e 703c
00000220: c4ab 913d 69e0 283c 57b3 86bc 1dab 3c3d
00000230: 29c3 aabd fd5f eabb ad0e f3bc 1d69 833d
00000240: 28d5 14bd 9823 aabd 435e 423d e3b4 04be
00000250: ec6b 64bc 60f4 2cbc 3ae4 c43d 6949 2d3e
00000260: 2d0e 263d 226c f03d 5f06 14bd 1d17 583d
00000270: 63c9 23be faa9 cfbd c67d 0fbd c71d 99bd
00000280: 4db6 3337 fb23 dabd 167a a73d 1a96 953c
00000290: 7dc5 c13d 6212 d33d 0580 9dbb 9219 373d
000002a0: 004f 9abb 1db5 0dbe fe4a c93d 0bf7 133e
000002b0: 95d1 00be 78f8 313d 39ba c93d 3171 653b
000002c0: 8c55 b93d 4461 f53d 1f9d 253e 02c5 6a3c
000002d0: 59b6 f9bd 1252 d43d 1f8f 53bc f03a 7abd
000002e0: 0356 393d 41ef 9cbd 6a1b f83c b533 603d
000002f0: bfea a5bd 6161 8dbb 9bdf 96ba 7598 b4bc
00000300: 47e8 0abc e730 70bc 992b debd b383 3fbd
00000310: b488 d13d a899 133e cea0 4ebe e0a8 803d
00000320: 1f9b bebd c690 44bd 53a9 d93d 689d 6d3d
00000330: 17f0 23be c9f8 bcbb fa79 42be d90a 153d
00000340: 1425 b73b 778c c2bd 1d70 7dbd cc86 493d
00000350: f709 a5bd 1d1b 13bd f930 acbc 3568 14bd
00000360: b520 dfbb f0d0 3bbd ef2e 5a3e f257 453d
00000370: 5e39 9ebc 5c99 55bd f418 173c ba51 b53d
00000380: e98a d0bd 0d52 68bd c157 1abe b4de 16be
00000390: 6199 943c c3ef 2fbc 3f30 463d 2b0f 5e3d
000003a0: a26f 12bc 10bc 5e3e 4d86 c33d 8922 a93e
000003b0: 4cc2 9bbc 2a36 f9bb 8ef2 963d 0dcc bfbc
000003c0: a350 d0bd be14 913e af4e 7e3d bdc2 5b3d
000003d0: d08b 083d 51c6 cebb 1711 003a d523 d9bd
000003e0: ccc2 48bc 4105 a3bd 2a89 09be 32aa 463d
000003f0: caca 67bd 071b 5cbc a549 99bb 5051 f43d

_model.1._model.0.bias f4 [128]
0.004389512 0.009340105 0.0017063466 0.02255562 -0.010013702 0.011155339 -0.0040421207 0.016201178
-0.024167152 -0.011120443 0.006984172 0.0057992735 0.00074177986 -0.0073032165 0.0120528955 0.008324092
-0.020208986 0.0071063614 0.012596798 0.0007706896 -0.008547288 -0.024379436 -4.3768136e-07 -0.021702321
0.013262559 -0.0093701575 0.0037883925 -0.009323446 0.03336081 0.0059269117 0.008392703 0.013695859
-0.028469414 0.04230019 0.0051840744 -0.014843737 0.037407342 -0.0016633862 0.001147197 -0.010225556
0.0011247762 0.0010599578 0.011170358 0.008068663 0.008252306 -0.006777488 0.0058304654 0.013331938
-0.020142702 -0.02127692 -0.004181036 -0.008221779 0.0004237126 0.0046528094 0.031215485 -0.00013709978
-0.018245975 0.014376252 0.0013596495 -0.013314987 -0.008545542 0.025637856 -0.015538937 0.0136400005
-0.0014948162 0.01203674 -0.0012619374 0.020901682 0.025054833 -0.0013547571 -0.0026053013 0.0030986639
0.02098052 0.0036417719 0.010348283 0.022577422 -0.017173959 0.011550662 -0.01657969 -0.00085336494
-0.006577676 -0.02360086 0.011854544 0.010139327 -0.014344488 0.014480681 0.00042948252 0.027176343
0.0015310231 -0.021190898 0.006373726 -0.011320119 -0.0032775193 -0.019368598 -0.00265848 -0.009358603
0.0069842925 0.019450387 0.0010555822 0.007890932 0.0135225905 -0.0057521896 0.009648244 0.00011344504
-0.011174142 0.006761726 0.010318823 0.0075005614 0.0034426178 -0.002322994 -0.010023288 0.00057555357
0.0066292663 -0.0025358517 -0.010520687 0.009020577 0.007836799 -0.027530707 -0.013871337 0.017638529
0.008676802 -0.016483305 -0.011064727 0.019793106 0.016460715 -0.007571398 0.008275179 0.02138841
00000000: e5d5 8f3b 3d07 193c 7ea7 df3a 90c6 b83c
00000010: 8310 24bc e2c4 363c c473 84bb 55b8 843c
00000020: 31fa c5bc 8532 36bc 7bdb e43b d507 be3b
00000030: 0174 423a d24f efbb 8279 453c c661 083c
00000040: 518d a5bc 7bdc e83b cd62 4e3c 1b08 4a3a
00000050: ed09 0cbc 62b7 c7bc 78fa eab4 11c9 b1bc
00000060: 344b 593c 4a85 19bc ae46 783b 5ec1 18bc
00000070: 58a5 083d 8a36 c23b 8c81 093c 9964 603c
00000080: b038 e9bc f742 2d3d 2bdf a93b 2533 73bc
00000090: 7138 193d fb05 daba 8b5d 963a 1789 27bc
000000a0: 3a6d 933a 48ee 8a3a e103 373c 6d32 043c
000000b0: ae34 073c b115 debb 7d0d bf3b 336e 5a3c
000000c0: 4f02 a5bc ef4c aebc 1201 89bb a4b4 06bc
000000d0: be25 de39 9876 983b 9eb7 ff3c 71c2 0fb9
000000e0: 9578 95bc 5f8a 6b3c 4436 b23a 1a27 5abc
000000f0: 9a02 0cbc 7b06 d23c 0797 7ebc 4f7a 5f3c
00000100: b5ed c3ba bf35 453c 9867 a5ba 013a ab3c
00000110: cb3f cd3c 1b92 b1ba b4bd 2abb f412 4b3b
00000120: 57df ab3c cbaa 6e3b d88b 293c 49f4 b83c
00000130: 67b0 8cbc fd3e 3d3c 21d2 87bc 5ab4 5fba
00000140: 8c89 d7bb 9756 c1bc 9039 423c 6b1f 263c
00000150: 2505 6bbc 6140 6d3c 2b2c e139 eca0 de3c
00000160: 9cac c83a 8998 adbc b0da d03b 0578 39bc
00000170: a6cb 56bb e5aa 9ebc e539 2ebb d354 19bc
00000180: 7edc e43b 6b56 9f3c 765b 8a3a f848 013c
00000190: db8d 5d3c dd7c bcbb ab13 1e3c 58e9 ed38
000001a0: c013 37bc 7891 dd3b 4810 293c 45c7 f53b
000001b0: 8b9d 613b 5f3d 18bb b838 24bc bfe0 163a
000001c0: 513a d93b 8830 26bb f65e 2cbc 0bcb 133c
000001d0: eb65 003c 1488 e1bc 9b44 63bc ad7e 903c
000001e0: 2529 0e3c ff07 87bc d448 35bc 2725 a23c
000001f0: 9fd8 863c 7d19 f8bb 9e94 073c bf36 af3c

_model.2._model.0.weight f4 [51, 128]
-0.04190993 0.010149592 0.1050339 0.024785433 0.025341194 0.05576688 -0.033301402 -0.033311985
0.102703996 -0.051928893 0.010477561 -0.018082408 0.048600603 -0.022944085 -0.059031688 -0.0853791
0.036634736 -0.07199083 0.025392966 0.0053182687 0.06069092 -0.035160292 -0.00606471 0.06989516
-0.01249445 0.034063768 0.068485186 -0.06603526 0.075573035 -0.03605062 -0.037847098 -0.02581036
-0.0059670294 0.016844308 0.036688577 0.016560415 -0.043353062 -0.018690998 0.015703866 0.030247048
0.034148507 -0.04839666 0.040282775 -0.01550199 0.051728886 0.035486583 0.010414658 -0.036289815
-0.002039176 0.0067379232 -0.025606932 -0.021538952 0.03703015 0.028123714 -0.051435277 -0.0040925094
0.020158567 0.0017217838 0.02003585 0.013891837 -0.02297333 -0.019145947 0.02246313 -0.014299928
0.04155659 -0.05767479 0.019038616 0.010519305 0.017448531 -0.006935451 -0.006896418 -0.029258303
-0.045182236 -0.039333437 0.03799778 0.061160427 -0.011337935 0.0072601377 -0.021311726 -0.0019497763
-0.008211415 0.06622039 0.06196483 -0.0047918037 0.024339538 -0.06979455 0.009252288 0.002693513
-0.0011689092 -0.08295245 -0.01762334 0.02303696 0.05000511 -0.003881295 0.031050337 -0.014734028
-0.023445494 -0.007317447 0.007741429 0.02789501 0.049558792 -3.508234e-05 0.01181578 -0.008202436
0.0055450937 0.0027374334 -0.039271053 0.0063768653 -0.031544887 0.025802895 0.0770854 -0.0040343837
0.025098486 0.024509052 0.013480004 -0.029827066 -0.018228969 0.080856726 0.005031305 -0.0822297
0.035585396 -0.032532454 -0.0054575624 -0.018075017 -0.050396625 0.005939554 0.102399155 -0.007398246
0.018534485 0.0049441094 0.0355846 -0.05570702 0.032922093 -0.05512806 -0.0066058254 0.0021236103
0.05188271 0.043231335 -0.05585655 0.051139243 0.011553488 -0.019590773 0.010629802 0.02464204
-0.008274619 0.08202005 0.007461461 -0.0021129032 0.00870457 -0.042809896 0.011272476 0.06689014
0.017316965 0.0022806162 -0.02331588 -0.024511782 -0.057239763 -0.024795447 0.008919633 0.022130031
-0.009789898 0.02607988 -0.015104406 -0.023172185 0.008625101 -0.0066672284 -0.0035114372 0.015460458
0.009601851 -0.022643548 0.019404855 0.035116967 0.0016542195 0.036968846 0.021207284 -0.051370624
-0.014088017 -0.023113716 0.029091293 -0.012368562 0.048435032 -0.028461207 0.031765126 -0.009368597
-0.002720718 -0.012995775 -0.02031398 0.0028212604 -0.0021691746 0.0006877849 -0.017383218 -0.018543173
0.01063589 0.0059008985 0.017285237 -0.010302533 -0.029495006 -0.017484354 -0.027669022 0.073542506
-0.02758454 0.021229297 -0.026196225 0.0033370643 0.03284026 0.018567067 -0.080037 -0.0020262888
0.00010226191 -0.01295835 0.0015673314 -0.009960088 0.019634057 0.010943862 -0.0063218474 -0.04782563
0.020239417 0.012748774 -0.0116534075 -0.0019683603 0.010729176 0.002686025 -0.019398212 0.01998622
0.0060725193 0.00080059643 -0.020711558 -0.019628055 -0.04552249 -0.0030121868 -0.0133399805 0.0060253413
-0.024311941 -0.012600812 0.00839901 -0.018349059 -0.016570507 0.012254797 -0.017861325 0.016871965
-0.031921484 -0.008020743 -0.0047603175 0.016143208 -0.0031179686 0.04718929 0.008344384 -0.044977818
0.004706961 0.004155101 0.033086017 -0.009790729 0.003614603 -0.0054113935 0.009923368 0.029452598
00000000: bfa9 2bbd 794a 263c 031c d73d d20a cb3c
00000010: 5698 cf3c d06b 643d 0d67 08bd 2672 08bd
00000020: 7956 d23d 64b3 54bd 13aa 2b3c 8f21 94bc
00000030: 6d11 473d 3cf5 bbbc 36cb 71bd 3ddb aebd
00000040: 4e0e 163d ee6f 93bd e904 d03c df44 ae3b
00000050: 0b97 783d 3d04 10bd 7aba c6bb 3225 8f3d
00000060: 86b5 4cbc 7386 0b3d f641 8c3d 7f3d 87bd
00000070: 09c6 9a3d d1a9 13bd 8f05 1bbd 4070 d3bc
00000080: 1287 c3bb 13fd 893c c346 163d b5a9 873c
00000090: fb92 31bd dd1d 99bc 65a5 803c a8c8 f73c
000000a0: 4edf 0b3d 933b 46bd 8dff 243d 0ffc 7dbc
000000b0: abe1 533d 615a 113d 3ea2 2a3c a1a4 14bd
000000c0: b2a3 05bb ccc9 dc3b a1c5 d1bc 7572 b0bc
000000d0: edac 173d b463 e63c ccad 52bd 751a 86bb
000000e0: 9423 a53c 7aad e13a 3922 a43c 969a 633c
000000f0: 9132 bcbc f6d7 9cbc 9904 b83c 3f4a 6abc
00000100: 3e37 2a3d 673c 6cbd dff6 9b3c 2a59 2c3c
00000110: 39f0 8e3c c842 e3bb 59fb e1bb 1caf efbc
00000120: 0211 39bd 191c 21bd 8fa3 1b3d 5b83 7a3d
00000130: bfc2 39bc 73e6 ed3b ee95 aebc a38f ffba
00000140: 2c89 06bc 8e9e 873d d5ce 7d3d 9004 9dbb
00000150: b663 c73c 72f0 8ebd e996 173c a685 303b
00000160: 1636 99ba f9e2 a9bd d35e 90bc 02b8 bc3c
00000170: 29d2 4c3d 535d 7ebb 475d fe3c fe66 71bc
00000180: c410 c0bc 32c7 efbb d0ab fd3b 1384 e43c
00000190: 29fe 4a3d 6025 13b8 f996 413c 8363 06bc
000001a0: 9eb3 b53b 8366 333b afda 20bd 06f5 d03b
000001b0: 3635 01bd 9860 d33c f3de 9d3d dd32 84bb
000001c0: 579b cd3c 35c7 c83c 3cdb 5c3c e457 f4bc
000001d0: eb54 95bc 3698 a53d a5dd a43b 0c68 a8bd
000001e0: fec1 113d c040 05bd 5ad5 b2bb 0f12 94bc
000001f0: b16c 4ebd 97a0 c23b a6b6 d13d fc6c f2bb
00000200: a2d5 973c 3202 a23b 28c1 113d 0b2d 64bd
00000210: 51d9 063d f6cd 61bd ae75 d8bb 452c 0b3b
00000220: f782 543d 5713 313d d6c9 64bd 6277 513d
00000230: d74a 3d3c d47c a0bc 9f28 2e3c 1ade c93c
00000240: 4492 07bc 21fa a73d 457f f43b a278 0abb
00000250: 9d9d 0e3c 6e59 2fbd 31b0 383c b3fd 883d
00000260: 4fdc 8d3c 6476 153b f200 bfbc efcc c8bc
00000270: 3e74 6abd d21f cbbc a723 123c 0a4a b53c
00000280: cf65 20bc 79a5 d53c 7878 77bc 98d3 bdbc
00000290: 4c50 0d3c c478 dabb 2420 66bb dc4d 7d3c
000002a0: 1551 1d3c f67e b9bc eef6 9e3c cfd6 0f3d
000002b0: 65d2 d83a a56c 173d e6ba ad3c 016a 52bd
000002c0: 6dd1 66bc fa58 bdbc dd50 ee3c 82a5 4abc
000002d0: d063 463d 7a27 e9bc 261c 023d be7e 19bc
000002e0: 134e 32bb 3bec 54bc 8169 a6bc e5e4 383b
000002f0: b628 0ebb 774c 343a 4067 8ebc dae7 97bc
00000300: 2842 2e3c 535c c13b c599 8d3c f5cb 28bc
00000310: 839f f1bc 593b 8fbc 25aa e2bc 749d 963d
00000320: f9f8 e1bc 10e9 ad3c 7799 d6bc a6b2 5a3b
00000330: 8283 063d f619 983c 70ea a3bd 7ccb 04bb
00000340: 7275 d638 424f 54bc ea6e cd3a a32f 23bc
00000350: 9ad7 a03c e24d 333c 8027 cfbb cfe4 43bd
00000360: 22cd a53c 3ce0 503c efed 3ebc 9bff 00bb
00000370: 6dc9 2f3c 0608 303b 00e9 9ebc 24ba a33c
00000380: fcfb c63b 1edf 513a 49ab a9bc 04cb a0bc
00000390: ca75 3abd 1c68 45bb ef8f 5abc 3a70 c53b
000003a0: d629 c7bc a373 4ebc 009c 093c c450 96bc
000003b0: dfbe 87bc 58c8 483c ea51 92bc 1337 8a3c
000003c0: 1ac0 02bd 6f69 03bc 70fc 9bbb c33e 843c
000003d0: d556 4cbb 8f49 413d e2b6 083c a93a 38bd
000003e0: da3c 9a3b 8327 883b 3485 073d 4b69 20bc
000003f0: fae2 6c3b 0f52 b1bb 9f95 223c 9346 f13c

_model.2._model.0.bias f4 [51]
0.02939477 -0.011568822 -0.010221119 -0.020705754 -0.004154331 0.029872874 0.02737546 0.021609832
-0.008850234 -0.046946708 -0.02738489 -0.0074820747 -0.0022668238 -0.026403913 0.0028868977 0.0397259
0.00521948 0.02695458 -0.007772124 0.004280431 -0.010871864 -0.010545045 0.02843685 -0.012146952
0.0034569455 0.016226886 -0.014824219 -0.017059091 -0.005699283 -0.004945283 0.00059549365 0.0016816921
-0.0055987947 0.0008595939 0.023246102 -0.030824745 0.020205067 0.02551796 -0.054189008 -0.0034595334
-0.023535712 -0.027545657 -0.008662749 -0.013909255 0.011455018 0.007660147 -0.0087320795 0.02675027
-0.014581295 0.03537043 -0.003927358
00000000: 4dcd f03c 288b 3dbc 7b76 27bc 1d9f a9bc
00000010: 0e21 88bb f5b7 f43c 8042 e03c 1a07 b13c
00000020: 9200 11bc 314b 40bd 4756 e0bc 312c f5bb
00000030: fe8e 14bb 054d d8bc 1b32 3d3b a0b7 223d
00000040: 2c08 ab3b dacf dc3c 4dad febb dc42 8c3b
00000050: e71f 32bc 20c5 2cbc 66f4 e83c 0204 47bc
00000060: ec8d 623b 3fee 843c 48e1 72bc 82bf 8bbc
00000070: 0dc1 babb 0a0c a2bb e71a 1c3a 396c dc3a
00000080: 1876 b7bb 5f56 613a 9c6e be3c 2d84 fcbc
00000090: 1985 a53c 0a0b d13c 4bf5 5dbd 57b9 62bb
000000a0: f7cd c0bc 6ea7 e1bc 34ee 0dbc a5e3 63bc
000000b0: d4ad 3b3c f801 fb3b ff10 0fbc 6223 db3c
000000c0: 62e6 6ebc 96e0 103d 11b1 80bb
