data/etc/pretrained_model/boxing/imitation/task_embedding/TrainModel_8c5db_00001_1_AR_pivot=next,batch_size=256,vae_beta_coeff=1e-07,vae_latent_dim=32_2021-08-23_12-58-56/checkpoint_300/task_agnostic_policy_motor_decoder.pt (torch, 624385 bytes, 6 tensors)

_model.0._model.0.weight f4 [256, 298]
0	0x022a8aee	1.2529498e-37
1	0xbcd40ecb	-0.02588596
2	0x022e5c44	1.280998e-37
3	0xbbdbea1e	-0.0067112586
4	0xbb523a61	-0.0032078254
5	0xbb5361ca	-0.0032254332
6	0xbc311176	-0.010807386
7	0xbc564fc0	-0.013080537
8	0xbb5c7bbe	-0.0033643092
9	0x3b37ed0c	0.0028064875
10	0x3d6ff9a2	0.058587678
11	0xbd0c233f	-0.0342133
12	0xbd05ee58	-0.032698005
13	0xb934c278	-0.00017238583
14	0xbc6852c1	-0.014179886
15	0x3c8df38d	0.017328048
16	0xbd55f813	-0.052238535
17	0xbc1e5c99	-0.009665632
18	0x3bff61f0	0.0077936575
19	0xbcbd7463	-0.023126787
20	0xbd57cc76	-0.052685224
21	0xbbc57c2d	-0.006026766
22	0xbc190fa7	-0.009342111
23	0x3db177f4	0.08665457
24	0xbdc2e228	-0.09515792
25	0xbcf7bddb	-0.030241897
26	0x3b596cee	0.00331765
27	0xbb7948f3	-0.0038037866
28	0x3d266630	0.040624797
29	0xbc844da9	-0.016150312
30	0x3a5e0330	0.0008469103
31	0x3aaa7c08	0.0013006935
32	0xbbef9d9d	-0.00731249
33	0xbddde3f0	-0.10834491
34	0xb988128c	-0.0002595376
35	0xbc8c333f	-0.01711428
36	0x3cf1fe58	0.029540226
37	0x3dcd39e3	0.10020807
38	0x3ce71883	0.02820993
39	0x3b8eccc0	0.004357904
40	0xbba7fec2	-0.005126805
41	0x3d48157d	0.048848618
42	0xbcf4ebc4	-0.029897578
43	0xbbd240fe	-0.006416439
44	0xbc01b353	-0.007916289
45	0xbb6e13ac	-0.0036327643
46	0xbe04687b	-0.12930481
47	0x3bae9697	0.0053280103
48	0xbb7813cd	-0.00378536
49	0xbcf005a5	-0.029299567
50	0x3d7b41fb	0.06134222
51	0xbbfb5986	-0.007670584
52	0x3b0e3a4f	0.0021702235
53	0xbcbfe6cd	-0.023425484
54	0xbb8fabf4	-0.004384512
55	0x3c5c490d	0.013445151
56	0xbc694d21	-0.01423958
57	0x3c085359	0.008320653
58	0xbc068ea1	-0.008212716
59	0xbbc364ab	-0.0059629283
60	0x3b80839d	0.0039219395
61	0xbcd6cfe6	-0.02622218
62	0x3dd05b6b	0.101736866
63	0xbbaf8279	-0.0053561297
64	0x3d9e8f1f	0.07742142
65	0x3c51fb1a	0.012816215
66	0xbc64ebba	-0.013972217
67	0xbc96dcc8	-0.018415824
68	0x3cc87b63	0.024472898
69	0xbc9d4e8e	-0.019202497
70	0x3c92ff8f	0.017944125
71	0xbca79ada	-0.020459581
72	0xb9850eb0	-0.0002537868
73	0x3cf1d3a1	0.029519858
74	0xbd42d7d6	-0.04756912
75	0x3d9513ba	0.07279153
76	0xbce905f3	-0.02844522
77	0x3ca0f2f1	0.019647093
78	0x3cb937fb	0.022609701
79	0xbbc04788	-0.005867902
80	0xbcf82272	-0.030289862
81	0x3caabd70	0.020842284
82	0xbc52672d	-0.012841982
83	0x3bb7bdd1	0.0056073447
84	0xbc5c42e1	-0.01344368
85	0xbbf28173	-0.0074006855
86	0x3d85415d	0.06506608
87	0xbd4b84ca	-0.049687184
88	0x3d33c3b1	0.043887798
89	0xbb70e5ea	-0.0036758133
90	0xbce80911	-0.028324636
91	0x3bd6e12b	0.006557604
92	0xbcf174a2	-0.02947456
93	0x3a16c2a0	0.0005751047
94	0x3b8fd154	0.0043889675
95	0x3c9b4f34	0.018958665
96	0xbced57b2	-0.02897248
97	0xbc352b13	-0.011057633
98	0xbbf0a532	-0.0073439116
99	0xbc255acf	-0.010092451
100	0x3c51f368	0.01281438
101	0x3dad5077	0.08462613
102	0x3cb2b192	0.021813188
103	0xbc07c78e	-0.008287324
104	0x3c44ff49	0.012023755
105	0xbd01ab8c	-0.03165774
106	0xba11e3b0	-0.0005565239
107	0xbba056bf	-0.0048931534
108	0x3c1d5bea	0.009604434
109	0xbd05df79	-0.032683823
110	0xbc1f9022	-0.009738954
111	0xbbbd403b	-0.005775479
112	0xbc97bec6	-0.018523585
113	0x3c89b514	0.016809978
114	0xbd089474	-0.0333447
115	0x3d27c6f5	0.040961225
116	0xbd990a0f	-0.07472622
117	0x3c8558f7	0.016277773
118	0xbd0848ff	-0.03327274
119	0xb790ae50	-1.7247308e-05
120	0x39dd9a90	0.00042267563
121	0x3c7e50e9	0.01552222
122	0xbce26202	-0.027634624
123	0xbc2273e3	-0.009915325
124	0xbbc8ebd3	-0.006131628
125	0xbcabbd79	-0.020964371
126	0x3bd86df7	0.0066049057
127	0x3cef3e64	0.029204555
128	0x3ba89c2b	0.00514557
129	0xba4bfa4c	-0.00077811326
130	0x3ca1d329	0.01975401
131	0xbd0f2dfd	-0.034955967
132	0x3acb62bc	0.0015517096
133	0xbc2c49c9	-0.010515639
134	0x3d030265	0.031984705
135	0xbd0a23d7	-0.033725586
136	0xbc163f3c	-0.00917035
137	0xbc06e156	-0.008232435
138	0xbcbd3c15	-0.023099938
139	0xbb869d02	-0.0041080723
140	0x3c483103	0.012218717
141	0x3d658df5	0.056043584
142	0xbd45c668	-0.048284918
143	0x3cd1454d	0.02554574
144	0xbd195f2b	-0.037444275
145	0xb9836c0f	-0.00025066777
146	0xbc26685a	-0.010156715
147	0x3d146fd7	0.03623947
148	0xbc97a9bf	-0.018513558
149	0xbbfb0457	-0.0076604295
150	0xbc73192f	-0.014837547
151	0xbcf76485	-0.030199299
152	0xbd0096f2	-0.031393953
153	0x3c7910b1	0.015201733
154	0x3b9f03e8	0.0048527606
155	0xbc9bfe9d	-0.019042308
156	0x3c8335fc	0.016016953
157	0xbd286f2d	-0.04112165
158	0xbb7b61a7	-0.0038357766
159	0xbc3175de	-0.010831324
160	0x3b8b0635	0.0042426833
161	0xbd20af50	-0.03922969
162	0xbc3b73e1	-0.011441202
163	0xbcc0cbbd	-0.02353465
164	0xbc5ed077	-0.013599507
165	0xbc5af41c	-0.013363864
166	0x3a060d2e	0.0005113658
167	0xbbd9b0ce	-0.006643391
168	0xbb88ba1e	-0.0041725775
169	0x3c2432fb	0.01002192
170	0xbd37d2da	-0.044878818
171	0xbbce39ec	-0.006293526
172	0xbc5d4b30	-0.013506696
173	0x3c2e3d51	0.010634736
174	0xbc7a4a5d	-0.015276519
175	0xbc7a2c5c	-0.015269365
176	0xbcd78ba8	-0.02631171
177	0xbc05d81e	-0.008169202
178	0xbc5a16c3	-0.013311091
179	0xbd560cc1	-0.052258257
180	0x3d0c3db7	0.034238543
181	0x3c0653ac	0.00819866
182	0x3c085673	0.008321392
183	0xbd328212	-0.043581076
184	0xbb634e36	-0.0034684069
185	0xbca819cb	-0.020520112
186	0x3bf507e1	0.007477746
187	0xbc49962e	-0.012303872
188	0xbb3744e0	-0.0027964637
189	0xbc9690aa	-0.018379528
190	0xbce7ccec	-0.028295957
191	0xbca1c876	-0.019748908
192	0x3d1b3303	0.037890445
193	0x3ca8d479	0.020609127
194	0xbd480d6c	-0.048840925
195	0x3c66fa01	0.0140976915
196	0xbd2ae377	-0.041720834
197	0x3afd0e00	0.001930654
198	0xbca819cb	-0.020520112
199	0x3bf50ba0	0.0074781924
200	0xbc49962e	-0.012303872
201	0xbb3744e0	-0.0027964637
202	0xbc874dd8	-0.016516611
203	0xbd615aaa	-0.055018105
204	0xbd15cafc	-0.036570534
205	0x3d1a5c12	0.03768546
206	0x3ca7cfdc	0.020484857
207	0xbd40143e	-0.046894304
208	0x3ca11501	0.019663336
209	0xbd043bea	-0.0322837
210	0x3be13df3	0.00687384
211	0x3c66b105	0.014080291
212	0x3c834d00	0.016027927
213	0xbbf16469	-0.007366706
214	0xbc35ecec	-0.01110385
215	0xb9fc074e	-0.00048070628
216	0xbd1c393a	-0.038140513
217	0x3c21f7be	0.0098857265
218	0x3c45cdbe	0.012072979
219	0xbc9f9b5c	-0.01948326
220	0x3c49c3ea	0.012314776
221	0x3c8f85fa	0.01751994
222	0xbd125d21	-0.035733346
223	0x3af359ee	0.001856623
224	0x3cea8ea3	0.028632468
225	0xbc9179b8	-0.017758235
226	0x3b84e2ac	0.0040553417
227	0xbb3536ca	-0.0027651065
228	0x3c201401	0.009770394
229	0xbd2acb31	-0.041697685
230	0x3d0eaf3a	0.034835078
231	0xbcd41e5a	-0.025893379
232	0x3de60e2d	0.112331726
233	0xbc23d39d	-0.009999183
234	0x3cad5643	0.021159297
235	0xbd3bb7ec	-0.0458297
236	0x380253a0	3.1072297e-05
237	0x3d549bef	0.051906522
238	0xbcb0245b	-0.02150171
239	0x3b8bacbb	0.0042625344
240	0xbbca8320	-0.006180182
241	0x3ca169d7	0.019703789
242	0xbd351364	-0.044207945
243	0x3d27f3fe	0.041004173
244	0x3d19b630	0.037527263
245	0x3c88f6d1	0.016719254
246	0xbb008566	-0.0019610762
247	0x3cf8cdeb	0.030371627
248	0xbd65a17a	-0.0560622
249	0x3bf91d13	0.007602343
250	0x3d549bef	0.051906522
251	0xbcb024d5	-0.021501938
252	0x3b8bacbb	0.0042625344
253	0xbbca8320	-0.006180182
254	0x3cc62640	0.02418816
255	0xbd7b381b	-0.061332803

_model.0._model.0.bias f4 [256]
0	0xbc4e1ba2	-0.01257983
1	0x3d416e8d	0.04722457
2	0x3c2552ea	0.010090569
3	0xbc6c6d06	-0.01443029
4	0xbd0e75e5	-0.0347804
5	0xbd86bcc0	-0.0657897
6	0x3ccc921f	0.02497202
7	0xbca85ddb	-0.020552566
8	0xbc8a70db	-0.016899517
9	0xbc58f26a	-0.01324139
10	0xbb53b06e	-0.0032301205
11	0xbca1b2ae	-0.019738521
12	0xbcd87121	-0.026421132
13	0xbc24e685	-0.010064726
14	0xbcc2a322	-0.023759428
15	0xbc705099	-0.0146676535
16	0xbcd32b79	-0.025777565
17	0x38b9e3b5	8.863901e-05
18	0x3a999c8a	0.0011719626
19	0x3b592afa	0.0033137188
20	0x3d80eca8	0.062951386
21	0xbbede499	-0.007259917
22	0xbba08929	-0.0048991633
23	0xbc911108	-0.017708316
24	0xbcb03fe0	-0.021514833
25	0xbb8b5c7e	-0.0042529693
26	0xbc2bf31b	-0.010494973
27	0xbbb68279	-0.005569753
28	0xbc03bf73	-0.0080412505
29	0xbc10082c	-0.008791011
30	0x3b4187fd	0.0029530518
31	0x3bc8673e	0.006115823
32	0xbc08446c	-0.008317094
33	0xbd15e1ac	-0.03659217
34	0x3bf4be9c	0.0074690115
35	0xbd371f19	-0.04470739
36	0x3c3631ab	0.01112024
37	0xbcd6f9b2	-0.02624211
38	0xbc98b73d	-0.018642062
39	0xbcb6dee8	-0.022323087
40	0xbbe2431a	-0.006904972
41	0xbc865f62	-0.016402904
42	0xbc671799	-0.014104747
43	0xbc87f8f0	-0.016598195
44	0x3bb5d801	0.0055494313
45	0xbc8b60e9	-0.017013984
46	0xbc02e171	-0.00798832
47	0xbc9bb28f	-0.019006042
48	0xbc8cc3c0	-0.017183185
49	0xbc69a8c6	-0.01426143
50	0xbc87f080	-0.016594172
51	0xbc831c50	-0.016004711
52	0x3d333df5	0.04376026
53	0xbc035ebd	-0.008018193
54	0x3abffde2	0.0014647807
55	0xbc9d5d7e	-0.01920962
56	0xbc88041b	-0.01660352
57	0xbd33b02e	-0.04386919
58	0xbc65433c	-0.013993081
59	0xbc8a57b7	-0.016887529
60	0x3c6e4aab	0.014544169
61	0xbc854cf5	-0.016272048
62	0xbbae3a04	-0.0053169746
63	0xbba0c657	-0.0049064565
64	0xbb280835	-0.0025639657
65	0xbcefa932	-0.029255483
66	0x3db1a1cb	0.08673438
67	0xbc50d306	-0.012745624
68	0xbb430077	-0.0029754916
69	0x3cd41c29	0.025892334
70	0xbc344fef	-0.011005386
71	0xbc798aaf	-0.015230819
72	0xbce0bc75	-0.027433613
73	0xbc3883d2	-0.011261897
74	0xba23ed76	-0.0006253341
75	0xbd019527	-0.031636383
76	0xbc8caaf0	-0.017171353
77	0x3c47bb95	0.012190719
78	0xbc96befd	-0.018401617
79	0x3c7659df	0.015036075
80	0xbc8a6b6e	-0.01689693
81	0xbc3de5b6	-0.011590412
82	0xb9e35918	-0.00043363194
83	0x3b627995	0.0034557332
84	0x3ba6f85c	0.0050955247
85	0xbc485fa1	-0.012229831
86	0xbc026ac4	-0.007960025
87	0xbca18dfc	-0.019721024
88	0x3cb7f793	0.02245692
89	0xbccf5174	-0.025307395
90	0x3bdebc97	0.006797384
91	0x3c37d375	0.011219849
92	0xbc170d04	-0.009219412
93	0xbd1a6f0e	-0.037703566
94	0x3c155a6f	0.009115799
95	0xbcaa496a	-0.02078696
96	0xbcc9ae94	-0.024619378
97	0x3c9acfe5	0.01889796
98	0xbc86220a	-0.016373653
99	0x3d17c1d9	0.037050102
100	0xbcaf6efb	-0.021415224
101	0xbcb84e18	-0.022498176
102	0xbca6362a	-0.0202895
103	0xbc10d2bb	-0.008839305
104	0xbb957da3	-0.004562096
105	0xbcb06454	-0.021532215
106	0xbca4b3f6	-0.020105343
107	0xbc605f97	-0.013694665
108	0xbc892e49	-0.016745703
109	0xbcbca017	-0.023025556
110	0xbc7c1318	-0.015385412
111	0xbc1bff0f	-0.00952126
112	0x3d6e7676	0.058218442
113	0xbc8cf651	-0.017207297
114	0xbd2fc111	-0.04290873
115	0x3be6130f	0.007021315
116	0xbc54fe8b	-0.013000141
117	0x3b3654d2	0.0027821553
118	0x3a82190f	0.0009925681
119	0x3b33115a	0.0027323575
120	0xbc81ffd5	-0.01586906
121	0xbcd7623a	-0.026291955
122	0xbc390974	-0.011293758
123	0xbb8ea672	-0.004353338
124	0xbd20c106	-0.03924658
125	0xbb4d40e5	-0.0031319198
126	0x3c9cf6ac	0.019160591
127	0x3c0f0c48	0.008730955
128	0xbcad49c9	-0.021153348
129	0x3c27f0a0	0.010250241
130	0xbc30a3a9	-0.010781207
131	0xbc798b8a	-0.015231023
132	0xbc9efaa9	-0.019406633
133	0xbb7b3f9a	-0.003833747
134	0x3c4e5b8f	0.012595071
135	0xbcc20e2e	-0.023688402
136	0x3c035fc5	0.008018439
137	0xbce892c5	-0.028390298
138	0x3ca3d655	0.019999662
139	0xbcc52a85	-0.024068126
140	0xbb7918eb	-0.0038009237
141	0xbc778d2f	-0.015109344
142	0x3c4be5fa	0.012444967
143	0xbc2d5dd1	-0.01058145
144	0xbc9f4b65	-0.01944513
145	0x3d8d084e	0.068863496
146	0x3b571f44	0.0032825032
147	0xbb63cf20	-0.0034760907
148	0xbca67111	-0.020317586
149	0xbc7f399b	-0.015577699
150	0xbb9e9f24	-0.0048407484
151	0x3bd8a8fc	0.0066119414
152	0xbb66ede2	-0.0035237004
153	0xbc0bbab3	-0.008528399
154	0x3c6b5515	0.014363547
155	0x39533734	0.00020143093
156	0xbc3f3b07	-0.011671788
157	0xbc809bb7	-0.01569925
158	0xbc7e7bd2	-0.015532451
159	0xbc8654f2	-0.016397927
160	0xbc5e2947	-0.013559646
161	0xbc3b5574	-0.011433948
162	0xbc9724e0	-0.0184502
163	0xbd25a8b1	-0.04044408
164	0x3c91f55a	0.017817188
165	0x3c720fed	0.014774305
166	0xbc8ac54a	-0.016939778
167	0xbc78da7b	-0.015188809
168	0x3b8b8d13	0.0042587607
169	0xbaedcaa2	-0.0018142054
170	0xbb81ca28	-0.0039608665
171	0x3b943805	0.0045232796
172	0xbcad6c15	-0.021169702
173	0xbc6fe15f	-0.014641135
174	0xbca8fd38	-0.020628557
175	0x3d0d5e10	0.034513533
176	0x3be18e8c	0.006883448
177	0xbd163ae2	-0.03667725
178	0xbbbc84b1	-0.0057531227
179	0x3d0a1dad	0.033719707
180	0xbab2c73e	-0.0013639701
181	0xbd3617ae	-0.044456176
182	0xbc2dbf77	-0.010604731
183	0xbc41bbf9	-0.011824601
184	0xbb0e76cc	-0.002173829
185	0xbc64d5b0	-0.013966963
186	0xbd15058a	-0.036382236
187	0x3d0c13d7	0.03419861
188	0xbcf9e7da	-0.030506063
189	0xbb729eb8	-0.0037020873
190	0xbb49f3bc	-0.0030815443
191	0xbc06e58b	-0.008233438
192	0xbc877160	-0.016533554
193	0xbbd9cbe2	-0.006646619
194	0xbc4210db	-0.011844839
195	0xbb0849a2	-0.0020795842
196	0xbc708d41	-0.014682115
197	0xbc65f42b	-0.014035265
198	0xbc1fe097	-0.009758136
199	0xbc23e623	-0.010003599
200	0xbb418926	-0.002953121
201	0x3b881a8c	0.0041535553
202	0x3b88fafa	0.0041803094
203	0x3ca3f263	0.02001304
204	0x3bd867e6	0.0066041825
205	0x3bc01fa4	0.005863147
206	0xbbf46861	-0.007458732
207	0x39a37c0e	0.0003118221
208	0xbb774b93	-0.0037734255
209	0xbb9878f2	-0.0046530897
210	0xbca140f3	-0.01968429
211	0xbcad6f8e	-0.021171357
212	0xbc4ea7a4	-0.012613211
213	0x3c8c9534	0.01716099
214	0x3cf078ca	0.029354472
215	0xbcc2b229	-0.023766594
216	0xbba00b91	-0.0048841913
217	0xbc8c347a	-0.017114867
218	0x3c692ed9	0.014232361
219	0xbcbc61cf	-0.022995858
220	0x3cc002c7	0.023438824
221	0xbc4a55ed	-0.012349588
222	0xba8310d7	-0.0009999526
223	0xbccc0330	-0.024903864
224	0xbc22a051	-0.009925918
225	0xbb899f3e	-0.0041998914
226	0xbbe2c157	-0.0069200206
227	0x3d098f62	0.033584006
228	0xbbbb6013	-0.00571824
229	0xbb2fe208	-0.0026837606
230	0xbd010799	-0.031501386
231	0xbc6f49dd	-0.014605013
232	0xbab69f0a	-0.0013932895
233	0xbd31f20c	-0.043443725
234	0xbcc28d17	-0.023748918
235	0x3d134260	0.035951972
236	0x3c376ed8	0.011195861
237	0xbcf00a2c	-0.029301725
238	0xbc2e22e3	-0.010628435
239	0x3c842bf6	0.016134243
240	0x3a84afb0	0.001012316
241	0x3ad552ab	0.0016275247
242	0xbc4816fd	-0.012212512
243	0x3c756a3f	0.014978944
244	0xbb9f7f09	-0.0048674387
245	0x3a769a44	0.00094071426
246	0xbc9e58c5	-0.019329438
247	0xbc2b2b95	-0.0104474025
248	0xbc8c6791	-0.017139228
249	0xbc59ab19	-0.013285422
250	0xbcdbb33c	-0.026818864
251	0xbc5a7e78	-0.013335817
252	0xbc420491	-0.011841909
253	0x3b7ab0d5	0.0038252373
254	0x3d0cef40	0.034407854
255	0xbcc56eea	-0.02410074

_model.1._model.0.weight f4 [256, 256]
0	0xbd7d4f34	-0.061843112
1	0xbe28e218	-0.16492498
2	0xbdb0e7c8	-0.08637959
3	0xbd5b85f9	-0.053594563
4	0x3c891a31	0.016736122
5	0x3d96493a	0.073381856
6	0x3d32d63f	0.043661352
7	0xbcc3f585	-0.023920784
8	0xbd8d2421	-0.06891657
9	0xbd32ec45	-0.043682355
10	0xbc5b17b8	-0.013372354
11	0x3d133759	0.035941456
12	0x3d1b2032	0.0378725
13	0xbca2113a	-0.019783605
14	0x3d2ca77f	0.042151924
15	0x3d43cf6f	0.047805246
16	0x3c07cfed	0.008289319
17	0xbc091e72	-0.008369075
18	0xbd6ca0ce	-0.057770543
19	0xbc8d922d	-0.017281616
20	0x3c8ec349	0.017427104
21	0x3c5e90ca	0.013584325
22	0x3c86de53	0.016463434
23	0x3d8f12e5	0.06986026
24	0x3c7bf71c	0.01537874
25	0xbce61b67	-0.028089238
26	0xbcf657c2	-0.030071143
27	0xbc36a278	-0.011147134
28	0xbc40eec8	-0.01177568
29	0xbad29cf7	-0.0016068508
30	0xbd374958	-0.04474768
31	0x3d13f5ab	0.03612296
32	0xbd42cf6f	-0.047561105
33	0xbdbbe8c6	-0.091752574
34	0xbd42ff04	-0.047606483
35	0x3cd583ab	0.02606376
36	0x3c6e3b94	0.014540572
37	0x3c55cb52	0.013048964
38	0xbd1c4f6b	-0.038161676
39	0xbc7b12ce	-0.015324308
40	0xbc085775	-0.008321633
41	0xbca75377	-0.020425541
42	0xbd85e6ef	-0.06538188
43	0xbc946ad3	-0.018117344
44	0x3cc30651	0.023806723
45	0xba66d74d	-0.0008805886
46	0x3dc30a73	0.095234774
47	0xbd5de9b0	-0.05417794
48	0x3d9efc19	0.077629276
49	0x3c66c290	0.014084473
50	0xbc6ba4f3	-0.014382589
51	0xbbf12996	-0.0073596938
52	0x3c8cf444	0.017206319
53	0x3d5dbd8a	0.054135837
54	0xbcf8cf61	-0.030372323
55	0x3c73f5c1	0.014890135
56	0xbb445832	-0.0029959795
57	0xbc047774	-0.0080851205
58	0x3c0c7fcc	0.008575391
59	0xbdc5b14f	-0.096529596
60	0xbd8f136e	-0.06986128
61	0xbd582e2d	-0.05277841
62	0x3c4fbde1	0.012679548
63	0x3d710767	0.05884495
64	0x3c537dd2	0.012908416
65	0xbd293230	-0.04130763
66	0xbd9d15d5	-0.0767018
67	0xbc3e1a0e	-0.011602892
68	0xba3e7c6d	-0.00072664657
69	0xbd5dd8aa	-0.054161705
70	0xbd8919d0	-0.066943765
71	0xbcc8c2e0	-0.024506986
72	0xbbb62b77	-0.0055593806
73	0xbd3351a2	-0.043779023
74	0xbc69645d	-0.01424512
75	0x3b7892ef	0.0037929376
76	0xbd22f089	-0.039780173
77	0xbd39afe8	-0.045333773
78	0x3da30578	0.079600275
79	0xbbd5da89	-0.0065262956
80	0x3be929d1	0.0071155806
81	0xbcfd3a58	-0.03091161
82	0xbb1adc10	-0.0023629703
83	0xbd8ab07a	-0.067719415
84	0xbb71f2b3	-0.0036918342
85	0xbda346be	-0.079724774
86	0x3ae3be18	0.0017375378
87	0x3d2d1297	0.042254057
88	0x3d533def	0.051572736
89	0xbcd67d77	-0.026182873
90	0xbb0250ca	-0.001988458
91	0xbc70def2	-0.014701592
92	0xbc22319a	-0.009899521
93	0xbd1f3269	-0.038866434
94	0xbd28442a	-0.04108063
95	0xbd2db157	-0.042405453
96	0x3b76a14c	0.0037632762
97	0xbd96e36d	-0.07367597
98	0x3d6bd0fb	0.057572346
99	0x3cc6f730	0.02428779
100	0x3c1bc0a1	0.0095063755
101	0x3d8161f0	0.06317508
102	0xbc8c7638	-0.017146215
103	0x3c9bb19b	0.019005587
104	0xbcb4ce7f	-0.022071121
105	0x3cfd3320	0.030908167
106	0x3cef000e	0.02917483
107	0xbd8fac3b	-0.07015272
108	0x3c80b272	0.01571009
109	0x3ce14c3a	0.027502168
110	0x3cc9c6e3	0.02463097
111	0xbc604fed	-0.013690931
112	0x3ccd4234	0.025055982
113	0xbc4f8c21	-0.012667687
114	0x3d00f093	0.03147943
115	0xbda18cfe	-0.0788822
116	0xbd6005b7	-0.05469295
117	0x3d3bbc81	0.04583407
118	0x3d25e487	0.040501144
119	0x3cd0abc8	0.025472537
120	0xbc80043c	-0.01562702
121	0xbcdb41ce	-0.026764777
122	0xbcda101c	-0.02661901
123	0xbd329e89	-0.043608222
124	0xbd49f5ca	-0.04930667
125	0xbd5e9647	-0.054342534
126	0x3d589f07	0.052886035
127	0x3cdfb70d	0.027308965
128	0xbb533980	-0.0032230318
129	0x3d835ace	0.06413804
130	0x3d26130f	0.04054552
131	0xbca6d597	-0.02036552
132	0x3c289f53	0.010291892
133	0xbce7b273	-0.028283333
134	0x3c46ecae	0.01214139
135	0xbcd01ad2	-0.025403414
136	0x3c0e7678	0.008695237
137	0xbcc5cf19	-0.024146603
138	0x3c6475c0	0.013944089
139	0x3d2b8ef0	0.041884363
140	0x3cb6bde2	0.02230734
141	0xbc0e4387	-0.008683092
142	0xbdb38f1b	-0.087675296
143	0x3ba2bd24	0.004966395
144	0xbd35cb51	-0.04438335
145	0xbc2ab7f9	-0.010419839
146	0xb8e585b6	-0.000109444765
147	0xbd2012a6	-0.039080285
148	0xbd6ecfd9	-0.058303688
149	0xbd2a11e3	-0.041520964
150	0xbc91540d	-0.017740274
151	0xbc6f6aae	-0.014612837
152	0xbcc8c5b4	-0.024508335
153	0xbc80064b	-0.015628
154	0xbd8689b7	-0.06569236
155	0xbd1c0841	-0.03809381
156	0xbd9392ea	-0.07205756
157	0x3df06d70	0.117396235
158	0xbc957151	-0.01824251
159	0x3db5f549	0.08884675
160	0xbdaa95c2	-0.08329345
161	0x3b61ab66	0.0034434437
162	0x3c833d9c	0.016020589
163	0xbc6a3f46	-0.014297312
164	0x3c5b2b96	0.013377091
165	0xbd9613f9	-0.07328028
166	0x3d6db2cc	0.058031842
167	0xbce94804	-0.028476723
168	0x3d21d23b	0.039507132
169	0xbc94273d	-0.018085117
170	0xbbd56d55	-0.0065132775
171	0xbd0ecdb4	-0.034864143
172	0xbd3a2837	-0.045448508
173	0xbd626b30	-0.055278003
174	0xbd9db514	-0.077005535
175	0xbdb9fac5	-0.090810336
176	0xbd0fb80b	-0.035087626
177	0xbcb3721f	-0.021905003
178	0x3d633938	0.05547449
179	0xbd2f77cf	-0.042838868
180	0x3ce29cb0	0.027662605
181	0x3d94c436	0.07263987
182	0x3c839f17	0.01606707
183	0xbc8f9d04	-0.017530926
184	0xbb32d0c0	-0.002728507
185	0x3c0e9925	0.008703505
186	0xbcc4ec19	-0.024038361
187	0x3c57d862	0.013174148
188	0x3c43f366	0.011959886
189	0x39378f69	0.00017505664
190	0xbc85689f	-0.016285239
191	0x3cc1d9fe	0.023663517
192	0xbb0795e4	-0.0020688707
193	0x3b301b55	0.002687176
194	0x3d08eb46	0.0334275
195	0xbc2c09ee	-0.010500414
196	0x3d6328f4	0.055458978
197	0x3c760b5f	0.0150173595
198	0x3cbaa209	0.022782343
199	0x3d70818e	0.058717303
200	0x3cef408e	0.029205587
201	0x3cdb29b9	0.026753293
202	0x3d61e114	0.05514629
203	0xbc9f7496	-0.019464772
204	0xbcc249fd	-0.023716921
205	0x3d241b8f	0.040065344
206	0x3d33deb9	0.043913577
207	0x3d111ffb	0.03543089
208	0x3be557d6	0.0069989963
209	0xbe035467	-0.12825166
210	0x3c23a260	0.009987444
211	0x3cf09d56	0.029371899
212	0x3ba0ba49	0.0049050194
213	0xbd91fc55	-0.07128207
214	0xbd916581	-0.070994385
215	0xbb79af02	-0.0038098698
216	0xbcf19999	-0.029492186
217	0xba643b4d	-0.0008706346
218	0x3c5f8bd1	0.013644175
219	0xbce61437	-0.028085811
220	0xbc07fbd7	-0.008299789
221	0xbaf477ef	-0.0018651466
222	0xbd730dab	-0.059339207
223	0x3c9dcf8c	0.019264005
224	0xbcb61c57	-0.02223031
225	0x3b665cb4	0.003515047
226	0xbd50dd59	-0.050992344
227	0xbb0b6cf9	-0.002127467
228	0xbd0ecd46	-0.034863733
229	0xbcdb41c4	-0.026764758
230	0x3d9c865b	0.07642814
231	0xbd073868	-0.033012778
232	0x3cabe555	0.020983377
233	0x3b0b4e8b	0.0021256532
234	0x3d485678	0.048910588
235	0x3d0ae51e	0.03390991
236	0xbcc081af	-0.023499338
237	0x3c99880f	0.018741636
238	0x3bd97a16	0.006636868
239	0xbd87b86c	-0.066269726
240	0x3cf002eb	0.029298266
241	0x3d1240d1	0.035706345
242	0x3d743be8	0.059627444
243	0xbcf06a4f	-0.029347567
244	0xbc817dbf	-0.01580703
245	0xbd1e9864	-0.03871955
246	0x3d04ca88	0.03241971
247	0xbd34ae27	-0.044111397
248	0xbcea7cfb	-0.028624048
249	0xbc32a0ea	-0.010902623
250	0x3b1bfa0c	0.0023800163
251	0x3d95a9fb	0.07307812
252	0x3ca84209	0.0205393
253	0x3d415623	0.047201287
254	0x3ba7d542	0.005121858
255	0x3c8cdb4e	0.017194416

_model.1._model.0.bias f4 [256]
0	0x3d981bdf	0.07427191
1	0x3cd6a2f1	0.026200743
2	0xbcb53b6c	-0.022123061
3	0x3cc62c77	0.024191124
4	0xbb2ed47b	-0.0026676941
5	0xbc2485d4	-0.010041673
6	0x3c4daa12	0.012552755
7	0x3d128148	0.035767823
8	0x3c710c65	0.014712428
9	0xbc1065a0	-0.008813292
10	0x3d1bcb6f	0.038035806
11	0x3d94ed74	0.07271853
12	0xbb71ef2c	-0.003691624
13	0xbb066dd4	-0.002051224
14	0x3cb69659	0.022288488
15	0x3b4504dc	0.003006271
16	0x3d7438b2	0.05962438
17	0xbbf544ff	-0.0074850316
18	0x3cfa8b22	0.030583922
19	0x3c2a072c	0.0103776865
20	0x3c62c7c0	0.013841569
21	0x3d1649aa	0.036691345
22	0xbd1d3c23	-0.03838743
23	0xbb2867de	-0.0025696675
24	0x3d8405da	0.064464286
25	0x3c35a4f8	0.011086695
26	0x3c8bd24d	0.017068053
27	0xbcacfce0	-0.021116674
28	0x3c79cc29	0.0152464295
29	0xbd9f66c0	-0.0778327
30	0xbcaeca1c	-0.021336608
31	0xbd4a9744	-0.049460664
32	0xb9b435ef	-0.0003437246
33	0x3d3bcdca	0.045850553
34	0xbc020585	-0.007935886
35	0x3cfe4a77	0.031041367
36	0xbc6e3b5e	-0.014540521
37	0x3c73bb19	0.0148761505
38	0x3d4f1c32	0.050564
39	0x3c8f4f5d	0.017493898
40	0x3bf3a316	0.007435213
41	0x3cb46581	0.022021057
42	0x3ce6c38d	0.028169418
43	0x3d9b5a40	0.07585573
44	0x3caa7d7a	0.020811785
45	0xbc3499b0	-0.01102297
46	0x3d095639	0.033529494
47	0x3abbbda9	0.0014323491
48	0x3d9e2383	0.07721617
49	0x3c40d071	0.011768446
50	0x3d64b3e5	0.055835623
51	0x3d4806f2	0.04883475
52	0x3d14ab02	0.0362959
53	0x3d9e3bd1	0.07726253
54	0xbcf5d522	-0.030008856
55	0x3d2cee4e	0.042219453
56	0x3d7d8623	0.0618955
57	0x3d0247ed	0.031806875
58	0x3ccd9f13	0.025100267
59	0x3bdeb6a6	0.0067966757
60	0xbd45b291	-0.048265997
61	0xbc269c5b	-0.010169114
62	0x3c65e3fb	0.014031406
63	0x3b8e31ed	0.0043394477
64	0xbc245f78	-0.010032527
65	0xbd218ead	-0.039442707
66	0x3d0b1d1e	0.033963315
67	0xbc4d6ae6	-0.012537694
68	0xbd63f332	-0.05565185
69	0xbc81a332	-0.015824888
70	0x3d43d92d	0.047814537
71	0xbc9f2444	-0.019426472
72	0x3dae0b16	0.08498208
73	0x3c7fb04f	0.015606
74	0xbbe24b78	-0.006905969
75	0x3ca10dd2	0.01965991
76	0xbd54951a	-0.051900007
77	0x3ce5e9f3	0.028065657
78	0xbd105234	-0.035234645
79	0x3d018049	0.031616483
80	0x3c927e6b	0.017882546
81	0xbcef0636	-0.029177766
82	0x3d0b690d	0.03403573
83	0x3c4aa405	0.012368207
84	0x3d06c29c	0.032900438
85	0x3bbd2207	0.0057718786
86	0x3d1997e8	0.037498385
87	0xbb50db29	-0.003186891
88	0x3c2f778c	0.010709655
89	0xbd9bbebb	-0.07604738
90	0x3c47513a	0.012165362
91	0x3c39193c	0.01129752
92	0x3d537909	0.0516291
93	0xbd84b7a3	-0.064803384
94	0xbb919270	-0.0044425055
95	0x3a815f7f	0.0009870379
96	0x3cf44f0c	0.029822849
97	0x3d299d18	0.041409582
98	0x3c48ee0f	0.012263789
99	0xbcd075b9	-0.02544676
100	0x3dfeb909	0.124376364
101	0x3d583588	0.052785426
102	0x3d032740	0.032019854
103	0xbce9ddc3	-0.028548127
104	0x3d1ef949	0.038811956
105	0xbceacb00	-0.028661251
106	0xbbb5847f	-0.0055394764
107	0x3d6babce	0.057536893
108	0x3b262d35	0.0025356535
109	0x3d25433a	0.040347315
110	0x3cb0af7b	0.02156805
111	0xbccd815b	-0.025086096
112	0x3aecf181	0.0018077345
113	0x3c0c7a0c	0.00857402
114	0x3d3e104a	0.046402253
115	0xbd43d998	-0.047814935
116	0xbcc831cd	-0.02443781
117	0xbb88e6f8	-0.0041779242
118	0xbb142ac0	-0.0022608489
119	0xbc85c6e9	-0.0163302
120	0x3d9d9391	0.07694162
121	0x3d450e6e	0.048109464
122	0x3ac866f2	0.0015289469
123	0x3cde6805	0.02714921
124	0xbc880f8e	-0.01660898
125	0xbcc626ff	-0.024188517
126	0xbc2306ef	-0.009950384
127	0xbca908e8	-0.02063413
128	0x3d2c4579	0.04205844
129	0xbd062975	-0.03275438
130	0x3d86857a	0.065684274
131	0xbd37deac	-0.04489009
132	0xbd22c790	-0.0397411
133	0x3c5785ae	0.01315443
134	0x3ca9ad7f	0.020712612
135	0x3c8eb9d3	0.017422592
136	0xbc9337c9	-0.017970936
137	0x3cb9e8dd	0.022694046
138	0x3c5cf0c6	0.013485139
139	0xbd0f031e	-0.034915082
140	0x3d16c33c	0.036807284
141	0x3d2d5079	0.042313073
142	0xbc5479e4	-0.012968514
143	0x3ca7886a	0.02045079
144	0x3ca9f26e	0.020745482
145	0x3c0fc1c2	0.008774223
146	0x3d90dac1	0.07072974
147	0xbc8a2e2e	-0.016867723
148	0xbcb99ee2	-0.022658769
149	0xbcb789c9	-0.022404568
150	0xbd0cbf22	-0.034361966
151	0x3a6f8d07	0.0009138141
152	0x3c9b0653	0.018923914
153	0xbd08ec0a	-0.03342823
154	0x3d25ac0d	0.040447284
155	0xbc598420	-0.01327613
156	0xbc10487a	-0.008806342
157	0x3c434981	0.01191938
158	0xbb4d9e5b	-0.0031374905
159	0xbc11b70b	-0.0088937385
160	0x3b83da6b	0.00402384
161	0x3d14b038	0.036300868
162	0x3d251aab	0.040308636
163	0x3cbe4fda	0.023231436
164	0x3cb6eeec	0.022330724
165	0xbc8ecda3	-0.01743204
166	0x3d473f14	0.04864414
167	0x3cb6ba2c	0.02230557
168	0xbd41284c	-0.04715757
169	0x3c7a29dd	0.01526877
170	0xbb99f439	-0.004698303
171	0x3d4eedde	0.050519817
172	0x3b100964	0.0021978253
173	0xbc4233f7	-0.01185321
174	0x3bdd7220	0.0067579895
175	0xbbc6242f	-0.006046794
176	0x3b87dce1	0.004146204
177	0x3d13334f	0.035937604
178	0x3c96ce40	0.018408895
179	0x3a8a08a0	0.0010531135
180	0xbd0805fe	-0.03320884
181	0x3d9287f6	0.07154839
182	0x3dc17357	0.094458275
183	0x3d10c7c5	0.035346765
184	0x3cd325ca	0.025774855
185	0xbd2fcf0e	-0.042922072
186	0xbd5cc2a0	-0.053896546
187	0xbd28b5ae	-0.04118889
188	0xbd1b5fb0	-0.03793305
189	0x3ba73dad	0.005103788
190	0x3cde9dba	0.02717482
191	0xbcb68ba3	-0.02228338
192	0xbce5039d	-0.027955825
193	0xbc772d66	-0.015086507
194	0x3caa6eb7	0.020804746
195	0x3d0743ab	0.033023518
196	0x3d59e7ee	0.0531997
197	0xbc99692b	-0.018726906
198	0x3cb10bc9	0.021612065
199	0x3bbc8673	0.0057533323
200	0xbce2d49d	-0.027689273
201	0xbd783572	-0.060597844
202	0x3d307532	0.043080516
203	0x3c40f736	0.01177769
204	0x3d7ab039	0.061203215
205	0x3d16a00f	0.036773738
206	0x3d89e508	0.06733137
207	0xbd82e902	-0.06392099
208	0xbd038a50	-0.032114327
209	0x39abccb2	0.00032768172
210	0x3c1cb3b5	0.00956433
211	0x3cdb26fc	0.026751988
212	0xbc53907a	-0.012912864
213	0x3d0293be	0.03187918
214	0x3cc13819	0.02358632
215	0x3be14b75	0.0068754503
216	0xbba315f2	-0.0049769813
217	0xbc3e4b97	-0.011614702
218	0x3ca69c2a	0.020338137
219	0xbba4582e	-0.0050153947
220	0x3c9ef2f6	0.019402962
221	0x3d8660d8	0.0656144
222	0xbdae2333	-0.085028075
223	0x3b51979d	0.0031981238
224	0x3da16a94	0.07881656
225	0xbbbd2cbb	-0.0057731546
226	0x3d1488a2	0.036263116
227	0x3c2c7eea	0.010528306
228	0xbc8df2a5	-0.017327616
229	0x3d3c1ad1	0.04592401
230	0xbd00c7ca	-0.031440534
231	0x3d093a1c	0.033502683
232	0x3c14bf23	0.009078774
233	0xbcce66eb	-0.02519556
234	0xbccd0902	-0.02502871
235	0x3d726a68	0.05918351
236	0x3c2a0cfc	0.010379072
237	0x3d483751	0.04888088
238	0x3d0723fd	0.032993305
239	0x3d25b460	0.040455222
240	0x3cdf896f	0.027287213
241	0x3bded536	0.006800319
242	0x3d261cd4	0.040554836
243	0xbd4419eb	-0.04787628
244	0x3ddce78e	0.10786353
245	0x3b8c0043	0.004272492
246	0xbc9963cc	-0.018724345
247	0x3d90bdff	0.07067489
248	0x3caaf7e1	0.020870151
249	0x3cf5266d	0.02992555
250	0x3aba83eb	0.0014229988
251	0x3cd10002	0.025512699
252	0x3cd44984	0.025913961
253	0x3d071123	0.032975327
254	0xbd4e0930	-0.05030173
255	0x3cca8dcd	0.024725819

_model.2._model.0.weight f4 [51, 256]
0	0xbd828361	-0.06372715
1	0xbd7c39bc	-0.061578497
2	0xbc8d7b2f	-0.017270653
3	0xbb0feae1	-0.0021960067
4	0x3d8e1ffb	0.069396935
5	0x3d2b86e8	0.041876704
6	0x3d63b814	0.055595472
7	0xbdad4407	-0.08460241
8	0x3d36103a	0.04444907
9	0x3dce7ce6	0.10082416
10	0x3e0183be	0.12647912
11	0x3d7452cd	0.059649277
12	0xbe00bf02	-0.12572864
13	0xbdf04ba6	-0.11733179
14	0x3a29e01e	0.00064802344
15	0x3d063087	0.032761123
16	0x3d64d79a	0.055869676
17	0x3d39ea50	0.045389473
18	0xbc342929	-0.0109961415
19	0x3bf04b75	0.007333214
20	0x3cfcbd8f	0.030852107
21	0x3d00d133	0.031449508
22	0x3d457843	0.048210394
23	0x3de6b90a	0.11265762
24	0xbd58fe8a	-0.052977122
25	0x3d8b580b	0.06803902
26	0xbb145374	-0.002263275
27	0x3db92a26	0.09041242
28	0xbdf36c06	-0.11885838
29	0x3dac080c	0.08399972
30	0xbd6a52a7	-0.05720773
31	0xbddf5a6d	-0.10905919
32	0xbbc8d273	-0.006128603
33	0x3defc86c	0.11708149
34	0xbe0a148e	-0.13484403
35	0x3d00e367	0.031466868
36	0x3b4890be	0.0030603851
37	0x3cf13a2e	0.029446688
38	0xbbe71f79	-0.0070533124
39	0xbd2236a2	-0.039602883
40	0xbce1abeb	-0.027547797
41	0xbbd9703b	-0.0066356934
42	0x3da27a30	0.07933462
43	0x3ce08257	0.0274059
44	0xbe5ec735	-0.21755679
45	0xbd96b5cb	-0.07358893
46	0xbdba44d2	-0.09095158
47	0x3c1d943b	0.00961786
48	0xbcf470ce	-0.029838946
49	0x3d99f455	0.07517306
50	0x3d9d28ef	0.07673823
51	0x3d4b23a9	0.049594555
52	0x3c023b60	0.007948726
53	0xb9a1e79d	-0.00030880878
54	0xbd43926c	-0.04774706
55	0xbb9fdd3b	-0.0048786676
56	0xbdf3133d	-0.11868904
57	0xbd82116b	-0.063509785
58	0xbc796757	-0.015222392
59	0x3d3dc274	0.046328023
60	0x3d8478d1	0.064683564
61	0xbb220816	-0.0024724058
62	0xbc2dd3a1	-0.010609538
63	0xbdb64b26	-0.08901052
64	0xbb9b5c96	-0.0047412617
65	0x3d87c061	0.0662849
66	0x3c541545	0.012944524
67	0xbd624534	-0.05524178
68	0x3dfc0eae	0.123074874
69	0x3e16cf85	0.147276
70	0xbcda388e	-0.026638296
71	0x3db58865	0.08863906
72	0x3cb0aab1	0.021565767
73	0x3b67d24f	0.0035373156
74	0xbd40d28e	-0.0470758
75	0x3c7d0f18	0.015445493
76	0xbd43bf4e	-0.047789864
77	0xbcad40e3	-0.021149104
78	0xbb7b5c76	-0.0038354672
79	0xbda08700	-0.07838249
80	0x3d1b49a0	0.03791201
81	0xbd82b863	-0.06382825
82	0xbdb5a378	-0.0886907
83	0xbcbf9c03	-0.023389822
84	0xbd3f01c0	-0.04663253
85	0xbca5a6e7	-0.020221187
86	0x3ce943f1	0.02847478
87	0xbd7b0414	-0.061283186
88	0xbaa6c6f3	-0.0012724086
89	0x3df176b6	0.117902204
90	0xbd81b2cf	-0.06332933
91	0xbbc37594	-0.005964944
92	0x3bbcccac	0.0057617035
93	0x3caee846	0.021350991
94	0x3d634170	0.055482328
95	0x3d70bd2d	0.058774162
96	0x3cbef063	0.023307985
97	0x3d30b3fb	0.043140393
98	0x3d643c0d	0.05572133
99	0xbc9e26a1	-0.01930553
100	0x3e164f62	0.1467872
101	0xbd104081	-0.035217766
102	0x3d61fe98	0.05517444
103	0x3c45c27d	0.012070295
104	0xbc71f6c5	-0.014768307
105	0xbd6ed0f8	-0.058304757
106	0xbd61c755	-0.05512174
107	0xbb805028	-0.0039158054
108	0xbc82ed02	-0.015982155
109	0xbc0bcd8b	-0.008532892
110	0xbd557980	-0.052117825
111	0x3d68f9e1	0.056878928
112	0x3ce06469	0.02739163
113	0xbd914465	-0.07093123
114	0xbd1fd30e	-0.039019637
115	0x3cc0ac8e	0.02351978
116	0xbc2aabb8	-0.0104169175
117	0x3d55af97	0.05216941
118	0xbddbbfbd	-0.107299305
119	0x3c89c29c	0.01681643
120	0xbc14f3ad	-0.0090913
121	0x3d376851	0.04477722
122	0x3d0df56f	0.03465789
123	0x3d58fff8	0.052978486
124	0xb982b3fe	-0.00024929637
125	0x3d69086b	0.056892794
126	0x3d04bec9	0.03240851
127	0x3cf63011	0.030052217
128	0x3d839ee5	0.06426791
129	0xbca9eaa6	-0.020741772
130	0x3d7d4e31	0.061842147
131	0x3bc2ba6a	0.0059426324
132	0x3ce71649	0.028208869
133	0xbdbcb481	-0.09214116
134	0x3c5f978c	0.013646971
135	0x3bdaeef8	0.0066813193
136	0x3da9294a	0.082598284
137	0xbd065528	-0.032796055
138	0xbc28034a	-0.01025469
139	0xbe0bd836	-0.13656697
140	0xbd6660ae	-0.056244545
141	0x3d854d77	0.06508916
142	0xbdd3db57	-0.1034457
143	0xbc222fad	-0.009899062
144	0xbd23e637	-0.04001447
145	0x3d6b263a	0.057409503
146	0x3cb4a702	0.022052292
147	0x3d3110ff	0.0432291
148	0x3d28d7be	0.041221373
149	0xbd6f96ee	-0.058493547
150	0x3d470f7c	0.04859875
151	0xbbb7953e	-0.005602508
152	0x3c8c2690	0.017108232
153	0xbd31ad33	-0.043378066
154	0xbcb58ae3	-0.022160953
155	0x3d225741	0.039633993
156	0x3d704143	0.05865599
157	0xbdb24fc6	-0.08706622
158	0x3dc3d365	0.09561805
159	0xbd2c3181	-0.042039398
160	0x3c6c41da	0.014419997
161	0x3da6f999	0.08153076
162	0x3da68604	0.0813103
163	0x3c3b78ff	0.011442422
164	0x39412764	0.00018420588
165	0x3d02943f	0.03187966
166	0xbb513d42	-0.0031927382
167	0x3df73d24	0.120722085
168	0xbd103aff	-0.035212513
169	0x3d88a36b	0.066717945
170	0x3d2038c8	0.03911665
171	0xbdc5493f	-0.09633111
172	0xbd800992	-0.062518254
173	0xbd96069d	-0.0732548
174	0xbdc21b11	-0.09477819
175	0x3b4395f0	0.0029844008
176	0xbda71af7	-0.0815944
177	0xbcae74b1	-0.021295877
178	0xbc95a6e9	-0.018268066
179	0x3cfe639e	0.03105336
180	0xbdc448fc	-0.09584233
181	0x3d9166d0	0.07099688
182	0xbbca0b96	-0.006165932
183	0xbb895940	-0.0041915476
184	0x3c2ba112	0.010475414
185	0xbe1c08d0	-0.15237737
186	0xbcb1ba94	-0.021695413
187	0xbe043dcc	-0.12914199
188	0xbdae467c	-0.085095376
189	0x3d228e19	0.039686296
190	0x3d167aeb	0.036738317
191	0xbd8c00cb	-0.06836089
192	0xbd7ddd2c	-0.061978504
193	0xb9ea321a	-0.00044669287
194	0x3d5a122e	0.053239994
195	0xbd91538b	-0.07096013
196	0xbdf3139d	-0.11868975
197	0x3c38d84b	0.011282037
198	0x3cf86046	0.030319344
199	0xbbebe4af	-0.007198892
200	0x3ce4960b	0.027903577
201	0xbd48b4f3	-0.04900069
202	0xbd170a21	-0.036874894
203	0xba159011	-0.00057053665
204	0x3d0545ef	0.032537397
205	0x3da80672	0.08204354
206	0x3d339119	0.043839548
207	0x3df3b745	0.1190019
208	0xbdd0337a	-0.101660684
209	0xbd4e1527	-0.05031314
210	0x3d1a9902	0.037743576
211	0x3d08a733	0.03336258
212	0xbded0980	-0.115740776
213	0xbd2b14b7	-0.041767802
214	0x3ce12d84	0.027487524
215	0xbd821a9e	-0.06352733
216	0x3d4d82a4	0.050173417
217	0x3d157fe5	0.036498923
218	0xbd9a66d5	-0.07539145
219	0xbc934cba	-0.017980922
220	0x3d975513	0.073892735
221	0xbccaa9e2	-0.02473921
222	0x3c44efac	0.012020033
223	0x3d94f267	0.07272797
224	0x3da27a44	0.079334766
225	0xbd38a742	-0.045081384
226	0x3e31897a	0.173376
227	0x3d5467f2	0.051856942
228	0x3bf51053	0.0074787526
229	0xbdaf7e50	-0.08569014
230	0x3c4dc844	0.012559954
231	0xbe071f06	-0.13195428
232	0xbcab23e7	-0.020891143
233	0xbc8134bc	-0.015772216
234	0xbdb1826a	-0.08667453
235	0xbcb589c0	-0.02216041
236	0x3d1e646a	0.03866998
237	0x3d921813	0.07133498
238	0x3cac038a	0.020997781
239	0x3dd66ecd	0.10470352
240	0x3cd2f38c	0.025750898
241	0x3cfd3d12	0.03091291
242	0x3c196852	0.009363251
243	0x3dc2ae85	0.09505943
244	0xbd5356aa	-0.05159632
245	0xbcb8d639	-0.022563087
246	0x3dfc4412	0.12317671
247	0xbd5fe58c	-0.054662272
248	0xbcc0d3c0	-0.02353847
249	0xbc0b3138	-0.008495621
250	0xbdf6de70	-0.12054145
251	0x3dfefc3e	0.12450455
252	0xbd2eefb5	-0.04270907
253	0x3d8498f5	0.06474487
254	0x3c81befb	0.015838137
255	0xbe0c8028	-0.13720763

_model.2._model.0.bias f4 [51]
0	0x3e3ef37a	0.18647566
1	0x3d25d665	0.040487666
2	0x3cd12977	0.025532467
3	0xbddff80c	-0.10935983
4	0xbcba0a9b	-0.022710135
5	0x3dbf08fc	0.093278855
6	0x3e534884	0.20633131
7	0x3d064336	0.03277894
8	0xbd9698dd	-0.07353375
9	0xbe75ff4f	-0.24023174
10	0x3d2ce3e9	0.04220954
11	0xbdd3734f	-0.10324728
12	0xbdb13c9e	-0.0865414
13	0x3c5ccd43	0.013476673
14	0xbcc359bb	-0.023846498
15	0x3e59f264	0.21283871
16	0xbb895214	-0.0041906927
17	0x3dd768c3	0.105180286
18	0xbd07b02e	-0.033127002
19	0xbdab6bae	-0.08370148
20	0x3d8e1a84	0.06938651
21	0xbd12ccd9	-0.03583989
22	0x3d0c99c3	0.034326326
23	0x3c14053f	0.009034454
24	0xbd841df0	-0.064510226
25	0xbd6d7704	-0.05797483
26	0x3d480307	0.048831012
27	0xbd087c66	-0.03332176
28	0xbdb0d98b	-0.08635243
29	0x3ca6d6d1	0.020366104
30	0xbdc98bb3	-0.09841099
31	0xbd263df6	-0.040586434
32	0xbc4f9bea	-0.01267145
33	0x3d7f0fdc	0.062270984
34	0x3d0aa089	0.033844505
35	0xbc3102ec	-0.010803919
36	0x3d5d8a5e	0.054087035
37	0x3da9e090	0.08294785
38	0xbd74e473	-0.05978818
39	0xbc440699	-0.011964464
40	0xbdcd5ebb	-0.10027834
41	0xbe05e215	-0.13074525
42	0xbd4b2974	-0.04960008
43	0xbd5b5d22	-0.053555615
44	0x3c3d95c8	0.011571355
45	0xbb9e3f82	-0.004829348
46	0xbda25139	-0.07925648
47	0xbbc0f068	-0.0058880337
48	0xbcb645ef	-0.022250144
49	0x3d77fba3	0.060542714
50	0xbd6035c7	-0.054738786
