data/etc/pretrained_model/fencing/0.99/motor_decoder.pt (torch_old, 126857 bytes, 6 tensors)

0._model.0.weight f4 [128, 64]
0	0xbcd613ce	-0.02613249
1	0xbd85e9ae	-0.065387115
2	0xbd42ddcc	-0.047574803
3	0xbdec8383	-0.11548521
4	0xbe6f3a4d	-0.23362084
5	0xbe437917	-0.19089161
6	0xbe57e3af	-0.21082948
7	0xbe216fc6	-0.15765294
8	0xbe5834c7	-0.21113883
9	0xbdbf4715	-0.0933973
10	0x3c1384d0	0.009003833
11	0xbdf23bc7	-0.11827808
12	0xbced4dda	-0.028967787
13	0xbe458207	-0.19287883
14	0xbe159ac4	-0.1460982
15	0xbc5c6451	-0.013451652
16	0xbe49ad76	-0.19695076
17	0xbd0d4964	-0.03449382
18	0x3c417cb4	0.011809517
19	0xbe0f3328	-0.13984358
20	0x3d49dff7	0.049285855
21	0x3d99741b	0.074928485
22	0xbd2f6a89	-0.04282621
23	0xbddc7e70	-0.107663035
24	0xbd4eb16d	-0.050462175
25	0x3e471b4b	0.19444005
26	0xbd96640c	-0.07343301
27	0xbd6c6750	-0.057715714
28	0x3db8e0ac	0.09027228
29	0x3c7c1928	0.015386857
30	0x3e322898	0.17398298
31	0x3c566a31	0.013086841
32	0xbe5a2dde	-0.2130656
33	0xbdb7cd5f	-0.08974718
34	0x3e7e1a77	0.24814783
35	0xbe2e3dfa	-0.1701583
36	0x3dd60bb1	0.10451449
37	0xbcf1f1f1	-0.029534312
38	0x3cd88966	0.026432704
39	0xbe4eb779	-0.20187177
40	0x3c02b4f7	0.007977716
41	0xbe5760fd	-0.21033092
42	0xbc8eb7d0	-0.017421633
43	0x3dfb64c8	0.12275082
44	0x3d04e749	0.032447133
45	0xbe02dc0b	-0.12779252
46	0xbe0bcd4f	-0.13652538
47	0x3c257078	0.010097615
48	0x3e2e7e3a	0.17040339
49	0xbc1fcbb5	-0.009753157
50	0xbd7425d4	-0.05960639
51	0x3d7fbcec	0.06243603
52	0x3e99fb8f	0.30074736
53	0xbe762c13	-0.2404025
54	0xbe893722	-0.26799875
55	0x3dc7fd99	0.09765167
56	0xbe331e70	-0.1749208
57	0x3e229f6b	0.15881126
58	0xbe31d02d	-0.17364569
59	0x3dd5ba19	0.10435886
60	0xbed2daf6	-0.4118268
61	0xbe324e9a	-0.17412797
62	0x3e7d6279	0.24744596
63	0xbd8bf9a5	-0.06834725
64	0xbe237eea	-0.15966383
65	0xbd44f311	-0.04808337
66	0x3c1d16a1	0.009587915
67	0x3e6aa816	0.22915682
68	0x3e177d13	0.14793806
69	0x3e112723	0.14175086
70	0xbda04581	-0.07825757
71	0xbda445ad	-0.08021102
72	0xbdd9de88	-0.106381476
73	0x3e113f84	0.14184386
74	0xbea8274f	-0.3284249
75	0x3d42c53a	0.04755137
76	0x3e5b111a	0.21393242
77	0x3e49c629	0.19704498
78	0x3d9d5628	0.076824486
79	0xbe3f2245	-0.18665417
80	0xbd2fc063	-0.042908084
81	0x3e0924a2	0.1339288
82	0x3d8a664c	0.06757793
83	0xbc42a6f7	-0.011880628
84	0x3d46be1b	0.048521142
85	0xbce4ab8a	-0.027913827
86	0x3cc4f5c8	0.024042979
87	0x3e7ad699	0.24495925
88	0x3e2c0fb5	0.16802867
89	0x3e5dcc43	0.21659951
90	0xbeabda2c	-0.3356489
91	0x3e01090b	0.12601106
92	0xbd9bd0d7	-0.076081924
93	0xbdb113fc	-0.0864639
94	0xbe079012	-0.13238552
95	0xbcbfdae1	-0.0234198
96	0xbe01eaed	-0.12687273
97	0xbe39d8cd	-0.18149109
98	0xbdcaedea	-0.0990866
99	0xbd6a670d	-0.057227183
100	0xbd8c07e9	-0.06837446
101	0x3c87d519	0.016581105
102	0xbe543440	-0.20723057
103	0xbcf663f4	-0.030076958
104	0x3c006747	0.007837123
105	0x3dbbbfbb	0.09167429
106	0x3e0d97c2	0.13827422
107	0xbdb4aabd	-0.08821628
108	0x3c727491	0.014798299
109	0xbea4d40e	-0.32193035
110	0x3df86988	0.121295035
111	0xbe33ad87	-0.17546664
112	0xbcfbafc8	-0.030723467
113	0xbbefc9d4	-0.007317761
114	0x3e4a5de1	0.19762374
115	0x3e30afdb	0.17254584
116	0xbdc25777	-0.09489339
117	0x3eac8daf	0.33701846
118	0x3dc39975	0.09550754
119	0xbda9d356	-0.08292262
120	0xbdd095c5	-0.10184816
121	0xbd0cf433	-0.034412574
122	0x3e7e7b1a	0.24851647
123	0x3db8c5ab	0.09022077
124	0x3e883af6	0.26607484
125	0xbdc17493	-0.09446063
126	0xbe55989d	-0.20858999
127	0x3dcb8745	0.0993791
128	0xbe050113	-0.12988691
129	0xbd96583a	-0.07341047
130	0x3d323421	0.043506745
131	0xbe4d3b5d	-0.20042177
132	0xbde1d4b3	-0.11026897
133	0xbcc9cecb	-0.02463474
134	0x3ebdc28d	0.37062493
135	0xbdbc87a6	-0.092055604
136	0x3d97f77b	0.0742025
137	0xbd34ba8c	-0.044123217
138	0xbaad2705	-0.0013210481
139	0x3d00fb5d	0.03148972
140	0xbc86d18c	-0.016457342
141	0xbd2a6449	-0.041599546
142	0x3db2ced6	0.08730857
143	0xbe075947	-0.1321765
144	0xbe0c6f04	-0.13714224
145	0x3803e7c2	3.1448675e-05
146	0x3de131f8	0.10995859
147	0x3d5cfea6	0.05395379
148	0x3ea8f063	0.329959
149	0xbd585a34	-0.0528204
150	0x3dc41430	0.09574163
151	0xbd4d62da	-0.0501431
152	0xbe29d5d8	-0.16585481
153	0x3e96e8c8	0.29474473
154	0x3d1f97ae	0.038963012
155	0x3e2ae145	0.16687496
156	0x3ce73820	0.028225005
157	0x3d6db144	0.05803038
158	0xbc910cf6	-0.017706376
159	0xbe2ef4e7	-0.1708561
160	0xbe1c652a	-0.15272966
161	0xbdc3fc3a	-0.09569593
162	0x3d5ee232	0.054414935
163	0x3e80e33a	0.2517336
164	0x3e0f812c	0.14014119
165	0xbe6a35d7	-0.22872101
166	0x3d76f3b6	0.060291015
167	0x3eafa17e	0.34302896
168	0x3d9a4587	0.075327925
169	0xbe231b50	-0.15928388
170	0x3d927f4b	0.071531855
171	0xbe56b4e8	-0.20967448
172	0xbca33893	-0.019924438
173	0xbc37bfce	-0.011215163
174	0x3d941e2e	0.07232319
175	0x3c5eaec8	0.013591476
176	0xbd8ba74f	-0.06819021
177	0xbc0ebc56	-0.008711895
178	0x3d4e036b	0.05029623
179	0xbe2add34	-0.16685945
180	0xbc50bcca	-0.012740323
181	0x3e3d15fc	0.18465418
182	0xbd3422f1	-0.043978635
183	0x3d56e136	0.05246087
184	0xbdd6b9ca	-0.10484655
185	0xbcb40575	-0.021975258
186	0x3db6cba9	0.08925564
187	0xbe7d94fb	-0.24763863
188	0x3db398bc	0.08769366
189	0x3dd9b4cf	0.106301896
190	0x3e9b16af	0.30290744
191	0xbd099193	-0.033586096
192	0xbe2d8c1f	-0.16947983
193	0x3cd6efc4	0.026237376
194	0xbdf84bd1	-0.12123836
195	0x3e0032b9	0.12519349
196	0xbda59a28	-0.080860436
197	0x3daa07d5	0.08302275
198	0xbe2923fd	-0.16517635
199	0xbd80ba9c	-0.06285593
200	0x3d2afbeb	0.041744154
201	0x3e2199aa	0.15781274
202	0xbcb4f285	-0.022088299
203	0xbd341eaa	-0.043974556
204	0x3d8c0a2c	0.06837878
205	0xbbea8e1e	-0.007158055
206	0x3d71a42e	0.058994465
207	0xbdbe3bd8	-0.09288758
208	0x3d7d27f5	0.061805684
209	0x3dc970e1	0.09835983
210	0xbdd4f423	-0.10398128
211	0x3e434250	0.19068265
212	0xbcf4496d	-0.029820168
213	0xbdf658d9	-0.12028665
214	0x3e2a2b3a	0.16618052
215	0xbb67322c	-0.0035277708
216	0xbd8f5cb0	-0.070001006
217	0x3d8c217e	0.06842326
218	0x3e8ec307	0.2788317
219	0x3cf5b720	0.029994547
220	0x3d8d080d	0.06886301
221	0xbe205751	-0.15658309
222	0x3e3474d9	0.17622699
223	0x3da23bb2	0.07921542
224	0xbd873ff5	-0.06603996
225	0x3ecbd827	0.3981335
226	0x3e11dbb8	0.14243972
227	0x3e0de308	0.13856137
228	0x3d97b6f3	0.07407942
229	0xbe197970	-0.14987731
230	0x3e649fbf	0.22326563
231	0xbd326afa	-0.043559052
232	0xbe05a96b	-0.13052909
233	0x3c999620	0.018748343
234	0x3d742207	0.059602764
235	0x3d75e275	0.06003042
236	0xbe1b07e1	-0.15139724
237	0x3d1bf801	0.03807831
238	0xbd192601	-0.03738976
239	0x3e08feac	0.133784
240	0xbe17230a	-0.1475946
241	0x3e79b40f	0.24385093
242	0x3e27a46c	0.16371316
243	0xbe9e926d	-0.3097109
244	0xbea85826	-0.32879752
245	0xbd46a94b	-0.048501294
246	0x3d84f163	0.06491353
247	0xbe70bd5a	-0.23509732
248	0xbe6f6d9b	-0.23381655
249	0x3db29017	0.08718889
250	0xbd72af99	-0.059249494
251	0x3d864ce1	0.06557632
252	0xbe1fb9b1	-0.1559818
253	0xbe0d2ee2	-0.13787416
254	0xbe1a3369	-0.15058674
255	0xbe826009	-0.25463894

0._model.0.bias f4 [128]
0	0x3bf9d002	0.0076236734
1	0x3c52fed7	0.012878141
2	0x3d00d7ec	0.03145592
3	0x3d7b8574	0.061406568
4	0x3d0928fd	0.033486355
5	0x3c36633f	0.011132061
6	0x3bf9e942	0.0076266835
7	0x3ca497ec	0.020091973
8	0x3ad7a37a	0.0016451918
9	0x3d348f34	0.04408188
10	0x3c89b2e0	0.016808927
11	0x3bd17495	0.0063920715
12	0x3c6d794b	0.0144942505
13	0x3ca226de	0.019793924
14	0x3c730107	0.014831788
15	0x3d32eeed	0.04368489
16	0xbb48b89e	-0.0030627619
17	0xbc467ec1	-0.012115181
18	0x3d8171a1	0.06320501
19	0x3d15dd48	0.036587983
20	0x3c2bd5ab	0.010487954
21	0x3d50b35c	0.0509523
22	0x3d2ed757	0.042685833
23	0x3d29bbf5	0.041439015
24	0x3ceccf87	0.02890755
25	0x3c35e513	0.011101979
26	0x3dab35bf	0.08359861
27	0x3cda54bb	0.02665173
28	0x3c8d90e1	0.017280998
29	0x3cbfbc2b	0.023405155
30	0x3c7263ed	0.014794332
31	0x3c79e334	0.015251923
32	0x3d07b172	0.03312821
33	0x3d553efa	0.052062012
34	0x3c9762c2	0.018479709
35	0x3c851f64	0.01625032
36	0x3c4c8e49	0.012485095
37	0x3d132848	0.035927087
38	0x3c9291e0	0.017891824
39	0x3be41321	0.006960288
40	0x3ccb8c8e	0.024847295
41	0xbc75674c	-0.014978241
42	0x3d17885c	0.036995277
43	0x3c691778	0.014226787
44	0x3cf6e355	0.030137697
45	0x3d1a2edc	0.037642345
46	0x3bcc4a86	0.00623447
47	0x3bea300c	0.007146841
48	0x3c5f00b3	0.013611007
49	0xbb8fb945	-0.0043860995
50	0x3c9e9e52	0.019362602
51	0x3d77c2ce	0.060488515
52	0x3d2e4af9	0.04255197
53	0x3d0ae341	0.033908132
54	0x3c0f8a05	0.008760934
55	0xbc7b8b23	-0.015352997
56	0x3d4b3783	0.049613487
57	0x3d850f58	0.06497067
58	0x3c9eac35	0.019369224
59	0x3cc7ea0f	0.0244036
60	0x3d3455d6	0.044027172
61	0x3d59fcb2	0.053219505
62	0x3c2458d3	0.010030943
63	0x3cfa0dc3	0.03052414
64	0x3d415633	0.047201347
65	0x3d416820	0.047218442
66	0x3d1664be	0.03671717
67	0x3c9be947	0.019032134
68	0x3d0eb353	0.034838986
69	0x3d392791	0.04520375
70	0x3d76a312	0.06021411
71	0x3d27570e	0.040854506
72	0x3b754a31	0.0037428255
73	0x3d18dd09	0.03732017
74	0x3d27aa1c	0.040933713
75	0x3d390de9	0.04517928
76	0x3cc51f12	0.024062667
77	0x3d1692d8	0.036761135
78	0x3d0a31f9	0.033739064
79	0x3c1a855a	0.009431208
80	0x3ccf8e79	0.025336491
81	0x3cdbfbb0	0.026853412
82	0x3d3aaf52	0.045577355
83	0x3ca9ac24	0.020711966
84	0xbcf26735	-0.029590229
85	0x3cbd86bb	0.023135534
86	0x3cf33a77	0.029690964
87	0x3cd52191	0.026016982
88	0x3cc40c95	0.02393178
89	0x3cd0a6e2	0.0254702
90	0x3ca6b881	0.02035165
91	0x3c70156e	0.014653547
92	0x3c9ca81f	0.019123135
93	0x3ce62956	0.028095882
94	0x3c4afb01	0.012388946
95	0x3d015dd3	0.03158362
96	0xbb42af5f	-0.002970658
97	0xbc02a494	-0.007973809
98	0x3ce1a0f0	0.027542561
99	0x3c0bd4e4	0.008534644
100	0x3ad054c9	0.0015894409
101	0x3bccd909	0.0062514585
102	0x3d31bfef	0.043395933
103	0x3d5ffd4d	0.054684926
104	0x3ca3d65b	0.019999674
105	0x3d10fecc	0.035399243
106	0x3ce8dfa6	0.028426956
107	0x3c964ddb	0.018347671
108	0x3ccb9d64	0.024855323
109	0xbcf0a4bc	-0.029375426
110	0x3c8b4e81	0.017005207
111	0x3d585fff	0.052825924
112	0x3ccfcb44	0.02536548
113	0x3cc0efbf	0.02355182
114	0x3ccb2be9	0.024801211
115	0x3d0db77d	0.034598816
116	0x3cf0517d	0.029335732
117	0x3d68691e	0.056740873
118	0x3cce5863	0.02518863
119	0x3cae0007	0.021240247
120	0x3cd87d62	0.026426975
121	0x3c30b0c3	0.010784331
122	0x3ca662d8	0.020310804
123	0x3d0f8426	0.035038136
124	0x3d549d4c	0.051907822
125	0x3d0a7e51	0.03381187
126	0xbc523740	-0.012830555
127	0x3d0e08e1	0.034676436

1._model.0.weight f4 [128, 128]
0	0xbc367017	-0.011135123
1	0x3d8e6cdf	0.06954359
2	0x3c77f12f	0.015133186
3	0x3dfa2c1d	0.12215445
4	0xbbf13f7e	-0.007362305
5	0xbd58331b	-0.052783113
6	0x3e0a5848	0.13510239
7	0x3dfc3d08	0.12316328
8	0x3e37b3af	0.17939638
9	0x3e02c1d7	0.12769257
10	0xbe01bcd3	-0.12669687
11	0x3d1b672f	0.0379402
12	0xbd42081f	-0.047371026
13	0x3d2db375	0.04240747
14	0xbd334bc1	-0.043773416
15	0x3d0cc3e4	0.034366503
16	0xbbae1b6f	-0.005313329
17	0xbcfc933e	-0.03083193
18	0xbe8d3545	-0.27579704
19	0x3d733850	0.059379876
20	0x3dc97aba	0.09837861
21	0x3d69f3a7	0.05711713
22	0x3e0e6d0f	0.1390879
23	0x3e38b962	0.18039468
24	0x3c6aadd8	0.014323674
25	0xbd82867f	-0.06373309
26	0xbc7009aa	-0.014650742
27	0xbd52a27f	-0.0514245
28	0xbc2f4ca0	-0.010699421
29	0xbdd019c3	-0.10161164
30	0x3cc28ccb	0.023748776
31	0xbbb14d50	-0.0054108277
32	0xbd9b02a7	-0.07568865
33	0x3c0ba436	0.008523038
34	0xbc78c839	-0.015184456
35	0xbdbb01f3	-0.09131231
36	0x3c5945b5	0.013261248
37	0x3e1e9aad	0.15488692
38	0xbe5da3ac	-0.21644467
39	0xbb626954	-0.0034547644
40	0x3d28e32f	0.041232284
41	0x3e330350	0.17481732
42	0xbd8d50af	-0.06900155
43	0xbdd16490	-0.10224259
44	0x3de0201f	0.109436266
45	0xbd496e2f	-0.049177345
46	0x3dacd1de	0.084384665
47	0x3db99352	0.09061302
48	0xbe597d5c	-0.21239227
49	0x3da4003e	0.08007859
50	0x3dfedbda	0.12444277
51	0xbd9e909d	-0.077424265
52	0x3e119a84	0.142191
53	0xbde4f51b	-0.11179563
54	0xbcacafea	-0.021079976
55	0xbd9f1d93	-0.07769313
56	0x3d7a2994	0.06107481
57	0xbca8d271	-0.020608159
58	0xbdd65041	-0.10464526
59	0x3dbc0c08	0.09181982
60	0xbb280a79	-0.0025641008
61	0x3d9728b5	0.07380811
62	0x3e78351f	0.24239014
63	0xbe00c93e	-0.12576768
64	0xbe45bf2d	-0.19311209
65	0xbdfb0b4f	-0.12258016
66	0x3da72a5a	0.08162375
67	0xbdf78bdf	-0.12087225
68	0x3d0b2d60	0.03397882
69	0x3e90a38c	0.28249776
70	0x3dbf65fe	0.09345625
71	0xbc392314	-0.011299867
72	0x3da739ec	0.081653446
73	0x3da9e157	0.08294933
74	0xbe4b1416	-0.19831881
75	0x3d38bd6b	0.045102518
76	0x3e0213e7	0.12702905
77	0x3ddd085b	0.10792609
78	0xbcebe914	-0.028797664
79	0xbd87aa44	-0.066242725
80	0x3cd3bc14	0.025846519
81	0x3d3876cf	0.04503518
82	0x3bc0efda	0.0058879675
83	0x3dc15759	0.09440488
84	0xbd5e91f0	-0.054338396
85	0xbd1440ec	-0.036194727
86	0xbcec90d0	-0.028877646
87	0x3e2dd71c	0.16976589
88	0xbe3957fd	-0.18099971
89	0xbe0a3939	-0.13498391
90	0xbdecd27f	-0.115635864
91	0xbd9240ee	-0.071412906
92	0xbd94c238	-0.07263607
93	0xbd72d8aa	-0.05928866
94	0x3dce8dc4	0.100856334
95	0xbdb265b0	-0.087108016
96	0xbcc4f190	-0.024040967
97	0xbdb74f1d	-0.089506365
98	0xbd27ecbb	-0.04099725
99	0xbd1d825a	-0.03845439
100	0x3d038919	0.03211317
101	0xbd588cf0	-0.052868783
102	0x3c831fff	0.016006468
103	0x3d81c343	0.06336071
104	0x3dfaa1a3	0.12237861
105	0xbe85c81c	-0.26129234
106	0xbd34d51e	-0.044148557
107	0x3d19f43f	0.037586447
108	0x3e5058d4	0.20346385
109	0x3e3231c3	0.17401795
110	0xbce0a986	-0.027424585
111	0x3dccd75d	0.10002015
112	0xbde945b1	-0.11390246
113	0xbe985293	-0.297505
114	0x3e122477	0.14271723
115	0xbc360faf	-0.011112138
116	0x3c95f753	0.01830641
117	0x3d2eb5b6	0.04265376
118	0xbd84c115	-0.0648214
119	0x3d9d50a8	0.076813996
120	0x3e07d116	0.13263354
121	0x3e1112c0	0.14167309
122	0x3d9f4d0f	0.0777837
123	0xbe48d8cf	-0.19613956
124	0xbe46ae49	-0.19402422
125	0xbd06582b	-0.032798927
126	0x3dda62ff	0.10663413
127	0xbdb04396	-0.08606641
128	0x3d96e3f2	0.07367696
129	0xbccb1e6b	-0.024794778
130	0xbd2a0e5b	-0.041517597
131	0x3da9bea4	0.08288315
132	0xbe0f2047	-0.13977157
133	0xbdf0f94e	-0.11766301
134	0x3d2f9b22	0.042872556
135	0xbe311158	-0.17291772
136	0x3d73d6d6	0.059531055
137	0xbe403063	-0.18768458
138	0x3dab5c3c	0.08367202
139	0x3e7cd52d	0.24690695
140	0xbcbe3ac8	-0.023221388
141	0xbe074d74	-0.1321314
142	0x3e1a509c	0.15069813
143	0xbdb1f258	-0.086888015
144	0xbc8914a8	-0.016733482
145	0x3d2c90ca	0.04213027
146	0xbcfcc025	-0.03085334
147	0xbd2d2666	-0.042272948
148	0xbd719b36	-0.05898591
149	0x3ceb5499	0.028726863
150	0x3e0d76ce	0.13814852
151	0xbd58c313	-0.052920412
152	0x3e2b0b46	0.16703519
153	0xbda88041	-0.082275875
154	0xbc83d84b	-0.016094347
155	0x3d875de9	0.06609709
156	0x3d90581f	0.07048058
157	0x3d1e82aa	0.03869883
158	0xbe381b09	-0.17979063
159	0xbe0a6ca9	-0.13518013
160	0x3d98ad7a	0.07454963
161	0xbda4b87b	-0.08042999
162	0x3d99d653	0.07511582
163	0xbe4aa403	-0.19789128
164	0x3e7d5c48	0.24742234
165	0x3e0357b6	0.12826428
166	0xbaa90949	-0.0012896444
167	0xbd3f50b0	-0.04670781
168	0x3e008633	0.12551193
169	0x3daa9748	0.08329636
170	0x3d0a7db9	0.033811305
171	0xbe0375db	-0.12837927
172	0xbd41ee5c	-0.047346458
173	0x3e50e525	0.20399912
174	0xbccaf83c	-0.02477657
175	0xbdbec3df	-0.09314703
176	0x3de7d705	0.113203086
177	0x3d909941	0.07060481
178	0x3df77bc2	0.12084152
179	0x3dc01f21	0.09380937
180	0x3ddeb6f8	0.10874742
181	0x3d9983e3	0.074958585
182	0x3daec4bf	0.0853362
183	0x3da7c41d	0.081917025
184	0x3d18c1f6	0.03729435
185	0xbd905155	-0.07046763
186	0x3de3c4ae	0.11121498
187	0x3da3d615	0.07999817
188	0xbd38ce7d	-0.045118798
189	0x3b40fa8b	0.002944621
190	0x3ab55569	0.0013834658
191	0xbc28a51f	-0.010293274
192	0xbdc22996	-0.09480588
193	0xbd150fd2	-0.03639204
194	0xbdc75efc	-0.09734914
195	0xbe66e23c	-0.22547239
196	0xbc484ed0	-0.012225822
197	0x3e12af1e	0.14324614
198	0x3d339fd6	0.043853603
199	0xbe4186ed	-0.18899126
200	0x3dff371d	0.12461684
201	0xbd309e2d	-0.0431196
202	0x3cd197a2	0.025585
203	0x3d267325	0.040637154
204	0xbe586f92	-0.2113631
205	0xbd9024ae	-0.07038246
206	0xbd0b4507	-0.034001376
207	0xbba0cd11	-0.0049072583
208	0x3d7fd2e1	0.06245697
209	0x3de5e28c	0.11224851
210	0x3d0de6bb	0.03464387
211	0xbc985b25	-0.018598149
212	0x3db32a84	0.087483436
213	0xbd2df6e9	-0.0424718
214	0x3d84e46b	0.0648888
215	0x3d787dac	0.060666725
216	0x3da91492	0.082558766
217	0x39bd99bc	0.0003616343
218	0xbda5bc00	-0.08092499
219	0x3d6a92b1	0.057268802
220	0xbd7c6019	-0.061615083
221	0xbcdcc763	-0.026950544
222	0xbe280745	-0.16409023
223	0xbe4ff8b1	-0.20309712
224	0xbac431f0	-0.0014968496
225	0xbcb980e0	-0.02264446
226	0x3c0bff02	0.008544685
227	0xbd01950f	-0.031636294
228	0xbcbb44bf	-0.02285993
229	0x3da4ec21	0.080528505
230	0x3e5d521b	0.21613352
231	0x3e079fd2	0.1324456
232	0x3e0f1523	0.13972907
233	0xbdff0132	-0.124514
234	0xbdce93d3	-0.10086789
235	0xbd3f2cec	-0.0466737
236	0xbc8e345b	-0.01735895
237	0x3d305c3b	0.043056708
238	0xbbc3984f	-0.0059690843
239	0xbd6f05b1	-0.058355037
240	0x3d12d4c7	0.03584745
241	0xbd0bbd2b	-0.03411595
242	0x3daed9e8	0.08537656
243	0xbc1b88b1	-0.009493039
244	0x3e1fabd2	0.15592888
245	0x3bb3a61b	0.005482448
246	0x3cd3df40	0.02586329
247	0xbe3d982a	-0.18515077
248	0x3db93763	0.09043767
249	0x3d931fb6	0.07183783
250	0x3d01faa5	0.031733174
251	0xbda386e0	-0.0798471
252	0x3e2024d3	0.15639047
253	0x3d3dc253	0.0463279
254	0x3c69b44b	0.014264177
255	0xbd71529d	-0.058916677

1._model.0.bias f4 [128]
0	0xbcb09eb9	-0.02156006
1	0xbc647355	-0.013943513
2	0x3d2a98e4	0.041649714
3	0x3ceb792b	0.0287443
4	0x3b6f84ce	0.0036547664
5	0x3bdf8c80	0.006822169
6	0x3c040784	0.0080584325
7	0x3c8eb95d	0.017422372
8	0x3ceea583	0.029131657
9	0xb9fef64c	-0.0004863016
10	0x3cc33dec	0.023833238
11	0xbc292f13	-0.010326165
12	0xbb65dd57	-0.0035074556
13	0xbca98a18	-0.020695731
14	0x3bda422a	0.0066607194
15	0x3cf9051e	0.030397948
16	0x3cbb608c	0.022873186
17	0x3ccfd62f	0.025370685
18	0xbb25280b	-0.002520087
19	0x3b95a59d	0.004566862
20	0xbbb381fd	-0.0054781423
21	0x3bf2da51	0.0074112792
22	0x3b862bb4	0.0040945653
23	0x3d072669	0.032995615
24	0x3d05e158	0.032685608
25	0xbc4cd598	-0.012502097
26	0x3c9d6efc	0.01921796
27	0x3c9acd16	0.01889662
28	0x3b3470e8	0.0027533118
29	0x3c40ca87	0.011767036
30	0x3d33cf93	0.04389913
31	0x3b7bf776	0.0038447059
32	0x3cde4bc7	0.027135743
33	0xb9251153	-0.0001574208
34	0x3d2cd4e8	0.04219523
35	0x3d0e61e8	0.03476134
36	0x3c4a1274	0.012333501
37	0xbbb3b4f9	-0.00548422
38	0xbb004cca	-0.001957702
39	0x3cc78011	0.024353059
40	0x3c9cc9a7	0.019139124
41	0x3ca25ef7	0.019820673
42	0x3cae19bc	0.021252505
43	0x3c36442d	0.011124653
44	0x3cce1cb1	0.025160166
45	0xbc6e20fe	-0.014534233
46	0x3c3d2316	0.01154401
47	0x3c5c48be	0.013445077
48	0x3cbad343	0.022805816
49	0x3ca6b437	0.020349605
50	0x3c9eb88f	0.019375114
51	0xbc610e70	-0.013736352
52	0x3910ff95	0.00013828122
53	0x3d0f3a4c	0.034967706
54	0x3b5e3c2a	0.0033910372
55	0x3cd669e8	0.026173547
56	0x3d7455ca	0.059652127
57	0x3ca47d4e	0.020079281
58	0x3d3c5da3	0.045987736
59	0x3cffb5dd	0.031214649
60	0x3be797cc	0.007067656
61	0xbb77e174	-0.003782359
62	0x3cf8cb08	0.03037025
63	0x3cfed871	0.031109067
64	0x3c8a2b5f	0.016866384
65	0xbc636e31	-0.013881252
66	0x3cb8a608	0.022540107
67	0x3b490aa9	0.003067652
68	0x3c82172c	0.01588019
69	0x3d1ebb08	0.038752586
70	0x3d302bc8	0.043010503
71	0x3cb01c91	0.021497997
72	0xbaaab351	-0.0013023411
73	0xbab88a47	-0.0014079296
74	0x3d0fc3fb	0.03509901
75	0x3c9c18b6	0.019054752
76	0x3c4f6611	0.012658612
77	0x3cc1cc62	0.023657028
78	0xbbfe788a	-0.007765834
79	0x395df324	0.0002116678
80	0x3ca508cb	0.020145794
81	0x3bc7c6b8	0.006096687
82	0x3c9bc81b	0.019016316
83	0x3cc1d77c	0.023662321
84	0xbbe8b27d	-0.0071013556
85	0x3cc4b4b0	0.02401194
86	0x39baefcf	0.00035655356
87	0x3cb5acb0	0.02217707
88	0x3d01d97b	0.031701546
89	0x3d0fd71b	0.03511725
90	0x3c29cc31	0.010363624
91	0xbbc0aa1a	-0.0058796527
92	0x3c8884c4	0.01666487
93	0xbb10c881	-0.0022092166
94	0x3bb87c23	0.0056300326
95	0x3c1dd2cf	0.00963278
96	0x3ce4fe51	0.027953299
97	0xbc4eee9e	-0.012630133
98	0x3c79ac9e	0.015238909
99	0x3cd44ff9	0.02591704
100	0x3c9d045c	0.019167118
101	0xbac25348	-0.0014825845
102	0x3d09fe66	0.03368988
103	0x3ca8f676	0.020625334
104	0x3c2d7776	0.010587564
105	0x3d0f10ac	0.03492801
106	0x3cbc14cd	0.022959137
107	0xbbd4b9e2	-0.0064918855
108	0xbc301c15	-0.010748883
109	0x3d10a18c	0.035310313
110	0x3c72859f	0.014802366
111	0x3b0cd79f	0.0021490825
112	0x3c8ebffd	0.017425532
113	0x3d07a45d	0.033115733
114	0x3d5e3b46	0.054255746
115	0x3c4a6d26	0.012355125
116	0x3cce5ec2	0.025191668
117	0x3cde5e0b	0.027144453
118	0x3d2edf5a	0.042693473
119	0xbc65e18f	-0.014030828
120	0x3b90876d	0.0044106753
121	0x3afcf6e3	0.0019299652
122	0x3aeb96e7	0.001797405
123	0x3d5ff3fd	0.054676045
124	0x3cfa6615	0.030566255
125	0x3d05d209	0.03267101
126	0x3c98d177	0.018654568
127	0x3b17d77c	0.002316921

2._model.0.weight f4 [51, 128]
0	0xbcde38b5	-0.02712665
1	0xbcbbce02	-0.02292538
2	0x3c418015	0.011810322
3	0x3c9f9f01	0.019484999
4	0x3b136c7a	0.0022495077
5	0x3c0d0eb2	0.008609461
6	0x3c8f4146	0.01748718
7	0xbce70bfa	-0.028203953
8	0xbce11199	-0.027474212
9	0xbba5c466	-0.005058813
10	0x3c1843bf	0.009293496
11	0xbc21cbc8	-0.009875245
12	0xbd251de1	-0.040311698
13	0xbd1687e5	-0.036750693
14	0xbc9c3207	-0.019066824
15	0xbc7171e0	-0.014736623
16	0x3cdd1ed1	0.026992233
17	0x3c47c948	0.012193985
18	0x3d2aebc1	0.04172874
19	0xbd489368	-0.048968703
20	0x3c3b898b	0.011446367
21	0xbd020d49	-0.03175095
22	0xbc157aa4	-0.009123478
23	0xbc7eb7bd	-0.015546736
24	0x3b2d3c40	0.0026433617
25	0x3d37be57	0.044859257
26	0x3d152cbd	0.03641962
27	0xbd0b88c8	-0.03406599
28	0x3b8a159b	0.0042140014
29	0x3c5b0713	0.013368386
30	0x3d55c05d	0.052185405
31	0x3d61feae	0.055174522
32	0xbd61bbc0	-0.055110693
33	0x3b702211	0.00366414
34	0x3c3515b0	0.011052534
35	0xbc3ee1f7	-0.011650554
36	0x3c7c5de8	0.015403248
37	0x3cd8c077	0.026458962
38	0x3ca28113	0.019836938
39	0x3c881190	0.016609937
40	0x3c5ee480	0.013604283
41	0xbb9c37d7	-0.004767399
42	0x3c57da71	0.013174639
43	0xbd7790a9	-0.060440693
44	0x3d1c7fc1	0.038207773
45	0x3cf613c7	0.030038727
46	0x3d597deb	0.0530986
47	0xbd20da1e	-0.039270513
48	0xbbc0142c	-0.0058617797
49	0x3bfd129b	0.007723165
50	0xbd257a79	-0.040400002
51	0xbd14b5b4	-0.036306098
52	0x3c221532	0.009892749
53	0xbc8e38d5	-0.017361084
54	0xba440916	-0.00074781606
55	0xbc2476d6	-0.010038098
56	0xbc880b71	-0.016607018
57	0xbb47770c	-0.0030435948
58	0xbc350f9c	-0.011051085
59	0xbc18e35a	-0.009331549
60	0x39380fda	0.00017553513
61	0x3d14c6e3	0.036322486
62	0xbcb5f3ed	-0.02221104
63	0x3cf9292c	0.03041514
64	0x3d660eac	0.056166336
65	0xbc2aca83	-0.010424259
66	0x3c801a43	0.015637523
67	0xbcc77323	-0.024346894
68	0xbd7ec7a1	-0.0622021
69	0x3d4406e7	0.047858145
70	0xbcf9cc1f	-0.03049284
71	0xbbb029dc	-0.005376084
72	0x3cdabebd	0.02670228
73	0x3cf9b138	0.030480012
74	0xbd1922c4	-0.03738667
75	0x3c9a4b17	0.018834634
76	0x3bfe3543	0.007757814
77	0xbcd84c2d	-0.026403511
78	0x3c5f8363	0.013642165
79	0x3cc8cc0b	0.024511358
80	0x3c1b0060	0.009460539
81	0xbc7f0755	-0.015565713
82	0xbd1db97c	-0.03850697
83	0x3b1d510b	0.0024004604
84	0x3ced19c2	0.028942946
85	0x3c28d23f	0.010304033
86	0x3cf59285	0.029977093
87	0x3cef4203	0.029206282
88	0xbc189798	-0.0093134865
89	0xbd0f0d85	-0.034925003
90	0xbca0a0d9	-0.019607948
91	0xbba0a737	-0.004902746
92	0xbc8edbbd	-0.017438764
93	0xbbf7ad7b	-0.0075585223
94	0x3d12741b	0.035755258
95	0xbca5079f	-0.020145236
96	0xbcb4287f	-0.021991966
97	0x3b8d0d3d	0.0043045566
98	0xbbc1269f	-0.0058944966
99	0x3bb4a848	0.0055132248
100	0x3bff80d1	0.0077973385
101	0x3d185634	0.037191585
102	0xbcb0cf9b	-0.021583369
103	0x3c35872a	0.011079589
104	0xbcd0a696	-0.02547006
105	0x3ac67324	0.0015140516
106	0xbc0d3833	-0.008619356
107	0xbc25e6a2	-0.010125788
108	0x3cc09eeb	0.023513278
109	0x3c2d8518	0.010590814
110	0xbcfe41bd	-0.031037206
111	0x3d3331f7	0.043748822
112	0xbd20f75e	-0.039298408
113	0x3d2fc00f	0.04290777
114	0x3bae65d0	0.0053221956
115	0xbc69efb9	-0.014278346
116	0xbc3a7d12	-0.011382358
117	0xbd365f07	-0.04452422
118	0x3c4c25d7	0.012460194
119	0x3db48a78	0.08815473
120	0xbd134f7f	-0.035964485
121	0x3c2a7c82	0.010405662
122	0x3d69eb10	0.05710894
123	0x3cfce641	0.030871512
124	0xbc7817b1	-0.015142367
125	0xbd0a782f	-0.033806022
126	0xbc03140b	-0.008000384
127	0xbc5a8c63	-0.013339135
128	0xbc5ab591	-0.013348953
129	0xbc936da4	-0.017996617
130	0x3c007916	0.007841369
131	0xbadae476	-0.0016700167
132	0xbd2b308b	-0.04179434
133	0x3b848da9	0.0040452075
134	0x3c927d7d	0.017882103
135	0xbb79bf34	-0.003810835
136	0xbca63945	-0.02029098
137	0xbc563437	-0.013073972
138	0xbcdfb3d7	-0.027307434
139	0x3c7ee476	0.015557399
140	0xbccc6192	-0.024948869
141	0xbcfaffc0	-0.03063953
142	0x3ce4527e	0.027871367
143	0xbcf18bbe	-0.02948558
144	0x3c9caa59	0.019124197
145	0xbaa9b39c	-0.0012947205
146	0xbd34de76	-0.044157468
147	0xb95c239d	-0.00020994102
148	0x3b242b10	0.0025050081
149	0x3c90ef1c	0.017692141
150	0xbc0adbd1	-0.00847526
151	0x3b857ef7	0.0040739733
152	0x3d1a1ba1	0.037624005
153	0xbc1046d5	-0.00880595
154	0xbbc511a6	-0.0060140667
155	0x3c46e7e2	0.012140246
156	0x3cef501c	0.029213004
157	0x3ba94ad6	0.005166392
158	0x3a351b16	0.0006908638
159	0x3c99d7e1	0.018779697
160	0xbc8e94d8	-0.017404959
161	0x3a11728b	0.0005548379
162	0x3c96d8f4	0.018413998
163	0x3b3a341f	0.0028412414
164	0x3b5c0b03	0.00335759
165	0xbd153b74	-0.036433652
166	0x3b662544	0.0035117427
167	0x3c379f6b	0.011207442
168	0xbbfbbfd1	-0.0076827784
169	0xbb63075a	-0.0034641833
170	0x3c3d810d	0.011566413
171	0x3b81537f	0.003946721
172	0xbcaffe4e	-0.021483567
173	0x3c888666	0.016665649
174	0xbc699d2c	-0.014258664
175	0xbc8fbb1b	-0.017545274
176	0xbc3a6d96	-0.011378666
177	0xbb0a4879	-0.0021100326
178	0x3c635902	0.013876202
179	0x3b5c0494	0.0033572065
180	0x3ae1cb4e	0.0017226727
181	0xbc6b82ff	-0.014374494
182	0x3be0d81b	0.0068616993
183	0xbc95fe5a	-0.01830976
184	0xbc48446b	-0.012223343
185	0x3d00048a	0.03125433
186	0x3cd60d3f	0.026129363
187	0x3ca244b9	0.01980816
188	0xbb2f7af5	-0.002677617
189	0xbbb222fc	-0.0054362994
190	0x3cdb0e6e	0.026740279
191	0x3ca76708	0.020434871
192	0x3bc58c87	0.006028715
193	0xbb551ecb	-0.0032519575
194	0xbb45ff5c	-0.003021202
195	0x3c47808f	0.012176647
196	0x3cb48ac8	0.022038832
197	0xbaffd91c	-0.001951966
198	0xbc12f417	-0.008969328
199	0xbbec830c	-0.0072177704
200	0x3c3942d7	0.01130744
201	0x3c41e440	0.011834204
202	0x3b82412e	0.003975055
203	0x3cc71a07	0.024304403
204	0x3c32de81	0.010917307
205	0x3bb4fcfa	0.005523321
206	0x3c9b132b	0.018930038
207	0x3c9304c4	0.017946608
208	0xbc079e4d	-0.008277488
209	0x3b69540e	0.003560308
210	0x3c07f572	0.008298265
211	0x3c8062a2	0.015672032
212	0x3b08b8a9	0.002086202
213	0x3c8f73ce	0.017511275
214	0x3b3b11cb	0.002854454
215	0x3c5be43a	0.013421113
216	0x3b98a245	0.004658016
217	0xbb17d131	-0.002316546
218	0x3c43d218	0.011951946
219	0xbccb8c36	-0.024847131
220	0x3c8716ec	0.016490422
221	0x3c738685	0.014863615
222	0xbccd320a	-0.025048275
223	0xbd3be0f5	-0.045868833
224	0xbccc7aab	-0.024960836
225	0x3c6d4b69	0.014483311
226	0x3ca4414a	0.020050664
227	0x3c68629a	0.014183665
228	0x3c753e29	0.014968433
229	0xbc7a77ac	-0.015287321
230	0x3c43d405	0.011952405
231	0x3d02bafa	0.031916596
232	0xbb4bf1e8	-0.003111953
233	0xbc9aca52	-0.018895302
234	0xbb12e472	-0.0022413996
235	0xbb236e6c	-0.0024937643
236	0xbd07407a	-0.033020474
237	0x3cadfab1	0.021237703
238	0x3cb3b93b	0.02193891
239	0xbc59d613	-0.013295668
240	0x3c2374d6	0.009976586
241	0x3c028bea	0.007967928
242	0x3a24ded3	0.0006289307
243	0x3c78f133	0.015194225
244	0x3c68a2cc	0.01419897
245	0x3cfebae7	0.031094981
246	0x3b2b1751	0.0026106427
247	0xbc6fa538	-0.014626794
248	0xbb5f0437	-0.0034029612
249	0x3b5a4efb	0.0033311236
250	0x3c317829	0.010831871
251	0xbb34d849	-0.0027594736
252	0xbcaa9f3d	-0.020827884
253	0xbbe68c3d	-0.0070357607
254	0x3c02edb7	0.007991246
255	0xbc5827c2	-0.013193073

2._model.0.bias f4 [51]
0	0xbc23cfa5	-0.009998237
1	0x3cbfde98	0.02342157
2	0x3c35fe78	0.011108033
3	0x3d0ec221	0.034853105
4	0xbb7117f2	-0.0036787954
5	0xbc4f030b	-0.012635003
6	0x3b939ecc	0.004505014
7	0x3b5ceeb6	0.0033711619
8	0xbc2de8ad	-0.010614556
9	0xbcb3d66c	-0.02195283
10	0xbc86b205	-0.016442308
11	0xbc6c3085	-0.014415865
12	0x3d2fbcc6	0.042904638
13	0xbc0d3991	-0.008619682
14	0x3c650760	0.013978809
15	0x3a02ef79	0.00049947907
16	0xbbe3a9cd	-0.006947732
17	0x3a99d38c	0.001173602
18	0x3c4e2535	0.012582113
19	0xbcb91ce3	-0.022596782
20	0x3bcf6956	0.0063296957
21	0xbc6676de	-0.014066426
22	0xbc82af1c	-0.01595264
23	0x3b0f261f	0.002184279
24	0xbb93867a	-0.004502115
25	0xbc0f300d	-0.008739484
26	0xbac8fe7a	-0.0015334629
27	0x3c5f0e70	0.013614282
28	0xbb9a692e	-0.0047122454
29	0x3c13cccb	0.009020994
30	0x3bdb975d	0.0067013935
31	0xbba115f6	-0.004915948
32	0x3b0c94c1	0.002145097
33	0x3b07c9de	0.0020719687
34	0x3c5abada	0.013350213
35	0xbca7ef25	-0.020499775
36	0x3afae6b7	0.0019142245
37	0xbbd33a18	-0.0064461343
38	0xbd3dc4e7	-0.04633036
39	0x3b267ef7	0.0025405267
40	0xbd50ae74	-0.05094762
41	0x3c83b0df	0.01607555
42	0xbcae85bb	-0.021304002
43	0x3a8244bb	0.0009938696
44	0x3c803026	0.015647959
45	0xbc7d0a9c	-0.015444424
46	0x3c92c5e9	0.017916637
47	0x3ce74474	0.028230883
48	0xbcb34617	-0.021884007
49	0x3d1482dc	0.03625761
50	0xbcacf1ce	-0.021111395
