data/etc/pretrained_model/boxing/imitation/task_embedding/task_encoder_use_body_info=False,vae_beta_coeff=1e-06/task_agnostic_policy_motor_decoder.pt (torch, 624455 bytes, 6 tensors)

_model.0._model.0.weight f4 [256, 298]
000000 87 8c cc 81 78 cc 98 bc 00 38 20 02 f0 ec 0c 3b
       -7.513941e-38 -0.018652186 1.1771015e-37 0.002150353
000010 b9 a0 44 3b 9a c1 4b bc 54 da 9a bc 37 8c 1a bb
       0.0030003025 -0.012436295 -0.018902935 -0.002358211
000020 4b 72 65 3d b1 f6 3a bd 71 3f a9 3c 85 36 b5 bc
       0.0560172 -0.04564542 0.020660134 -0.022120724
000030 89 f9 01 3d 93 fc a8 bb 35 31 94 bc 5f f5 84 bc
       0.031732116 -0.0051570623 -0.01808987 -0.016230283
000040 bc c1 13 3d fb e8 d7 3b 2e e4 1f bc c2 44 70 bc
       0.03607343 0.0065890527 -0.009758992 -0.014664831
000050 60 a8 bc bc 0b 85 7d 3d 95 53 69 bd 31 f3 a9 3c
       -0.023029506 0.061894458 -0.056964476 0.020745846
000060 d0 b4 27 bd 78 67 2a 3d b4 6f 26 bc e8 c9 29 bc
       -0.04094392 0.04160258 -0.010158468 -0.01036308
000070 df 61 fa bc 75 a4 5d 3b 3a f6 c5 3b 3e d8 b5 bb
       -0.030564247 0.0033819948 0.0060413154 -0.0055494597
000080 1f 05 dd bc 39 7a 3d bd 2c de 49 3d ca c5 5c bd
       -0.026979981 -0.04625914 0.049284145 -0.053899564
000090 33 f8 81 bd d3 13 16 3d 8f 34 4d 3d e6 6a 40 bc
       -0.06346168 0.03664 0.050098952 -0.011744237
0000a0 02 44 7d 3a f2 cc 0b bd 0f 31 ad 3c 68 62 c6 3c
       0.0009661318 -0.034130998 0.021141557 0.024216846
0000b0 e7 ba d3 3a fc 8f e4 bc a3 51 41 bd 85 76 fe 3c
       0.0016153724 -0.027900688 -0.047196995 0.031062374
0000c0 07 d6 2f bd 84 d0 00 3d 4a d1 09 3d c8 29 62 bd
       -0.04292872 0.031448856 0.03364686 -0.055215627
0000d0 e6 e4 08 bb 3b 81 e9 bb 6f 7e 8b 3b 0f 32 a8 bc
       -0.0020888387 -0.007126001 0.0042570154 -0.020531682
0000e0 f0 62 3d 3c 47 c2 65 bc 6d 05 d9 bc 5f ae 60 3c
       0.011559233 -0.01402337 -0.026491845 0.013713448
0000f0 3d 0c 73 3c b7 aa 38 bd e9 1c d1 3d 9c 6e 7f 3c
       0.014834461 -0.04508468 0.10210592 0.015590336
000100 51 0d 49 3d 7b 44 ae bb 03 b2 b0 39 89 f4 84 3c
       0.049084965 -0.005318222 0.00033701965 0.016229885
000110 26 f4 c4 bc 35 09 89 3b 41 d5 70 bb 70 22 84 bc
       -0.0240422 0.0041820058 -0.0036748203 -0.016129702
000120 86 f5 0c 3d 0c ab c5 bc 5f 8c 37 bd b5 78 b9 3c
       0.034413837 -0.024129413 -0.044811603 0.022640565
000130 5f fd 14 3d 15 d8 38 3d b3 40 a5 bb 4d b9 31 bb
       0.036374446 0.045127947 -0.005043113 -0.0027118505
000140 be 9b b3 3c 26 2e 83 bb a5 7a 37 3c 92 b3 03 bb
       0.02192485 -0.004003304 0.011198674 -0.0020096046
000150 5e e4 99 bc 92 bc 17 3d 6b dc a9 bc 56 e3 39 bd
       -0.018785652 0.03704507 -0.020734986 -0.04538282
000160 e6 d3 97 bd 32 5a 1c 3c 20 a2 03 bd f7 5d 01 3b
       -0.07413463 0.009542989 -0.032137036 0.0019739845
000170 3c e7 b3 bc 74 74 5f 3b e7 ad 45 ba 85 69 97 bc
       -0.021960847 0.003409651 -0.0007540867 -0.018482933
000180 42 5c 32 3b bb d0 a4 bc 81 91 e7 bb 66 a2 76 3d
       0.0027215634 -0.020119062 -0.007066906 0.06021347
000190 91 2f 2c bd b8 22 d9 bd 74 2b 0a 3c e2 ac 82 bb
       -0.04203755 -0.10602325 0.008433212 -0.0039878944
0001a0 1a 51 26 bb 95 ee c9 bc de 39 01 3b 34 69 d2 bb
       -0.002537793 -0.024649898 0.001971833 -0.0064212326
0001b0 b0 51 98 bc a1 e3 85 3b 3a b8 a3 bc 96 70 5d bc
       -0.01859364 0.0040859734 -0.019985307 -0.013515612
0001c0 c5 3a 79 3d be c0 24 bd 1d 0c 5e 3c b5 f8 1a bd
       0.060847063 -0.040222876 0.013552693 -0.03783484
0001d0 c0 d5 0a 3d c8 a5 9a bb 99 e4 dc bc 4d 07 a4 3a
       0.033895254 -0.0047194697 -0.026964473 0.0012514383
0001e0 fc 60 94 bb ab 46 7d bc a4 66 fd 37 be 07 9f bc
       -0.004528163 -0.015458743 3.0207746e-05 -0.019412871
0001f0 0b b2 8c bc 37 72 6c 3d 94 03 0d bd c6 cc dc 3c
       -0.017174741 0.05772611 -0.03442724 0.026953112
000200 9b 4e 15 bd 85 aa 41 bd f8 13 cf bb 7c f4 f0 bc
       -0.036451917 -0.04728176 -0.006319519 -0.029413454
000210 4f 8b 51 3a 42 a0 50 bb 83 fc cd bc 6c 4d 54 bb
       0.0007993476 -0.0031833802 -0.025144821 -0.003239478
000220 4c 43 c0 bc 07 5b 92 bc b6 4e 5f 3d c9 72 e8 bc
       -0.02346959 -0.01786567 0.054518424 -0.028375046
000230 1d ba 0b bc 71 b4 53 3d 7e 3f 00 bd cf dc 07 bc
       -0.00852826 0.051685754 -0.03131055 -0.008292391
000240 37 d4 04 bd e1 ea 9a ba ff 36 36 bc 58 e2 aa bc
       -0.032428946 -0.0011819267 -0.0111215105 -0.020859882
000250 4e 83 d3 b9 98 15 a2 bc f3 e1 6b bc a3 0a 41 3d
       -0.00040342886 -0.019785687 -0.014397132 0.047129285
000260 66 ae 84 bc a7 74 66 3c 2e 16 37 bd f3 00 fa 3c
       -0.01619644 0.014065898 -0.044698887 0.03051803
000270 66 4f 0b bc 64 1d f7 bc 5b f4 9a 3b 2b 99 c0 3b
       -0.008502817 -0.030165382 0.0047288365 0.005877634
000280 42 3e 1c bc da a3 0b bb 7f e2 e3 bc 05 e2 ca ba
       -0.009536328 -0.002130738 -0.027817963 -0.0015478736
000290 5d 14 5a 3d 9d 0b c3 bc c6 9b 09 bd 59 92 73 bd
       0.053242076 -0.023809249 -0.033595823 -0.05946574
0002a0 a9 f2 90 bc 05 4d 2a bc f7 49 e2 bc c1 09 43 3b
       -0.017693834 -0.010394339 -0.02762316 0.0029760452
0002b0 48 66 cb 3b e4 d0 56 3c 04 62 76 3c 22 5f c0 bc
       0.0062072612 0.013111327 0.015038017 -0.023482863
0002c0 d8 54 92 3c fe d0 1e 3d 3a 64 c0 bb 7d de 68 bd
       0.017862722 0.03877353 -0.005871323 -0.056852806
0002d0 30 f0 8a bc 04 4e 02 bc ac 45 2a bc 27 2a f5 bc
       -0.016960233 -0.007953171 -0.010392588 -0.029927326
0002e0 2a 17 88 b8 ed 47 d6 3c d8 6a 40 3c 3a f7 c4 bc
       -6.4893e-05 0.026157344 0.011744224 -0.024043668
0002f0 ce 9f da ba bf ca 0a 3d 69 79 d5 3c 11 a1 a5 3c
       -0.0016679706 0.03388476 0.02605887 0.020218404
000300 78 17 a4 bc c1 cf 13 3c 73 2b 0f 3d cd b8 1b bc
       -0.020030722 0.0090217 0.034953546 -0.009504509
000310 b6 c3 1c bd 20 2a 9e b7 ed 47 d6 3c d8 6a 40 3c
       -0.038272582 -1.8854684e-05 0.026157344 0.011744224
000320 3a f7 c4 bc ce 9f da ba 42 2f 27 3d 48 70 de 3c
       -0.024043668 -0.0016679706 0.040816553 0.02715315
000330 44 29 1d 3d fd c3 a2 bc e7 04 14 3c c3 28 0f 3d
       0.038369432 -0.019868845 0.009034372 0.034950983
000340 f0 fd 37 bb a4 4c e1 bc de 00 8b bb 4c 73 58 bb
       -0.0028074943 -0.027502365 -0.0042420467 -0.0033027707
000350 95 1e c5 bc 75 47 d3 bb d8 13 6c bc 7f 07 df bc
       -0.024062434 -0.0064477273 -0.014409028 -0.027225254
000360 86 56 60 3d 0e 9f 14 bd 12 13 ed bb 54 7c 0d 3c
       0.054770015 -0.0362845 -0.0072349394 0.008635599
000370 51 a8 a8 bd 90 fe a3 bb 09 e9 ba bc 54 d6 4a bc
       -0.08235229 -0.0050047114 -0.022816198 -0.012380201
000380 77 43 b2 bb 96 61 cb bc d4 cd 93 bc 58 fe 88 bb
       -0.0054401713 -0.024826806 -0.018042482 -0.0041807108
000390 c8 b0 36 bc a6 2b 3e 3d ee aa 37 bd 8f 1a 30 3d
       -0.011150546 0.046428345 -0.044840746 0.04299408
0003a0 a0 1e 11 bd b9 27 dc 3c d1 8e 0c bc 4f d1 b8 bc
       -0.035429597 0.02687441 -0.008578972 -0.022560744
0003b0 09 c8 8c bc 94 49 d8 3c 9f 5d c1 bc 7b 5c cb bc
       -0.017185228 0.026402272 -0.023604212 -0.024824372
0003c0 df cd 38 ba ce f8 df 3c 61 b5 1c 3d 97 01 22 bd
       -0.000704972 0.027340319 0.038258914 -0.039552297
0003d0 0e 50 9b bc 49 55 20 3d f2 74 4d 3b 88 ec 14 bc
       -0.018959071 0.039143834 0.0031350222 -0.009089597
0003e0 b0 e2 e7 bc a2 ff 88 bc 94 49 d8 3c 9f 5d c1 bc
       -0.028306335 -0.016723458 0.026402272 -0.023604212
0003f0 7b 5c cb bc df cd 38 ba 92 4c 5e 3d 2d 6b 12 3d
       -0.024824372 -0.000704972 0.054272242 0.035746742

_model.0._model.0.bias f4 [256]
000000 b4 29 c1 bc 0f 39 c2 bc 99 9e 87 bd 92 30 bd bb
       -0.023579456 -0.023708848 -0.06622047 -0.0057736123
000010 e6 f7 b9 3c 61 70 e0 bb 5c 16 9d bb e8 2b aa bc
       0.022701215 -0.006849334 -0.004793925 -0.02077289
000020 3a ac 5e bd c3 f4 60 bc 29 81 78 bc c9 63 69 bc
       -0.054363467 -0.013730231 -0.015167513 -0.014244982
000030 eb b7 f3 bc b2 ee 9d ba 65 5f 03 bc 53 23 13 bc
       -0.029750785 -0.0012049286 -0.008018349 -0.00898059
000040 57 d8 d5 bc de 5e 40 bc e3 4e 36 bc e0 3e 20 39
       -0.026104135 -0.011741368 -0.0111272065 0.00015282212
000050 c2 62 60 bb 8d 52 6f bc 71 3c 00 bc b1 5f d8 bc
       -0.0034238552 -0.014607084 -0.00782691 -0.026412817
000060 96 3c 41 bc 6f a5 17 bc c8 7a 8f bc 36 9a 5e bc
       -0.01179423 -0.009255751 -0.017514601 -0.013586571
000070 a7 a1 09 bc 2d a0 fc bb 1d b2 95 bc 79 6f 16 bb
       -0.008400357 -0.007709524 -0.018273408 -0.0022954626
000080 4a 27 b6 3a 50 87 5b 3d 14 70 87 bb 13 6c 10 39
       0.0013897207 0.05359584 -0.004133234 0.00013773171
000090 17 80 42 3c cc 83 6b bc ff 97 73 bc d3 3d 43 bc
       0.011871359 -0.014374685 -0.014867782 -0.0119165955
0000a0 1c 4b 9f 39 5a e3 4b 3c a7 da 8a bc c0 c2 c3 bc
       0.00030382804 0.012444342 -0.016949965 -0.023896575
0000b0 20 09 06 bb dc c3 2e 3b 05 a9 cb bc bc 7e 93 bc
       -0.0020452216 0.0026667034 -0.024860868 -0.018004768
0000c0 68 26 0d 3b c5 7d cc bc fc 94 e4 b8 bc 17 74 bc
       0.0021537784 -0.024962315 -0.00010899638 -0.014898237
0000d0 15 16 81 bc ad 16 af bc 72 90 48 bb a0 e7 d1 bc
       -0.0157576 -0.021373117 -0.0030603674 -0.025623143
0000e0 e0 2b 97 bb 5f 7f 05 bc 15 a9 cf bc db d5 35 bb
       -0.0046133846 -0.008148043 -0.02534918 -0.0027745876
0000f0 25 55 99 ba 11 17 c0 3c 8f 2c c8 bc c9 02 8c bc
       -0.0011698349 0.023448499 -0.02443531 -0.017091172
000100 2b 46 10 bc 39 8a 87 bc 10 7b 89 3b d5 eb 4a bc
       -0.008805792 -0.016545402 0.0041955784 -0.012385328
000110 7f c7 bc 3c ba 70 1a bd d2 71 45 bc e6 97 8e 3c
       0.023044346 -0.03770516 -0.012051063 0.017406415
000120 75 70 13 bd ba b6 b7 bb 51 fb 79 bc f2 53 23 bb
       -0.03599592 -0.0056064995 -0.015257672 -0.0024921861
000130 4f dd 82 bc 7e 9e 2f bc 73 44 7b bb 83 f3 92 bc
       -0.015974669 -0.01071894 -0.003834036 -0.017938381
000140 e3 87 da bc 68 fb 17 3d 01 61 1f bb 36 ad d7 bb
       -0.026676124 0.037104994 -0.0024319293 -0.0065819276
000150 26 89 e4 bc a0 5b fa bc d9 05 d7 38 d0 ab a0 3c
       -0.027897429 -0.030561268 0.00010253088 0.019613177
000160 86 a2 40 bc 1a 31 1b bc 5c 88 fb bb 0e 76 94 bc
       -0.011757499 -0.009472156 -0.0076761674 -0.0181227
000170 eb 2e ef 3b ae 93 30 3c 77 5a 20 bc 0b a4 1c bc
       0.007299294 0.010777397 -0.0097871935 -0.009560595
000180 c9 6a 4b bb df 37 5d bc f5 ad d2 bc 3c 31 9f bc
       -0.003103899 -0.01350209 -0.025717715 -0.019432656
000190 25 8b d1 bb 02 48 21 bc d6 89 0a bc aa 4b b8 bc
       -0.006394761 -0.009843828 -0.008455714 -0.022497017
0001a0 e9 bb cb bc 39 3b 81 bc 05 4b 51 bc c8 80 ef 3b
       -0.024869876 -0.01577531 -0.012774234 0.007309053
0001b0 98 a7 59 bc e2 58 6f bc ce 2d a3 bc 4a 49 04 bb
       -0.013284586 -0.014608594 -0.019919302 -0.0020185285
0001c0 fc dc ba bb 24 e0 d3 ba 48 4d 9b 3d 2d 45 5a bc
       -0.005702613 -0.0016164822 0.075830996 -0.013322157
0001d0 89 18 36 3c 2b 1d 46 bc f8 16 6a bc b0 6e d5 bc
       0.011114248 -0.012091915 -0.014287703 -0.026053756
0001e0 de 06 35 3d bc a2 75 bc 70 31 fb 38 50 81 d0 bc
       0.044196002 -0.014992412 0.00011977821 -0.025452286
0001f0 63 6b d8 bc 27 6b 7a bc ed e2 e8 bb e0 df a1 bc
       -0.026418393 -0.015284336 -0.00710713 -0.019760072
000200 98 ab b5 bc 17 74 c0 bb 99 95 14 bc 18 2b f6 3c
       -0.022176549 -0.005873214 -0.00906887 0.030049846
000210 df 40 9c bb 5c 1c 70 bc c5 a1 88 3a 97 f8 a4 bc
       -0.0047684754 -0.014655199 0.0010424188 -0.020138068
000220 2b b5 f6 bb bf f9 5e bc 96 f6 98 3c 30 2e de b9
       -0.007528921 -0.013609349 0.018672269 -0.00042377552
000230 ff 82 30 bc 86 fd 68 3c 2b 3a a0 bc 3f d5 ea bb
       -0.010773419 0.014220601 -0.019558987 -0.007166534
000240 e2 bf d1 bc 3a 38 4f 39 85 de 8d bc 89 f3 1c bd
       -0.025604192 0.00019762004 -0.01731802 -0.03831819
000250 01 50 9a bc c0 ea 1b 3c 73 4a 3d bc a8 8a a5 bc
       -0.018836977 0.009516418 -0.011553395 -0.020207718
000260 14 9e d2 3a ed bf c2 bc 6f 5d 9e bc 91 66 cb bc
       0.001606884 -0.023773158 -0.019331662 -0.02482918
000270 9e f8 86 3b 43 49 45 3c a0 10 7e bc 91 ab 8e bc
       0.004118993 0.012041393 -0.015506893 -0.017415794
000280 80 81 1d bc a8 df 9a 3c e8 d0 b3 bc 9e 7a 0c 3b
       -0.009613395 0.018905476 -0.0219502 0.002143539
000290 e8 19 b2 bb 5d 78 8d bc 37 97 ac bb c6 14 7d 3d
       -0.005435217 -0.017269308 -0.0052670497 0.06178739
0002a0 bd 47 75 bc 52 42 79 bc 7b 85 8a bc e6 35 e6 bc
       -0.014970717 -0.015213566 -0.016909352 -0.028101873
0002b0 72 99 83 bc 36 ad b5 bb 1a b1 8f bc 8e 02 7a bc
       -0.01606438 -0.00554433 -0.017540503 -0.015259398
0002c0 0e bb 29 3b 69 08 78 3b 92 ad 86 bc 69 4b 09 bd
       0.0025898847 0.003784681 -0.016440187 -0.033519182
0002d0 37 7f 83 bc b8 13 c8 bb 9a eb 75 3c 40 17 8f 3b
       -0.016051872 -0.0061058663 0.015009785 0.0043667853
0002e0 18 95 17 bc e8 1d 99 bc bc cd 0e bc 6d 0b 0b bd
       -0.009251855 -0.018691018 -0.008716043 -0.033946443
0002f0 7c 1b 21 bc d6 08 74 bc 86 84 34 bc f7 85 18 3b
       -0.009833213 -0.014894685 -0.011017924 0.0023273209
000300 cc 14 c4 bc 73 52 96 bc 77 c6 c2 3a a7 af 68 bc
       -0.023935698 -0.018349862 0.0014860173 -0.014202035
000310 0b 12 98 3b 19 34 09 3c 48 a4 e9 bb 8c 0a 60 ba
       0.0046408228 0.008374237 -0.0071301796 -0.00085464935
000320 da 99 61 3c ea 51 a4 bc 60 de 0a bd c6 e9 f2 bc
       0.013769591 -0.02005859 -0.03390348 -0.029652487
000330 11 d4 55 bc 48 64 5e 3b f9 94 5a bc 7c 58 7b 3c
       -0.013051049 0.0033934284 -0.013341182 0.015340921
000340 ba d2 c2 ba 7f e2 0c bb 4c 5d a8 bc a4 76 dc bc
       -0.0014863827 -0.0021497307 -0.0205523 -0.026912041
000350 33 5c 88 bc 84 eb 36 bc 4a 3b f3 bc dc 99 58 bc
       -0.016645527 -0.01116455 -0.029691357 -0.013220277
000360 78 49 9e bb 52 0f 93 ba 3d ed 70 bb 1c 6a 5d bc
       -0.0048305355 -0.0011219776 -0.0036762499 -0.013514068
000370 2f 87 58 3d 77 bf 5a bc 67 b1 a2 bc 4b 25 fc 3a
       0.052863296 -0.013351313 -0.019859983 0.0019237188
000380 4a 3c 8f bb 0f 13 b8 bc f4 d7 13 bc f0 c8 0a bd
       -0.0043712007 -0.022470025 -0.009023655 -0.033883035
000390 f9 30 51 bc 2b 64 b7 3a ba 13 41 bc 5f c5 04 bb
       -0.012768024 0.0013991644 -0.011784488 -0.0020259244
0003a0 6d 56 a4 bb db f5 04 3a 2f 69 91 bc d6 5e 4c bc
       -0.0050151856 0.0005072036 -0.01775035 -0.0124737825
0003b0 37 a3 ad bc b8 b2 29 bc 7f a6 28 bc 6c 8b 4a bc
       -0.021195991 -0.010357551 -0.010293602 -0.012362342
0003c0 30 31 9a bc c1 56 fc bb 24 eb 3a 3b 46 ae 89 3d
       -0.018822283 -0.0077007716 0.0028521502 0.06722693
0003d0 e7 e9 57 3d 51 b4 87 bb 22 71 bf bc d9 ae 87 bc
       0.0527133 -0.0041413684 -0.023369376 -0.016562866
0003e0 b0 72 57 bc 86 5f 81 3c 85 bf 94 bb 24 9a 03 3d
       -0.013149902 0.01579262 -0.0045394325 0.03212942
0003f0 7f 77 81 ba 67 f7 11 bd 4e b0 a2 bc 67 58 92 39
       -0.0009877532 -0.035636332 -0.01985946 0.00027913155

_model.1._model.0.weight f4 [256, 256]
000000 b9 56 33 3d b5 a1 fd bc 16 d5 50 be ff 9e fd bc
       0.043783877 -0.030960897 -0.20393786 -0.030959604
000010 51 29 03 3d a4 00 95 bc b8 a0 cb bc fe 97 50 3c
       0.032021824 -0.018188782 -0.02485691 0.01273155
000020 a9 d0 f0 3c 43 ec 9f bc 21 e1 0c 3d 3e 75 c3 bc
       0.029396372 -0.019521838 0.034394387 -0.023859616
000030 97 0b 4e bc fe f4 d2 bc 7c a3 50 bc 09 00 4f bd
       -0.012576005 -0.025751587 -0.01273429 -0.050537143
000040 34 12 82 bc aa 49 d0 3c 84 bb c6 bb 5e 24 bf bc
       -0.01587782 0.02542575 -0.006064834 -0.02333277
000050 13 88 e4 bc 06 ce 3e 3d ea 44 09 bb 5b a6 01 3d
       -0.027896916 0.046583198 -0.0020945617 0.03165279
000060 dd 4a e6 3c 2f 66 73 bc bf 64 ae bc 09 90 a3 bc
       0.02811187 -0.014855905 -0.021288274 -0.019966142
000070 e7 2b 40 ba 49 f3 6e bc 58 a0 3a bb 53 01 07 bd
       -0.0007330761 -0.014584371 -0.002847692 -0.032960247
000080 15 f1 10 bd 08 58 7b bd 35 57 96 3c 00 11 13 3c
       -0.035386164 -0.06136325 0.01835213 0.008976221
000090 52 a1 dd 3c 8d 03 09 3c c8 e1 ab 3b 73 78 49 3d
       0.027054463 0.008362663 0.005245421 0.049187135
0000a0 55 79 28 3b 14 8d 3a 3d 0b 19 8a bb 20 85 11 bc
       0.0025707085 0.0455447 -0.004214411 -0.008881837
0000b0 04 39 ef bb 3a 56 d5 3a 28 c2 3f b9 36 1b 39 bd
       -0.007300498 0.0016276308 -0.00018287508 -0.045191966
0000c0 bd b1 4d 3d 53 86 99 bc 15 f0 86 b8 f4 84 09 3d
       0.050218333 -0.018740809 -6.434337e-05 0.03357406
0000d0 4b a3 08 3d 57 53 ff ba 5b 8b 51 3b 0a 25 f5 bb
       0.033358853 -0.0019479793 0.0031973931 -0.007481222
0000e0 4a 73 06 3d 5a 88 95 bc d3 83 27 3c 74 e6 9e 3c
       0.032824792 -0.018253494 0.0102243 0.019396998
0000f0 c0 42 ed bc 5f a8 82 bd 41 88 5c 3d 6e 57 f1 3b
       -0.028962493 -0.063797705 0.05384088 0.0073651588
000100 2f 21 34 3c 63 35 29 bc 3f 6b 1b bd 7d 1a 90 3b
       0.01099424 -0.01032767 -0.037944075 0.004397689
000110 dd 8a 54 3d 9e f7 8d 3b b2 f4 ac bc 82 a6 2a bc
       0.051890243 0.004332497 -0.021112774 -0.010415675
000120 33 24 96 ba 68 38 1b bd 2a 30 b1 ba 55 7c 2b 3d
       -0.001145488 -0.03789559 -0.0013518382 0.04186662
000130 8e 2d bd 3c f2 a1 4c bc 2b 5a 9e bd 97 4c fb bc
       0.023093011 -0.012489783 -0.07732042 -0.03067617
000140 cc da 90 3c 54 3b a6 bc 15 fb bb bc 02 cc 75 bd
       0.017682455 -0.020291962 -0.022946874 -0.06000901
000150 f8 e7 42 bd 22 f1 e0 3d 9e ea 75 bb 58 bc dc bc
       -0.047584504 0.109834924 -0.0037523876 -0.026945278
000160 59 1d 79 bc 08 e1 a0 bb 1d 7f 71 3d 5e 60 d8 3c
       -0.015204751 -0.0049096383 0.058959115 0.026413139
000170 6e 1c 4e bc 8e 54 d3 bc 16 71 dd 3c e0 fd 19 bd
       -0.01258002 -0.025797155 0.027031463 -0.03759563
000180 d9 5f 09 bd 35 b4 eb 39 63 05 8a 3d e2 0b 9d bb
       -0.033538673 0.00044956958 0.06739309 -0.0047926763
000190 20 da bc bb 67 6d c4 bc d8 1b 73 bc 2b a3 11 bc
       -0.005763307 -0.023977948 -0.014838181 -0.008889
0001a0 13 3c 59 3d ee 06 45 3c d8 be fd bc a1 5a b7 bc
       0.053035807 0.012025578 -0.03097479 -0.022382082
0001b0 2c c3 24 bb b7 c2 09 3d 02 b6 81 3d db 72 5f bc
       -0.0025140746 0.03363296 0.06333543 -0.0136382235
0001c0 83 1d fc 3c fe 77 1b 3d 80 5c a2 3d 1f a2 3a 3c
       0.030775791 0.03795623 0.07927799 0.011391192
0001d0 75 a4 04 bd b0 8d b5 3c 84 5b 0c bd 19 be a7 3c
       -0.0323834 0.022162288 -0.034266964 0.020476388
0001e0 93 e7 50 bd f3 b3 80 bc 32 b1 44 3a ce 4d 34 3a
       -0.051002096 -0.015710806 0.0007503211 0.0006878049
0001f0 09 d6 cc bb b5 5d 54 bc c7 91 1b 3c d5 2d e0 bc
       -0.006251101 -0.012961795 0.009495205 -0.027365604
000200 02 b5 0c bd 55 25 95 bd 98 92 8d bd eb 5b 44 3d
       -0.03435231 -0.07282511 -0.06912726 0.047939222
000210 ff 3d 24 bc 5f 01 42 bc 01 06 90 b9 a9 89 60 3c
       -0.010024547 -0.011841147 -0.00027470294 0.013704696
000220 93 e4 b9 3b 8c 48 d2 3b 06 e4 27 3d 59 77 18 bc
       0.005673 0.0064173397 0.040988944 -0.009305798
000230 da a9 84 3c cb 1c 86 bd 8c 7f 26 3c 67 62 8a 3d
       0.016194273 -0.065484606 0.0101622455 0.0675705
000240 b5 db 3e 3d 47 2a 0a 3d eb d7 65 3c dc 6b 87 bc
       0.046596248 0.033731725 0.01402853 -0.016530924
000250 fb 23 5a 3c b1 ce 73 bc 3a 20 16 3c 7e 21 12 3d
       0.0133142425 -0.014880822 0.009162957 0.035676472
000260 f1 d8 de 3b 3a 21 05 3d d4 c6 4d bb 6d 2e ab bc
       0.006800764 0.03250239 -0.0031399028 -0.020896161
000270 61 11 7f bb 44 cc bd 3c e0 86 35 bd a3 84 97 3b
       -0.003892027 0.02316869 -0.04431808 0.004623966
000280 f2 98 29 bd b7 b2 54 bc 00 2d 12 bd c8 c1 93 3a
       -0.041405626 -0.012982062 -0.035687447 0.0011272961
000290 1f f1 d5 3c 16 f9 82 bc 04 cd 97 bc 6a b2 37 3d
       0.026115952 -0.015987914 -0.018530376 0.044847883
0002a0 89 42 d0 3c 20 85 9b bb e8 fe 37 bd f6 41 05 3d
       0.025422351 -0.0047460943 -0.044920832 0.03253361
0002b0 30 0d 19 bb 38 dc 9f ba 5c 33 ad bc f0 41 0d bd
       -0.0023353808 -0.0012196368 -0.021142654 -0.03448671
0002c0 bf 1b 50 3c 36 01 80 bb 87 e1 30 bd e7 63 cf 3c
       0.012701928 -0.0039063944 -0.04318383 0.025316192
0002d0 ed 65 31 bc 0e 09 0f 3c 3b fb 04 bd de bc 97 3d
       -0.010827524 0.008730186 -0.032466155 0.074090704
0002e0 99 93 9f 3c bd ef 45 3c bc 8e 7d 3c 7d af 04 bd
       0.01947956 0.012081084 0.015475925 -0.03239392
0002f0 a5 5b 17 3d ab 5e 89 bd a7 dc c8 bc 06 d5 a2 bc
       0.036952633 -0.067075096 -0.024519278 -0.019876968
000300 47 88 12 3b ad a8 44 ba 71 f0 5e 3d 46 7d 25 3d
       0.002235906 -0.0007501941 0.05442852 0.040402673
000310 ef 10 e7 bc a4 64 75 3d 60 f4 9f 3d 09 a9 49 3b
       -0.028206317 0.05991043 0.07810283 0.0030770919
000320 a5 9d a6 3d 40 16 06 bd 3b 45 be 3c 39 6c 5d 3d
       0.08135537 -0.032736063 0.023226371 0.054058287
000330 5f f1 45 3d 56 7b 08 bc 9a 8e 6f bc 81 4b 13 bd
       0.048325893 -0.008330187 -0.014621401 -0.035960678
000340 0d 38 a2 3b 16 26 d9 3c 18 42 21 3c 78 c7 93 bd
       0.0049505294 0.026507419 0.009842418 -0.0721578
000350 bf dd 7b 3c 96 41 b9 bc 66 fb fc bc 31 53 87 3c
       0.015372693 -0.022614282 -0.030881595 0.016519161
000360 a9 3b 48 bd 7c 7d 5e 3d e3 4d 42 3c 46 2a 76 bd
       -0.04888502 0.05431889 0.01185939 -0.06009891
000370 6b b1 0e 3d e0 70 2d 3c 4c 32 ab 3b b1 a9 66 3d
       0.034837168 0.0105859935 0.0052245017 0.056314174
000380 c7 c0 e6 3c 0b 87 d7 bc 3f 4a 5c bc f1 27 c4 bc
       0.028168095 -0.02630951 -0.013445436 -0.023944827
000390 fa d5 52 3c ce bb e2 3a 2a 44 4f bd 6b bb 1a 3b
       0.012868399 0.0017298402 -0.050602116 0.0023610245
0003a0 11 29 03 bd 78 92 8a 3c a3 b8 41 3d 65 ed 0b 3d
       -0.032021586 0.016915545 0.047295224 0.034161944
0003b0 35 ab 02 bc b5 87 5a bc b9 64 0f bd 33 54 b2 3c
       -0.007975389 -0.013338019 -0.035008166 0.021768665
0003c0 30 42 de 3b 56 16 bd bb a3 8f d4 3c 04 81 5a bc
       0.0067827925 -0.005770485 0.025947398 -0.013336424
0003d0 15 76 47 bd 66 0d 7e 3c 05 4a 1c 3c 03 d6 17 bd
       -0.048696596 0.015506124 0.009539132 -0.03706933
0003e0 cc 49 6c bc 91 38 e5 bc 24 7f 89 3b 2e cd 49 3d
       -0.014421891 -0.027981075 0.0041960645 0.04926794
0003f0 79 c9 18 bd e5 7d b5 bd 4a a0 35 3c 6a 3e d7 bc
       -0.037301514 -0.08861903 0.011085579 -0.026274879

_model.1._model.0.bias f4 [256]
000000 cc 34 85 3d 40 30 4d bd cc d4 30 3d 62 a5 7c 3d
       0.06504211 -0.050094843 0.04317169 0.06168116
000010 1d a5 9c bd 77 01 75 3d 03 6b 4c bd a8 3e 3d bc
       -0.0764868 0.05981585 -0.04990674 -0.011550583
000020 d0 01 63 3c 0e 03 60 3d 32 5e 1f 3d 39 ad ca 3c
       0.013855413 0.054690413 0.03890819 0.024740802
000030 3f 2d ca 3d 15 b4 83 3d 34 1c 36 bd 1f b2 c0 bd
       0.09871911 0.06430832 -0.04446049 -0.09408974
000040 64 40 39 3d 49 e0 9f 3c 9b ae f7 bc da 43 87 bc
       0.045227423 0.019516127 -0.030234626 -0.016511846
000050 15 14 95 3d 1c 1e 9e 3d 4d 44 60 bc ec 38 8c 3c
       0.07279221 0.07720587 -0.013688159 0.017116986
000060 0c 74 88 3d ca c2 bb bb 3a 9e a1 3d d6 3b 1d 3d
       0.06662759 -0.005730008 0.078915074 0.038387142
000070 d0 45 d7 3c bd 04 69 bc 12 11 28 3d 7d 89 a1 3b
       0.026278406 -0.014222321 0.041031905 0.00492972
000080 18 a3 70 bc d2 49 4f 3d c7 bb 6c 3d 4a c7 73 3d
       -0.014687322 0.05060751 0.057796266 0.05951623
000090 42 2e 5b bd fd 79 cd 3d bd 1b 33 3d f1 1f 87 bd
       -0.05351091 0.10033033 0.043727625 -0.06597889
0000a0 cb 6f 2c 3c b7 9e 66 bd b3 0b c3 3d 20 fb 12 bd
       0.0105247 -0.056303706 0.09523716 -0.035884023
0000b0 95 ef 40 3b bc f0 0b 3d 66 59 3c bd 73 ee 83 3c
       0.0029439677 0.03416513 -0.045983694 0.016104912
0000c0 1b 42 b7 3c de fd 7a 3d c9 c9 bf 3a f4 be 67 3c
       0.022370389 0.061277263 0.001463228 0.014144648
0000d0 6a 66 22 3d e3 d3 cb 3d 21 97 01 3c 82 20 9b 3d
       0.03964845 0.099525236 0.007909567 0.0757456
0000e0 f4 bb 82 bb 06 b1 ff 3a 80 9d 20 bd 1c c3 31 3d
       -0.003989691 0.0019507713 -0.039212704 0.04339896
0000f0 fd a4 c7 bc 02 87 90 3c 2b 8e 97 bd 06 a2 2b ba
       -0.024370665 0.017642502 -0.07400163 -0.00065472757
000100 11 1b 48 bd b3 ff b4 3d f2 f4 15 3c 07 3d 9c 3a
       -0.048853938 0.08837833 0.009152638 0.0011920043
000110 21 b2 2c 3d 7e 6e d4 bc 5e 14 53 bd 30 a4 e2 3c
       0.042162064 -0.025931593 -0.051533096 0.027666181
000120 10 c2 62 bd 81 ab bf bc ed 2c e4 3c 0e ee bb 3c
       -0.055360854 -0.02339721 0.027853454 0.022940662
000130 dc f8 48 3d 3c c5 82 3d e3 0f 25 3d b5 1b 24 bd
       0.049065456 0.06385276 0.040298354 -0.040065486
000140 9d 97 a6 bc af f0 20 bd cf 45 8b 3c 32 73 7b 3c
       -0.020335967 -0.039292034 0.01700106 0.015347289
000150 8e 74 71 bd c2 a0 c6 bc e0 97 93 3d 4d fe 4a bd
       -0.058949046 -0.024246577 0.07206702 -0.049558926
000160 29 74 73 3c e4 4c a4 3d 01 c4 1a bc 59 44 80 3c
       0.014859238 0.08022478 -0.009446145 0.01565759
000170 f4 7d 19 3d 91 78 1c bd 16 59 45 bc 9b b0 b5 bc
       0.037473634 -0.03820092 -0.0120451655 -0.022178939
000180 30 d3 93 3c 47 ba 77 3b a8 0d e0 bb 84 be a9 3b
       0.018045038 0.003780024 -0.0068375655 0.005180182
000190 7c 87 2b bc 64 2f 0c 39 79 94 e3 3a 0f a2 81 3d
       -0.010469314 0.00013369095 0.0017362974 0.06329738
0001a0 6b 68 13 3d 3b 8e ad bc 4c 0f 92 3a 59 a4 36 3d
       0.035988253 -0.021185985 0.0011143475 0.044590328
0001b0 79 32 fb bc 88 d5 1d 3d 0c 86 98 bd ad 7f ee bc
       -0.030663716 0.038533717 -0.074474424 -0.029113615
0001c0 d6 50 4e 3c 95 83 46 bd b8 7b 01 be 1e 03 a4 ba
       0.012592515 -0.04846533 -0.12644851 -0.0012513136
0001d0 c2 7d 2c bd 66 d8 fc bc eb f4 8f bd 00 c4 a6 bc
       -0.04211212 -0.030864906 -0.07029136 -0.020357132
0001e0 87 30 fc 3d 3a 5e 16 bb 3b 63 73 3c 1a 96 59 38
       0.12313943 -0.0022944347 0.014855201 5.1876625e-05
0001f0 e5 5f df bb 48 b7 17 bd c4 cd 9b bd 30 66 f5 3d
       -0.0068168514 -0.037040025 -0.07607606 0.11982381
000200 fa 78 a6 3d 9e 7b d0 3d 38 23 a4 b9 4a 80 80 3d
       0.08128543 0.10179828 -0.00031306758 0.06274469
000210 5e 85 66 3d 37 65 90 3d a0 ab 99 3d 18 6a 7f 3d
       0.056279533 0.07050555 0.07503438 0.06235704
000220 87 18 1b bb 06 49 ef bc 88 0d 92 bc cd 80 08 bd
       -0.0023665742 -0.029209625 -0.017828718 -0.03332596
000230 3d cb a2 bc 57 63 3d bb db f1 b1 3c 32 bc 3a bc
       -0.019872302 -0.0028898322 0.021721771 -0.011397408
000240 99 65 ee 3d 64 c1 97 bd 74 e9 de 3d d8 c7 7f 3d
       0.11640472 -0.07409933 0.108843714 0.062446445
000250 20 e1 46 bd 2c 28 a6 3c 53 f0 0c 3d 01 70 8f 3c
       -0.04855454 0.020282827 0.03440888 0.017509462
000260 13 3e 7b bc eb 20 95 bd be b6 ff 3c 25 af 97 3d
       -0.015334624 -0.07281669 0.031215068 0.07406453
000270 cf 4b 9c 3c f1 23 9c ba 2f a0 04 3d 89 4c 28 3c
       0.019079117 -0.0011912567 0.032379325 0.010272154
000280 a6 1b 57 3d 3d 55 13 bd 4c 5d 70 3b 69 dc 68 3c
       0.052516602 -0.03596996 0.0036676703 0.014212706
000290 8d 7d 91 3c a7 f0 53 3d 01 b8 86 bb 89 f1 4f 3d
       0.017760063 0.051743176 -0.0041112904 0.050767455
0002a0 23 21 98 bc d2 1e 46 b9 9b 28 a6 3d 56 68 20 bd
       -0.018570488 -0.00018894233 0.08113214 -0.039162003
0002b0 42 b4 fd bc 78 87 8d bc bc 78 f0 3c 5a 46 f5 3c
       -0.030969743 -0.01727651 0.029354446 0.029940773
0002c0 79 20 53 3d 3d e9 89 bd 35 f7 72 bd 7c 35 7e 3d
       0.05154464 -0.0673394 -0.059317786 0.062062725
0002d0 61 42 4b 3c e1 8c 97 3d a2 ba a1 3d a0 2f 4e 3c
       0.012405963 0.073999174 0.078969255 0.012584597
0002e0 c9 e3 50 3c fb 45 eb bc 0f 54 89 3c 89 29 bc 3d
       0.012749621 -0.028719893 0.016763715 0.0918761
0002f0 26 86 02 3d 5c 24 40 bd e8 b7 20 3d a8 65 dd 39
       0.031866215 -0.046909675 0.039237887 0.00042228145
000300 f5 b7 1b bb 81 07 cc bc 62 40 73 3c a3 6f a2 bc
       -0.002376077 -0.024905922 0.014846893 -0.019828623
000310 d9 02 52 3c a0 d4 5e 3c 3c 4a a0 3c 23 2c cb 3b
       0.012818062 0.013600498 0.019566648 0.00620033
000320 83 74 a8 3b 27 30 06 bd 5b 0c b4 bb dd a6 aa bc
       0.0051408424 -0.032760765 -0.005494637 -0.02083152
000330 b6 a8 2e 3d 1c fb a8 bd 4b 22 bc 3d 65 46 76 bd
       0.042641364 -0.0825102 0.09186228 -0.060125727
000340 53 0d f8 bb 47 de f8 b8 93 71 c2 3d 4c 92 29 bc
       -0.0075699477 -0.00011866964 0.09494319 -0.010349821
000350 53 2e 72 3a 1c fe 65 bc 31 9b 50 bd 21 86 ae 3d
       0.000923847 -0.014037635 -0.050929252 0.08521677
000360 6c aa af 3b 93 f4 d2 bc 9b 6c 1b 3c b8 57 27 3b
       0.005360892 -0.025751388 0.009486343 0.0025534462
000370 66 c0 8d 3d 10 d9 1c 3d 5a d5 11 bd 29 45 0d 3c
       0.06921463 0.038292944 -0.03560386 0.008622446
000380 09 25 99 3c 09 4d e9 3d 67 82 39 bc 99 f7 b2 3d
       0.018694418 0.113916464 -0.011322594 0.08738632
000390 d5 12 b9 bc 42 cb 79 bc c5 97 6e 3a e7 1a b1 3d
       -0.022591988 -0.015246214 0.0009101595 0.08647709
0003a0 57 92 7f bc 5a 14 ae 3d 31 bb 20 3d bf 39 31 bc
       -0.015598855 0.084999755 0.03924102 -0.01081699
0003b0 6b 24 30 bc 6d 0d 6e bb 9c 5d 1a 3c 86 3c 55 3d
       -0.01075087 -0.003632392 0.009421732 0.052059673
0003c0 07 d3 c4 bc 3c cc 8b 3d 20 71 3e bc 8e b0 d9 3a
       -0.024026407 0.06826064 -0.011623651 0.0016608404
0003d0 ff 45 06 3c c9 85 62 3d 4c 62 4c 3e b7 3b 15 3d
       0.008195399 0.05530337 0.19959372 0.0364339
0003e0 2f e3 c6 bb ff 3d 65 bb 83 84 14 bd 70 c3 17 bd
       -0.006069563 -0.003497958 -0.036259186 -0.037051618
0003f0 aa 25 47 3d 7f db 63 bd 69 f4 5c 3b 8a ee 12 3d
       0.048619904 -0.05562925 0.0033715016 0.03587202

_model.2._model.0.weight f4 [51, 256]
000000 4a 90 a8 bd b5 2b a4 bd 4c 1b 6f bd a3 73 ac 3d
       -0.08230646 -0.08016149 -0.05837564 0.084204935
000010 99 1f 0c be c4 a0 1c be fb cc 5d 3d d0 fd 99 bd
       -0.13683929 -0.15295702 0.054150563 -0.07519114
000020 15 86 d0 bb 56 c8 9c bd dc 5b 0c bc ca 1c 6f 3d
       -0.00636364 -0.076553985 -0.008566823 0.058377065
000030 fb 0c ec 3d 4d 0d 35 3c e8 3f 49 3d b5 0d b2 3d
       0.11525913 0.011050534 0.04913321 0.08694021
000040 68 f7 03 3e 68 63 6a bd 1a 1d 89 bc a9 ae ad bb
       0.12887347 -0.057223707 -0.01673751 -0.005300362
000050 a2 7e f3 bc 78 7e d7 ba 35 26 46 3e 65 0a 75 3c
       -0.02972347 -0.0016440889 0.19350512 0.0149560915
000060 ad f5 ec 3d 6e 7b e1 3d ce 1d f0 3c e9 5c 72 3d
       0.115702964 0.110098705 0.029311087 0.059170637
000070 21 dd 84 3c ac b2 66 bd 0d ba 2d bd d3 4c 41 3c
       0.016218724 -0.05632274 -0.04241376 0.0117981015
000080 0e 05 c9 bd 74 0d 96 3c 60 ff 83 3c 63 4e b3 3d
       -0.09815417 0.018316962 0.016112983 0.087551855
000090 cd 6d eb bc 5c e9 ee bc 8e 9f 29 3d 99 5f 56 3d
       -0.02873888 -0.029164009 0.04141193 0.052337263
0000a0 e6 5f c5 bc 60 e2 a6 bc 48 80 1e 3e dd d3 fc bd
       -0.02409358 -0.020371616 0.15478623 -0.12345097
0000b0 ae a6 17 bd c2 2a 2c 3e ac aa c0 bd 94 93 49 3c
       -0.037024193 0.16813186 -0.09407553 0.012303252
0000c0 49 1f bc bd 76 cf e9 bc fd 41 7a 3c ca 18 58 bd
       -0.09185655 -0.028541308 0.015274522 -0.052758016
0000d0 89 f1 e5 bd 69 f4 1c be 67 d5 a0 3c 72 0f 98 3c
       -0.1122771 -0.1532761 0.019633008 0.018562052
0000e0 14 07 a2 bd b8 3c 91 bd d7 d5 2e 3e 67 11 18 3d
       -0.07911506 -0.07091659 0.17073761 0.03712597
0000f0 5a d8 4d bc 8a a4 be bd 80 ee ec 3c c7 36 b9 3d
       -0.012563789 -0.09308727 0.02892232 0.09043651
000100 6a 6d 14 be 7d c8 74 3d 34 3b 7a bd cd ab 78 bd
       -0.14494863 0.059761513 -0.061091617 -0.060710717
000110 a3 6a 7f bd ca 29 0a 3d 2a 05 f0 bd e7 75 26 bd
       -0.062357556 0.03373126 -0.11719735 -0.040639784
000120 3f ca cf bd 86 66 2d 3c f1 9d 1a 3d 3b 44 e9 bd
       -0.10145997 0.0105835255 0.03774828 -0.11389967
000130 d1 d2 8d 3d 28 8e d2 bd 4e c7 ef 3c f3 9c 28 3c
       0.06924976 -0.102810204 0.02926984 0.010291326
000140 4d 7c 77 3d aa fd 90 bd 5a b6 01 3e 2a 34 17 3e
       0.060421277 -0.070796326 0.12667218 0.14765993
000150 68 bf 63 bc 4d b8 4b 3d 35 ca b3 bd f0 07 d2 bd
       -0.013900615 0.04973631 -0.08778802 -0.1025542
000160 b1 31 f3 3d 02 17 16 3e 99 d6 93 3c 2c 8a 85 3b
       0.11874712 0.14657214 0.018046664 0.0040753093
000170 63 19 5c 3d 3d 60 e3 bd 7c 4e 20 3d 48 06 87 3c
       0.05373515 -0.1110234 0.03913735 0.016482487
000180 cb 03 54 bc b3 34 16 bd 87 4f ce 3d 9e 73 fc bd
       -0.012940357 -0.03667135 0.100737624 -0.1232674
000190 39 c6 c9 3b 0b 01 82 bd 87 ad 4f bd da 4c 24 3c
       0.006157663 -0.06347855 -0.050702598 0.010028088
0001a0 3d 19 db 3c 70 81 2e 3d 20 b7 b6 bd 9b ba 34 3d
       0.026745433 0.04260391 -0.08921647 0.044123273
0001b0 c5 75 b0 3d 7f f1 35 be a8 a2 5f bc 45 0a f7 bd
       0.08616213 -0.17767905 -0.01364962 -0.12062506
0001c0 c2 10 46 3c d7 b9 01 3e 16 08 77 3d c2 b1 86 bc
       0.012088956 0.12668549 0.060310446 -0.016442183
0001d0 02 1f df 3d 8f 81 3e 3d 63 39 12 3d 25 5c 68 3c
       0.10894586 0.046510275 0.03569926 0.014182125
0001e0 42 df 99 bc f4 71 95 3d f0 5f 1b bc c7 68 09 3e
       -0.018783215 0.072971255 -0.0094833225 0.13418876
0001f0 97 47 c3 3b 1a 21 2c be 74 27 eb 3d 9d 5e 09 bd
       0.005959462 -0.16809502 0.114821345 -0.033537496
000200 fa fc d7 3d 27 2e 6d bd d3 3d 2e 3e 9f fa b2 bc
       0.10546298 -0.057905342 0.17015772 -0.021848021
000210 db 2d 8b 3d 31 ff b5 3a 84 33 cb bd 62 30 4e 38
       0.067958556 0.0013885257 -0.09921935 4.9159287e-05
000220 0e 7f 23 be 02 44 0c be 06 68 84 bd d1 90 25 bc
       -0.15966436 -0.13697818 -0.064651534 -0.010105328
000230 32 40 05 bc 32 da a7 3c bc 4e a2 bc 45 2f d9 bc
       -0.008132981 0.020489786 -0.019812934 -0.026511798
000240 38 bc 2d be d2 36 00 bd 31 44 1f 3d ff f1 de bd
       -0.16966331 -0.03130228 0.03888339 -0.10886001
000250 d1 f5 36 bd 33 b6 c1 bc 71 d1 0a 3e 06 11 cb bd
       -0.044668023 -0.02364645 0.13556458 -0.09915356
000260 0e be 0a 3d 12 a9 a3 3c d1 5a 8c bd 8b 6f 7a bd
       0.033872657 0.01997808 -0.06853259 -0.061141532
000270 5b 84 ed 3c 6a 52 4a be 72 e7 30 be 2c 15 66 bc
       0.028993776 -0.19758001 -0.1727579 -0.014043134
000280 8b 30 15 bd b0 4c 15 be ad 0d 03 3e c0 72 12 3d
       -0.036423247 -0.14580035 0.12798186 0.035753965
000290 e8 ba 99 3d 89 a4 e1 3d d0 bd 5e bc 41 f1 7c bb
       0.07506353 0.11017711 -0.0135950595 -0.0038595947
0002a0 4b 12 a1 3d bc 05 41 3d a6 8e ed 3c 90 ce 86 bd
       0.07864817 0.04712461 0.028998684 -0.065823674
0002b0 08 34 52 3e ce ee 1c bd 91 18 d7 bb f1 6b e0 3b
       0.20527661 -0.03831368 -0.006564208 0.006848805
0002c0 2d a2 28 3b 17 f5 45 bd bf 49 de 3d 9e 02 23 3d
       0.002573143 -0.04832944 0.1085391 0.039797418
0002d0 30 e7 f2 3d fe a6 3b 3d 36 e4 a1 bd 19 a7 6d 3d
       0.11860502 0.045813553 -0.07904856 0.058020685
0002e0 89 4c 58 bc 97 b0 11 3d 6d 69 9a bd 05 32 76 3c
       -0.013201841 0.0355688 -0.075396396 0.015026574
0002f0 f5 24 03 be 6b 60 21 bc 6c 89 b0 3d da d7 06 3d
       -0.12807067 -0.009849648 0.08619961 0.032920696
000300 6d b7 0e 3d 35 a1 c8 3d 12 54 10 3d ec 35 55 bd
       0.034842897 0.09796373 0.035236426 -0.052053377
000310 75 d7 90 bd 6f 92 d8 3d c8 8e c0 3d 96 3c 12 be
       -0.07072345 0.10574805 0.09402233 -0.14280924
000320 90 9d af 3d dc d0 d2 bd e8 cc d7 bd af 7a 6c 3d
       0.085749745 -0.10293743 -0.1053713 0.057734188
000330 83 d2 a2 3d dd 1d 32 bd 32 0d 81 3d 7e c4 c8 bd
       0.07950308 -0.04348551 0.06301345 -0.09803103
000340 92 e3 30 3d f5 1e cc 3c fe 1a d0 3d 97 6f 81 3d
       0.043185778 0.024917105 0.10161398 0.06320112
000350 b1 e4 9a 3d 66 ad d8 3c 11 e6 d3 bc 71 44 1f 3c
       0.07563151 0.02644987 -0.02586654 0.009720908
000360 2f 60 46 3d a1 06 12 3d 72 8b 5a 3d ee 94 6e 3d
       0.04843157 0.035650853 0.05335564 0.0582475
000370 e3 39 84 bd 1a c6 c3 3c 19 16 d6 3d 26 d8 17 3c
       -0.064563535 0.023898173 0.104534335 0.009267842
000380 36 a2 b5 3d 2f d7 95 bc 40 43 da 3c b7 53 9f 3d
       0.0886883 -0.018291084 0.026643395 0.07779639
000390 38 ee bf bd 8e f7 4f bd 9b 51 bc b9 17 50 50 bd
       -0.093716085 -0.050773196 -0.00035918955 -0.05085763
0003a0 07 0a 12 bd 9f 83 99 bc f4 bc 03 bd 87 fb cc bd
       -0.035654094 -0.01873952 -0.03216262 -0.100089125
0003b0 21 03 90 bd bb c0 07 bd 89 af e1 bb 71 17 81 bd
       -0.07031847 -0.033142786 -0.0068873805 -0.06303299
0003c0 2a a5 91 bd 4a 07 10 3d 22 1e 0b bd ca 5c 34 bd
       -0.07111581 0.0351632 -0.033964284 -0.044033803
0003d0 7a 44 2e 3d 28 b7 20 3c e0 98 40 3e d4 d3 5a 3b
       0.042545773 0.009809293 0.18808317 0.003339042
0003e0 06 2e 6a bc a6 c0 d9 3d e2 a4 91 bd a6 80 4e bc
       -0.014293199 0.10632448 -0.07111527 -0.012603914
0003f0 ff 9d b9 bd 07 15 49 3d fd 55 9b 3b 21 39 9d 3d
       -0.090633385 0.04909232 0.004740475 0.07676912

_model.2._model.0.bias f4 [51]
000000 23 03 21 3e 26 76 9b 3c 77 40 f7 3c 31 b1 2c be
       0.15723853 0.018977236 0.030182106 -0.16864468
000010 eb 5b 53 bd 3d 6a d8 3d 14 88 6b 3e 04 9c 2c bd
       -0.05160133 0.10567138 0.23001128 -0.042140976
000020 f8 a9 78 bd 94 78 62 be 43 4d 4f 3d 32 e3 89 bd
       -0.06070897 -0.2211631 0.050610792 -0.06732787
000030 11 43 de bd 91 4b 1b 3d d9 65 a8 bc 6a a0 b9 3e
       -0.10852636 0.037913863 -0.020556377 0.362552
000040 2e 65 29 bb 5e 31 05 3e 2a 0d 91 bc 6d 1b a3 bd
       -0.0025847661 0.13007113 -0.017706472 -0.079642154
000050 fa 51 53 3d bb b8 cc bc 24 78 32 3d 42 f2 0b bc
       0.05159185 -0.02499043 0.043571606 -0.0085416455
000060 15 81 59 bd 0f 40 1a bd 93 99 4f 3c f3 29 b4 bc
       -0.053101618 -0.037658747 0.012670892 -0.02199266
000070 01 25 05 be c0 cd a9 3c 52 94 be bd c2 ca 9d bd
       -0.13002397 0.020727992 -0.093056336 -0.077046886
000080 25 a1 77 3c 62 14 80 3d 10 25 bc 3c 69 ad cd bc
       0.015114103 0.06253888 0.022966892 -0.025107102
000090 fa bb a0 3d 03 9c 73 3d 61 64 96 bd 1e 00 0e bc
       0.07848354 0.059474956 -0.073433645 -0.00866702
0000a0 35 e4 ab bd 22 46 07 be d4 1f 63 bd cc e2 3b bd
       -0.083931364 -0.13210347 -0.055450276 -0.045870587
0000b0 86 1c 25 3b 11 e5 dc bc 63 cb ad bd a0 16 1a bb
       0.0025194003 -0.026964696 -0.084860586 -0.002351202
0000c0 b1 ea f7 bc 9a 49 32 3d 67 61 9e bd
       -0.030263277 0.043527223 -0.07733422
