data/etc/motor_decoder_weights_walk_run.pt (torch_old, 238777 bytes, 7 tensors)

0._model.0.weight f4 [128, 282]
0	0xbd45cd47	-0.04829147
1	0x3b856fe2	0.0040721754
2	0x3d05cf1d	0.03266822
3	0x3d44c259	0.048036907
4	0xbd3242b5	-0.043520648
5	0x3da0a292	0.07843508
6	0xbce8ded2	-0.028426562
7	0xbd927b05	-0.0715237
8	0xbdbe4f7d	-0.09292505
9	0x3d3067dc	0.043067798
10	0x3d848804	0.064712554
11	0x3cf3baee	0.029752221
12	0xbe06d876	-0.13168511
13	0x3d45b24d	0.048265744
14	0xbd807299	-0.06271858
15	0xbdab774f	-0.08372366
16	0x3e2a38d6	0.16623244
17	0x3e85fdaa	0.26170093
18	0x3e610d4f	0.21977733
19	0xbd20cc35	-0.039257247
20	0x3d004a80	0.03132105
21	0xbd147297	-0.036242094
22	0xbe171ce7	-0.14757119
23	0xbd607469	-0.054798517
24	0xbd3599df	-0.044336196
25	0x3d8d8d8f	0.06911766
26	0x3e129f0d	0.14318486
27	0xbd9baeda	-0.0760171
28	0xbe19768c	-0.14986628
29	0x3d4c961d	0.049947847
30	0x3c24bff6	0.010055533
31	0x3e3ec30e	0.18629095
32	0x3db4ce2b	0.08828386
33	0xbc82b829	-0.015956955
34	0xbd7bbb2a	-0.06145779
35	0xbd9f96c5	-0.07792429
36	0xbc72a763	-0.014810416
37	0x3d8c2416	0.0684282
38	0x3d4b9aac	0.049708053
39	0x3db28d4f	0.08718359
40	0x3d1b7830	0.037956417
41	0xbdea6399	-0.11444778
42	0xbdba4839	-0.09095807
43	0x3e508a8b	0.2036535
44	0x3dabb818	0.083847225
45	0x3c3eaef4	0.011638392
46	0x3c584f1c	0.013202455
47	0x3d674752	0.0564645
48	0xbd6468d0	-0.05576402
49	0xbcac1a61	-0.021008672
50	0xbdc14bcd	-0.09438286
51	0x3cf1255c	0.02943676
52	0x3ba2535f	0.0049537863
53	0x3c031dc3	0.008002701
54	0x3d4b931a	0.049700834
55	0xbd1b00c6	-0.037842534
56	0x3d75b515	0.059987146
57	0x3db2854d	0.08716831
58	0x3c8ef202	0.017449383
59	0xbd2ddd5a	-0.042447425
60	0xbd9c753e	-0.0763955
61	0x3d254127	0.040345337
62	0xbe213273	-0.15741901
63	0x3b1eefa4	0.0024251724
64	0xbcde2f46	-0.027122151
65	0x3ba3e41a	0.005001557
66	0x3e0db58b	0.13838784
67	0x3e1763d0	0.14784169
68	0xbd381e06	-0.044950508
69	0x3c76952d	0.015050215
70	0x3d3ee232	0.046602435
71	0xbdbbc8b0	-0.091691375
72	0xbdcf3d2d	-0.1011909
73	0xbd843286	-0.06454949
74	0xbbebef12	-0.0072001303
75	0x3b7dea54	0.0038744407
76	0x3d27be3b	0.040952902
77	0xbd3c108e	-0.045914225
78	0xbe0cd381	-0.13752557
79	0x3d8395d3	0.06425061
80	0x3e1c6e82	0.1527653
81	0xbd3cad88	-0.04606393
82	0xbc00dbf7	-0.007864944
83	0xbdaae189	-0.08343799
84	0xbbf5d76a	-0.007502486
85	0xbdaaea10	-0.08345425
86	0xbd45da05	-0.048303623
87	0x3da4b83d	0.08042953
88	0x3d0e75f3	0.034780454
89	0xbe18855b	-0.14894621
90	0xbdb60387	-0.088873915
91	0xbdcec5c2	-0.10096313
92	0xbd24ef6b	-0.04026739
93	0xbd1dbc96	-0.038509928
94	0x3d3b39f5	0.04570957
95	0x3d8f9e04	0.07012561
96	0x3e75bc9e	0.23997733
97	0x3d23e74e	0.04001551
98	0x3d5b57ba	0.05355046
99	0xbd6438a4	-0.05571808
100	0x3da6dd90	0.081477284
101	0xbd1df52b	-0.03856389
102	0x3b17f5b9	0.0023187234
103	0xbd666416	-0.056247793
104	0xbe50bd6d	-0.2038476
105	0x3d3333f7	0.04375073
106	0x3d91863e	0.07105683
107	0xbdaaf744	-0.083479434
108	0xbbe90dc8	-0.0071122386
109	0x3e5bbcfb	0.21458809
110	0xbcca6272	-0.024705146
111	0xbdbb83b1	-0.091559775
112	0x3d87176d	0.06596265
113	0x3d093bcd	0.033504296
114	0x3c734c68	0.01484976
115	0xbd3e0a79	-0.046396706
116	0x3d1c2758	0.03812346
117	0xbea14723	-0.31499586
118	0xbd5a1282	-0.053240307
119	0x3d7473e5	0.05968084
120	0xbd324abe	-0.04352831
121	0xbcf32145	-0.02967895
122	0x3e121aa7	0.1426798
123	0xbe0ea393	-0.13929586
124	0xbdc8ade0	-0.09798789
125	0x3d849547	0.06473785
126	0x3cc71cf7	0.024305804
127	0xbd47045f	-0.048588153
128	0xbca469b8	-0.020069942
129	0x3d011f91	0.031524245
130	0xbdaca0cc	-0.08429107
131	0x3bd1d433	0.00640347
132	0x3d39f2d9	0.045397613
133	0x3d3003e1	0.04297245
134	0x3d0ee7f9	0.034889195
135	0x3deed4c1	0.11661673
136	0x3e14f45c	0.1454634
137	0x3bca7cb7	0.006179418
138	0xbd064cb7	-0.032788005
139	0x3dfc6bd6	0.123252556
140	0xbc910d3a	-0.017706502
141	0x39b7ffeb	0.00035095154
142	0xbd963ef5	-0.07336227
143	0xbe236a6a	-0.15958562
144	0x3d00b1bd	0.031419504
145	0xbd4f58f5	-0.050621945
146	0x3cce3201	0.025170328
147	0xbb1386e0	-0.0022510812
148	0x3e42c010	0.19018579
149	0x3c403a81	0.011732698
150	0xbd38accc	-0.045086667
151	0x3c1ee513	0.00969817
152	0x3cb5d91d	0.022198254
153	0xbd573932	-0.05254478
154	0x3c777f88	0.015106089
155	0x3d4fff21	0.05078042
156	0x3d337298	0.043810457
157	0x3b308212	0.0026932997
158	0x3bfe39bd	0.007758348
159	0x3d02d9c3	0.031945955
160	0xbe2b9f3c	-0.16759962
161	0x3e27fc4b	0.16404836
162	0xbbea5e5a	-0.007152361
163	0xbddd4ca9	-0.108056374
164	0xbd8378d3	-0.0641953
165	0x3e003e6c	0.12523812
166	0x3dff53fa	0.12467189
167	0x3e095ad6	0.13413557
168	0xbcc47ae6	-0.023984384
169	0xbd4349b2	-0.047677703
170	0x3a6e041f	0.00090795936
171	0x3c9d08c8	0.019169226
172	0x3d1fad54	0.038983658
173	0xbc26a515	-0.010171195
174	0xbc4691ad	-0.012119693
175	0x3d508d6c	0.05091612
176	0xbd8814fa	-0.06644626
177	0x3d8ec665	0.069714345
178	0xbae56749	-0.0017502095
179	0xbdb21869	-0.08696062
180	0x3d254f21	0.040358666
181	0x3a186e09	0.00058147364
182	0x3cae233b	0.021257034
183	0xbc6025e6	-0.013680911
184	0x3d57dfd2	0.052703686
185	0xbd358105	-0.044312496
186	0xbd9216b2	-0.07133235
187	0x3b3342c2	0.0027353023
188	0xbda743a3	-0.081671976
189	0xbd44f9d0	-0.048089802
190	0x3db7a788	0.08967501
191	0x3ca08cfa	0.019598473
192	0xbb6ad253	-0.003583093
193	0xbd9c5f02	-0.07635309
194	0x3d974db8	0.073878706
195	0xbda44cb1	-0.0802244
196	0x3da504e3	0.08057573
197	0x3bdda4c8	0.006764028
198	0xbd48fb79	-0.049067948
199	0xbda13a7c	-0.07872483
200	0xbbde677f	-0.00678724
201	0xbcd64cc5	-0.026159653
202	0xbc18e0e1	-0.009330959
203	0x3ba89f06	0.00514591
204	0x3da41307	0.08011442
205	0x3a0ce777	0.0005375067
206	0x3d38b065	0.045090098
207	0x3dd8cfe6	0.105865285
208	0xbda1e7cb	-0.07905539
209	0xbc22aa29	-0.009928265
210	0x3d5d20ff	0.053986546
211	0x3d04afad	0.0323941
212	0xbc835beb	-0.01603504
213	0x3df50b94	0.11965099
214	0x3ccfce3b	0.025366893
215	0xbdc81deb	-0.097713314
216	0xbd46d333	-0.04854126
217	0x3d35694a	0.044289865
218	0xbd3f774c	-0.04674463
219	0x3d3f567d	0.04671334
220	0xbd588718	-0.05286321
221	0xbe06ac79	-0.1315173
222	0xbd10a4ee	-0.03531354
223	0x3d693c5c	0.05694233
224	0xbccb4875	-0.024814824
225	0xbc5fa1e1	-0.013649435
226	0x3de382af	0.1110891
227	0xbb7ed619	-0.0038884936
228	0x3d9caf80	0.076506615
229	0xbd8dcabf	-0.069234364
230	0x3dff5cab	0.12468847
231	0x3c116891	0.008875028
232	0x3ccaf515	0.024775067
233	0x3d957461	0.07297588
234	0xbb56ebb5	-0.00327943
235	0x3d22200b	0.03958134
236	0x3d4ce838	0.05002615
237	0xbd7ee972	-0.06223435
238	0x3d5fb561	0.054616336
239	0x3d678240	0.0565207
240	0x3d0ec084	0.034851566
241	0xbded02c4	-0.11572793
242	0xbdac4c6b	-0.08413013
243	0x3da7d0cd	0.081941225
244	0xbb19863c	-0.0023425957
245	0xbc3b5463	-0.011433694
246	0xbd993a46	-0.07481818
247	0x3de263a9	0.11054165
248	0x3dc5d938	0.09660572
249	0xbd761369	-0.060077105
250	0xbcb483d1	-0.022035511
251	0xbe1ce027	-0.15319882
252	0x3c13660e	0.0089965
253	0x3d20ce76	0.039259396
254	0xbc9d3924	-0.019192286
255	0xbd0ab603	-0.033864986

0._model.0.bias f4 [128]
0	0x3c950a4a	0.018193383
1	0x3c5def89	0.013545879
2	0x3c919ced	0.017775023
3	0x3bd7aa7e	0.0065816035
4	0x3c1b5687	0.009481079
5	0x3b9b1dd3	0.00473378
6	0x3baa342c	0.0051942077
7	0x3c9c8957	0.019108457
8	0x3c695a3d	0.014242706
9	0x3c57820f	0.013153567
10	0x3c9122dc	0.017716818
11	0x3c4f10a2	0.012638243
12	0x3ce8f20b	0.028435728
13	0x3c1f8808	0.009737022
14	0x3c534e8d	0.012897146
15	0x3c11aa53	0.008890706
16	0x3cb398ef	0.02192351
17	0x3c87f987	0.016598476
18	0xbba1c7d4	-0.0049371514
19	0x3c40d2fc	0.011769053
20	0x3c917534	0.017756082
21	0xbb2aff3e	-0.0026092078
22	0x3b81978c	0.0039548334
23	0x3c12f2c5	0.008969014
24	0x3c5a091c	0.013307836
25	0x3ba4f4c3	0.0050340607
26	0x3c5ae83f	0.013361036
27	0x3c7e5372	0.015522825
28	0x3cb142db	0.021638324
29	0x3c86a20d	0.016434694
30	0xbbba61a8	-0.005687911
31	0xbc9e073e	-0.019290563
32	0x3c97dad7	0.018536968
33	0x3cad0be1	0.021123828
34	0x3b8b61fa	0.004253623
35	0xbb30ec8a	-0.0026996457
36	0x3c13a254	0.00901087
37	0x3bfdb99c	0.0077430736
38	0x3bcdd118	0.0062810294
39	0x3b278b2c	0.002556513
40	0x3b72f30c	0.0037071137
41	0x3b9f55d2	0.0048625255
42	0x3c6934cf	0.014233782
43	0x3bad0f57	0.0052813697
44	0x3c0a2206	0.008430963
45	0x3bfd2eb6	0.0077265156
46	0x3c6acae5	0.0143306
47	0x3ba0f0c6	0.004911515
48	0x3bb90dfe	0.00564742
49	0x3c4205fa	0.011842245
50	0x3c74724a	0.014919827
51	0x3b8b5cc1	0.0042530005
52	0x3c98da62	0.01865882
53	0x3c961300	0.018319607
54	0x3c850bf2	0.016241048
55	0x3c4e6582	0.012597444
56	0x3c5d6691	0.013513223
57	0x3c565d06	0.013083702
58	0x3c838e5d	0.016059095
59	0x3c7b9161	0.015354485
60	0x3ba01876	0.0048857285
61	0x3cd43b20	0.0259071
62	0x3c25f0fa	0.010128254
63	0x3c90440b	0.01761057
64	0x3b1010c9	0.002198266
65	0x3aa4c4f2	0.0012570901
66	0x3b72036b	0.0036928307
67	0x3caab577	0.020838482
68	0x3c1a1977	0.009405485
69	0xbbb4d304	-0.005518319
70	0x3cc96fca	0.024589438
71	0x3ccca517	0.024981065
72	0x3c10d57b	0.00883996
73	0x3c2a2f8a	0.010387311
74	0x3bb45f09	0.005504493
75	0x3b4cf7d6	0.0031275651
76	0xbb3a99de	-0.002847306
77	0x3ca352f6	0.01993702
78	0x3c0b497d	0.008501408
79	0x3c9e1cd9	0.019300865
80	0x3ca68cdd	0.02033084
81	0x3bca7b43	0.0061792447
82	0x3c26cec7	0.0101811355
83	0x3c0a10a1	0.008426816
84	0x3c8029d9	0.015644955
85	0x3b826144	0.00397888
86	0x3a870ea4	0.0010304046
87	0x3c57bd4e	0.013167692
88	0x3c14f3eb	0.009091358
89	0x3c3d3c9a	0.011550093
90	0x3c2cdb35	0.01055031
91	0x3c8e077c	0.017337553
92	0x3c8e643f	0.017381785
93	0x3c437b4c	0.011931252
94	0x3c553291	0.013012544
95	0x3cb13345	0.021630893
96	0x3c23c7d5	0.009996374
97	0x3cc96096	0.024582189
98	0x3c29e9e9	0.01037071
99	0x3c243390	0.010022059
100	0x3c54b7ca	0.012983272
101	0x3b620f40	0.0034493953
102	0x3bfc6e09	0.007703547
103	0x3c974103	0.018463617
104	0x3c868db6	0.016424995
105	0x3ca0cdf2	0.019629452
106	0x3c76d662	0.015065761
107	0x3beff204	0.0073225517
108	0x3c66fc00	0.014098167
109	0x3c61bba3	0.013777646
110	0x3aa52ad2	0.0012601262
111	0x3c92f7e4	0.01794047
112	0x3c2db31a	0.010601783
113	0x3b6c71a0	0.0036078468
114	0x3c411d90	0.011786833
115	0x3bc939da	0.0061409296
116	0x3c8a3ade	0.016873773
117	0x3c431d58	0.011908852
118	0x3ca0c503	0.019625193
119	0x3ccb0097	0.024780555
120	0x3c87b736	0.016566854
121	0xbb69b351	-0.003565986
122	0x3c6cd0df	0.014454096
123	0x3c8c5c93	0.017133987
124	0x3c7632c3	0.015026751
125	0x3c193ecc	0.009353351
126	0x3a1a60d6	0.00058890635
127	0x3c503133	0.0127070425

1._model.0.weight f4 [128, 128]
0	0x3e37b7e4	0.17941242
1	0xbdc4b908	-0.096056044
2	0xbd1f4042	-0.03887964
3	0x3e4ac285	0.19800766
4	0xbdc00fb8	-0.09377998
5	0xbe8baef3	-0.27281913
6	0x3c0801c9	0.008301207
7	0x3d57be4b	0.052671712
8	0x3d2537ff	0.040336605
9	0x3dc9f39c	0.09860918
10	0x3e32840f	0.17433189
11	0x3c8b6481	0.017015697
12	0xbdf0bacf	-0.11754381
13	0x3e73d91a	0.23813286
14	0xbe1d584b	-0.15365712
15	0x3dd50d46	0.10402922
16	0x3dd5bfcb	0.10436972
17	0xbdd181e0	-0.1022985
18	0xbcd27112	-0.025688682
19	0xbdbacf04	-0.09121516
20	0xbd7bb627	-0.06145301
21	0x3dbcf368	0.092261136
22	0xbe1b7407	-0.1518098
23	0x3d371697	0.044699278
24	0xbde6ce6e	-0.11269842
25	0xbda80dec	-0.082057804
26	0x3df55e9b	0.11980935
27	0xbc87d571	-0.016581269
28	0x3d8d02f8	0.06885332
29	0xbdeedcc2	-0.116632
30	0x3d562b58	0.05228743
31	0xbce35399	-0.027749823
32	0x3cadd8b3	0.021221494
33	0x3c4ddb83	0.012564543
34	0xbd54f8f3	-0.05199523
35	0x3d08d154	0.033402756
36	0xbe05c8c3	-0.13064866
37	0x3da0e63a	0.07856412
38	0xbb53d23e	-0.003232136
39	0x3de61f36	0.11236422
40	0xbd4bc6ed	-0.049750257
41	0xbdbd7c7a	-0.09252258
42	0xbd84d3f5	-0.0648574
43	0x3bd70533	0.006561899
44	0x3de5fd29	0.11229927
45	0x3e05ff86	0.13085756
46	0xbcb35d84	-0.021895178
47	0x3d5e823c	0.05432342
48	0x3e4c722a	0.19965425
49	0x3d2f246d	0.042759348
50	0xbda87f2f	-0.08227383
51	0xbd8bb695	-0.06821934
52	0x3daa63e3	0.08319833
53	0xbbf92c93	-0.0076041906
54	0x3cf08788	0.029361501
55	0xbd2d5f2b	-0.042327087
56	0xbe006c00	-0.12541199
57	0x3d17038d	0.03686862
58	0xbd489d55	-0.04897817
59	0xbd582def	-0.05277818
60	0x3c2792d1	0.010227875
61	0xbcacbf5b	-0.02108734
62	0x3bc603df	0.006042942
63	0x3df0b550	0.117533326
64	0x3e74de90	0.23913026
65	0xbcd21a8a	-0.02564742
66	0x3d3a436d	0.04547446
67	0xbdb24e7c	-0.08706376
68	0xbd9b6072	-0.07586755
69	0x3cf51222	0.029915873
70	0x3dbfcaef	0.093648784
71	0x3d25cf70	0.04048103
72	0x3bf82f08	0.007573966
73	0x3c155291	0.009113924
74	0x3d13703e	0.035995714
75	0xbda73433	-0.08164253
76	0x3d819d8a	0.06328876
77	0x3c14e064	0.009086702
78	0xbcef4ce9	-0.029211478
79	0xbd02ba4a	-0.03191594
80	0x3d2510d5	0.040299255
81	0x3cd1b8ac	0.025600754
82	0x3c1d74bb	0.00961035
83	0xbc971e94	-0.018447198
84	0xbd80f7d6	-0.06297271
85	0xbc381d07	-0.011237389
86	0x3d352aa3	0.044230115
87	0x3d9a13e1	0.07523323
88	0xbd70d8f1	-0.05880064
89	0xbdc0e083	-0.09417822
90	0xbce3c7fe	-0.027805325
91	0x3d923489	0.071389265
92	0xbd8cbe22	-0.068722025
93	0xbd2efee0	-0.042723536
94	0x3d0c9222	0.03431905
95	0x3deff6ea	0.11717017
96	0xbd11dc90	-0.035610735
97	0xbbcefe6a	-0.0063169496
98	0xbe2cec34	-0.1688698
99	0x3cae68d9	0.02129023
100	0xbd17b593	-0.037038397
101	0xbe110017	-0.1416019
102	0xbdc7cfc2	-0.097564235
103	0xbdb67eb4	-0.089108855
104	0xbe78a9ae	-0.24283478
105	0x3e496f3b	0.19671337
106	0xbe0e2963	-0.13882975
107	0xbddfa2be	-0.109197125
108	0x3d33ed3b	0.043927412
109	0xbcccac1d	-0.024984414
110	0x3bc8c570	0.006127052
111	0xbe063ef7	-0.13109957
112	0x3db32b63	0.0874851
113	0x3e24c248	0.16089737
114	0x3e379cef	0.17930959
115	0x3d246817	0.04013833
116	0xbd0e444e	-0.03473311
117	0x3d07dee2	0.033171542
118	0xbd33a4ce	-0.043858342
119	0x3d80443c	0.06263015
120	0xbc6c3ac1	-0.014418305
121	0x3d25a958	0.040444702
122	0x3ce4878e	0.027896669
123	0xbc9d11ea	-0.019173581
124	0x3bdbfb52	0.0067133093
125	0xbdd23e7a	-0.10265823
126	0xbd48ab48	-0.04899147
127	0xbe14ccc0	-0.14531231
128	0xbde6fb45	-0.112783946
129	0xbd013bdb	-0.031551223
130	0xbe0140c6	-0.12622365
131	0xbe116217	-0.14197575
132	0xbe0c9ac6	-0.13730916
133	0xbd17b072	-0.037033506
134	0x3dc50bf0	0.096214175
135	0x3dbb7868	0.09153825
136	0x3d34fdbb	0.04418729
137	0xbd979341	-0.07401133
138	0x3d480c24	0.048839703
139	0x3d1cc908	0.038277656
140	0x3dc49a6c	0.09599766
141	0x3dd0b019	0.10189838
142	0xbd9f5796	-0.077803776
143	0x3bd32564	0.0064436663
144	0xbcee9dc7	-0.029127968
145	0x3caf8aeb	0.021428546
146	0xbc056647	-0.008142061
147	0xbe53cefe	-0.2068443
148	0xbda99e78	-0.08282179
149	0x3d17a078	0.03701827
150	0xbddd8ef7	-0.10818284
151	0xbe1d575c	-0.15365356
152	0x3b4fdfa9	0.0031719005
153	0xbdd4d795	-0.103926815
154	0x3d23cd28	0.039990574
155	0x3e5b8cf2	0.21440485
156	0x3d5752c4	0.052569166
157	0x3df7f2b3	0.12106838
158	0x3daf994f	0.08574163
159	0x3cad6624	0.021166869
160	0xbda71cc7	-0.08159786
161	0x3d81b5b4	0.06333485
162	0x3dc0cf63	0.09414556
163	0x3db8d964	0.09025839
164	0xbd89ffff	-0.067382805
165	0xbe0eb327	-0.13935529
166	0x3dba37ce	0.09092675
167	0x3e0bd3fb	0.13655083
168	0xbd99109a	-0.074738696
169	0xbdc23a2a	-0.0948375
170	0x3e6338bb	0.2218961
171	0x3cb9a223	0.02266032
172	0x3d929db7	0.07158988
173	0xbd30bc01	-0.043148044
174	0x3dda0bcc	0.10646781
175	0xbdaad3e0	-0.08341193
176	0xbd515d44	-0.051114336
177	0xbdd31951	-0.10307563
178	0xbda53281	-0.080662735
179	0xbdb418af	-0.087937705
180	0xbdc5a1ee	-0.09650026
181	0xbd4e0c27	-0.050304558
182	0x3cb65604	0.022257812
183	0x3cccda78	0.025006518
184	0x3dc21dcc	0.094783396
185	0xbd84c2a9	-0.06482441
186	0xbcf387bb	-0.029727807
187	0x3de4d7d0	0.111739755
188	0xbce529ba	-0.027973998
189	0xbe1d8ea6	-0.15386447
190	0xbdcfd5e0	-0.10148215
191	0xbe1e6d86	-0.15471467
192	0x3e3c1397	0.18366848
193	0x3d56b88e	0.0524221
194	0xbd8e65e5	-0.069530286
195	0x3d03e7d6	0.032203518
196	0xbc2f75a6	-0.010709202
197	0xbd0d849f	-0.034550305
198	0x3dee9425	0.1164935
199	0xbd718293	-0.058962416
200	0x3e0a6cbf	0.13518046
201	0x3cca42a4	0.02468998
202	0x3ddcbeea	0.107786015
203	0xbd7328f2	-0.05936522
204	0x3c350881	0.011049391
205	0x3de8cbb7	0.113669805
206	0x3e0254d4	0.12727672
207	0x3cdbc1db	0.026825836
208	0x3da97508	0.08274275
209	0xbd4e532f	-0.0503723
210	0xbe183e72	-0.14867571
211	0x3dbab1d1	0.09115947
212	0x3cf53ad2	0.029935274
213	0xbc384a33	-0.011248159
214	0xbe1054f6	-0.1409491
215	0xbb9cefd5	-0.0047893324
216	0xbd72db99	-0.059291456
217	0xbddcfa07	-0.107898764
218	0x3e37605b	0.1790785
219	0x3ba8507b	0.005136547
220	0xbdba6f67	-0.091032796
221	0xbd94e0fc	-0.07269475
222	0xbd779237	-0.060442176
223	0x3da228bd	0.079179265
224	0xbe9aa594	-0.3020445
225	0xbcb5cf4b	-0.022193572
226	0x3d80ea92	0.06294741
227	0xbdfe9bf8	-0.124320924
228	0xbd816bfe	-0.06319426
229	0x3daedac9	0.08537824
230	0x3e4742bd	0.19459052
231	0x3d88919c	0.06668398
232	0x3cc8ba16	0.024502795
233	0xbca29bac	-0.01984962
234	0x3e055406	0.13020334
235	0x3dae59ef	0.08513247
236	0xbd842b5d	-0.064535834
237	0xbd415174	-0.04719682
238	0xbe16c7ba	-0.14724627
239	0x3d9818e3	0.07426622
240	0x3c98629a	0.018601704
241	0xbe718aae	-0.23588058
242	0xbc8f84a3	-0.0175193
243	0xbd14e8e1	-0.036354903
244	0xbcb155b5	-0.021647314
245	0x3da87b2a	0.08226617
246	0x3d9e219d	0.07721255
247	0xbd2900f8	-0.04126069
248	0xbd975922	-0.073900476
249	0xbce45887	-0.027874244
250	0x3e060200	0.130867
251	0x3d8659bd	0.06560085
252	0x3cf696af	0.030101148
253	0x3db16db9	0.08663506
254	0xbc67ec56	-0.014155468
255	0xbb370137	-0.0027924308

1._model.0.bias f4 [128]
0	0xb9e104ea	-0.00042919006
1	0xbae7dec7	-0.0017690294
2	0xb91dd4fc	-0.0001505203
3	0xbc021bbd	-0.007941184
4	0x3c61aada	0.013773644
5	0x3cd7ab29	0.026326733
6	0xbc75c5e8	-0.015000798
7	0xbca633cf	-0.020288376
8	0xbc37845a	-0.011200989
9	0x3c0be3f4	0.008538235
10	0xbb1427fb	-0.0022606838
11	0x3cea3651	0.028590353
12	0x3c95709f	0.018242178
13	0x3b985cb4	0.004649723
14	0x3c4e3620	0.012586147
15	0x3c56abce	0.013102485
16	0x3c5dc060	0.013534635
17	0x3c0a4137	0.0084384
18	0xbbe45309	-0.0069679064
19	0x3c16b4ef	0.009198411
20	0xbc2a9092	-0.010410445
21	0x3b5c861c	0.0033649271
22	0xbaaad7e6	-0.0013034313
23	0x3affe87d	0.0019524243
24	0x3b6c6a18	0.003607398
25	0x3c333a4b	0.010939191
26	0x3caaa9ac	0.020832859
27	0x3c6b10cc	0.014347266
28	0x3b811818	0.00393964
29	0x3c7700ab	0.015075843
30	0x3c9ee8b6	0.019398075
31	0x3c8653ab	0.016397318
32	0x3c3a90a9	0.011387029
33	0x3c57feba	0.01318329
34	0xbbad8201	-0.0052950387
35	0x3d200286	0.039064907
36	0x3c05c981	0.008165718
37	0xbc359937	-0.011083893
38	0x3c8ebc7a	0.017423857
39	0x3ba80a1b	0.005128158
40	0xbc3401d2	-0.010986762
41	0xbb49110f	-0.0030680334
42	0x3cc12260	0.023575962
43	0x3907d064	0.00012952235
44	0xbc5f019f	-0.013611226
45	0xbb080468	-0.002075458
46	0x3cce57e6	0.025188398
47	0xbae06122	-0.0017118792
48	0xb83cc518	-4.500625e-05
49	0xbc00a7e5	-0.007852529
50	0x3adbd475	0.0016771691
51	0x3bc7e7dd	0.0061006383
52	0xbb94375c	-0.004523201
53	0xbb1adbca	-0.002362954
54	0xbbc6954b	-0.0060602776
55	0xbbad60f4	-0.0052910987
56	0x3c21aeb7	0.009868315
57	0xbbc09b52	-0.0058778906
58	0xbbe9aed1	-0.0071314354
59	0x3b90cf81	0.0044192676
60	0x3c1d4140	0.009598076
61	0xbc04ec01	-0.008112908
62	0xba906acb	-0.0011018155
63	0x3cab5e8f	0.020919112
64	0xbc2cd275	-0.010548224
65	0x3c289576	0.0102895405
66	0x3c935558	0.017985031
67	0x3a8448ae	0.0010092461
68	0x3ca3978c	0.019969724
69	0xbad6e2d0	-0.00163945
70	0x3cbb2783	0.02284599
71	0x3c234ecb	0.009967516
72	0x3c07bc13	0.0082845865
73	0x3cb36cdb	0.021902492
74	0xbad6d9fc	-0.0016391869
75	0x3c62cc06	0.013842588
76	0x3c476b02	0.012171509
77	0x3c6516cb	0.013982485
78	0x3bc30d89	0.0059525413
79	0x3c7a251a	0.015267635
80	0x3cb40bbd	0.021978253
81	0x3ca7313b	0.020409217
82	0xbc28bcdf	-0.010298937
83	0x3ccfd8a7	0.025371863
84	0x3cb794c7	0.02240981
85	0x3c990ae9	0.01868196
86	0xbc4da4f4	-0.012551535
87	0xbb46e445	-0.0030348462
88	0x3cf45860	0.029827297
89	0xbc11d97a	-0.008901948
90	0x3c192680	0.009347558
91	0x3ca9cf96	0.020728868
92	0x3bd6520d	0.006540543
93	0x3cd9c8a4	0.02658493
94	0x3bd5d97e	0.006526171
95	0x3c81f21d	0.015862519
96	0x3c39034f	0.011292293
97	0xbbc1c346	-0.005913171
98	0xbcb0b847	-0.021572245
99	0xbc00bbfb	-0.007857318
100	0xbbc6dfba	-0.0060691508
101	0xbbafafa6	-0.005361515
102	0x3bdb9c1a	0.0067019584
103	0xbc8a4d5e	-0.016882595
104	0x3ce529bc	0.027974002
105	0x3c809f9f	0.015701113
106	0x3c4c11bc	0.0124554
107	0x3c76ea8f	0.015070572
108	0x3b4872e2	0.0030586054
109	0x3c323520	0.010876924
110	0x3c239baa	0.009985844
111	0x3b335f0d	0.0027369887
112	0xbc86443f	-0.016389964
113	0xb968a0ea	-0.0002218519
114	0x39effb80	0.00045773014
115	0x3c9aa8c1	0.018879296
116	0xbab340b8	-0.0013675904
117	0x3c851437	0.01624499
118	0x3c8bbfb9	0.017059194
119	0xbba06f59	-0.004896086
120	0x3c71e27d	0.014763472
121	0x3b9145dc	0.0044333767
122	0xbc0767c0	-0.008264482
123	0xbc621015	-0.01379778
124	0x3c6c4cc4	0.014422599
125	0x3cdff774	0.027339675
126	0x3c9fde3c	0.01951515
127	0xbb849616	-0.004046212

2._model.0.weight f4 [51, 128]
0	0x3cf73af2	0.030179475
1	0x3c872491	0.016496928
2	0xbb7c8243	-0.003852979
3	0x3c5db35b	0.013531531
4	0xbcb17d4e	-0.021666195
5	0x3bfa3bcc	0.007636523
6	0xbc4b8b3c	-0.012423333
7	0xbd2b7371	-0.04185814
8	0x3c1fa9b6	0.009745052
9	0xbc0d719b	-0.008633043
10	0x3b1bdcf6	0.0023782826
11	0xbcd7a268	-0.026322559
12	0xbc8c232f	-0.01710662
13	0x3c80e80c	0.015735649
14	0xbd024961	-0.03180826
15	0x3cafb430	0.021448225
16	0x3cba2e2c	0.022727095
17	0x3ca153c5	0.019693265
18	0x3b834eb8	0.0040071867
19	0x3c7b97f6	0.0153560545
20	0xbc85aa8a	-0.01631667
21	0x3bedeb9f	0.0072607542
22	0xbd052b75	-0.032512147
23	0xbc8aad3f	-0.016928313
24	0xbae6f4ce	-0.0017620565
25	0xbb7d15fb	-0.0038617838
26	0xbd0c1b17	-0.034205522
27	0xbbd8204b	-0.0065956465
28	0x3c8e9d44	0.017408974
29	0x3c1dd852	0.009634094
30	0xbcb503d6	-0.022096556
31	0xbb2054d7	-0.002446463
32	0x3c86a571	0.01643631
33	0xbc56bfa1	-0.013107211
34	0xbbd7a3d1	-0.0065808077
35	0x3bbb3284	0.005712809
36	0xbceff5a7	-0.02929194
37	0x3cc43649	0.023951666
38	0x3ca5bb03	0.020230776
39	0x3c9ec1b0	0.019379467
40	0x3cf55e5a	0.029952217
41	0xbc953ad5	-0.01821653
42	0x3cc4af69	0.024009423
43	0x3ca7235a	0.0204026
44	0x3c21bc6e	0.009871585
45	0xbbdb1f2a	-0.0066870647
46	0x3bdd1f68	0.0067481287
47	0xbcafed89	-0.02147557
48	0x3b45c151	0.003017504
49	0xba341348	-0.0006869328
50	0xbc9de372	-0.019273493
51	0xbcdff69d	-0.027339274
52	0xbb408a6e	-0.0029379386
53	0x3c63ffd5	0.013915976
54	0xbd89f322	-0.06735827
55	0x3c6fd3ed	0.014637929
56	0xbcf2fc53	-0.029661333
57	0xbc400731	-0.011720465
58	0x3cc9daeb	0.024640521
59	0x3c8439b0	0.016140789
60	0xbbd24986	-0.006417456
61	0x3bd1134b	0.0063804737
62	0x3ab018c3	0.0013435114
63	0xbc0e02a5	-0.008667623
64	0xbcc243ec	-0.023714028
65	0xbbf968f0	-0.0076113865
66	0x3c7beed5	0.015376766
67	0x3c9ae41b	0.018907597
68	0xbc54612a	-0.012962619
69	0x3c4fccd9	0.012683117
70	0x3c221bcf	0.009894325
71	0x3c780340	0.015137494
72	0xbcc743e1	-0.02432436
73	0x3c081e50	0.008308008
74	0x3c236187	0.009971983
75	0xbc6cc997	-0.01445236
76	0x3bb95d0c	0.005656844
77	0xbc4e2ab6	-0.012583425
78	0xbbc8d725	-0.006129163
79	0x3c4a923c	0.012363967
80	0x3bd29202	0.006426097
81	0x3bb6a070	0.005573325
82	0x3c0d9934	0.0086424835
83	0xbbdcace3	-0.006734477
84	0x3d0c68c5	0.034279604
85	0xbc756d59	-0.014979684
86	0x3bd463a9	0.006481607
87	0x3c5509b0	0.013002798
88	0x3ca0e181	0.019638779
89	0xbc2dd00c	-0.010608684
90	0xbc8de090	-0.017318994
91	0xb9a7fba5	-0.00032040212
92	0xbc683a22	-0.014174016
93	0x3d088989	0.03333429
94	0x3bb23078	0.005437907
95	0x3d2adef2	0.041716523
96	0x3b91685a	0.0044374885
97	0xbc9ad609	-0.018900888
98	0x3c768aa4	0.015047703
99	0x3c3357c0	0.010946214
100	0xbbf79049	-0.007555042
101	0xbb366bc2	-0.0027835225
102	0xbc9384a9	-0.018007593
103	0x3d08bd38	0.033383578
104	0x3b86712c	0.0041028466
105	0x3cf6875a	0.030093838
106	0xbbe74b3b	-0.0070585287
107	0xbd2d549c	-0.042317018
108	0xbb566035	-0.0032711152
109	0x3b3630be	0.0027800049
110	0x3c9e7b3a	0.019345868
111	0x3bc7f94d	0.006102717
112	0xbc58d19e	-0.01323357
113	0x3c9283d5	0.017885128
114	0xbbf35408	-0.007425789
115	0x3bbbabcc	0.005727267
116	0xbbeb3287	-0.007177654
117	0xbc44b5c2	-0.012006225
118	0xbbc6e89e	-0.0060702106
119	0x3d0162e6	0.031588458
120	0xbcd9ad56	-0.02657191
121	0x3ca25f0f	0.019820718
122	0xbc82c537	-0.01596318
123	0x3b673e6e	0.0035285014
124	0x3c85067d	0.016238445
125	0x3a851f4a	0.001015642
126	0x3d398c71	0.04529995
127	0xbc07a867	-0.008279896
128	0x3c339d05	0.010962729
129	0xbbe3d884	-0.006953301
130	0x3c6a8aad	0.014315289
131	0xb9c0c35d	-0.0003676665
132	0xbc18fd36	-0.009337714
133	0x3ca24a45	0.019810805
134	0x3c9ac2a1	0.018891634
135	0x3c901a1e	0.017590579
136	0xbbf52f87	-0.0074824723
137	0x3a9a51e5	0.0011773674
138	0x3c91b8d9	0.017788338
139	0x3b31829a	0.0027085901
140	0x39895406	0.0002619328
141	0xbc081bc6	-0.008307403
142	0xbc6a52f8	-0.014302008
143	0xbc71e9b3	-0.014765191
144	0xbc97f313	-0.018548524
145	0x3bd990ba	0.006639567
146	0x3c53f0f6	0.0129358675
147	0x3cc99f4f	0.024612097
148	0x3c0c43b5	0.0085610645
149	0x3b55ddb8	0.0032633375
150	0x3c0849a6	0.00831834
151	0x3c9cd864	0.019146152
152	0xb9b9ebff	-0.0003546178
153	0xbb67eb5d	-0.003538809
154	0x3c887766	0.016658496
155	0xbcc2e990	-0.023793012
156	0x3c81fd7d	0.015867943
157	0x3cf58f8f	0.02997568
158	0x3c728552	0.014802294
159	0xba811b6d	-0.0009850092
160	0xbbe83806	-0.0070867566
161	0xbc3b8919	-0.011446261
162	0xbc8764e6	-0.016527604
163	0x3bb64e40	0.0055635273
164	0xbc038053	-0.0080262
165	0xbba22dfa	-0.0049493285
166	0xbca83466	-0.020532798
167	0xbc626d68	-0.01382003
168	0x3ab67e18	0.0013923077
169	0x3ad3093c	0.0016100775
170	0x3cfb4a57	0.030675096
171	0x3c198ca6	0.009371912
172	0xbc805886	-0.015667211
173	0x3d0aa66b	0.033850115
174	0x3ca0313a	0.019554723
175	0xba2c939a	-0.00065832736
176	0xbbd31c57	-0.0064425874
177	0x3bd00e48	0.0063493587
178	0xbc28df11	-0.010307089
179	0x3c752b4b	0.014963935
180	0xba00868b	-0.0004902861
181	0xbb90f121	-0.004423276
182	0xbbb16e80	-0.005414784
183	0xbcd51ada	-0.02601378
184	0x3c7f40c0	0.015579402
185	0x3bb791a7	0.00560208
186	0x3bb9a867	0.005665827
187	0x3ab19989	0.0013549785
188	0xbbd0632b	-0.006359478
189	0xbc2731cf	-0.010204746
190	0xbbff41df	-0.007789835
191	0x3ceb648f	0.028734474
192	0xbc84c0a1	-0.016205134
193	0x3ca8e5c6	0.020617377
194	0x3c2a8eb8	0.010410003
195	0x3ca88cd7	0.02057497
196	0xbc0d666d	-0.008630377
197	0x3c497694	0.012296338
198	0x3bc6461d	0.0060508386
199	0x3c335bc6	0.010947173
200	0xbc9a6a11	-0.018849405
201	0x3be9d8bc	0.0071364325
202	0xbd06614b	-0.03280763
203	0x3b54bd9c	0.0032461649
204	0x3cd0039e	0.02539235
205	0x3c8e1dd6	0.017348211
206	0xbc1202cc	-0.0089118
207	0x3d00ea0b	0.0314732
208	0xbbb577a7	-0.0055379453
209	0x3b3730dd	0.0027952709
210	0xbc523f95	-0.012832542
211	0xbb7711a6	-0.0037699728
212	0xbd0459d2	-0.03231222
213	0x3c01dec3	0.007926646
214	0xbc2c4a54	-0.010515768
215	0x3c69e58d	0.014275921
216	0xbc90aa3f	-0.017659305
217	0x3c830836	0.015995126
218	0x3bf19dec	0.007373562
219	0x3bfb5c65	0.0076709264
220	0x3b9bb2c6	0.004751536
221	0xbc7f9d4e	-0.015601469
222	0xbcb12ae4	-0.021626897
223	0xbb0c0cb3	-0.0021369874
224	0x3c86a874	0.016437747
225	0xbacf02e5	-0.0015793709
226	0xbc7afea0	-0.015319496
227	0x3b80c27d	0.003929435
228	0x3c92aaf1	0.017903777
229	0x3c43100f	0.011905684
230	0xbb293cd6	-0.0025823615
231	0xbbdfbb1f	-0.0068277265
232	0xbcf53ab1	-0.029935213
233	0x3d2adbc4	0.04171349
234	0xbb60f59d	-0.0034326084
235	0x3c18d984	0.0093292035
236	0xbc93bb94	-0.01803378
237	0x3bfa3c18	0.0076365583
238	0x3bcb58d9	0.00620566
239	0x3b60956f	0.0034268757
240	0xbbde8476	-0.006790693
241	0xbc28fd28	-0.010314263
242	0x3c21c5dc	0.0098738335
243	0xbc9afd04	-0.018919475
244	0x3b7d3d7e	0.0038641389
245	0x3b617029	0.0034399128
246	0xbb8848e5	-0.0041590803
247	0xbc898ca6	-0.0167907
248	0x3be5b652	0.0070102597
249	0xbcb2778d	-0.021785522
250	0xbbdab43d	-0.006674318
251	0xbb2b8974	-0.0026174458
252	0x3cdab3ca	0.026697058
253	0xbbd90865	-0.006623315
254	0xbc40bc34	-0.011763621
255	0xbc779c6e	-0.015112979

2._model.0.bias f4 [51]
0	0xbb61b570	-0.003444042
1	0x3a250e24	0.00062963576
2	0x3baf3e2b	0.005347987
3	0xbbccf421	-0.0062546884
4	0xbb04d931	-0.0020271058
5	0x3c0920a9	0.008369603
6	0x3b6ac87b	0.0035825062
7	0x3b147d93	0.0022657856
8	0x3b6e7813	0.0036387488
9	0x3ae60929	0.0017550337
10	0xbba1071d	-0.004914178
11	0xbb906275	-0.0044062682
12	0xbaed7b15	-0.0018118346
13	0x3a4aec2e	0.0007740882
14	0x3af6ddbf	0.0018834396
15	0x3aa5464f	0.0012609455
16	0xbc163e5e	-0.009170143
17	0xba90a780	-0.0011036247
18	0xbb2527af	-0.0025200655
19	0x3bf6474e	0.0075158244
20	0xbb886212	-0.0041620815
21	0xba716fbb	-0.00092100695
22	0x3a5a19f7	0.0008319909
23	0x391282b1	0.00013972331
24	0xbc008a24	-0.007845435
25	0x3b50c3b2	0.0031854925
26	0xba90c539	-0.0011045105
27	0xbbb1a3c6	-0.0054211346
28	0x3beff0c7	0.007322404
29	0x3ab0767b	0.0013463044
30	0x3b482717	0.0030540877
31	0x39149055	0.00014168148
32	0x3a3f6a79	0.00073019374
33	0xba205fd1	-0.00061177934
34	0xba53edc6	-0.0008084442
35	0xbd0a647c	-0.033787236
36	0x3b469058	0.0030298438
37	0xbc83cfa7	-0.016090227
38	0xbd62f58a	-0.055409946
39	0x3bccbd33	0.0062481402
40	0xbcafceac	-0.021460854
41	0xbb9f080a	-0.0048532533
42	0xbac08280	-0.001468733
43	0x3ca349ef	0.019932715
44	0x3cfef927	0.031124664
45	0x3c330330	0.010926053
46	0x3cb4056f	0.021975247
47	0x3d6e8d3c	0.05824016
48	0x3bbf1800	0.0058317184
49	0x3cd1ac26	0.025594782
50	0x3b6d8ed5	0.0036248465

3.log_std f4 [51]
0	0xc04b000a	-3.1718774
1	0xc03d5f49	-2.9589407
2	0xc04b8d40	-3.1804962
3	0xc045af29	-3.088816
4	0xc02f938a	-2.74338
5	0xc0489b24	-3.134469
6	0xc014eec1	-2.3270724
7	0xc0115401	-2.2707522
8	0xc00e237f	-2.2209165
9	0xc048b5b6	-3.1360908
10	0xc03c3bd7	-2.9411523
11	0xc04aecca	-3.1707025
12	0xc04202e5	-3.0314267
13	0xc0308529	-2.7581275
14	0xc0486660	-3.1312485
15	0xc0160257	-2.3438928
16	0xc010a705	-2.260194
17	0xc00c726f	-2.1944845
18	0xc03a0330	-2.9064445
19	0xc03f29b9	-2.9869215
20	0xc03cfb78	-2.9528484
21	0xc03260e4	-2.7871637
22	0xc03f62a3	-2.9903953
23	0xc03325b9	-2.7991774
24	0xc02f6b1f	-2.7409132
25	0xc039a58f	-2.90073
26	0xc02d556b	-2.7083385
27	0xc02613f7	-2.5949686
28	0xc028fd3c	-2.6404562
29	0xc02784bc	-2.6174765
30	0xc0258524	-2.5862513
31	0xc026eb12	-2.6080976
32	0xc02217ac	-2.5326948
33	0xc02a4601	-2.6605227
34	0xc02de202	-2.7169194
35	0xc02e38cf	-2.7222173
36	0xc02ab79e	-2.667457
37	0xc029fc37	-2.656019
38	0xc02f5234	-2.7393923
39	0xc01b9484	-2.4309397
40	0xc01fabce	-2.4948611
41	0xc01c3eae	-2.4413257
42	0xc0293206	-2.6436782
43	0xc0304ed2	-2.7548108
44	0xc02e4129	-2.722727
45	0xc02b1810	-2.6733437
46	0xc02a7961	-2.6636584
47	0xc02dcb05	-2.7155163
48	0xc01bbdd0	-2.4334602
49	0xc01f914a	-2.4932427
50	0xc01c4218	-2.441534
